models/2024-05-10_12-30-34_Model.onnx (onnx, 614400 bytes, 10 tensors)

conv1.weight f4 [8, 1, 2, 2, 2]
0.051008284 0.22917995 -0.1612254 0.0064827204 0.0391033 0.20126586 -0.32859865 0.12018501
-0.31639123 0.22772813 0.06622098 -0.22678497 -0.22733927 0.13802306 0.22301537 -0.0494489
0.053321663 -0.20319174 -0.2566347 -0.23385026 0.015576125 0.13348168 0.36973965 -0.0064035486
-0.11534792 -0.15210786 -0.044390447 -0.2239233 0.032703612 0.23050554 0.09815361 -0.085643895
-0.08078681 -0.06571366 0.20773163 0.080674455 -0.11838633 -0.058629494 0.36098367 -0.07728482
-0.26485497 -0.25087532 -0.023805594 -0.19535019 -0.082332164 0.2674079 -0.09941219 -0.23552202
-0.046913687 -0.25887418 0.32266444 0.29080275 0.049175084 -0.039773528 0.21863712 0.07920601
-0.038545202 0.3127135 -0.001092733 -0.3307956 0.33556184 0.07118718 -0.33394545 -0.06760408
00000000: 10ee 503d 26ae 6a3e 4518 25be 006d d43b
00000010: c82a 203d a318 4e3e 153e a8be 8f23 f63d
00000020: 08fe a1be 9031 693e dd9e 873d 523a 68be
00000030: a0cb 68be eb55 0d3e 245e 643e ee8a 4abd
00000040: d167 5a3d 7f11 50be a065 83be 7176 6fbe
00000050: 0133 7f3c 6caf 083e 844e bd3e dcd4 d1bb
00000060: 883b ecbd 2ac2 1bbe c2d2 35bd 264c 65be
00000070: 39f4 053d a509 6c3e c304 c93d 1166 afbd
00000080: 8e73 a5bd e294 86bd 9ab7 543e a638 a53d
00000090: 8874 f2bd 7b25 70bd dad2 b83e 8147 9ebd
000000a0: 129b 87be bb72 80be f303 c3bc e109 48be
000000b0: c49d a8bd b0e9 883e 9e98 cbbd af2c 71be
000000c0: 9128 40bd 288b 84be 4634 a53e 19e4 943e
000000d0: d06b 493d 91e9 22bd 69e2 5f3e c336 a23d
000000e0: 93e1 1dbd fc1b a03e 093a 8fba 0a5e a9be
000000f0: c3ce ab3e 96ca 913d e6fa aabe 0274 8abd

conv1.bias f4 [8]
-0.30065954 0.08464987 -0.15410602 0.27258298 0.20127143 -0.015223696 0.06905762 -0.108539455
00000000: 0cf0 99be e95c ad3d f8cd 1dbe ff8f 8b3e
00000010: 191a 4e3e cf6c 79bc 156e 8d3d ef49 debd

conv2.weight f4 [16, 8, 2, 2, 2]
-0.018584603 0.07694536 -0.100197844 -0.082532875 0.040206436 0.044794504 -0.04858655 -0.064775355
-0.016830534 0.0075280555 0.13472436 -0.047094684 0.0699024 -0.033112153 0.097085625 -0.07772483
-0.02433682 -0.0033529976 0.077317 -0.053078502 0.028944584 -0.0004303348 -0.04009196 -0.07139146
0.076184265 0.05313635 -0.09109266 0.021824673 0.052940197 -0.073498264 -0.094130516 0.026813587
-0.005005809 -0.034494705 0.072952785 -0.12462919 -0.10175625 0.109098464 -0.06894065 0.043670043
0.08443311 -0.07511669 -0.11324774 -0.0023011933 0.036807824 -0.023155581 0.004540431 -0.12950237
-0.10302719 0.013246402 -0.0033580065 -0.00332351 0.06604447 0.09736957 -0.010939488 0.06323797
-0.1207272 -0.007451239 0.09924805 -0.020290893 -0.01983898 0.0060254578 -0.15583634 -0.05607897
0.118092254 -0.04994702 -0.07581554 0.113008946 0.06285213 0.03767432 -0.01951534 0.08976729
-0.12564312 0.0572675 0.060044743 0.00638116 -0.07804788 -0.086226024 -0.08163899 -0.02024574
0.105405204 0.11856848 0.079752356 0.047799423 -0.06265011 0.15084136 0.15144257 -0.004232458
0.054805547 0.048725594 -0.0937328 0.11215474 0.061857637 -0.04745946 0.052074578 -0.08665591
0.06458255 0.011707421 -0.14290233 0.095125765 -0.09135805 -0.05968897 -0.026525944 -0.017017469
0.103287704 0.043982968 0.11931857 0.009722449 -0.06707112 -0.013425328 -0.109651424 0.067864284
-0.0019202891 0.11519475 -0.018850245 0.042993613 0.02146394 -0.037935607 0.02760672 -0.04294439
0.14440398 -0.011549684 -0.013940647 -0.06841826 0.16015805 -0.064518325 0.09385361 0.082441404
0.14300428 -0.036856003 -0.04040465 0.06533087 0.040269837 -0.0096457265 0.17375755 0.06504031
0.0074311006 -0.06402498 -0.0019863916 0.0359502 -0.108545005 0.09395435 -0.06838602 -0.10693953
0.15164004 -0.057717033 0.17829436 0.123974636 0.1385371 -0.040799905 0.011292891 0.0992122
0.02041174 0.035918035 0.10693716 0.11082959 0.101754576 -0.100438066 0.053489033 0.020310478
-0.010185893 0.04493471 -0.09303101 0.07225725 0.069988206 0.12207836 0.0109191965 0.072422355
-0.0131661715 -0.068652734 0.12632768 -0.11547443 -0.020600013 0.032882236 0.034924958 -0.006133234
-0.12727287 -0.07989967 0.053374976 -0.016162304 -0.12457515 0.09172897 0.10139747 -0.043353356
-0.085872345 0.11677522 0.044924874 0.14889525 0.12886864 0.05384715 0.11465533 -0.0065994235
0.07540012 0.067586504 0.14850041 -0.036391817 -0.049763896 0.044501744 0.005603663 0.09205853
0.0002815917 -0.0779689 -0.033810023 -0.006250061 0.10339873 -0.109195836 -0.070257865 0.14288135
0.13162313 0.12509724 -0.00899478 0.0055304905 0.05166669 -0.050968636 -0.13438603 0.06742026
-0.10423951 0.036881227 -0.087316155 -0.036873717 -0.009303987 0.10138491 -0.031836893 -0.11248534
0.12259061 0.1212505 -0.00037343623 0.05408755 -0.08983862 -0.026647445 -0.09820383 -0.099526495
-0.028750727 -0.08467248 0.009643087 -0.04862097 0.08854901 -0.048881978 0.00015581686 -0.085572615
0.060705222 0.0039768848 -0.02507981 0.100818515 -0.062631205 -0.045888714 -0.13631982 -0.11612955
-0.076331705 0.04600881 0.00038925072 0.12370391 -0.00079808774 -0.04274478 0.068213865 0.16212131
00000000: bd3e 98bc 8795 9d3d 8734 cdbd ff06 a9bd
00000010: 81af 243d 717a 373d b102 47bd f1a8 84bd
00000020: 30e0 89bc e8ad f63b 2ff5 093e 5be6 40bd
00000030: fd28 8f3d 9ca0 07bd d4d4 c63d 322e 9fbd
00000040: 035e c7bc f7bd 5bbb 6058 9e3d d868 59bd
00000050: 311d ed3c 8f9e e1b9 7837 24bd b035 92bd
00000060: 7f06 9c3d 80a5 593d ca8e babd a8c9 b23c
00000070: d2d7 583d 4286 96bd 80c7 c0bd 2ba8 db3c
00000080: c507 a4bb 524a 0dbd 4568 953d 973d ffbd
00000090: 9565 d0bd 046f df3d c130 8dbd 5cdf 323d
000000a0: 44eb ac3d c7d6 99bd 6eee e7bd 9ecf 16bb
000000b0: cdc3 163d c6b0 bdbc e5c7 943b 459c 04be
000000c0: ebff d2bd 7007 593c 0012 5cbb 3fcf 59bb
000000d0: 5342 873d b269 c73d 8a3b 33bc e982 813d
000000e0: d23f f7bd 8629 f4bb 9042 cb3d 1639 a6bc
000000f0: 5b85 a2bc 3471 c53b 9093 1fbe 10b3 65bd
00000100: 5ada f13d 3f95 4cbd 2e45 9bbd 3c71 e73d
00000110: 9eb8 803d 6350 1a3d a2de 9fbc ead7 b73d
00000120: 97a8 00be 5391 6a3d 7af1 753d 0d19 d13b
00000130: 91d7 9fbd 4597 b0bd 5832 a7bd 65da a5bc
00000140: afde d73d 08d4 f23d 3455 a33d 54c9 433d
00000150: b34e 80bd 2876 1a3e c313 1b3e 6eb0 8abb
00000160: c87b 603d 7d94 473d fbf6 bfbd 62b1 e53d
00000170: 6f5e 7d3d da64 42bd 274c 553d a778 b1bd
00000180: db43 843d 7cd0 3f3c fd54 12be 4cd1 c23d
00000190: ee19 bbbd 6c7c 74bd f04c d9bc 3868 8bbc
000001a0: 8188 d33d 7c27 343d 4b5d f43d e84a 1f3c
000001b0: 955c 89bd e8f5 5bbc ed90 e0bd 6efc 8a3d
000001c0: 36b2 fbba 3aeb eb3d d46b 9abc 121a 303d
000001d0: 25d5 af3c 5e62 1bbd 7d27 e23c 75e6 2fbd
000001e0: a3de 133e e33a 3dbc 5067 64bc df1e 8cbd
000001f0: 7900 243e 2f22 84bd 5236 c03d 0ad7 a83d
00000200: b76f 123e 52f6 16bd 597f 25bd 31cc 853d
00000210: fcf1 243d 1c09 1ebc 80ed 313e db33 853d
00000220: 9780 f33b 871f 83bd 1f2e 02bb 8440 133d
00000230: d84c debd 236b c03d f80d 8cbd 1d03 dbbd
00000240: 8747 1b3e b268 6cbd cc92 363e 6ae6 fd3d
00000250: abdc 0d3e cd1d 27bd d105 393c c42f cb3d
00000260: 8536 a73c ca1e 133d df01 db3d a0fa e23d
00000270: b464 d03d 79b2 cdbd 5117 5b3d 2962 a63c
00000280: bbe2 26bc 750d 383d 0b87 bebd 9cfb 933d
00000290: fa55 8f3d 3804 fa3d 6ee6 323c 2c52 943d
000002a0: edb6 57bc ce99 8cbd 0b5c 013e dc7d ecbd
000002b0: 5cc1 a8bc 86af 063d 790d 0f3d 4cf9 c8bb
000002c0: d253 02be 70a2 a3bd b89f 5a3d cf66 84bc
000002d0: 4221 ffbd 66dc bb3d 7aa9 cf3d 4a93 31bd
000002e0: d7dd afbd d927 ef3d 2503 383d ff77 183e
000002f0: 24f6 033e d48e 5c3d 6ad0 ea3d fa3f d8bb
00000300: 616b 9a3d cb6a 8a3d 7e10 183e 960f 15bd
00000310: 3ad5 4bbd 7647 363d ef9e b73b 2f89 bc3d
00000320: 99a2 9339 29ae 9fbd 617c 0abd 50cd ccbb
00000330: b7c2 d33d 11a2 dfbd 5be3 8fbd 7d4f 123e
00000340: 37c8 063e 7e19 003e d75e 13bc 1e39 b53b
00000350: 73a0 533d 7dc4 50bd 7e9c 09be a213 8a3d
00000360: 867b d5bd c510 173d d0d2 b2bd e508 17bd
00000370: c06f 18bc e4a2 cf3d 6767 02bd b75e e6bd
00000380: c910 fb3d 2f52 f83d c3c9 c3b9 e88a 5d3d
00000390: 4ffd b7bd be4b dabc 171f c9bd 8cd4 cbbd
000003a0: a586 ebbc c468 adbd 0afe 1d3c c826 47bd
000003b0: 2f59 b53d 7838 48bd c562 2339 b240 afbd
000003c0: 0aa6 783d 8750 823b 2c74 cdbc f079 ce3d
000003d0: ca44 80bd cef5 3bbd 6c97 0bbe 54d5 edbd
000003e0: cc53 9cbd bc73 3c3d 5914 cc39 7a58 fd3d
000003f0: c336 51ba 2715 2fbd b6b3 8b3d 2103 263e

conv2.bias f4 [16]
0.10009621 0.007010749 -0.08980042 0.05668856 -0.005940708 0.053329565 -0.0022391495 -0.10744057
-0.03807711 0.08134907 -0.052677173 0.035233315 -0.08367846 -0.076659225 0.036647867 0.10919114
00000000: 3eff cc3d 6dba e53b 48e9 b7bd 4332 683d
00000010: 45aa c2bb 1a70 5a3d b2be 12bb cd09 dcbd
00000020: bef6 1bbd 579a a63d 05c4 57bd cf50 103d
00000030: 9d5f abbd 83ff 9cbd 131c 163d 9b9f df3d

conv3.weight f4 [32, 16, 2, 2, 2]
0.05110075 -0.032452445 0.025049223 0.01252228 -0.04118576 -0.086565405 -0.0005397669 -0.043473016
0.005771211 -0.032318722 -0.07313935 -0.084712334 -0.07324764 -0.071521804 0.0063777254 -0.10195384
0.033068042 -0.06287774 0.057066612 -0.07186554 0.056200206 -0.08394629 0.029649958 -0.050409704
-0.06595673 0.10371915 0.005097211 0.0144611895 0.06734926 -0.05193078 0.016037125 -0.094523616
0.050318897 -0.043579206 -0.029588377 0.06624316 -0.051897213 -0.013828582 0.023625694 -0.011545278
-0.07356301 0.07111898 0.052670944 0.014993642 -0.036595587 0.084772676 0.07447736 -0.055396564
-0.007498034 0.06960634 -0.03235659 -0.055695646 -0.05926647 -0.052680563 0.08406242 0.0033421353
-0.11014136 0.07374072 -0.05534179 -0.022012847 0.04398081 0.05249607 -0.01739169 0.04799982
-0.0803658 0.01464613 0.055591132 -0.05125335 0.054635417 -0.09124772 0.070794106 0.006085977
0.036617436 -0.022464756 0.041920364 0.063395694 -0.029133582 0.053572897 0.028604042 0.052144088
0.029261943 0.037059836 -0.014593034 -0.06544535 -0.055155683 0.020153766 -0.10937824 0.0039595147
-0.048526745 -0.06725708 -0.007069944 0.048064366 -0.055447362 0.026387291 0.0041540326 -0.042404078
-0.011916253 0.004982927 -0.025295962 0.067747876 0.0003967808 0.0074876896 -0.0746755 -0.014382385
0.041693404 0.03697409 0.024472712 -0.044132132 0.00410348 0.03016553 -0.043964665 -0.03487749
0.037676804 0.09149991 -0.025642892 0.032781992 0.027246596 0.083277605 -0.045510564 0.02059437
-0.061908554 0.0491386 0.046482943 -0.09251507 -0.00867582 0.02097756 -0.06986194 0.06289539
-0.0787956 0.005969968 0.022808501 -0.015866632 0.032683343 0.05405093 -0.07254415 -0.096223846
0.024847988 0.057789285 0.065181926 -0.04152451 0.052081514 0.023074374 -0.05213689 -0.030792912
-0.06874203 0.108331665 0.08874955 -0.032029375 0.09618848 -0.002246582 -0.051809072 -0.027559547
0.09310951 0.062773556 -0.09632581 0.059088517 0.043582395 0.07355022 0.049870037 -0.0117093325
-0.010587505 -0.07590732 0.08975663 -0.008837032 -0.017561994 -0.07373613 0.120798655 0.06306463
-0.050337296 0.07485037 -0.039832816 -0.063518725 0.074608564 0.022453636 -0.035516903 0.082190216
-0.047824707 -0.020162927 0.07978096 0.09719038 -0.024550723 -0.111616015 0.09562172 -0.07101388
0.05558089 0.024494352 0.0032935287 -0.01965046 0.06742916 -0.04206316 0.060692035 -0.043618977
0.062649526 0.06271938 -0.08692422 -0.111869775 0.099038884 0.06910659 -0.02152986 0.005433774
0.014867746 -0.029764004 0.09401861 -0.1178321 0.038284022 0.03158928 -0.020148275 -0.000102092046
-0.06491434 0.0031017624 -0.021394428 -0.042084374 -0.05584111 0.10088152 0.0149845285 0.038139608
-0.017929953 0.030430602 0.08785556 -0.03438467 0.004410642 -0.06721937 0.024720533 -0.07088227
-0.042470783 0.07010938 0.08786792 -0.0033637944 0.066810176 -0.06127078 -0.0174694 0.058541834
-0.03384382 0.11069741 -0.021816675 -0.072864346 -0.05780723 0.0075611947 0.078423314 -0.020224376
-0.060403205 0.0030166598 -0.022864137 -0.05349606 0.065671824 0.019318866 0.054306168 0.06123547
-0.09335929 -0.0020235057 -0.07640809 0.07442079 0.022268614 -0.03616898 0.013051795 0.017643582
00000000: 054f 513d dbec 04bd 0734 cd3c 402a 4d3c
00000010: 66b2 28bd 3449 b1bd 257f 0dba c310 32bd
00000020: 6d1c bd3b a360 04bd 15ca 95bd a97d adbd
00000030: dc02 96bd 067a 92bd 3dfc d03b 2dcd d0bd
00000040: 5b72 073d 0bc6 80bd aebe 693d 3e2e 93bd
00000050: 3032 663d 08ec abbd 78e4 f23c 687a 4ebd
00000060: 5214 87bd b56a d43d 8106 a73b a0ee 6c3c
00000070: 69ee 893d 5fb5 54bd 4a60 833c 9995 c1bd
00000080: 301b 4e3d 1c80 32bd 5363 f2bc 7eaa 873d
00000090: 2c92 54bd 4791 62bc ac8a c13c 6828 3dbc
000000a0: 34a8 96bd d4a6 913d 7dbd 573d e5a7 753c
000000b0: 41e5 15bd 4c9d ad3d 9687 983d 82e7 62bd
000000c0: 11b2 f5bb c58d 8e3d 5888 04bd 1e21 64bd
000000d0: 66c1 72bd 93c7 57bd eb28 ac3d ba07 5b3b
000000e0: cb91 e1bd 6005 973d 13ae 62bd 4954 b4bc
000000f0: 3925 343d 1e06 573d 0479 8ebc 769b 443d
00000100: d396 a4bd 52f6 6f3c 87b3 633d 08ef 51bd
00000110: 63c9 5f3d 16e0 babd 80fc 903d e06c c73b
00000120: 2afc 153d 0208 b8bc b0b4 2b3d 9ad5 813d
00000130: 8da9 eebc 416f 5b3d 0653 ea3c 0a95 553d
00000140: beb6 ef3c 0ecc 173d 9f17 6fbc 3608 86bd
00000150: edea 61bd 8319 a53c b301 e0bd d1be 813b
00000160: fbc3 46bd 14be 89bd fdaa e7bb 24df 443d
00000170: c61c 63bd 292a d83c 8d1e 883b e6af 2dbd
00000180: 633c 43bc d247 a33b 7a39 cfbc 66bf 8a3d
00000190: 0407 d039 4b5b f53b 78ef 98bd 18a4 6bbc
000001a0: b4c6 2a3d 2572 173d ff7a c83c e5c3 34bd
000001b0: 7c76 863b b41d f73c 4b14 34bd b3db 0ebd
000001c0: fe52 1a3d 4e64 bb3d 0b11 d2bc 6946 063d
000001d0: 4134 df3c 738d aa3d 4969 3abd 86b5 a83c
000001e0: d393 7dbd 8e45 493d e664 3e3d 8b78 bdbd
000001f0: 0725 0ebc 22d9 ab3c c713 8fbd 4ccf 803d
00000200: 965f a1bd b99f c33b e5d8 ba3c bdfa 81bc
00000210: f8de 053d 8264 5d3d 0792 94bd 0211 c5bd
00000220: 028e cb3c 75b4 6c3d 1a7e 853d 9b15 2abd
00000230: 6d53 553d 7806 bd3c 7e8d 55bd 6b41 fcbc
00000240: 9fc8 8cbd fedc dd3d 53c2 b53d 3c31 03bd
00000250: 77fe c43d 643b 13bb c035 54bd 8fc4 e1bc
00000260: 33b0 be3d 6c8f 803d 7746 c5bd cd06 723d
00000270: 7483 323d 7fa1 963d 8644 4c3d 80d8 3fbc
00000280: 3777 2dbc 4c75 9bbd 53d2 b73d 33c9 10bc
00000290: 2cde 8fbc f802 97bd 4965 f73d 0728 813d
000002a0: 7b2e 4ebd 274b 993d bc27 23bd 1b16 82bd
000002b0: 60cc 983d b0f0 b73c 2c7a 11bd 5853 a83d
000002c0: d7e3 43bd b92c a5bc 3364 a33d c00b c73d
000002d0: 991e c9bc f096 e4bd 52d5 c33d ba6f 91bd
000002e0: caa8 633d 61a8 c83c 3ed8 573b 00fa a0bc
000002f0: 4d18 8a3d 6c4a 2cbd 3698 783d d0a9 32bd
00000300: 654e 803d 0573 803d 5305 b2bd fb1b e5bd
00000310: e6d4 ca3d c187 8d3d 645f b0bc cd0d b23b
00000320: d997 733c a4d3 f3bc d48c c03d f551 f1bd
00000330: b5cf 1c3d c363 013d ff0d a5bc 401a d6b8
00000340: cff1 84bd f046 4b3b 5e43 afbc aa60 2cbd
00000350: a6b9 64bd f89a ce3d ab81 753c 4738 1c3d
00000360: d6e1 92bc 9949 f93c 9eed b33d f1d6 0cbd
00000370: 2687 903b 4faa 89bd b782 ca3c b92a 91bd
00000380: d8f5 2dbd 8295 8f3d 19f4 b33d 1b73 5cbb
00000390: c6d3 883d 12f7 7abd fd1b 8fbc 90c9 6f3d
000003a0: d19f 0abd 53b5 e23d e2b8 b2bc e739 95bd
000003b0: 46c7 6cbd e6c3 f73b 679c a03d 97ad a5bc
000003c0: 5a69 77bd 27b3 453b 924d bbbc af1e 5bbd
000003d0: f37e 863d 9942 9e3c 2570 5e3d 0bd2 7a3d
000003e0: 2833 bfbd cb9c 04bb d87b 9cbd ed69 983d
000003f0: ab6c b63c ed25 14bd 32d7 553c 4689 903c

conv3.bias f4 [32]
0.027353466 -0.053364173 -0.007477117 -0.014953675 0.0149612855 -0.007014505 -0.00914745 0.026212974
-0.021812808 -0.06481318 -0.046845235 0.014587361 -0.042638607 -0.07318314 0.057513416 0.05393716
-0.072773114 0.012788734 -0.026171383 -0.07583003 0.05411484 0.0444115 0.033087283 -0.024287187
-0.04517476 -0.07981578 -0.09009019 0.018061107 -0.07076498 0.066329785 -0.034589846 -0.038474858
00000000: 6014 e03c 6494 5abd 9a02 f5bb 4200 75bc
00000010: 2e20 753c efd9 e5bb 30df 15bc 97bc d63c
00000020: c6b0 b2bc c6bc 84bd cae0 3fbd d4ff 6e3c
00000030: d2a5 2ebd 0be1 95bd 3093 6b3d 36ed 5c3d
00000040: 120a 95bd d787 513c 5e65 d6bc c64c 9bbd
00000050: 86a7 5d3d d5e8 353d 8886 073d ecf5 c6bc
00000060: 2b09 39bd 7576 a3bd 3581 b8bd e3f4 933c
00000070: 3bed 90bd e9d7 873d 15ae 0dbd d097 1dbd

fc1.weight f4 [128, 1152]
-6.552661e-05 0.0031422984 0.018415194 -0.014019749 0.022478908 -0.028757058 0.018921701 -0.0021978891
-0.025255559 -0.0012396754 -0.031760916 -0.007111437 0.0048769787 -0.01026122 -0.01958527 -0.02125703
0.015715832 -0.0067884345 -0.028135011 0.016229926 0.014827193 -0.022291806 -0.01633801 -0.02238287
0.0026434483 0.0064827194 -0.021950372 -0.02931643 0.020010512 -0.016137948 -0.017296815 -0.021025976
0.023699526 -0.009742959 0.023196984 -0.016289962 0.026211107 0.0014236718 -0.021471262 0.008024367
-0.01604179 0.0015604664 0.011040015 0.008326789 0.011700755 0.017573657 0.013357909 0.0116857495
-0.008665364 -0.023148304 -0.026054708 0.0012153853 0.0152439345 -0.013866826 0.01239357 0.023059392
-0.024451498 0.02419048 0.025758905 -0.029562492 0.009870881 0.012583414 -0.0028170142 -0.017194249
-0.012545034 -0.025174605 -0.017072627 0.010719156 0.028790968 -0.03464783 0.001651614 -0.031564817
0.018700691 -0.008623397 0.0057934094 0.004235572 -0.020059016 0.019616487 0.016169121 -0.007191183
-0.0270724 0.0037851043 0.0007234961 -0.028998427 0.012160992 -0.02447684 0.007021552 0.012616539
0.014268475 0.0005158037 0.026792767 -0.023879537 0.018155692 -0.0033306964 -0.0040041152 0.0067305993
-0.01193393 -0.026430616 0.00824956 0.013690198 0.019451888 0.018549277 0.026014434 0.009574788
0.027559055 -0.0224269 -0.0052945297 -0.023936745 -0.0038026269 0.022199402 -0.016497847 -0.00678228
-0.01720446 0.029030519 -0.034872193 0.027335277 -0.004052324 0.022097357 -0.027253814 0.012765916
-0.017366324 -0.021329867 0.024325846 -0.014684584 -0.004282303 0.005450977 0.009972492 0.008943206
-0.020512944 -0.0058729406 -0.0005445238 -0.02051708 0.015814062 -0.012895098 -0.0034291 -0.0027759806
-0.00085320696 0.0019213278 0.0053204726 -0.0016618497 -0.022280602 -0.022387255 0.021368662 -0.01752094
-0.01588522 0.020000314 -0.017427672 0.020632343 0.0095143 0.010160865 -0.018704165 -0.0061779525
-0.028693581 0.0037037614 0.014440814 -0.0027734549 -0.00275927 0.014727579 0.004701538 0.00063004345
0.019972762 -0.021332838 -0.0075235865 0.0005008336 -0.023588425 -0.03304541 -0.021416 0.011583164
0.0014451715 0.000150837 0.024751885 -0.025304768 0.008893339 -0.0066612605 0.014783496 -0.026110036
0.013688663 -0.03249372 -0.032848053 -0.034887634 -0.02773498 -0.0016336419 -0.015020292 -0.0008918233
-0.025101578 -0.019051349 -0.018674813 0.023217618 -0.029327933 -0.026284974 0.0127154235 -0.0057527963
0.023047308 -0.006258459 0.0026817124 0.021011928 -0.00412409 -0.011888118 0.007104384 0.01682361
0.01353894 -0.028045336 0.013646116 0.025209485 0.022799244 0.0054140394 -0.025155084 -0.009414043
-0.019431684 -0.0119539 0.017997462 0.016544292 -0.018864848 0.019666076 -0.00860082 -0.026196858
-0.029714623 -0.020160036 -0.020960929 -0.014255974 -0.03389884 -0.021798763 -0.022348437 -0.029467795
-0.020586133 -0.03021097 0.019518474 0.011608483 -0.003112073 0.0008874361 0.01971635 0.02204442
-0.022335723 0.002925202 0.0005976017 -0.018833317 -0.018773543 0.012909232 -0.025940968 -0.018924616
0.021697894 0.01466238 0.022884516 0.014202496 -0.018320711 0.021990245 0.0030794921 -0.015245962
-0.006772525 0.022754464 -0.033625353 -0.0134470565 -0.0341289 -0.0026950443 -0.0009453902 -0.019136913
00000000: 556b 89b8 05ef 4d3b 76db 963c 17b3 65bc
00000010: b025 b83c ec93 ebbc af01 9b3c 760a 10bb
00000020: bfe4 cebc 9b7c a2ba bc17 02bd 0f07 e9bb
00000030: 10cf 9f3b ad1e 28bc 4a71 a0bc 3923 aebc
00000040: 7dbe 803c 8471 debb 657b e6bc 9ff4 843c
00000050: c1ed 723c 4e9d b6bc 4ad7 85bc 485c b7bc
00000060: b43d 2d3b fe6c d43b 44d1 b3bc 0329 f0bc
00000070: 16ed a33c bb33 84bc 0db2 8dbc ab3e acbc
00000080: 8225 c23c efa0 1fbc 9a07 be3c 8772 85bc
00000090: adb8 d63c 809a ba3a 80e4 afbc a278 033c
000000a0: 126a 83bc 9088 cc3a 2ee1 343c 166d 083c
000000b0: 86b4 3f3c a1f6 8f3c 22db 5a3c 9675 3f3c
000000c0: 2cf9 0dbc 83a1 bdbc af70 d5bc 904d 9f3a
000000d0: b2c1 793c af31 63bc 660e 4b3c 0de7 bc3c
000000e0: 824e c8bc 1d2b c63c 5704 d33c 0a2d f2bc
000000f0: 7ab9 213c aa2a 4e3c a89d 38bb f4da 8cbc
00000100: b089 4dbc f93a cebc e5db 8bbc 669f 2f3c
00000110: 09db eb3c e2ea 0dbd f87a d83a 1c4a 01bd
00000120: 3132 993c 2649 0dbc a4d6 bd3b 8eca 8a3b
00000130: ce52 a4bc c1b2 a03c 1b75 843c 04a4 ebbb
00000140: f0c6 ddbc 830f 783b 00a9 3d3a 1c8e edbc
00000150: e63e 473c a783 c8bc 0c15 e63b 9ab5 4e3c
00000160: 52c6 693c 0037 073a 817c db3c 059f c3bc
00000170: 3fbb 943c d047 5abb f434 83bb 5c8c dc3b
00000180: 8886 43bc 0585 d8bc 2a29 073c da4c 603c
00000190: 9159 9f3c a7f4 973c 391c d53c 92df 1c3c
000001a0: 87c3 e13c 9eb8 b7bc bc7d adbb fe16 c4bc
000001b0: 7e35 79bb 85db b53c 7e26 87bc e33d debb
000001c0: 5ef0 8cbc 69d1 ed3c 25d6 0ebd 3bee df3c
000001d0: 5cc9 84bb 8405 b53c 6443 dfbc 2228 513c
000001e0: d243 8ebc f9bb aebc ff46 c73c 9c97 70bc
000001f0: 9052 8cbb 1c9e b23b aa63 233c 8686 123c
00000200: c30a a8bc cc71 c0bb 60be 0eba 6f13 a8bc
00000210: 7e8c 813c f645 53bc c0ba 60bb 3aed 35bb
00000220: c0a9 5fba 10d5 fb3a 5c57 ae3b 6cd2 d9ba
00000230: cf85 b6bc 7a65 b7bc 550d af3c 1388 8fbc
00000240: b921 82bc b3d7 a33c 7ac4 8ebc 2905 a93c
00000250: dee1 1b3c c279 263c 7a39 99bc 6c70 cabb
00000260: cd0e ebbc ceba 723b 2a99 6c3c dac2 35bb
00000270: ded4 34bb f24b 713c 5c0f 9a3b 8029 253a
00000280: eb9d a33c 34c2 aebc 6b88 f6bb 604a 033a
00000290: 833c c1bc a05a 07bd 9b70 afbc 50c7 3d3c
000002a0: e96b bd3a 002a 1e39 77c4 ca3c f24b cfbc
000002b0: 5eb5 113c b446 dabb 7a36 723c b7e4 d5bc
000002c0: 6a46 603c 2318 05bd ae8b 06bd 56e6 0ebd
000002d0: 7834 e3bc ed1f d6ba ac17 76bc 40c9 69ba
000002e0: d3a1 cdbc 9311 9cbc ecfb 98bc e032 be3c
000002f0: 2241 f0bc 9653 d7bc 5a54 503c f481 bcbb
00000300: b5cd bc3c c213 cdbb abbf 2f3b 3521 ac3c
00000310: 6023 87bb 62c6 42bc e4cb e83b abd1 893c
00000320: 6ed2 5d3c 55bf e5bc f593 5f3c 1f84 ce3c
00000330: 7bc5 ba3c 4168 b13b 0912 cebc 5c3d 1abc
00000340: 322f 9fbc 4ada 43bc 6a6f 933c e587 873c
00000350: 748a 9abc c01a a13c 74ea 0cbc cb9a d6bc
00000360: 156c f3bc a926 a5bc 41b6 abbc e491 69bc
00000370: 83d9 0abd 5293 b2bc 1214 b7bc 7266 f1bc
00000380: 40a4 a8bc ff7c f7bc 35e5 9f3c 8231 3e3c
00000390: ecf3 4bbb d4a2 683a 2f84 a13c 8096 b43c
000003a0: 68f9 b6bc bfb4 3f3b 5fa8 1c3a 5448 9abc
000003b0: f9ca 99bc 3e81 533c 2782 d4bc cc07 9bbc
000003c0: c8bf b13c 7b3a 703c 4f78 bb3c 96b1 683c
000003d0: 5115 96bc e324 b43c 4ed1 493b 33ca 79bc
000003e0: 0fec ddbb 9267 ba3c bdba 09bd 0b51 5cbc
000003f0: bfca 0bbd 579f 30bb 10d4 77ba 04c5 9cbc

fc1.bias f4 [128]
-0.015326872 -0.005221092 -0.024851607 -0.0053631584 -0.021483833 -0.032687146 0.02412215 0.009040476
-0.0019449757 -0.0040742448 -0.026075464 -0.01561114 -0.037066747 -0.024604997 0.011957552 0.006921156
-0.017405868 0.0066023855 -0.0148898745 -0.007815387 0.019547058 -0.0043340567 -0.012162609 -0.038497746
-0.013461522 -0.008085785 -0.0024999129 -0.034915205 -0.030996924 0.017724087 0.0055156676 -0.023828024
-0.017537681 -0.022386014 0.02037932 -0.010402121 0.013604269 -0.032876827 -0.029762797 0.020231
0.0076025375 0.029724047 0.021835102 -0.015134181 0.0016916441 -0.015930472 0.011700772 0.0021284097
0.021312334 0.014219303 -0.0037088427 0.014552785 0.012159341 0.0059197233 -0.029046966 -0.013629263
-0.024197413 0.017332517 0.041118555 -0.0033572395 -0.037547544 0.008410491 0.018021058 0.011850167
-0.02049663 0.024379969 0.0071861017 -0.01519531 9.3644136e-05 0.014030631 -0.030657027 0.017486
0.019509256 -0.033575974 0.020670153 0.014890502 0.001028612 -0.025177391 0.020641515 -0.0111120315
-0.0165408 -0.0022577462 0.014676574 0.0060640606 -0.018393928 -0.005446312 0.007996456 0.0049700234
0.010960398 -0.004644114 0.0042956015 -0.005758239 -0.012507639 -0.010064961 -0.028983448 0.021023272
-0.00035838902 -0.010300976 0.007909264 0.02103433 0.006207596 0.019952841 -0.00075282296 0.018525615
0.016908681 0.018698819 -0.033887163 -0.0128496755 -0.022974886 0.019536858 -0.005744201 -0.023242427
0.00519957 0.0065039336 0.01639504 -0.013631588 0.003388901 -0.018992987 0.0012900851 0.0038507169
-0.032727737 0.014271332 0.0132695865 -0.008974797 -0.008431227 -0.014599155 0.007050519 0.036015376
00000000: 8f1d 7bbc b215 abbb 9995 cbbc 6fbd afbb
00000010: ddfe afbc f5e2 05bd d19b c53c 811e 143c
00000020: 8eee feba 3e81 85bb 369c d5bc dec5 7fbc
00000030: 4dd3 17bd 6b90 c9bc 9ce9 433c ddca e23b
00000040: c096 8ebc d358 d83b a9f4 73bc 1c0c 00bc
00000050: 2721 a03c b404 8ebb ae45 47bc d0af 1dbd
00000060: b78d 5cbc 3e7a 04bc 94d5 23bb 3f03 0fbd
00000070: 43ed fdbc 1b32 913c c6bc b43b fd32 c3bc
00000080: 2fab 8fbc e062 b7bc 88f2 a63c a86d 2abc
00000090: 71e4 5e3c daa9 06bd 1cd1 f3bc 7bbb a53c
000000a0: b51e f93b d87f f33c 87df b23c 5bf5 77bc
000000b0: 28ba dd3a 9f80 82bc 98b4 3f3c ca7c 0b3b
000000c0: 3497 ae3c 14f8 683c 0e10 73bb ce6e 6e3c
000000d0: f937 473c 3dfa c13b e7f3 edbc 464d 5fbc
000000e0: a739 c6bc ecfc 8d3c ee6b 283d 2205 5cbb
000000f0: 74cb 19bd 28cc 093c e6a0 933c 3427 423c
00000100: 8ce8 a7bc 80b8 c73c 6479 eb3b c0f5 78bc
00000110: d062 c438 bbe0 653c 7224 fbbc cd3e 8f3c
00000120: e0d1 9f3c f686 09bd 7454 a93c 4bf7 733c
00000130: 7ed2 863a d140 cebc 6518 a93c 3d0f 36bc
00000140: 9280 87bc b2f6 13bb 0376 703c 07b5 c63b
00000150: ddae 96bc fa76 b2bb 9103 033c 94db a23b
00000160: 3e93 333c a72d 98bb 1ec2 8c3b 9caf bcbb
00000170: d7ec 4cbc 82e7 24bc b26e edbc ff38 ac3c
00000180: 29e6 bbb9 6dc5 28bc dc95 013c 3050 ac3c
00000190: 1769 cb3b 2474 a33c 1859 45ba 08c3 973c
000001a0: 1384 8a3c 442e 993c 44cd 0abd 7287 52bc
000001b0: d435 bcbc c30b a03c da39 bcbb e766 bebc
000001c0: 2861 aa3b f31e d53b e44e 863c 0657 5fbc
000001d0: 5318 5e3b 2e97 9bbc 1318 a93a 4f5c 7c3b
000001e0: 850d 06bd 4ed2 693c ae68 593c 070b 13bc
000001f0: 2123 0abc 4b31 6fbc 0a08 e73b dc84 133d

fc2.weight f4 [2, 128]
-0.049027365 -0.06830114 0.034311913 -0.062868014 0.019784626 0.0008724994 0.027196571 0.00797126
-0.019048333 0.055576894 0.06703092 -0.037483636 0.062320594 -0.07446266 0.0700211 0.018305687
0.0773185 0.08347669 0.036094513 -0.009279585 0.021491857 -0.076099426 -0.07579172 -0.026182566
0.059091594 -0.016394714 -0.039266665 0.045092676 -0.059695378 -0.003395207 0.0584595 0.071412005
-0.10506955 0.020224765 -0.04961501 -0.080734916 0.026863227 -0.07550174 0.016660951 -0.043396045
-0.044258762 -0.068957336 -0.076719955 -0.051770028 0.09503437 0.013579495 -0.071823746 -0.06735856
-0.018573081 -0.074918315 -0.02467496 -0.07803631 -0.034409408 0.0771445 -0.064737104 0.048854843
-0.0053335885 -0.023580415 -0.020154415 -0.0889428 -0.007826442 -0.05490678 0.0011915484 -0.042381935
0.05040073 0.08718152 0.033589408 0.07666426 -0.058008455 0.06297229 -0.0633063 -0.06555753
-0.071066126 0.05586517 -0.058198716 0.050081536 0.023094187 0.091770105 0.06016472 0.014311565
0.05307802 -0.019053686 0.015813176 0.04568986 0.052330706 0.06303007 0.099490434 -0.020319164
0.060015425 0.06909001 -0.05378034 -0.01254334 0.037738487 -0.0499389 -0.007401205 0.09602272
0.023574986 -0.0148800295 0.0061433082 0.058572955 0.0711596 -0.04186025 -0.06842542 0.09823526
-0.04569555 0.07435068 -0.038781647 0.04372462 -0.027563818 0.05518319 0.036730025 -0.01995192
0.094999395 0.04720807 0.04815287 -0.08992906 0.058515668 -0.07410948 0.025777953 -0.069992796
0.067949235 -0.034200527 0.009835423 0.011508741 -0.023594502 -0.05463481 -0.0609716 -0.0932606
0.020052753 0.030166185 -0.06635466 0.019060263 0.0754806 -0.03926836 -0.0034152556 -0.029323597
0.025727639 0.0538851 -0.06702278 0.038584195 -0.03186162 -0.058019742 0.012205514 0.017242126
0.012594951 -0.103036225 -0.025297431 -0.005726307 0.030239709 -0.045006994 -0.0372513 -0.025119273
-0.06290172 0.05542963 0.070554584 0.03527495 -0.035998125 -0.012785005 -0.065591045 0.072230704
0.11662907 -0.05046287 -0.05366664 0.02258469 0.024389407 -0.016377265 0.030134026 -0.017189164
0.07916194 0.02231227 0.072923735 0.07906797 0.02098838 -0.0040521817 -0.04464501 0.029404677
-0.10105212 0.033990934 -0.023104772 -0.014159751 -0.010497308 0.009691026 -0.0015762001 -0.0014802582
-0.009592893 -0.07140744 0.09496299 -0.009045858 0.0461966 -0.018543622 0.04714461 -0.051041413
0.069054164 0.001034554 0.035737865 -0.076209225 -0.06332453 0.060956217 -0.0579988 -0.01377468
0.006766229 -0.01708505 0.06305965 -0.0826388 0.027392477 -0.06654572 0.031070497 -0.012856042
-0.08078525 0.045465115 -0.04622472 0.033988725 -0.005836371 -0.05118175 -0.017774872 -0.03750116
-0.0017814498 0.06088828 0.06477476 0.02644452 -0.058548275 0.012022514 -0.060064677 -0.08840504
0.024802482 -0.07410204 0.024899326 0.058993302 -0.03646822 -0.042074647 0.039013393 -0.016143281
0.03772508 0.014116871 -0.048733324 -0.06778546 -0.0634909 0.09625414 0.0022793487 0.04403053
0.017183622 0.025858415 0.043973945 -0.03679061 -0.04024878 0.07347319 0.019611312 0.0017498626
0.069035396 0.012523489 -0.074859746 -0.023302725 -0.06893426 0.03144916 0.07461712 0.0033012098
00000000: ebd0 48bd 78e1 8bbd a68a 0c3d f2c0 80bd
00000010: 5e13 a23c 72b8 643a 58cb de3c e399 023c
00000020: 400b 9cbc 99a4 633d 8247 893d 7188 19bd
00000030: e143 7f3d e17f 98bd 3967 8f3d cff5 953c
00000040: 2959 9e3d d4f5 aa3d d7d7 133d 6709 18bc
00000050: b10f b03c 04da 9bbd b038 9bbd d27c d6bc
00000060: 070a 723d 354e 86bc 15d6 20bd 19b3 383d
00000070: 2483 74bd 1f82 5ebb 3b73 6f3d 7540 923d
00000080: b42e d7bd 68ae a53c 1c39 4bbd 5958 a5bd
00000090: 4510 dc3c a8a0 9abd 8c7c 883c 0dc0 31bd
000000a0: ad48 35bd 8139 8dbd 5a1f 9dbd cf0c 54bd
000000b0: 61a1 c23d 887c 5e3c 5418 93bd 49f3 89bd
000000c0: 9326 98bc c66e 99bd 2423 cabc 80d1 9fbd
000000d0: e1f0 0cbd f0fd 9d3d e394 84bd 041c 483d
000000e0: 62c5 aebb b72b c1bc df1a a5bc a527 b6bd
000000f0: 7a3a 00bc efe5 60bd bb2d 9c3a ae98 2dbd
00000100: ff70 4e3d 3a8c b23d 0c95 093d 2702 9d3d
00000110: 469a 6dbd 9ef7 803d bca6 81bd 0743 86bd
00000120: 1e8b 91bd e0d2 643d c761 6ebd 4c22 4d3d
00000130: 0530 bd3c f7f1 bb3d 486f 763d 0e7b 6a3c
00000140: 5768 593d 7a16 9cbc a28a 813c 4a25 3b3d
00000150: b958 563d e915 813d a4c1 cb3d 6074 a6bc
00000160: bcd2 753d 107f 8d3d c648 5cbd 9582 4dbc
00000170: ac93 1a3d bb8c 4cbd cf85 f2bb 8fa7 c43d
00000180: 5420 c13c 5ecb 73bc ce4d c93b 32ea 6f3d
00000190: 20bc 913d a775 2bbd a022 8cbd 912f c93d
000001a0: 422b 3bbd 2b45 983d 81d9 1ebd 9618 333d
000001b0: 84cd e1bc c507 623d 3972 163d 3572 a3bc
000001c0: 0b8f c23d 405d 413d f23b 453d ba2c b8bd
000001d0: 20ae 6f3d b6c6 97bd 492c d33c 6258 8fbd
000001e0: f828 8b3d da15 0cbd c124 213c 298f 3c3c
000001f0: 4249 c1bc c0c8 5fbd 5bbd 79bd 6aff bebd
00000200: ac45 a43c 131f f73c f4e4 87bd 4524 9c3c
00000210: 9395 9a3d dcd7 20bd 7bd2 5fbb 0a38 f0bc
00000220: c5c2 d23c 9fb6 5c3d 3d43 89bd 760a 1e3d
00000230: 5481 02bd 1ca6 6dbd a3f9 473c 5c3f 8d3c
00000240: 0e5b 4e3c a804 d3bd 8f3c cfbc bfa3 bbbb
00000250: 44b9 f73c 4159 38bd d294 18bd efc6 cdbc
00000260: 9ed2 80bd 2e0a 633d ec7e 903d 777c 103d
00000270: c572 13bd 3378 51bc 9954 86bd b1ed 933d
00000280: 39db ee3d 28b2 4ebd 8dd1 5bbd 8703 b93c
00000290: 4bcc c73c 9d29 86bc a2db f63c 4ad0 8cbc
000002a0: a81f a23d 39c8 b63c 0a59 953d 63ee a13d
000002b0: d3ef ab3c 2ac8 84bb b0dd 36bd 14e2 f03c
000002c0: 6af4 cebd 143a 0b3d 3846 bdbc 4dfe 67bc
000002d0: e7fc 2bbc 1cc7 1e3c 8098 ceba 3905 c2ba
000002e0: 822b 1dbc 103e 92bd f57b c23d 1435 14bc
000002f0: a538 3d3d cbe8 97bc b51a 413d cd10 51bd
00000300: 456c 8d3d df99 873a de61 123d 9513 9cbd
00000310: 4bb0 81bd 3aad 793d 2690 6dbd 32af 61bc
00000320: 3eb7 dd3b f2f5 8bbc 6b25 813d 883e a9bd
00000330: 3066 e03c 1f49 88bd 8e87 fe3c 26a2 52bc
00000340: bd72 a5bd a139 3a3d 2256 3dbd c337 0b3d
00000350: 073f bfbb f4a3 51bd 9c9c 91bc d19a 19bd
00000360: 897f e9ba fd65 793d a1a8 843d 2ea2 d83c
00000370: 51d0 6fbd 14fa 443c 6106 76bd b40d b5bd
00000380: 932e cb3c cfc2 97bd acf9 cb3c f6a2 713d
00000390: b35f 15bd 7756 2cbd 82cc 1f3d ea3e 84bc
000003a0: 9d85 1a3d 734a 673c 989c 47bd 1ad3 8abd
000003b0: 8407 82bd e420 c53d 2061 153b 5b59 343d
000003c0: abc4 8c3c 07d5 d33c 061e 343d c0b1 16bd
000003d0: e8db 24bd 1d79 963d e7a7 a03c a55b e53a
000003e0: 6e62 8d3d 522f 4d3c 1150 99bd 5be5 bebc
000003f0: 682d 8dbd d6d0 003d dcd0 983d 1c59 583b

fc2.bias f4 [2]
0.08030349 0.08537823
00000000: 2876 a43d c8da ae3d
