models/2024-05-10_12-35-32_Model.onnx (onnx, 614400 bytes, 10 tensors)

conv1.weight f4 [8, 1, 2, 2, 2]
000000 78 7c 96 3d 48 c8 df bc a8 85 a7 be 94 8d e7 3c
       0.07347959 -0.027317181 -0.3271916 0.028265752
000010 32 53 8e be c3 09 e3 bd d2 7c 5f be fb 05 83 3e
       -0.27797848 -0.11085846 -0.21824959 0.255905
000020 eb 63 58 be 5d cc 6e 3c d4 27 bc 3c 79 1e 9a bd
       -0.21131866 0.014575091 0.02296821 -0.075253434
000030 e8 91 90 3d 62 05 a7 be b8 c3 6f 3d 58 fd b0 3e
       0.070590794 -0.32621294 0.05853626 0.34568286
000040 77 96 4d be 60 c3 16 bd 56 53 84 bd a2 e3 74 3e
       -0.20076929 -0.036807418 -0.064612076 0.2391496
000050 8e 86 86 bd 0a ed 96 bd 97 07 1f 3e ad 16 8e bd
       -0.06568633 -0.0736943 0.15530239 -0.06937919
000060 cc 8f 9a 3e 60 40 ab 3e b7 8f 86 be d2 4d 71 3d
       0.30187833 0.33447552 -0.2628152 0.058912106
000070 e8 b6 94 3e ef 21 8f be 98 d9 06 3e 5f 52 9e be
       0.29045796 -0.27955577 0.13168943 -0.3092222
000080 02 fa 8c 3e 33 8e 49 3e 0b 18 0d 3e d4 51 af bd
       0.2753449 0.19683151 0.13778703 -0.08560529
000090 06 3e 8c be 75 e7 09 3e a0 9a 85 be 3b 3c a9 3e
       -0.2739107 0.134672 -0.26094532 0.33053765
0000a0 b5 d1 25 be da 82 9b be 84 32 ab be fb 74 87 3e
       -0.16193278 -0.3037327 -0.33436978 0.26456437
0000b0 8f 7c ba 3e 1c b8 36 be c5 29 d0 3d fd e0 38 3e
       0.36423156 -0.1784367 0.10164217 0.18054576
0000c0 77 5d 61 3d 03 2b 9c 3e 2d 04 d3 3d cd dc be bd
       0.055020776 0.30501565 0.10303531 -0.09319458
0000d0 73 65 9f be 5c f5 8c 3d a9 60 91 3e e3 e5 57 3d
       -0.31132087 0.06882736 0.28394058 0.05270947
0000e0 39 7d 1f 3b bb e7 9a be c9 c7 87 be 5f e8 9c 3e
       0.0024336113 -0.3025492 -0.2651961 0.30646035
0000f0 b7 e3 98 bd 41 aa 21 3d 91 a8 0b 3e 15 1c 6a be
       -0.07465308 0.039469007 0.13638522 -0.22862275

conv1.bias f4 [8]
000000 cf 64 97 3e 93 37 81 3e 4a a8 aa 3e 1d 9a 29 3e
       0.29569098 0.25237712 0.3333152 0.16562696
000010 d5 d3 e8 3d 37 ba 87 be 71 34 ee bd 51 a5 a3 3e
       0.11368529 -0.26509258 -0.11631096 0.31962064

conv2.weight f4 [16, 8, 2, 2, 2]
000000 be 6c 7b bc cf 8c c6 3d 2b 0f 97 3d ce 96 ea bd
       -0.01534575 0.09694826 0.0737594 -0.11454545
000010 65 7c f6 bc 20 d1 d7 3c 61 23 02 be da ca c0 3d
       -0.030088613 0.026344836 -0.12708808 0.09413691
000020 e5 e7 49 3d 82 5b 90 bc ac 57 02 be 22 b7 0a bd
       0.049293417 -0.01762176 -0.12728757 -0.033866055
000030 93 d5 b7 bd 73 0d d3 bd 99 31 d2 3d 5d 3e ac bd
       -0.08976283 -0.103052996 0.10263366 -0.08410332
000040 34 2e 22 bd d3 30 fa bd 62 16 18 3c b0 73 ff bd
       -0.039594844 -0.12216344 0.00928268 -0.124732375
000050 e7 32 7c 3d 84 05 ce 3d a2 57 6f bd f4 31 e9 3c
       0.06157198 0.10059646 -0.058433183 0.028466202
000060 33 e7 b1 bd 3e 62 ee 3d 33 54 73 3d b6 81 c4 bd
       -0.08686676 0.11639832 0.05940647 -0.09595053
000070 f5 86 fd 3d bb 40 8a 3d 9c c2 82 3c e7 06 58 3d
       0.12379257 0.067506276 0.015961938 0.052740958
000080 d0 c4 62 3a 9d 1a 46 bc f1 45 50 3d 2d 3e a0 bd
       0.0008650543 -0.012091306 0.05084795 -0.07824359
000090 de 7c 7f bd d0 53 e3 3d ae 58 ab 3c da 28 07 3d
       -0.062374942 0.1109997 0.02091631 0.032997943
0000a0 13 74 a2 3d 81 26 01 be c7 f6 88 bd 32 83 38 3c
       0.07932296 -0.12612344 -0.06687694 0.011261748
0000b0 fa 06 4a bd 57 cc e8 bd 15 5d 28 bd e1 08 08 be
       -0.04932306 -0.113671 -0.041104395 -0.13284637
0000c0 86 87 07 bd 27 e0 81 3c 56 24 cb 3d a9 87 19 bc
       -0.03308823 0.015853954 0.0991904 -0.009370723
0000d0 cb 97 ca 3d 3e 05 b8 3c 69 2b 6a 3c 74 7a b4 3d
       0.098922335 0.022463437 0.014292576 0.088124186
0000e0 39 48 a6 3d 8f 99 11 be 96 79 a3 3d 27 7e 4d 3d
       0.08119244 -0.14218734 0.07982175 0.050169136
0000f0 60 fd b3 bc 98 9e 90 bd a2 bb 71 3d eb d8 cb 3d
       -0.021971405 -0.07061499 0.05901683 0.09953483
000100 52 2d dc bd c7 1f e0 3c ac 7f 03 be 16 3a 90 3d
       -0.10750832 0.027358903 -0.12841672 0.07042329
000110 ef 1e 1d be 4f 99 c4 bd bf bf 04 be a6 64 48 bd
       -0.15343831 -0.09599554 -0.1296377 -0.04892411
000120 51 a2 75 3b 1e 0c 73 bd 7f e4 0f 3d 68 52 aa 39
       0.0037480781 -0.059337728 0.03513002 0.00032486324
000130 74 ef ce bc 9b 86 d2 3c 03 89 ae bd ce 87 98 bd
       -0.025260665 0.02569895 -0.08522227 -0.07447778
000140 7c 84 05 be 2b 53 e4 bc 4c 1a 89 bd b1 a8 d1 3c
       -0.1303882 -0.027871689 -0.06694469 0.025593134
000150 39 8e a4 3d 8a a6 81 bd 5b ac d1 bd 67 53 be bc
       0.08034939 -0.06330593 -0.10237952 -0.023233129
000160 ce f0 92 bd 8f 4a ed bc 78 ab d1 3d 16 84 ba bd
       -0.07174836 -0.028966216 0.10237783 -0.09107225
000170 42 23 61 3d 93 1f 98 3d 11 44 d3 bc 5f 68 58 3d
       0.054965265 0.07427897 -0.025789293 0.05283391
000180 9f bb f5 3d a5 f0 d0 3d 16 99 e5 bd df 56 48 3d
       0.119986765 0.10202149 -0.112108395 0.04891097
000190 c4 9f d7 bd 30 4c 49 3d 11 01 be 3d 8b fb 5d bd
       -0.1052852 0.049144924 0.09277547 -0.05419497
0001a0 11 c7 0a be 01 f7 d9 3d fe 09 10 bb 00 9a a5 bd
       -0.135525 0.106428154 -0.0021978612 -0.08086014
0001b0 77 07 16 3d 2d 84 84 3c c8 0a 2f bc 25 9c 20 3d
       0.036628213 0.016176308 -0.010683723 0.03921141
0001c0 4a 04 4a bc ec b8 00 3d 9f e5 60 bc 49 b1 0b 3d
       -0.012330124 0.031426355 -0.013726621 0.03410462
0001d0 80 62 e0 3d 86 e3 1f bc b5 a4 23 3d 89 5d 80 3d
       0.109562874 -0.009758836 0.039952 0.062678404
0001e0 6e 99 bd bd 95 b1 88 3b 71 24 ed 3c 5d 42 0e be
       -0.0925778 0.00417156 0.02894804 -0.13892503
0001f0 da 74 13 3c 04 bc e4 3d 53 ed 43 3d 9a f5 b6 bd
       0.009000028 0.11168674 0.047833752 -0.089335635
000200 2d 31 e3 bd e5 10 c1 bd 40 d9 79 bc 2d b7 ef 3c
       -0.11093364 -0.094270505 -0.01524955 0.02926215
000210 e0 02 51 bd 6e 0d 2f bd 1d ba 3d bd 6a cf 66 3d
       -0.051028132 -0.042737417 -0.04632007 0.05635015
000220 b3 84 7e bd 43 95 16 3d 7c bf 90 3d 64 04 8e bd
       -0.06213827 0.03676344 0.07067773 -0.06934431
000230 19 6d ad 3d 7e 93 d6 bd 17 16 98 bd 19 ba 92 3c
       0.08468074 -0.10477351 -0.07426088 0.017911004
000240 cd 9a 08 bd f3 37 bc bd 57 39 0c be 5e c1 c8 bb
       -0.033350755 -0.09190359 -0.13693748 -0.006126567
000250 21 3a de bd c6 cb 69 3d d0 28 7e 3c 4f 0a 76 3d
       -0.10850931 0.0570791 0.01551266 0.060068425
000260 f5 d1 d1 bd 02 b4 52 3d 69 55 d8 3c 16 27 de bc
       -0.10245124 0.0514412 0.026407914 -0.027118247
000270 22 e7 b5 bd 8f 1b bf 3d 3d 9c d0 3b 97 42 22 3d
       -0.08881976 0.09331428 0.0063662813 0.039614286
000280 36 ae 00 be 0e e8 81 bd 49 e6 aa bd 98 a8 09 be
       -0.12566456 -0.06343089 -0.08344705 -0.1344322
000290 93 53 ae 3b f6 67 fb bd 37 87 fc bd 93 ae 92 3d
       0.0053200214 -0.12275688 -0.12330478 0.07162204
0002a0 da c1 1f 3d 9c 94 a9 3b bb 78 9e bd ef 43 93 3d
       0.03900323 0.0051751863 -0.07737871 0.07190692
0002b0 9d 92 69 bd 6f 77 c6 3d a7 a5 da bd 6c 72 62 bd
       -0.057024587 0.09690749 -0.10676127 -0.055284902
0002c0 44 37 76 bd 4e 4b 95 3d 47 d5 63 bd 2a 80 81 3d
       -0.0601113 0.07289754 -0.05562332 0.063232735
0002d0 fa 30 b9 3b 44 1c b4 bd e0 d0 80 3d 1d d2 05 3d
       0.0056515904 -0.08794454 0.0628984 0.032671083
0002e0 65 39 d2 3d ba 54 8b 3d ce a3 52 3d ce ec 95 3d
       0.102648534 0.0680327 0.051425748 0.073205575
0002f0 c5 74 d9 3d 42 d7 0c 3d 4c 18 96 bd e5 bb 92 3d
       0.10617975 0.034384973 -0.07328853 0.07164744
000300 ec de 93 3d 29 58 eb 3d 09 e3 a2 3d f8 12 66 bd
       0.07220253 0.114914246 0.0795346 -0.056170434
000310 c7 07 f1 3b e4 46 38 bc 67 aa c4 bd 9a 0a 65 bd
       0.0073556635 -0.01124737 -0.09602814 -0.055918314
000320 7f dc f9 bd 74 03 9b bc af f7 c0 3d 61 1e 5f 3d
       -0.122002594 -0.018922545 0.09422242 0.05447233
000330 a3 12 de bd fa ce 3b 3d 4f f3 e6 bd 7e 79 5c bd
       -0.108433984 0.045851685 -0.11276876 -0.0538268
000340 ba 87 af bc a1 9d 65 3c 22 e0 f4 bd ad a8 3e 3d
       -0.021427024 0.014014632 -0.119568124 0.04654758
000350 7a d2 08 3c 30 dd f2 bd d8 6a 2e bd 42 3f 06 be
       0.008350963 -0.118585944 -0.042582363 -0.13110068
000360 f9 4d ef bd 3a 37 ac bd 73 62 af 3d 81 f0 87 3d
       -0.11684794 -0.08408971 0.085636996 0.06637669
000370 3d ca 5f 3d 36 23 40 3a ff 20 e3 3d 76 2c f1 3c
       0.05463623 0.00073294656 0.11090278 0.029440146
000380 1d 41 94 3d ed 34 78 bb f6 3e 9e 3b 67 60 77 bc
       0.07238982 -0.0037873343 0.004829283 -0.015098668
000390 43 52 42 bd 53 59 dd bd 2f 97 94 3c 29 4c 86 3d
       -0.047441732 -0.10808053 0.018138496 0.06557495
0003a0 26 03 4c bd ad 4c 91 3c 8d 8e 65 3d 06 c2 15 3d
       -0.04980769 0.017736757 0.05604415 0.03656199
0003b0 6f 56 24 3d 4c 81 e8 3d a4 cc 7b bd 35 11 c1 3c
       0.040121492 0.113527864 -0.061474457 0.023567775
0003c0 90 13 8e bd aa 79 07 3d 98 08 03 be 58 05 c9 bd
       -0.06937325 0.033075012 -0.12796247 -0.09815472
0003d0 8b 5f 8f 3d b1 92 56 bd e2 73 ae 3d 9f f8 35 bd
       0.07000645 -0.05238599 0.08518197 -0.044426557
0003e0 8e a8 4b bd c9 96 b6 bd 6b 91 aa 3d 8a 6c 47 bd
       -0.049721293 -0.08915479 0.083285175 -0.048687495
0003f0 59 14 25 3d b2 9b b4 3d 7b 74 5a 3d b8 f9 05 be
       0.04030261 0.08818759 0.05333374 -0.13083541

conv2.bias f4 [16]
000000 15 40 b5 bd 89 77 cb bc 50 a4 ce 3d 2c ef 31 bd
       -0.08850113 -0.024837272 0.10089934 -0.043440983
000010 6a 3a fb bc d7 33 e7 3d 6e 90 ed bd 32 02 8c 3d
       -0.030667502 0.112891845 -0.115998134 0.06836356
000020 4a b5 cd 3d 9f 7e 26 bd 03 c3 9b 3d ab c8 f6 3b
       0.10044344 -0.0406481 0.07605555 0.0075312457
000030 59 fd 0c bd c6 c0 69 3c 4a b4 fa bd a6 8f 01 be
       -0.0344213 0.014267152 -0.12241419 -0.12652454

conv3.weight f4 [32, 16, 2, 2, 2]
000000 74 fe 64 bd 76 b5 a1 3c 10 da 29 bd 2c 4e a2 bb
       -0.055906728 0.019739848 -0.041467726 -0.0049531665
000010 d6 e1 ba 3c 53 fa 8a 3d 47 ad 54 bd 3e 52 04 3c
       0.022812765 0.06786027 -0.051923063 0.008076249
000020 03 8c a8 bc 36 02 a7 3d 77 c1 85 bc 16 a3 20 3d
       -0.020574575 0.081547186 -0.016327603 0.03921803
000030 00 79 b9 3c ee a7 1f bd 35 eb a2 bd fa 8f 17 3d
       0.022640705 -0.03897851 -0.079550184 0.03700254
000040 0d 3e 16 bd e1 b0 dd 3c 2d bc e5 3c 75 50 73 3d
       -0.03668027 0.027061881 0.02804383 0.0594029
000050 c7 99 8e 3d e4 02 8e bd ae 01 c4 3c e3 b9 a6 bd
       0.069629245 -0.06934145 0.023926582 -0.08140924
000060 c8 68 b0 3d 94 88 f1 bc 1f f2 2c 3d f0 7e 12 bd
       0.086137354 -0.02948407 0.042223092 -0.03576559
000070 fd 2b 86 bc bc 01 a2 3d 5c ba 9f bb 65 0f 9c bc
       -0.016378397 0.07910487 -0.0048745107 -0.01905031
000080 4b 4f ea 3c 48 a6 af 3c ef d7 45 3d e2 50 97 bc
       0.028602263 0.021441594 0.048301633 -0.018471185
000090 9d b8 a2 3d 6e ca b8 3b 4e 08 81 bd 6e c8 50 3d
       0.079453684 0.005639366 -0.06300412 0.050972395
0000a0 9c e9 97 bd d7 54 8d bd bf cf 2c 3c 03 5a 62 bd
       -0.07417604 -0.069009475 0.010547577 -0.055261623
0000b0 68 6c 55 3d 21 77 8c 3d 9d 68 7f bd 86 4b 2e bd
       0.052105337 0.068586595 -0.062355626 -0.042552494
0000c0 1b e0 a8 bb a1 1d b6 3b f1 51 ab bd 0b dd 0e bd
       -0.0051536686 0.0055577313 -0.083652385 -0.03487877
0000d0 fc cb fd 39 24 67 3c 3d 30 41 c6 3a 02 9d a4 bd
       0.000484079 0.0459968 0.0015125629 -0.08037759
0000e0 5c 33 a4 3d 05 33 98 3d d4 27 b4 bd c3 9d af 3c
       0.080176085 0.07431606 -0.08796659 0.021437531
0000f0 63 22 68 bd a9 86 0e 3d da 2a a5 3c c5 b6 1a 3d
       -0.05667342 0.03479639 0.020162035 0.03777196
000100 ba db a7 bd 04 6d 75 3d 54 32 36 bc 86 00 6f bc
       -0.081962064 0.05991842 -0.011120398 -0.014587527
000110 22 2c c1 3d b9 4a bf bc 33 c8 99 3d 99 ff 33 bd
       0.09432246 -0.02335106 0.07508888 -0.04394493
000120 6b 09 db bd 46 71 5a bd ea de fa bc 49 e1 5a 3c
       -0.10695156 -0.053330682 -0.030623872 0.013359376
000130 4d 47 90 3d e8 4b d4 bc bc 80 9c bd 58 cf d2 3c
       0.070448495 -0.025915101 -0.07641742 0.025733635
000140 b7 89 5d bc 0b 97 87 bd 7e eb 8a bc 2e 11 ad bc
       -0.013521603 -0.06620606 -0.016957995 -0.021126356
000150 c4 f3 c3 3c cd 07 93 bd 50 4b 71 bd 8e 90 be bd
       0.023919947 -0.07179222 -0.058909714 -0.09304915
000160 04 9a 0b 3d 45 bf 0d 3d 2a 69 59 bd 27 50 7f 3d
       0.034082428 0.034606237 -0.053078808 0.0623323
000170 1c 29 ff bc 57 89 8d 3b 12 64 6a 3d 1f 0d b4 bd
       -0.031147532 0.0043193507 0.05722434 -0.08791565
000180 22 0a de 3b 3f 5e 98 3d 84 5c f9 ba 9d 5c 1c 3b
       0.0067761103 0.07439851 -0.0019024764 0.0023858913
000190 56 e1 ca bc 7b bb 3c 3d b2 c4 36 ba 77 3e 79 3d
       -0.024765652 0.046077233 -0.0006972059 0.060850587
0001a0 9b ed 43 ba c3 94 c3 3b 7f c4 d0 bd c4 b3 84 3d
       -0.00074740656 0.0059686615 -0.10193729 0.064796
0001b0 2e 54 de bc a3 ed c8 bd 3f 0f b2 bd 76 04 fb bc
       -0.02713975 -0.098109506 -0.08694314 -0.030641776
0001c0 2a 6a 3d 3c d4 e7 3b bd a8 30 27 bc 95 23 03 bd
       0.011560956 -0.045875385 -0.010204472 -0.032016356
0001d0 c5 88 97 3d 97 80 a1 3d 36 63 d2 bc 6a 6c a2 bd
       0.073991336 0.07885855 -0.025682073 -0.079308346
0001e0 22 3b d1 bc e0 ff a4 3d b9 61 ca bd 19 fe 59 3d
       -0.025540892 0.08056617 -0.0988192 0.053220842
0001f0 41 a7 f5 ba 95 38 b8 bd d9 62 0e bc 45 4b 95 bd
       -0.0018741862 -0.08995167 -0.008690559 -0.07289747
000200 14 26 83 3d a2 f6 35 bc d4 21 f0 bc 7d f4 bf bd
       0.06403747 -0.011106165 -0.029313006 -0.09372804
000210 89 8b 25 3d 7f a4 8d bb 41 27 d0 3c 49 8e 8f bd
       0.040416274 -0.004322588 0.025409343 -0.070095606
000220 7a 0f 46 3d bc 78 93 bc 6b 8d 5a 3c 70 6e bf bd
       0.048354603 -0.018001907 0.013339381 -0.09347236
000230 4a 47 4f 3d 08 0e 63 bd c1 43 93 bc 14 02 83 3d
       0.050605096 -0.055433303 -0.017976644 0.06396881
000240 01 f4 26 bc a6 e8 37 bc 45 07 74 3d 59 b5 a2 bb
       -0.010190011 -0.011224901 0.059577245 -0.004965466
000250 92 8c 8c bd 20 29 20 bc 4c e1 17 3d bf 3a b5 bc
       -0.06862749 -0.00977543 0.037080094 -0.022122739
000260 1f 56 f8 3a 36 24 9f 3d 90 8c fc bb 57 3f d8 ba
       0.0018946565 0.077705786 -0.007707186 -0.0016498369
000270 d4 88 9b 3d ed 2e 86 3d 65 5d 67 bd 1e 10 4a 3c
       0.07594457 0.06551919 -0.056485552 0.012332944
000280 c1 27 ad bc ee a1 09 3c f7 2f a6 bd 27 b9 b8 bc
       -0.02113712 0.008400423 -0.08114617 -0.022549225
000290 c4 ff 41 bd 4f 7d c9 3c 2f b8 5a bd 16 72 39 3d
       -0.047363058 0.024595885 -0.053398307 0.045274816
0002a0 e1 d1 22 bd a8 d0 44 3c d8 b9 2e bd 76 4c 85 3d
       -0.039750937 0.012012638 -0.042657703 0.065087244
0002b0 31 04 5c 3c e8 53 1a 3d 4b 64 26 bd 34 0d 5b bd
       0.013428734 0.037677675 -0.04062299 -0.05347939
0002c0 80 e5 3a bd 88 63 33 bd 5d a4 a6 bd 29 c1 a1 bd
       -0.045629025 -0.043796092 -0.081368186 -0.078981705
0002d0 6e 2e 3c bc ef f3 7d 3c 4b 99 21 3d 30 b4 a6 bd
       -0.011485679 0.015500053 0.039452832 -0.08139837
0002e0 a6 46 ac 3d 76 db 9b 3d d4 0a cd 3c f5 1c b6 bd
       0.084119126 0.07610218 0.025029577 -0.08892242
0002f0 c6 9f b1 bd fd 60 53 3d 53 e1 31 3b 55 17 78 3d
       -0.086730525 0.051606167 0.002714236 0.060569126
000300 7c 06 b5 bc 46 90 86 bd 2e e4 54 3d 03 5f 86 3d
       -0.022097819 -0.06570487 0.05197542 0.06561091
000310 9e b9 76 3d 1e 4f 34 bd 74 dd 55 3d ec e4 2e bd
       0.060235612 -0.044020765 0.052213147 -0.042698786
000320 23 86 89 bc d7 47 86 39 b4 ee 8e bd ce 70 1e bd
       -0.016787594 0.00025611997 -0.06979123 -0.038681798
000330 61 f1 52 3d 49 12 b6 bd 63 64 b0 3c 38 e0 29 3d
       0.051499728 -0.08890206 0.021532243 0.041473597
000340 d1 e2 32 bb e9 08 11 bd 6e d3 4f 3d c9 49 41 3d
       -0.0027295838 -0.035408888 0.050738744 0.047189508
000350 98 8e 2e 3d e8 2e b1 3d 28 ad 2e 3d b8 3e 39 bd
       0.042616457 0.08651525 0.042645603 -0.04522583
000360 31 a9 1e bd 15 53 4c 3d 64 b4 30 3d 4d 2a a2 3d
       -0.038735572 0.04988392 0.043140784 0.079182245
000370 b2 8c 07 3d 16 fe fd bc 86 6e af bc 0e b4 44 bd
       0.033093162 -0.031004947 -0.021415006 -0.048023276
000380 90 55 9c bd 66 09 b1 3d e4 db 4e 3d 45 6b 20 bd
       -0.07633507 0.08644371 0.050502673 -0.0391648
000390 3e f5 8f 3d 1d ab e7 3c 70 1a 8a bd 3d 9c b5 bd
       0.07029198 0.028279835 -0.06743324 -0.08867691
0003a0 4c 07 a7 bd bb b1 18 bd 95 fe 46 bd 15 8d 6a bd
       -0.08155689 -0.037278872 -0.048582632 -0.057263453
0003b0 49 06 08 3d 78 45 91 bd a6 d3 4c 3d 5e a2 13 bc
       0.03320912 -0.07093328 0.05000653 -0.009010879
0003c0 39 7c fb bc 99 e1 a1 3d b9 ce d4 bc 38 cd 8d 3d
       -0.030698882 0.079043575 -0.02597748 0.06923908
0003d0 e4 a7 7a 3d bb 92 2b bd d3 f5 a4 3c 82 a9 00 3d
       0.06119527 -0.04188798 0.02013675 0.031411655
0003e0 0f 22 9a bd 3f 31 28 bd 8e 8e a5 3d 93 57 9d bd
       -0.075260274 -0.04106259 0.08083831 -0.07682719
0003f0 0b 15 8a 3c 5e 8c 75 bd af 1d bd bd a3 a5 bd bc
       0.016855737 -0.059948318 -0.09234177 -0.02315027

conv3.bias f4 [32]
000000 1f 78 a3 bc 6f 9b 7f 3c b0 ab 42 3d b5 53 f9 3c
       -0.01995474 0.015601023 0.047527015 0.030435422
000010 68 04 49 3b 0d f3 aa bc 59 b8 6b bd 3b 89 2d 3d
       0.0030672792 -0.020867849 -0.057548855 0.0423672
000020 a6 db 6a 3c 62 70 4c bd ad 79 83 bd 0a 07 3f 3d
       0.014334595 -0.049911864 -0.06419692 0.046637572
000030 c6 48 82 3d 40 72 82 3b ad 88 fb bc 47 68 c0 3b
       0.06361537 0.003980905 -0.03070482 0.005871806
000040 9a ac 3b bd 05 9b 85 bd c4 2e 0c bd be 9b 9f 3c
       -0.045818903 -0.06523708 -0.034224287 0.019483443
000050 61 1f 97 bd 7b 04 91 3c 41 71 a7 bc 58 f0 12 3d
       -0.07379032 0.017702332 -0.020439746 0.03587374
000060 b0 98 44 bd cb d7 96 3d 1a e5 4c bd 11 b9 1e 3d
       -0.047997177 0.07365378 -0.050023176 0.03875071
000070 1c fb 98 3c 6c 9a c7 bc 22 e3 3d 3a 7c 2a 80 bc
       0.018674426 -0.024365626 0.0007243623 -0.015645258

fc1.weight f4 [128, 1152]
000000 ce f4 33 3c 76 62 73 3c de ff 68 3c e6 4a 1b bc
       0.010983659 0.014855018 0.01422116 -0.009478306
000010 e6 bd 96 bc a2 6d 27 bc 35 98 b1 bc f0 a6 50 bc
       -0.018401098 -0.01021901 -0.021679023 -0.0127351135
000020 d1 f1 cb 3c d8 0f af bc 3a 5c 96 bc 4a 50 d6 bc
       0.02489558 -0.02136986 -0.018354524 -0.026161332
000030 89 87 be 3c 89 f4 81 bc 2e d5 51 3c a7 f2 bc bc
       0.023257988 -0.015863674 0.012807174 -0.023064924
000040 85 42 d6 bb dc 26 5e bb b9 7e 12 bc 60 b1 c3 bc
       -0.0065386915 -0.0033897674 -0.008941346 -0.02388829
000050 df b6 c3 bc a0 a0 0c 3c 00 f7 78 bc 1a 0b 78 bc
       -0.02389091 0.008583218 -0.015195608 -0.015139366
000060 4c 49 30 bc d7 21 db bc 9d 3a c0 3c da 71 b2 bb
       -0.010759663 -0.026749535 0.023465449 -0.005445701
000070 cd 03 87 bc f0 28 4d ba 8f 63 67 ba 8a ec 10 bd
       -0.016481305 -0.00078262296 -0.0008826786 -0.03538183
000080 ee 42 11 3b c5 5e 15 bd cf 40 78 3c e6 71 54 3c
       0.0022165137 -0.036467332 0.01515217 0.012966609
000090 68 57 a9 bc 30 a3 a1 3c 4e a0 f5 bc 25 ca e2 bc
       -0.020671561 0.019731134 -0.029983666 -0.02768428
0000a0 dc a3 fb 3b 89 7d b8 3c c0 80 49 bb b8 a1 0f 3b
       0.0076794457 0.022520797 -0.0030746907 0.002191646
0000b0 5a 5d db bc c8 7d 52 bc f2 88 53 bc 14 ff 9b 3b
       -0.026777912 -0.012847371 -0.012911068 0.0047606323
0000c0 8d 0a 97 3c 06 d8 43 3c cb b6 e4 bc ef b6 d8 3c
       0.018437648 0.0119533595 -0.027919194 0.026454417
0000d0 5f fc 8f bc 27 4e e7 bc ac 74 98 bc c1 2f db 3a
       -0.017576395 -0.028235508 -0.018610321 0.0016722606
0000e0 97 9b 97 3c a5 d1 0d bd 56 c4 cb bc c0 a1 f3 b9
       0.018506808 -0.03462376 -0.024873894 -0.00046469085
0000f0 fc 15 b2 3b 34 2e ad bb 54 1e da 3b 5c 66 70 bc
       0.0054347496 -0.005285049 0.0066564474 -0.014672842
000100 0e dd d1 bb 8a 8e ac bc 53 83 cb 3c a0 86 b4 bc
       -0.0064045256 -0.021064062 0.024842894 -0.02203685
000110 9f 8f 7b 3c 18 0a 59 3c 9a af 13 bc 46 37 84 3c
       0.015354066 0.013247035 -0.009014035 0.016139638
000120 be 96 ef bc 81 0a 8b 3b f8 72 c4 bb 0c 3f c1 bc
       -0.029246684 0.0042431955 -0.0059951507 -0.023589633
000130 94 a2 6a 3c 48 ab 42 bc 2c 29 82 3c 54 1e 9a 3b
       0.014320988 -0.011881657 0.015888773 0.0047033224
000140 24 a2 c9 bc 7c 09 b1 3b 41 af 7d bb fa ad 33 bc
       -0.024613447 0.005402742 -0.0038709196 -0.010966772
000150 f7 27 2d 3c a9 95 57 39 92 a0 db bc 6e 81 9b bc
       0.01056861 0.0002055975 -0.026809964 -0.018982615
000160 99 b1 d2 3c 79 45 b2 3c e7 fc 59 3b f8 14 48 3b
       0.02571945 0.021761643 0.0033262314 0.0030530076
000170 2c 47 b6 bc 7e 70 92 bc 01 59 8e b9 70 1b 3a 3c
       -0.022250734 -0.017875906 -0.00027150664 0.011359081
000180 c2 68 f0 3b 6e 0c 74 bb 1d 6e 80 bc ca 08 a3 3c
       0.007336707 -0.0037238854 -0.015677506 0.019901652
000190 26 1b ad bc ca 4d 28 3c 50 8e ce ba 86 a7 50 bc
       -0.02113111 0.010272453 -0.0015758965 -0.012735253
0001a0 c7 8a c6 bc f1 de b3 3c dd 76 c5 bc d9 7b 11 bd
       -0.024236096 0.021956893 -0.02410453 -0.0355185
0001b0 e9 75 85 3c fa bc 81 bc c1 21 29 bb 6f 27 3b bb
       0.016291576 -0.015837181 -0.0025807472 -0.002855744
0001c0 67 4b bd 3a 20 49 0f bd cb 16 64 bb 26 fc 14 bd
       0.0014442027 -0.034981847 -0.0034803625 -0.03637328
0001d0 ac 9c 66 bc 07 f3 81 3c 79 45 91 bc 6d 18 cb bc
       -0.014075439 0.015862955 -0.017733322 -0.02479192
0001e0 4f 06 96 3a 52 73 02 bd db 2a 8a 3c f8 f8 e7 bc
       0.0011445972 -0.03184826 0.016866138 -0.02831696
0001f0 89 70 bd bc 0c 51 4b 3c 8b fd bf bc 2e 8c ab 3c
       -0.02312495 0.01240946 -0.023436328 0.020940866
000200 b8 f1 b2 bc 55 44 02 bd 59 cd 5b bb 5d 30 d2 bb
       -0.021843776 -0.031803448 -0.0033539145 -0.0064144568
000210 d9 3d 98 bc d3 6e 44 3c 19 d0 40 3c 0d ae 6f 3a
       -0.018584179 0.011989313 0.011768364 0.0009143062
000220 a6 a7 e9 bc 61 34 1d bc 0d 05 35 3c bc 24 26 bc
       -0.028522324 -0.009595008 0.0110485675 -0.010140594
000230 c5 71 03 bd 7c 04 00 bd 48 af e3 bc 7b 36 2b bc
       -0.03209092 -0.031254277 -0.027793542 -0.010450001
000240 c0 20 92 3c 52 91 b0 bc 55 2f 8e 3a 79 d8 f5 bc
       0.017837882 -0.02155367 0.0010847846 -0.030010449
000250 c7 0b 8d 3c 36 c5 2a 3c 5c bf 32 bc f8 45 25 3b
       0.01721753 0.010422995 -0.010909881 0.0025218707
000260 30 66 b4 3a db 60 7d bc 2c c9 fa bb cd ea d1 3c
       0.0013763364 -0.015464987 -0.007653376 0.025624657
000270 1b 6c 05 bd 21 dd 13 bd 58 d7 bc bb 21 f1 87 3c
       -0.0325738 -0.036099557 -0.0057629757 0.016594471
000280 38 02 bd bc 86 e5 0e 3c 43 7a d7 bc 19 20 d4 3b
       -0.023072347 0.008721715 -0.026303416 0.006473553
000290 5e ab 66 3c c1 f9 38 bb a8 fa a5 bb 49 e6 b5 3c
       0.014078943 -0.0028225037 -0.005065281 0.022204535
0002a0 f4 5a 5d bb 4c 36 ee bc 9a 0b f9 bb 51 24 a2 bc
       -0.0033776136 -0.029078625 -0.00760026 -0.019792708
0002b0 74 85 14 bd 8c 93 eb 3b f8 36 44 3b 13 17 c4 bc
       -0.036260083 0.00718922 0.002993999 -0.023936784
0002c0 3f 66 c6 3c 84 f0 8d bb 68 bb 39 bc d3 cc e2 bc
       0.024218677 -0.00433165 -0.011336185 -0.027685558
0002d0 f3 d2 aa bc 4f fc da bc f0 52 97 ba f8 fb 77 3c
       -0.020852542 -0.026731638 -0.0011545103 0.015135758
0002e0 14 69 c3 bc 33 7b 82 3c 4a 6f 13 bc 6a ca 07 bd
       -0.023853816 0.015927887 -0.008998701 -0.03315202
0002f0 be df e0 bc 2e 2a d8 bc e8 53 14 3b 80 e3 91 b9
       -0.027450439 -0.0263873 0.002263302 -0.00027826056
000300 87 5d 47 3c f0 e6 a0 bc 32 f9 3d bc 8a df 16 bc
       0.012168295 -0.01964137 -0.011595057 -0.009208569
000310 15 f8 ec 3c 2a 00 9e bc 09 37 10 bd d2 dd 42 bc
       0.028926888 -0.019287188 -0.035208736 -0.011893706
000320 be 06 1c bc 00 6a 99 bb 8c 17 bf 3b ab 92 99 3c
       -0.009523092 -0.0046818256 0.0058316644 0.018746695
000330 e6 74 9b 3c 07 b5 87 3c 22 e8 a9 bc 5f eb d2 bb
       0.01897664 0.016565813 -0.020740572 -0.00643675
000340 b6 4c ba bc 05 de b6 3c bb 9f 90 3c 5c 67 b9 3b
       -0.022741657 0.022322664 0.01765429 0.0056580734
000350 42 5d 5f 3c da 9e 72 3c 52 59 da bc d4 7a 18 bc
       0.013633074 0.014808381 -0.02665392 -0.009306628
000360 24 27 d0 3b f2 ce 90 bb 18 6f f5 bb 91 e8 e7 bc
       0.006352322 -0.004419201 -0.00749005 -0.028309138
000370 e8 92 44 bc 40 ae a6 3c 82 c8 a4 bc 1e 1b 8e 3b
       -0.011997916 0.02034676 -0.02011514 0.0043367287
000380 da 4a 9c bc 3c c7 e4 bc 45 11 0f bd 97 c2 cc bc
       -0.01907866 -0.027927034 -0.03492858 -0.024995131
000390 eb 8a c1 3c f2 36 9a bc a5 fd c3 3c 78 36 14 bb
       0.023625812 -0.018825028 0.023924658 -0.0022615474
0003a0 91 46 1f 3c ad 2f 8d bb 38 30 79 bb e8 0a 82 bc
       0.009721414 -0.004308662 -0.0038023125 -0.015874341
0003b0 86 b6 54 bc 7e 0b ab 3c a2 3d 41 bc a3 79 d2 ba
       -0.01298297 0.020879503 -0.01179448 -0.0016057979
0003c0 af 5a 93 3c e1 4a 73 bc d2 c6 18 3c b1 06 f1 bc
       0.017987577 -0.0148493955 0.009324746 -0.029422136
0003d0 ac ec 8d bc 29 6e 17 bc aa 90 aa bc e0 97 c2 bc
       -0.017324768 -0.009242573 -0.020820934 -0.02375406
0003e0 00 e5 ea b8 5f fe bb 3c 05 d3 35 bc c3 fb ca 3b
       -0.00011200644 0.022948442 -0.011097674 0.006194563
0003f0 16 46 af 3c 3c cb 9d 3b 5b 87 a2 3c 24 3e 7e 3c
       0.021395724 0.004815487 0.019839933 0.015517745

fc1.bias f4 [128]
000000 21 56 e5 bc e3 9a 82 3c e0 bd 8f 3b 47 d1 11 bb
       -0.027995171 0.015942996 0.0043866485 -0.0022249983
000010 d4 f9 aa 3c 33 ae a6 3c 84 20 87 bc 2c c9 50 ba
       0.02087108 0.020346737 -0.016494997 -0.0007964547
000020 78 1a 34 3c 96 88 c6 bb c9 e8 03 bc 1d 80 12 3c
       0.010992639 -0.006058763 -0.008051106 0.008941677
000030 74 64 55 3c 92 60 91 b8 eb b7 20 bb 67 40 27 bc
       0.013024438 -6.9321264e-05 -0.0024523686 -0.010208226
000040 9e c8 8b 3c 7b eb 8c 3c 9c 09 9a 3c 7f 10 6e bc
       0.017063435 0.01720213 0.01880341 -0.0145303
000050 30 d0 6e 3c e3 4f c4 3c 09 0d 2d bc 06 9f bd 3c
       0.014576003 0.023963874 -0.01056219 0.023147117
000060 0a 24 d6 ba e5 cb 0d bd dc 5e 0e bc 60 ef 81 bc
       -0.0016337645 -0.034618277 -0.008689608 -0.015861213
000070 5b cf 38 3c df 52 f1 bc 7c 43 0b bd f0 3a 01 bc
       0.011279906 -0.029458461 -0.033999905 -0.007887587
000080 1e 46 8f bb bb 3e 68 3c 42 7c 87 3c e4 07 b3 3c
       -0.0043723723 0.014175112 0.016538743 0.021854348
000090 20 ac 19 bb 05 66 fd bb f1 81 4b 3c 47 d0 a7 bc
       -0.0023448542 -0.007733109 0.012421117 -0.020485057
0000a0 65 de 62 bc 0c 06 bd 3c 25 b6 6a bc 79 ae 4e 3c
       -0.013846968 0.023074172 -0.014325653 0.01261484
0000b0 c5 0d 84 3c 61 b2 83 3b 0d 94 82 3c 8f 26 7d 3c
       0.016119847 0.004019067 0.015939737 0.015451088
0000c0 03 57 3d 3c 8c 83 bd bc 0e d6 a8 bc 69 7b 49 bc
       0.01155639 -0.023134016 -0.020609882 -0.01229749
0000d0 da 34 c9 bc 34 31 9e 3c 7f ea 49 3c 13 e7 f0 3c
       -0.024561334 0.019310571 0.012323975 0.02940706
0000e0 0b aa ac bc e6 ea db 3c b0 b8 89 bc 90 7e 8e bc
       -0.021077177 0.026845407 -0.016811699 -0.017394334
0000f0 11 af f8 3a bd d9 c1 bb 69 1b ae 3c e3 fa ba 3b
       0.0018973072 -0.005915849 0.021253305 0.0057061776
000100 d8 47 b1 bc bc ad 02 bd 9d 89 c1 3c 39 a5 b9 3c
       -0.021640703 -0.031903967 0.02362519 0.022661792
000110 c8 65 ac 3b 6e 33 4f bb 82 fe 22 3c 53 5f b8 bc
       0.0052611567 -0.0031616348 0.009948375 -0.022506392
000120 3f f3 46 bc 41 27 9a 3c 3e c7 6d 3c f8 6c cd 3c
       -0.012142955 0.018817546 0.014512835 0.025076374
000130 c5 e8 62 3c 37 c9 e4 3c 93 0e ba 3c d1 13 5f 3c
       0.013849442 0.027927978 0.022712028 0.013615564
000140 c5 9c 29 bc f3 65 a0 bc 7c a1 3d 3c b3 2f 9e bc
       -0.010352318 -0.019579863 0.011574145 -0.019309854
000150 f9 a5 14 3c 65 7a 22 3c 88 8c 6b bb 20 65 92 bc
       0.009072774 0.009916876 -0.0035941917 -0.017870486
000160 8f 76 67 bc e8 5d a1 bc 49 5b 39 bc 46 fb 05 bd
       -0.014127388 -0.019698098 -0.011313268 -0.032710336
000170 83 38 66 3c f4 21 9e bc 6a 24 c6 bc 4e 8b 98 3c
       0.014051559 -0.0193033 -0.024187285 0.018621113
000180 d8 d2 88 bc 29 18 f6 3b ba da c1 3c 5c 18 c3 bc
       -0.0167021 0.0075102043 0.023663867 -0.023815326
000190 02 c3 cc bc 7d 23 ba 3b 1b 08 84 bc b5 08 8b 3a
       -0.02499533 0.0056805 -0.016117146 0.0010607453
0001a0 4a ad 8c bc d7 4d e0 bc d7 0e 9d bb d1 67 06 3c
       -0.017172474 -0.027380867 -0.004793029 0.008203463
0001b0 a2 92 9e bb e8 2a e1 3c ea 94 68 3c df 43 df bb
       -0.0048392573 0.02748628 0.01419566 -0.006813511
0001c0 24 cd ef bc 99 3d 03 bb 34 47 31 bc ef 5b b4 ba
       -0.029272623 -0.0020025729 -0.010820199 -0.0013760309
0001d0 a3 34 e9 3c 1e ad bd 3c cc ac 9e bb 61 6d 05 bd
       0.028467482 0.023153838 -0.0048423763 -0.032575015
0001e0 a9 82 8b 3a 87 ac 8b bc b0 41 c1 bc bc 6e e2 bc
       0.0010643798 -0.01705004 -0.023590893 -0.027640693
0001f0 8d 53 06 bd d0 ea b3 bc e2 ac ab bc 85 18 42 bb
       -0.032794524 -0.021962553 -0.02095646 -0.0029616666

fc2.weight f4 [2, 128]
000000 bb 3f ed 3c 7a a8 3b 3c 7d 48 33 bd 6e 32 92 bd
       0.028961053 0.011453742 -0.043770302 -0.07138525
000010 b7 d1 cc bb 86 72 89 bd 33 52 77 bd af e0 ef 3a
       -0.006250586 -0.06711297 -0.060381126 0.0018301214
000020 06 da cb bc 3b a3 71 bd d4 99 45 3c b7 e6 c1 ba
       -0.024884235 -0.05899356 0.012060601 -0.001479349
000030 a9 5f 45 3c d0 eb ab 3a a6 d5 75 bd 39 35 95 3d
       0.012046733 0.0013116542 -0.060018204 0.07285542
000040 8b f1 73 bd 88 b1 4b 3d c7 07 a1 bc 84 6b 51 3c
       -0.059556525 0.049729854 -0.019657029 0.012781981
000050 ba 7d 87 bc 1c ff 71 3d f7 d8 8e 3d ff fb 8e bb
       -0.016539443 0.059081182 0.069749765 -0.0043635364
000060 58 0f 35 bb 6f 26 fa bc c0 8b ae 3c 25 9e 19 bd
       -0.0027627554 -0.030535905 0.021306872 -0.037504334
000070 7b d1 33 bd 18 03 de 3c fe cb 2e 3b 30 ad c1 3d
       -0.043900948 0.027101085 0.0026671882 0.09456861
000080 07 50 89 bd 88 8d 56 bd f5 7d 8e bd 8b c1 40 3b
       -0.06704717 -0.05238107 -0.06957618 0.0029412236
000090 dd 12 6b 3d b8 0e ee 3c e5 d3 de 3b e2 a7 97 ba
       0.057391036 0.029059753 0.006800162 -0.0011570419
0000a0 f4 44 0b 3d 82 dd 01 bd 40 e4 b4 bd 02 5d 15 3c
       0.034001306 -0.031705387 -0.08832598 0.009116413
0000b0 4b 72 93 3d 78 a6 71 bc 00 37 73 3c 36 5c 12 3d
       0.07199534 -0.014749162 0.014844656 0.03573247
0000c0 a8 a2 a1 3d 49 a4 de 3c 13 d9 59 3d 12 c8 a4 bd
       0.07892352 0.027177947 0.053185534 -0.08045973
0000d0 60 25 05 bd c7 d9 04 bd 3a 88 51 bd 0f 51 aa 3c
       -0.032506347 -0.03243425 -0.051155306 0.020790605
0000e0 bf f3 8d bd fc 74 9e bd cd da 3c 3d b3 df 8c bd
       -0.069312565 -0.07737157 0.046107102 -0.06878605
0000f0 9d de 90 3d 0a c1 85 bc c3 4e 26 3d be 30 a2 bc
       0.0707371 -0.0163274 0.040602457 -0.019798633
000100 3e 63 ad 3d cc 0d a5 3a 62 ae 8b 3b fc 31 00 3d
       0.084661946 0.0012592613 0.0042627314 0.03129767
000110 19 96 9e 3d 10 51 11 3c 66 99 bd bc 57 b8 a3 3d
       0.077434726 0.008869424 -0.023144435 0.079941444
000120 ff 63 5e ba db f6 20 3d 44 32 90 bd a9 04 c8 bc
       -0.00084835285 0.03929792 -0.070408374 -0.024416285
000130 b0 9e e2 3a da b1 a5 3a f6 b3 cf bc ff e4 76 3c
       0.0017289724 0.0012641505 -0.025354367 0.015069245
000140 66 51 32 bb 10 3a 84 3d eb a7 df 3c 42 23 8d bb
       -0.0027209162 0.06456387 0.02730175 -0.0043071816
000150 f1 49 7b bd a9 f2 22 3d 42 42 cb 3c 40 1a a3 bd
       -0.061349813 0.0397822 0.024811868 -0.07963991
000160 7d 1c 1f bd 12 37 9a 3d 2a 0a a8 3c 3f 32 50 bd
       -0.038845528 0.07530035 0.02051266 -0.05082917
000170 6d c4 27 3d d7 c3 32 3c 40 f2 6d bd a9 19 05 bd
       0.04095881 0.01091095 -0.058092356 -0.032495175
000180 c6 34 49 bd f2 89 91 bd 35 b1 63 3c a1 0d 11 3d
       -0.049122594 -0.07106389 0.01389723 0.03541339
000190 e3 a3 60 bd b3 0c 75 b9 1f 7e c9 3c 05 97 9a 3d
       -0.054843795 -0.00023369752 0.024596272 0.07548336
0001a0 00 af 37 3d c9 e9 93 3d fa e8 53 3d 8f 3c db bc
       0.044844627 0.07222325 0.051735856 -0.026762275
0001b0 76 57 18 bc 23 f0 75 3d b9 09 33 3c dc 2a 4e bc
       -0.009298196 0.060043465 0.010927611 -0.012583461
0001c0 4f 7c 07 3d 85 5f 6c 3b 28 0a e6 bc 0c a0 61 bd
       0.033077534 0.0036067676 -0.028081015 -0.055084273
0001d0 d2 e8 05 3d 26 1b 3f bd d3 f5 b5 bd b2 27 92 3d
       0.032692738 -0.04665675 -0.08884778 0.071364775
0001e0 45 a0 ab bd 68 59 18 3d c3 85 0f bd 6f 15 92 3c
       -0.08380178 0.03719464 -0.035039674 0.017832486
0001f0 6f 81 5d bd 30 b3 00 bc 4f 80 94 bd 01 5d 80 3d
       -0.054078516 -0.007855222 -0.072510354 0.06267739
000200 99 16 53 3d b6 c3 9b 3d b7 85 9b 3d a5 fb 96 bd
       0.051535223 0.07605688 0.075938635 -0.07372216
000210 de 8d 75 3d a6 15 3b 3d fd ed 04 3d 89 14 1b 3d
       0.05994975 0.045674942 0.032453526 0.03786138
000220 b1 7f 33 3c 18 6a 58 3d 5e 1d 90 3d 17 a9 98 bd
       0.010955737 0.052835554 0.07036851 -0.07454126
000230 1b 1d 04 3c 4d 0b 2b 3b 1f 84 08 3c 4d 31 30 3d
       0.00806358 0.0026099265 0.008332281 0.043015767
000240 fc 51 68 bd 92 6d 88 3c d5 c0 de bc 9f 66 37 bd
       -0.05671881 0.01665381 -0.027191559 -0.0447756
000250 06 58 db 3c 05 81 20 bd 0c 27 3c bd 24 f3 aa bd
       0.026775371 -0.039185543 -0.045935676 -0.08347157
000260 92 8a 0f bc 90 cd 02 bd 6f b1 7b bd ad 7e 01 bd
       -0.008761065 -0.03193432 -0.06144851 -0.031614948
000270 ff 2e 66 bd b5 61 7b bd 1d d6 93 3b c5 5c cd 3c
       -0.056197163 -0.061372478 0.0045116083 0.02506865
000280 61 1f 5b 3c 51 da 1e 3d 90 10 a8 bd 7a 65 55 3d
       0.0133741805 0.03878242 -0.08206284 0.05209873
000290 14 50 88 bd 97 9e 95 3d ec 5f 69 bd fd 2a a6 3b
       -0.06655899 0.07305639 -0.056976244 0.0050710426
0002a0 64 43 8d 3d 99 cd 3d bc 41 f7 cc bb 0a c5 9a bd
       0.06897619 -0.011584663 -0.006255061 -0.075571135
0002b0 6d 8b 99 3d fc 20 c3 3c 5b 78 93 3d cd 57 d9 bb
       0.074972965 0.02381944 0.0720069 -0.006632781
0002c0 4d 50 bd bc 4f 01 97 bd 1b 76 95 3d d2 87 6e 3d
       -0.02310958 -0.073732965 0.072979175 0.058234997
0002d0 43 85 95 bc 44 d3 c9 3c b2 48 30 ba 35 a0 8b 3b
       -0.01825202 0.024636872 -0.00067246996 0.0042610415
0002e0 59 5a 59 bd 12 14 86 bd ad 37 86 3c 30 d9 e7 3c
       -0.053064678 -0.06546797 0.01638397 0.028301805
0002f0 de c3 bd bc ef 82 19 3c d9 79 6a 3d 40 18 20 bd
       -0.023164686 0.009369596 0.05724511 -0.039085627
000300 82 2f b6 bd ba ec 44 3d 34 a0 10 3d 2a 5e 20 3b
       -0.0889578 0.048077323 0.03530903 0.0024470189
000310 40 41 13 3d 90 ba 54 3d 95 5f 91 3d 77 20 98 3d
       0.0359509 0.051935732 0.07098309 0.07428067
000320 e9 36 8f bd 96 2f 26 bd 06 23 4f 3c 7a 9a 1a bd
       -0.06992895 -0.040572725 0.012642628 -0.037744977
000330 c0 86 7a 3d cc df 5f bd 74 2d ed bc 7b f5 a8 bd
       0.061163664 -0.05465679 -0.028952338 -0.08249947
000340 99 b9 1b 3d 25 b6 18 3c 48 3a d5 bc d0 46 39 3d
       0.038018797 0.00932077 -0.026028767 0.045233548
000350 e2 7c 19 3d d2 ce 77 3b 4a 28 96 3d c9 e3 e2 bc
       0.037472613 0.0037812483 0.07331903 -0.027696507
000360 97 2b e4 bb 6c 5d 92 3d 88 61 56 3d 23 ed 4a bd
       -0.006963204 0.07146725 0.052339107 -0.049542557
000370 65 9a 10 3d 75 73 48 3d ff e8 80 3c 8e 80 26 bd
       0.035303492 0.048938233 0.015736101 -0.040649943
000380 56 68 63 3d 6b 31 34 bd 6c 2a a0 bd 80 8c 15 3d
       0.055519424 -0.04399244 -0.07820591 0.036510944
000390 74 d5 9b bd f2 3d bf ba 02 63 9a 3d 61 46 7b 3d
       -0.07609072 -0.0014590605 0.075384155 0.061346415
0003a0 58 85 1a 3d be f9 20 3b a0 06 49 bd c7 f1 71 3d
       0.037724823 0.002456292 -0.049078584 0.059068467
0003b0 d0 6f c4 3b 8c ff a7 bd 78 6c 03 3d 94 0b 8c bd
       0.0059947744 -0.082030386 0.032085866 -0.06838146
0003c0 9d 60 56 3d 9a 8a 90 3c b4 b6 60 3d 99 6e 1a 3c
       0.05233823 0.017644215 0.05486174 0.009425783
0003d0 d3 7e 9a 3d 3e a2 1d bd c7 32 14 3d 5b 33 16 bd
       0.07543721 -0.038484804 0.036181238 -0.03667007
0003e0 06 74 69 bd d0 96 11 bd f7 cc 31 bd 0e ff 6d bd
       -0.056995414 -0.035544217 -0.04340836 -0.058104567
0003f0 55 a9 66 3d a0 b3 ae bb d4 c0 9b bd 7b 37 86 3d
       0.05631383 -0.0053314716 -0.076051384 0.06553551

fc2.bias f4 [2]
000000 cb 37 5f bd c2 ce 5d 3c
       -0.054496568 0.013538064
