models/2024-05-10_12-42-40_Model.onnx (onnx, 516192 bytes, 10 tensors)

conv1.weight f4 [8, 1, 3, 3, 3]
0	0xbe19b8c2	-0.15011886
1	0x3d8d6cf1	0.069055445
2	0x3d9b7d1b	0.07592221
3	0x3dad7156	0.08468883
4	0x3d5e2ddb	0.05424295
5	0x3c5421b6	0.01294749
6	0x3e08a958	0.1334585
7	0x3cb70d92	0.022345338
8	0x3d0eca21	0.034860734
9	0x3e28e65f	0.1649413
10	0x3cbdf88f	0.023189811
11	0xbd6088f0	-0.054818094
12	0xbe379db1	-0.17931248
13	0xbe2944c1	-0.16530134
14	0xbc0ecc92	-0.008715766
15	0xbc831955	-0.01600329
16	0xbe2b1d3a	-0.16710368
17	0xbc21cb48	-0.009875126
18	0xbe141e23	-0.14464621
19	0xbda75139	-0.08169789
20	0xbc54b851	-0.012983398
21	0xbe457628	-0.19283354
22	0xbd8fd503	-0.07023051
23	0xbdca3573	-0.09873476
24	0x3e01a102	0.12659076
25	0x3e3c66fd	0.18398662
26	0xbe24b804	-0.16085821
27	0x3dc12bcb	0.09432181
28	0xbd26d758	-0.04073271
29	0xbe0a2282	-0.13489726
30	0x3e189ea6	0.1490427
31	0xbafec2b7	-0.0019436692
32	0xbc0be142	-0.008537592
33	0x3e045ca4	0.12925965
34	0xbdfd5397	-0.12369459
35	0x3e27121f	0.16315506
36	0xbcaa4e5d	-0.02078932
37	0x3d61e1f0	0.05514711
38	0xbd911b9d	-0.07085345
39	0xbe1412c6	-0.14460286
40	0x3e16b854	0.14718753
41	0x3dc7e013	0.09759536
42	0xbe3b8d70	-0.18315673
43	0xbe310283	-0.17286114
44	0xbdd09029	-0.10183746
45	0x3db35d5c	0.08758041
46	0x3d0c0719	0.034186456
47	0x3d81a3fb	0.06330105
48	0x3d906e37	0.07052272
49	0x3e376f0b	0.17913453
50	0x3cb05d1e	0.021528777
51	0xbd9e5a2e	-0.07732044
52	0xbe21a81f	-0.1578679
53	0xbd5c1c2e	-0.05373781
54	0x3dff963b	0.12479826
55	0x3d8ecbd3	0.0697247
56	0xbe4d9737	-0.20077215
57	0xbd0cfe6d	-0.034422327
58	0xbdd6324d	-0.10458813
59	0x3c1a7e58	0.009429537
60	0x3e3a7d95	0.18211968
61	0x3d2afbec	0.041744158
62	0x3e3105c1	0.17287351
63	0x3e31188b	0.17294519
64	0xbd16457b	-0.036687355
65	0x3aebbd29	0.0017985451
66	0xbc207da4	-0.00979558
67	0x3e3c8a55	0.18412144
68	0x3e0b70b6	0.13617215
69	0x3cc37acc	0.023862265
70	0xbe12754a	-0.14302555
71	0x3dc5ff1c	0.09667799
72	0x3e3b8777	0.18313394
73	0xbd125b53	-0.035731625
74	0xbc2efb16	-0.010679981
75	0x3d80a50f	0.062814824
76	0xbd8a87e6	-0.06764202
77	0xbdd77c17	-0.10521715
78	0xbe15d649	-0.14632525
79	0xbdf8b25e	-0.12143396
80	0xbb7e1fbb	-0.0038776237
81	0xbc81eb10	-0.015859157
82	0x3e1678e0	0.14694548
83	0xbdba2283	-0.09088614
84	0xbd6d3fa8	-0.057922035
85	0x3d08410e	0.033265166
86	0x3d99b962	0.07506062
87	0x3dae288c	0.085038275
88	0xbd57b65e	-0.052664153
89	0x3d99689a	0.07490654
90	0x3e37755d	0.17915864
91	0xbd4c9c25	-0.0499536
92	0xbdef4863	-0.116837285
93	0xbdba67ce	-0.091018304
94	0xbdc0dcf7	-0.09417146
95	0x3e007d0f	0.12547706
96	0x3e2e831e	0.17042205
97	0x3d74e958	0.059792846
98	0xbdf007a4	-0.11720207
99	0x3e3a4de3	0.18193774
100	0xbdfd0152	-0.123537675
101	0xbe170fa2	-0.14752057
102	0x3e114e38	0.14189994
103	0x3e0e9a7c	0.13926119
104	0xbe242b0c	-0.16032046
105	0xbd6d1848	-0.057884485
106	0x3dc8eacb	0.09810408
107	0x3dd8e06b	0.10589679
108	0x3e36fd46	0.17870054
109	0x3d534b7e	0.051585667
110	0x3e358db3	0.17729835
111	0xbca02bc3	-0.019552117
112	0x3e259517	0.16170155
113	0xbe061fc0	-0.13098049
114	0xbe435e19	-0.19078864
115	0xbd0e4f1a	-0.034743406
116	0xbe0be905	-0.13663109
117	0xbe16621f	-0.14685868
118	0x3e418e92	0.18902043
119	0xbd8fb3bd	-0.07016704
120	0xbce15be3	-0.027509635
121	0xbd98138d	-0.07425604
122	0x3dcb22ff	0.09918784
123	0xbe150fc5	-0.14556797
124	0xbe24ff3c	-0.16112989
125	0x3e411ead	0.18859358
126	0xbe3c2a09	-0.1837541
127	0xbb59cffd	-0.0033235543
128	0x3d3ee062	0.046600707
129	0xbdf75161	-0.12076069
130	0xbe127feb	-0.1430661
131	0x3d84304e	0.06454526
132	0xbe20cb47	-0.15702544
133	0x3e11020e	0.1416094
134	0xbe0008a9	-0.12503304
135	0xbd228e13	-0.039686274
136	0xbdece735	-0.11567537
137	0x3d66ea4d	0.05637579
138	0x3e117d82	0.14208034
139	0xbbb06214	-0.0053827856
140	0xbd8678d0	-0.06566012
141	0x3e0c89a0	0.13724375
142	0xbc6c8421	-0.014435799
143	0x3dd52a47	0.104084544
144	0xbe0a7d5d	-0.13524385
145	0x3ca6f66a	0.020381171
146	0x3ce853a1	0.02836019
147	0x3c3adf72	0.011405813
148	0xbe3ea77a	-0.18618575
149	0xbc5861c3	-0.013206902
150	0xbe2b846d	-0.16749735
151	0xbcc52cf3	-0.024069285
152	0x3dcbed2d	0.09957347
153	0x3e1783d3	0.1479638
154	0xbd399d7d	-0.04531621
155	0xbda9a973	-0.08284273
156	0xbe28b445	-0.16475017
157	0x3e040579	0.12892713
158	0xbd9a5ddb	-0.07537433
159	0x3bdc0e6b	0.006715586
160	0xbc9ec7ba	-0.019382346
161	0x3e1f59a9	0.15561546
162	0x3cc7d961	0.024395647
163	0xbd607cc1	-0.054806475
164	0xbdb8b94e	-0.09019719
165	0xbb1931fb	-0.0023375738
166	0xbdda8d65	-0.106715
167	0xbe0f44fc	-0.13991159
168	0x3d3a4e7a	0.045484997
169	0x3d487465	0.048939127
170	0xbe269e31	-0.16271283
171	0xbdba8d84	-0.09109023
172	0x3dbaa659	0.091137595
173	0x3db93e8b	0.09045132
174	0x3da7362f	0.081646316
175	0xbdf05d11	-0.11736501
176	0x3d4e90ee	0.050431184
177	0xbcfaa2d1	-0.030595215
178	0xbc7246b0	-0.014787361
179	0xbe03c8cf	-0.12869571
180	0xbc52a7b9	-0.012857371
181	0xbdca6111	-0.09881795
182	0x3d94e197	0.0726959
183	0xbdfb041b	-0.122566424
184	0xbe0afddd	-0.13573404
185	0xbd879348	-0.066198885
186	0xbe36fc70	-0.17869735
187	0x3d9085a7	0.07056742
188	0x3ce055c6	0.02738465
189	0xbdf7f7a2	-0.12107779
190	0x3de356cc	0.111005396
191	0xbe0b3d5f	-0.1359763
192	0x3e25d1b8	0.16193283
193	0xbdaecfa0	-0.08535695
194	0x3df01b35	0.11723939
195	0xbe06009a	-0.13086167
196	0xbdbd150c	-0.0923253
197	0xbd936a18	-0.0719797
198	0xbe2b8b3f	-0.16752337
199	0x3b3d171b	0.0028852883
200	0xbda307f7	-0.079605035
201	0x3d51cc9a	0.051220514
202	0x3e1e2f60	0.1544776
203	0xbdc6fda7	-0.09716349
204	0xbd6538f7	-0.05596253
205	0x3d9937d4	0.074813515
206	0xbe100a8d	-0.14066525
207	0x3ddf7aa3	0.10912063
208	0x3d9271c0	0.07150602
209	0xbcd4b757	-0.02596633
210	0xbda754fd	-0.08170507
211	0x3dfdaed7	0.12386864
212	0xbdf045c9	-0.117320605
213	0x3e10f044	0.14154154
214	0x3db06225	0.086124696
215	0x3e2723f5	0.1632231

conv1.bias f4 [8]
0	0x3db76037	0.089538984
1	0xbe36ac6e	-0.17839214
2	0x3dd668ed	0.10469232
3	0xbe184686	-0.14870653
4	0xbe20ec83	-0.15715222
5	0x3d3425fd	0.04398154
6	0x3d8e77b3	0.069564246
7	0xbe3eecba	-0.18644992

conv2.weight f4 [16, 8, 3, 3, 3]
0	0xbc88e7b4	-0.016712047
1	0x3d3a0504	0.04541494
2	0x3c9725e1	0.01845068
3	0xbca5345b	-0.020166567
4	0xbc7d0a51	-0.015444354
5	0x3d4529aa	0.048135437
6	0xbd19c992	-0.037545748
7	0xbd397508	-0.045277625
8	0x3adff9da	0.0017088011
9	0xbd76c681	-0.0602479
10	0x3c6c3fb8	0.014419489
11	0xbd19de9a	-0.037565805
12	0x3d6c0b6c	0.05762808
13	0xbce5a69a	-0.028033543
14	0xbd586242	-0.05282808
15	0xbcea620f	-0.028611211
16	0xbcf40943	-0.029789573
17	0x3c9940dc	0.018707685
18	0x3d817f81	0.063231476
19	0xbd5b87fc	-0.05359648
20	0xbd489f82	-0.048980244
21	0xbcf7e633	-0.030261135
22	0xbc504d54	-0.012713749
23	0x3d566c90	0.052349627
24	0x3d82d0df	0.06387495
25	0xbcb7ac0d	-0.022420907
26	0x3d502302	0.050814636
27	0x3c59e83a	0.013299996
28	0x3d3f2914	0.046670035
29	0xbd810b2d	-0.0630096
30	0x3ce28e6e	0.027655806
31	0x3d31b145	0.043381948
32	0x3d4b75ee	0.049673013
33	0x3d424662	0.047430404
34	0xbc15ecec	-0.009150725
35	0x3d26d925	0.04073443
36	0xbc888dbc	-0.016669147
37	0xbd5ad381	-0.053424362
38	0xbb4b38ae	-0.0031009126
39	0x3c43bda8	0.011947073
40	0xbbfe646f	-0.0077634375
41	0xbd9072cd	-0.070531465
42	0x3d63d889	0.055626426
43	0xbd94a3b4	-0.072577864
44	0x3cb5458f	0.022127895
45	0x3d4e5dbb	0.050382357
46	0xbc0bd70d	-0.008535159
47	0x3cbdf1b9	0.023186551
48	0xbd69aa39	-0.057047103
49	0xbd840bbc	-0.06447551
50	0xbd774b5b	-0.0603746
51	0xbd99b5a2	-0.07505347
52	0x3c551355	0.013005097
53	0x3c5fb440	0.013653815
54	0x3d567900	0.05236149
55	0xbcab845b	-0.020937135
56	0xbd397b9c	-0.0452839
57	0xbc63ca40	-0.013903201
58	0xbc3d0f34	-0.011539269
59	0x3c042397	0.008065126
60	0x3d4f0ef4	0.05055137
61	0xbd57ad5a	-0.052655555
62	0x3cd2a5f8	0.025713906
63	0xbc341e6a	-0.010993579
64	0x3d1dbb97	0.038508978
65	0xbd325383	-0.043536674
66	0x3a417f5c	0.0007381344
67	0xbd962aa3	-0.07332351
68	0xbcbd8e1b	-0.02313905
69	0xbd6551eb	-0.055986326
70	0x3cdb0058	0.026733562
71	0xbc411c1f	-0.01178649
72	0x3c995e8b	0.01872184
73	0xbceaaca5	-0.028646776
74	0xbd07f7c3	-0.03319527
75	0xbd5a383f	-0.053276297
76	0x3c9a0f1f	0.018806038
77	0xbc4976f9	-0.012296432
78	0x3d062b99	0.03275642
79	0x3d5bbd45	0.0536473
80	0x3c94425b	0.018098047
81	0x3d1552d6	0.03645595
82	0xbd85747c	-0.06516358
83	0xbcb00c7a	-0.021490324
84	0xbcae7b1b	-0.021298936
85	0xbd8671de	-0.06564687
86	0xbbe88315	-0.0070957043
87	0x3d258cd4	0.040417507
88	0x3d2857e4	0.041099444
89	0x3d4ef12f	0.05052298
90	0x3d507c7b	0.050899964
91	0xbc78d8f4	-0.015188444
92	0x3cc87675	0.024470547
93	0x3d6d05df	0.057866927
94	0x3cf60fde	0.030036863
95	0x3d5b4c30	0.053539455
96	0x3d117198	0.035508722
97	0xbd8b38c7	-0.06797939
98	0xbd93cf54	-0.07217279
99	0xbce3fb25	-0.027829716
100	0x3d1a6eed	0.037703443
101	0xbd91c2d5	-0.071172394
102	0x3cf56680	0.029956102
103	0xbc938ff4	-0.018012978
104	0x3bb7a4e9	0.0056043756
105	0x3d1e5abd	0.038660754
106	0xba0b72b8	-0.00053195236
107	0x3b8cd2ff	0.0042976136
108	0xbc3105af	-0.010804578
109	0x3d0e37d5	0.034721214
110	0x3d4ac8ea	0.049508013
111	0xbc85765e	-0.016291793
112	0xbc324140	-0.010879815
113	0xbd890f2f	-0.06692349
114	0x3d194a7f	0.03742456
115	0x3a984947	0.0011618518
116	0x3cd83eb0	0.02639708
117	0xbbef3189	-0.007299606
118	0xbc16e718	-0.0092103705
119	0x3d8adafa	0.06780048
120	0x3d55005c	0.052002296
121	0x3d0d7b36	0.03454133
122	0xbcc1af11	-0.023643048
123	0xbd62c67a	-0.055365063
124	0xbcbd5646	-0.023112427
125	0xbcc2e1a8	-0.023789242
126	0xbcbfc893	-0.02341107
127	0x3d6d9e94	0.05801256
128	0x3d1c5fe2	0.03817738
129	0xbd2d7b49	-0.042353902
130	0x3d63c4f7	0.055607762
131	0xbd980850	-0.074234605
132	0x3c1371ed	0.00899933
133	0xbd0bbe0e	-0.034116797
134	0x3cb76e23	0.022391384
135	0xbd79eaac	-0.061014816
136	0x3c893433	0.016748523
137	0xbd337401	-0.0438118
138	0x3d49d908	0.049279243
139	0x3c8d857c	0.017275564
140	0xbd6299a8	-0.05532232
141	0xbd4a49fc	-0.049386963
142	0x3d2efda2	0.04272235
143	0xbc990e71	-0.018683644
144	0x3d16dbcc	0.03683071
145	0x3c77893a	0.015108401
146	0x3ca5804a	0.020202775
147	0xbb59e9f5	-0.0033251022
148	0xbcfb33d3	-0.03066436
149	0xbd9e8084	-0.07739356
150	0xbca4bad2	-0.020108614
151	0xbd96a009	-0.07354743
152	0x3d1db98b	0.038507026
153	0x3cca32b2	0.024682377
154	0x3d0c3a80	0.034235477
155	0xbcb6bbab	-0.022306284
156	0x3d54b67c	0.051931843
157	0x3ce3da0a	0.02781393
158	0xbbfa0178	-0.0076295696
159	0xbd3a5109	-0.045487437
160	0x3d6d7d9a	0.05798111
161	0x3ba79457	0.005114119
162	0xbcab2a17	-0.020894093
163	0xbd6fe3e3	-0.05856694
164	0x3d297cda	0.041378833
165	0x3c6d6773	0.014489996
166	0x3c0e9f94	0.008705039
167	0x3cbfa58d	0.02339437
168	0xbd4d7b44	-0.050166383
169	0xbd6ccb10	-0.057810843
170	0xbc082e13	-0.008311766
171	0xbcde4678	-0.027133211
172	0xbcb66f34	-0.022269823
173	0x3d40bfe6	0.04705801
174	0x3d75f55b	0.060048442
175	0xbc27117b	-0.010197039
176	0x3bbafd68	0.005706478
177	0xbd2e8923	-0.042611253
178	0x3cbcedda	0.023062635
179	0x3b85af6d	0.0040797503
180	0xbceff15f	-0.0292899
181	0xbd7375c9	-0.0594385
182	0xbb9cf518	-0.0047899596
183	0xbd6ba119	-0.05752668
184	0x3ca59b13	0.020215547
185	0x3d831060	0.06399608
186	0xbd79d405	-0.060993213
187	0x3d06327c	0.03276299
188	0x3d505051	0.050857846
189	0xbd857332	-0.065161124
190	0xbce70513	-0.028200662
191	0x3d3ef88e	0.04662376
192	0xbcde94af	-0.027170507
193	0xbcd82af8	-0.026387677
194	0xbc6929aa	-0.014231125
195	0x3d607dc9	0.054807458
196	0xbd52b9c9	-0.05144671
197	0xbd10a3dc	-0.03531252
198	0x3d29bda1	0.04144061
199	0x3d0ce420	0.034397244
200	0x3a8830a3	0.0010390471
201	0xbd3f3db1	-0.046689693
202	0xbcea6587	-0.028612865
203	0xbd89e22f	-0.06732594
204	0xbd6a2ad8	-0.057169765
205	0x3c9ed8e0	0.019390523
206	0x3d587764	0.052848235
207	0xbc06af1b	-0.008220459
208	0xbc92b984	-0.017910726
209	0x3cea7e24	0.028624602
210	0x3d30a8ab	0.043129604
211	0xbd86905e	-0.065705046
212	0xbc3ba500	-0.011452913
213	0x3c5776a1	0.013150842
214	0x3d34c2fc	0.044131264
215	0x3b852b26	0.0040639816
216	0x3c94a869	0.01814671
217	0x3c47deb1	0.01219909
218	0xbb2419f6	-0.0025039888
219	0x3cd1cebf	0.02561128
220	0x3d2d040c	0.042240188
221	0xbd821202	-0.06351091
222	0xbc1ccc16	-0.009570142
223	0xbd868b0a	-0.06569488
224	0x3c7c0ece	0.015384389
225	0x3c37632c	0.011193078
226	0xbd56354e	-0.05229693
227	0xbd48803b	-0.048950415
228	0xbc9c842f	-0.019105999
229	0xbc73529d	-0.0148512395
230	0xbd928664	-0.07154539
231	0x3d1ad85b	0.03780399
232	0x3d61f524	0.055165425
233	0xbd8cbbd7	-0.06871765
234	0x3d6599a9	0.056054745
235	0x3cb60023	0.022216862
236	0x3d4bfe85	0.049803276
237	0x3d797cc4	0.06091
238	0xb87d4539	-6.038437e-05
239	0xbcc419a7	-0.023938013
240	0xbcaa4294	-0.0207837
241	0x3c8e38c4	0.017361052
242	0xbd1226f7	-0.03568169
243	0x3d733a47	0.05938175
244	0xbd7e047c	-0.062015995
245	0x3d547071	0.051865045
246	0xbd053fb0	-0.03253144
247	0xbd81acfa	-0.06331821
248	0xbd09f2a1	-0.033678655
249	0x3d1a6a4f	0.03769904
250	0x3d4997e3	0.049217116
251	0x3d65c29a	0.05609379
252	0xbd8dd832	-0.069260016
253	0x3d2bb44b	0.041919988
254	0xbd98345c	-0.07431862
255	0xbd0adc54	-0.033901528

conv2.bias f4 [16]
0	0x3cff72dc	0.031182699
1	0xbd3ea39b	-0.046542745
2	0xbc11b78d	-0.00889386
3	0xbd788304	-0.06067182
4	0xbcc2e723	-0.023791855
5	0x3cc531ef	0.024071662
6	0x3d067571	0.032826845
7	0x3d5d6d51	0.05405933
8	0x3d157f76	0.03649851
9	0x3b62bdba	0.003459795
10	0x3ce4a37d	0.027909989
11	0xbd7a25bf	-0.061071154
12	0xbd5b29c5	-0.05350663
13	0xbd1de6a7	-0.038550045
14	0xbd66da34	-0.05636044
15	0x3d14bf5d	0.03631531

conv3.weight f4 [32, 16, 3, 3, 3]
0	0x3c9983f8	0.018739685
1	0xbc99967f	-0.01874852
2	0xbd1c614a	-0.03817872
3	0x3c309963	0.010778758
4	0xbcfa7812	-0.030574832
5	0xbc8d45c5	-0.017245183
6	0x3c27adeb	0.010234336
7	0xbd510bfa	-0.051036812
8	0xbcc95c0d	-0.024580026
9	0xbce9714b	-0.028496405
10	0x3bde7314	0.0067886207
11	0xbc5f672d	-0.013635439
12	0xbc3b250f	-0.01142241
13	0xbd3de183	-0.046357643
14	0x3b89751c	0.0041948687
15	0xbd15f91d	-0.036614526
16	0x3b626d8d	0.003455016
17	0xbbfad671	-0.007654958
18	0xbd2b2a44	-0.041788355
19	0xbd1cf240	-0.038316965
20	0xbafb754f	-0.0019184741
21	0xbb9485a1	-0.0045325314
22	0xbcf04569	-0.029329972
23	0x3bd4a9e0	0.0064899772
24	0x3c5ecefb	0.013599153
25	0x3a9fada3	0.0012182485
26	0x3b80afc7	0.0039272043
27	0xbd079895	-0.033104498
28	0xbd0bfcc5	-0.034176607
29	0xbccdeab8	-0.025136337
30	0xbc6b8941	-0.014375986
31	0x3c172bba	0.009226734
32	0x3cf46ac5	0.029836068
33	0xbc8d8f54	-0.017280258
34	0x3a93c0b2	0.0011272638
35	0x3d1f3f8f	0.038878974
36	0x3d00fda9	0.03149191
37	0xbcacf7b1	-0.021114202
38	0x3b9e9b64	0.0048403013
39	0xbc11c789	-0.008897671
40	0x3d1c4492	0.03815133
41	0xbc3a5f53	-0.011375266
42	0x3d22ae04	0.039716735
43	0x3c6fefed	0.014644605
44	0xbd605df4	-0.0547771
45	0x3d27c1e7	0.040956404
46	0xbcf91bae	-0.030408707
47	0xbd4a4ee3	-0.04939164
48	0x3d251113	0.040299486
49	0xbc88c472	-0.016695235
50	0x3d1bafc8	0.038009435
51	0x3c42a8b4	0.011881042
52	0xbccd8f4e	-0.025092747
53	0x3c98187f	0.018566368
54	0xbd656795	-0.056006987
55	0xbce43ee5	-0.027862022
56	0xbc0a5b8f	-0.008444681
57	0xbb8ebb9e	-0.004355862
58	0x3cb758fa	0.022381295
59	0xbd06c92e	-0.032906704
60	0xbd173127	-0.03691211
61	0x3cee069d	0.029055888
62	0x3bb7738e	0.005598492
63	0xbcd9272a	-0.026507933
64	0xbd63e43c	-0.055637583
65	0xbd455af7	-0.048182454
66	0xbd074412	-0.0330239
67	0x3d20479f	0.039130803
68	0x3ce262b5	0.027634958
69	0xbd15ffe2	-0.036620982
70	0xba4e37f2	-0.0007866613
71	0x3d05e83b	0.032692175
72	0xbca5ba0e	-0.02023032
73	0x3cc77df5	0.024352053
74	0x3cccd065	0.025001714
75	0x3c16df77	0.009208552
76	0x3bc6b7dd	0.0060643987
77	0xbc7a01e5	-0.015259241
78	0xbc513b20	-0.012770444
79	0xbc0598d3	-0.008154112
80	0xbce6eab8	-0.028188094
81	0xbce6bf73	-0.028167462
82	0x3c84dbee	0.016218152
83	0xbd046376	-0.032321416
84	0x3beaf6c6	0.007170531
85	0xbb91e94f	-0.0044528614
86	0x3cb3d5b1	0.021952482
87	0x3b9ae08b	0.0047264746
88	0x3cf2f8fe	0.029659744
89	0x3bf7d0c2	0.0075627277
90	0x3d5a86ba	0.05335114
91	0x3d548c8b	0.051891845
92	0x3cf07136	0.029350858
93	0x3d09b15d	0.033616412
94	0x3d33b089	0.04386953
95	0x3afa2c63	0.0019086715
96	0x3c5c1798	0.01343336
97	0xbc9381d6	-0.018006247
98	0xbce2ca85	-0.02768446
99	0xbc99e102	-0.01878405
100	0xbc31ade7	-0.010844684
101	0xbd2a54dc	-0.041584834
102	0x3ca99656	0.020701569
103	0xbc2d804a	-0.0105896685
104	0xbc957960	-0.018246353
105	0xbd1b685e	-0.03794133
106	0xbc5dcd8c	-0.013537776
107	0x3ccf9624	0.025340147
108	0x3c98e59d	0.018664176
109	0x3c625219	0.013813519
110	0xbb3280d9	-0.0027237444
111	0xbd2d460b	-0.042303126
112	0xbcca2f55	-0.024680773
113	0xbca16461	-0.019701185
114	0x3ba84809	0.0051355404
115	0x3d243bf1	0.040096227
116	0xbd605837	-0.05477163
117	0x3c98bcee	0.018644776
118	0xbd33807f	-0.043823715
119	0x3d19e4b1	0.037571613
120	0xbd3c8307	-0.046023395
121	0xbbbb7c51	-0.005721607
122	0xbc6e0a2c	-0.014528792
123	0xbcbe3175	-0.023216942
124	0xbd0285fc	-0.03186606
125	0xbd4c4b74	-0.049876645
126	0xbc93b9fd	-0.018033022
127	0xbd0e9205	-0.034807224
128	0xbc8ee317	-0.01744227
129	0x3c1288c5	0.008943741
130	0xbcde7af1	-0.027158232
131	0xbc5c92b7	-0.013462714
132	0xbccd37ec	-0.02505108
133	0xbbc9d98e	-0.0061599677
134	0xbc24d507	-0.010060555
135	0xbbba24b5	-0.0056806454
136	0xbc4c05a2	-0.012452515
137	0x3ab4ce2c	0.0013794354
138	0x3c7483a7	0.0149239665
139	0x3c88ba18	0.016690299
140	0xbd46c849	-0.04853085
141	0x3bd73489	0.006567542
142	0x3c9634ee	0.018335786
143	0xbcaafc68	-0.02087231
144	0x3d00cfb0	0.031448066
145	0xbcd56724	-0.026050158
146	0xbcfc465c	-0.030795269
147	0xbd18d20d	-0.037309695
148	0xbd065234	-0.03279324
149	0xbc5354f8	-0.012898676
150	0x3c8cc1ce	0.017182257
151	0xbd390a17	-0.045175638
152	0xbd0efd09	-0.034909282
153	0xbd5a50af	-0.053299602
154	0xbc860364	-0.016359039
155	0x3d1a72d8	0.03770718
156	0x3d05e4a8	0.032688767
157	0xbc37c97b	-0.01121747
158	0x3c52d1f5	0.0128674405
159	0xbb73be08	-0.0037192125
160	0xbcde1c09	-0.027112978
161	0x3af79d0a	0.0018891406
162	0x3cd506b9	0.026004182
163	0xbd26b79d	-0.04070245
164	0xbd5a7390	-0.053332865
165	0xbcd96fb2	-0.026542518
166	0xbbc69d5c	-0.006061239
167	0x3c7f41aa	0.01557962
168	0x3cf497ed	0.0298576
169	0xbd0480b4	-0.032349303
170	0xbcf24bac	-0.029577099
171	0xbd49e2b7	-0.049288478
172	0x3caa07ad	0.020755613
173	0xbcf58db6	-0.0299748
174	0xbd168035	-0.03674336
175	0x3cfe47fd	0.031040186
176	0xbd38affc	-0.045089707
177	0x3c85f559	0.016352342
178	0xbd29e9e6	-0.04148283
179	0xbd15af13	-0.036543917
180	0x3c3ae38a	0.011406789
181	0x3d0b7027	0.034042504
182	0x3a58a7c7	0.0008264747
183	0x3caa42ff	0.0207839
184	0x3d1686ad	0.03674953
185	0x3c67db31	0.01415138
186	0x3d0af4eb	0.03392498
187	0x3cf0351f	0.029322205
188	0xbd30979f	-0.043113347
189	0xbd47701a	-0.048690893
190	0x3c941db5	0.018080572
191	0xbce8a86b	-0.02840062
192	0x3cb4c664	0.022067256
193	0xbc6fdaa4	-0.01463953
194	0xbc960424	-0.018312521
195	0x3d3c833d	0.046023596
196	0xbcc4f0dd	-0.024040634
197	0xbd3f90e9	-0.046769056
198	0x3d14117a	0.03614948
199	0xbc2dfb3f	-0.010618984
200	0xbd277321	-0.04088128
201	0x3d330958	0.043710083
202	0x3d39449f	0.045231458
203	0x3d03fbdb	0.03222261
204	0xbcfb6ae9	-0.030690627
205	0xbcdc8eac	-0.0269235
206	0x3d3d8fef	0.046279844
207	0xbacf5881	-0.0015819223
208	0x3cee7e86	0.029113065
209	0xbce829e3	-0.028340286
210	0x3d2461d5	0.040132362
211	0x3ae357b7	0.0017344867
212	0xbcfcdbcf	-0.030866532
213	0xbc89fbe2	-0.01684374
214	0xbc1e1768	-0.009649135
215	0xb971c3ce	-0.00023056494
216	0x3b85b7d7	0.0040807533
217	0xbd28a1db	-0.041169982
218	0xbd1f83b7	-0.038943972
219	0xbd4133c7	-0.04716852
220	0x3d087f0c	0.033324286
221	0xbc0b3d1a	-0.0084984545
222	0xbc2d11eb	-0.010563354
223	0x3be40a97	0.00695927
224	0xbd49b2f4	-0.04924293
225	0x3c512ad8	0.012766562
226	0x3d08b214	0.033372954
227	0xbcf2c46a	-0.029634673
228	0x3cbd9690	0.023143083
229	0xbc4e4ac4	-0.012591068
230	0xbb243472	-0.0025055674
231	0x3ceace75	0.0286629
232	0x3c1671d1	0.009182409
233	0xbd2b85d6	-0.041875683
234	0xbd60e3ab	-0.05490462
235	0x3ca81a3d	0.020520324
236	0xbc74f931	-0.01495199
237	0x3b746e7b	0.0037297297
238	0xbd5c6fbb	-0.053817492
239	0x3c10e703	0.00884414
240	0x3ca6704d	0.020317221
241	0xbd5a4530	-0.05328864
242	0x3d1d1478	0.0383496
243	0x3cff8158	0.031189606
244	0xbc50cf27	-0.0127447015
245	0xbd35c45d	-0.04437672
246	0x3c071324	0.00824431
247	0xbc3d4e6f	-0.011554345
248	0x3cb0de02	0.021590237
249	0xbd3d6a35	-0.046243865
250	0xbd35e47e	-0.04440736
251	0xbd1ec32a	-0.03876034
252	0xbcba48a2	-0.022739712
253	0xbc284985	-0.010271435
254	0x3ca1f4f4	0.019770123
255	0x3cee5d79	0.029097306

conv3.bias f4 [32]
0	0xbb0af7c7	-0.0021204816
1	0xbbe1cba9	-0.0068907333
2	0x3c865978	0.016400084
3	0xbcbcd1e2	-0.023049299
4	0x3d056aca	0.032572545
5	0x3d09ae62	0.03361357
6	0xbc9f351e	-0.019434508
7	0xbb643dda	-0.0034826905
8	0xbc653ccf	-0.013991549
9	0xbd4743fd	-0.048648823
10	0x3d362693	0.04447038
11	0xbb291a2d	-0.0025802955
12	0x3cdac420	0.026704848
13	0x3ce36827	0.027759625
14	0x3d211d46	0.039334558
15	0xbcd70a6d	-0.026250089
16	0x3d22e50b	0.039769214
17	0x3d1096b3	0.035299968
18	0xbbfdb911	-0.007743009
19	0x3d019a60	0.031641364
20	0xbb7effcc	-0.003890979
21	0xbca49ba7	-0.020093752
22	0x3d0ffd19	0.035153482
23	0x3b6b2608	0.0035880823
24	0x3cad27da	0.021137167
25	0x3d170c31	0.03687686
26	0xbc8797e5	-0.016551921
27	0xbcc5a95e	-0.024128612
28	0x3c759840	0.0149899125
29	0x3cf0aa06	0.029377948
30	0x3ccf86c4	0.025332816
31	0xbd365a8a	-0.04451994

fc1.weight f4 [128, 864]
0	0x3ce384b2	0.027773235
1	0x39ddaa80	0.00042279437
2	0xbc789802	-0.01517296
3	0xbcb5b328	-0.022180155
4	0xbc65f9c2	-0.014036598
5	0x3cae26f4	0.021258809
6	0x3a06df80	0.00051449984
7	0xbbade580	-0.0053068995
8	0xbc8f9e66	-0.017531585
9	0x3c559060	0.01303491
10	0x3bdbf748	0.006712828
11	0x3c15d9fc	0.00914621
12	0x3c5d8fc0	0.013523042
13	0x3b87eac0	0.0041478574
14	0xbcbda169	-0.023148255
15	0x3ce0d38e	0.027444627
16	0xbc010834	-0.007875491
17	0xbca840c0	-0.020538688
18	0x3c92c896	0.017917912
19	0x3bc99b00	0.0061525106
20	0xbc32cbaa	-0.010912815
21	0x3b5f1c20	0.0034043863
22	0xbcf1d3d4	-0.029519953
23	0x3cfdf88c	0.031002305
24	0xbd0480a0	-0.03234923
25	0x3c2527d0	0.010080293
26	0xbc0c5538	-0.00856524
27	0xbce3ebce	-0.027822401
28	0x3c77803c	0.015106257
29	0xbc0259d8	-0.007955991
30	0x3ceff089	0.0292895
31	0xbc63843d	-0.0138865085
32	0x3cb4e271	0.022080632
33	0x3c6360dc	0.013878074
34	0x3b8421fc	0.0040323716
35	0x3bbd5f19	0.005779159
36	0xbd08aff6	-0.033370934
37	0xbcfabb2c	-0.030606829
38	0x3c7b92ae	0.015354795
39	0xbd0d7d94	-0.03454359
40	0x3cb46aac	0.022023521
41	0xbd13e3ec	-0.036106035
42	0x3cc77d36	0.024351697
43	0x3c9bd011	0.019020112
44	0xbbc23617	-0.005926858
45	0xbd09871f	-0.033576127
46	0xbb917a59	-0.004439634
47	0x3c549450	0.012974814
48	0xbbc43ed1	-0.0059889336
49	0xbc9a7892	-0.01885632
50	0x3c540792	0.012941258
51	0xbc9e1b23	-0.01930005
52	0x3c772745	0.015085046
53	0xbcfab87f	-0.030605553
54	0xbcc26e5c	-0.023734264
55	0xbcd75f41	-0.026290538
56	0xb86c0ec2	-5.628053e-05
57	0xbd2ed3e3	-0.04268254
58	0x3c18fc62	0.0093375165
59	0xbcc62477	-0.02418731
60	0xbc6b071e	-0.014344959
61	0xbc16b5d5	-0.009198626
62	0x3c8156cf	0.015788464
63	0xbc148526	-0.009064948
64	0x3b4677d6	0.003028383
65	0x3cfc95a5	0.030833075
66	0xbd15808d	-0.03649955
67	0xbc894f5f	-0.01676148
68	0xbb8ec2c9	-0.0043567163
69	0xbcfcdb40	-0.030866265
70	0xbaece005	-0.0018072134
71	0xbcb61f86	-0.022231828
72	0xbd0a672d	-0.033789802
73	0x3cd12746	0.025531422
74	0x3ce288ba	0.027653087
75	0x3c48d372	0.012257444
76	0xbc318190	-0.010834113
77	0x3cda2d5f	0.026632963
78	0x3ce46ae0	0.027882993
79	0xbc161c2d	-0.009161991
80	0xbce51345	-0.02796329
81	0xbc616478	-0.013756864
82	0x3cc86d86	0.024466287
83	0x3c986efc	0.018607609
84	0x3d0022a6	0.031283043
85	0x3a632ac0	0.0008665733
86	0xbd017292	-0.031603403
87	0x3d0446e2	0.03229416
88	0xbcd9f878	-0.026607737
89	0xbb112fc0	-0.0022153705
90	0x3ca89fea	0.020584065
91	0xbc6eb464	-0.014569376
92	0xbca91fc8	-0.020645037
93	0x3cbc4ee4	0.022986837
94	0x3cb84be0	0.022497118
95	0xbd056957	-0.032571163
96	0x3c9f4520	0.019442141
97	0xbc8face9	-0.017538505
98	0xbb22e140	-0.0024853498
99	0xbc5b74c1	-0.0133945355
100	0xbc533bcc	-0.012892675
101	0x3ccd234a	0.025041241
102	0x3c04cbd8	0.008105241
103	0xbca97dfa	-0.020689953
104	0xba8ff1f0	-0.0010982137
105	0xbc681016	-0.014163991
106	0xbcd4bf0e	-0.025970008
107	0xbcbcf36f	-0.023065297
108	0xbb261b30	-0.0025345795
109	0xbd0fcc32	-0.035106845
110	0x3cd51621	0.026011528
111	0x3c3eb02b	0.011638681
112	0x3c5ca590	0.013467208
113	0x3cbfdd4b	0.02342095
114	0xbca249c1	-0.01981056
115	0x3c08ecf9	0.00835728
116	0xbba7738f	-0.005110211
117	0x3c3c6d98	0.011500739
118	0x3b8a9e90	0.004230328
119	0x3cb3a39e	0.021928605
120	0xbb44cb20	-0.0030028298
121	0x3cbe66fa	0.023242462
122	0xbc8f9b52	-0.017530117
123	0xbcb1077c	-0.021610014
124	0xbc4c155c	-0.012456264
125	0x3c8b4b34	0.017003633
126	0xbca70632	-0.020388696
127	0xbd02f062	-0.03196753
128	0x3b0415f0	0.0020154677
129	0x3c5b84c8	0.013398357
130	0xbca8613a	-0.020554174
131	0x3c7842f0	0.015152678
132	0x3cedbd10	0.029020816
133	0x3cb23f54	0.021758713
134	0xbd02a906	-0.031899475
135	0xbb94b9e6	-0.0045387624
136	0xbce3baec	-0.027799092
137	0xbc0bba03	-0.008528235
138	0xbd0a02d0	-0.03369409
139	0xbac9ad40	-0.0015386716
140	0x3c840dfb	0.016119948
141	0x3c69ec98	0.0142776
142	0x3cae1ab0	0.02125296
143	0x3c1b118b	0.009464632
144	0xbc811f48	-0.015761986
145	0x3c85e1fd	0.016343111
146	0xbc01e457	-0.007927976
147	0xbb9c69c8	-0.0047733523
148	0xbd026b54	-0.031840637
149	0x3c15dd05	0.009146933
150	0x3c715b14	0.014731187
151	0x3ca6b56e	0.020350184
152	0xbc0adeed	-0.008476001
153	0xbcccd5af	-0.025004236
154	0xbaed5e3b	-0.0018109748
155	0xbb560aa9	-0.0032660163
156	0xbb505c67	-0.0031793357
157	0xbd1b5373	-0.03792138
158	0x3be2b8f5	0.0069190213
159	0xbcc2911a	-0.02375083
160	0xbc1a4a2f	-0.009417101
161	0xbc6408fd	-0.013918159
162	0xbc804e7c	-0.015662424
163	0x3c2470f0	0.010036692
164	0x3c8d5056	0.017250221
165	0x3c917b68	0.01775904
166	0xbcc2250f	-0.023699312
167	0x3cfcdf2c	0.030868135
168	0x3cbe637c	0.023240797
169	0xbc210d6c	-0.00982986
170	0xbc93de87	-0.018050445
171	0xbc821d9e	-0.015883263
172	0x3b23ea70	0.0025011562
173	0x3cbec3b8	0.023286685
174	0x3d0505ce	0.03247624
175	0xbc8739b2	-0.016507003
176	0xbb3383c0	-0.0027391762
177	0x3cba3e02	0.022734646
178	0xbc0c5c88	-0.008566983
179	0xbd184669	-0.037176523
180	0x3aa47000	0.0012545586
181	0xbbe21064	-0.0068989266
182	0xbb895074	-0.004190499
183	0xbcd0f171	-0.025505753
184	0x3c852f26	0.016257834
185	0xba54ce80	-0.0008117929
186	0xbc72f2b6	-0.014828375
187	0x3c9b0298	0.018922135
188	0xb8c3e800	-9.341538e-05
189	0x3ccaa2cb	0.024735829
190	0xbcd41753	-0.025890028
191	0xbc5dcb8c	-0.013537299
192	0xbc030eb7	-0.007999114
193	0xbbc65630	-0.006052755
194	0xbbbabb20	-0.0056985766
195	0x3b85acfe	0.00407946
196	0xbce06d5d	-0.027395898
197	0x3cd5b20c	0.026085876
198	0x3a056140	0.0005088039
199	0xbc649abc	-0.013952907
200	0x3c7f2f5c	0.015575256
201	0xbcd36c9c	-0.025808625
202	0xbce08788	-0.027408376
203	0x3cf3838c	0.029725812
204	0xba963b00	-0.0011461675
205	0x3cf1021c	0.029419951
206	0xba9ec9c0	-0.001211457
207	0x3b58fd81	0.0033110084
208	0xbc3bc394	-0.011460204
209	0x3ca01c8a	0.019544858
210	0x3abb9aa0	0.001431305
211	0xbcebbb74	-0.028775908
212	0xbc158f24	-0.009128366
213	0x3b9cf098	0.004789423
214	0x3cf822ec	0.03029009
215	0xbcb7f188	-0.022454038
216	0x3c30f474	0.01080047
217	0x3cabd328	0.02097471
218	0xbcff189b	-0.031139662
219	0x3b85fdd6	0.0040890975
220	0x3ce7e1b4	0.028305866
221	0xbd03d7a2	-0.032188065
222	0xbca61e06	-0.020277988
223	0xbaa9f060	-0.0012965314
224	0xbbb16e5c	-0.005414767
225	0xbc0148f5	-0.0078909295
226	0x3bb0dc16	0.00539733
227	0x3767a000	1.3805926e-05
228	0xbcfbd4e6	-0.030741166
229	0xbc29ff04	-0.010375742
230	0xbcdaa4e7	-0.02668996
231	0x3cb9f395	0.022699157
232	0x3cf1031c	0.029420428
233	0x3bb4fdf0	0.005523436
234	0xbd174bdb	-0.036937576
235	0xbd1ad5c0	-0.037801504
236	0xbc0ef41c	-0.008725192
237	0xbcd701a9	-0.026245909
238	0xbcadb6ce	-0.021205332
239	0xbc00681a	-0.00783732
240	0x3c5223c6	0.012825912
241	0x3c8bbdc0	0.017058253
242	0x3cb184f2	0.021669839
243	0x3c2b8f04	0.010471109
244	0xb991361f	-0.00027696879
245	0xbb356680	-0.0027679503
246	0xbca76039	-0.020431625
247	0xbd0cd801	-0.034385685
248	0x3bd3cdf9	0.006463763
249	0x3cc1f3f6	0.0236759
250	0x3c26152a	0.010136882
251	0x3a928b32	0.00111804
252	0xbc93d233	-0.018044567
253	0xbc0b8c6a	-0.008517364
254	0x3cb5d222	0.022194926
255	0xbd161130	-0.036637485

fc1.bias f4 [128]
0	0xbb7f3702	-0.00389427
1	0xbcde7400	-0.027154922
2	0x3c8bd0d4	0.01706735
3	0x3a6ff3f8	0.00091534806
4	0x3c58c470	0.013230428
5	0xbd0a2546	-0.033726953
6	0x3b49bc28	0.0030782316
7	0xbc125edb	-0.008933748
8	0xbbecca79	-0.007226285
9	0xb9fb9cb2	-0.00047991198
10	0x3c999f8a	0.018752832
11	0xbcbd22bb	-0.02308785
12	0x3d06ccb9	0.032910082
13	0x3cf8f29d	0.030389125
14	0x3cfaf7ac	0.030635677
15	0xbc959aa5	-0.018262217
16	0xbbb4387c	-0.0054998975
17	0xbd0a6dd6	-0.033796154
18	0x3c1a29d5	0.009409388
19	0xbd034c12	-0.03205497
20	0xbcdf85c4	-0.027285464
21	0xbbb918dc	-0.0056487154
22	0xbc553d28	-0.013015069
23	0xbc97b36e	-0.018518176
24	0xbcb4034a	-0.021974225
25	0xbcc59c54	-0.024122395
26	0x3d2b6d56	0.041852318
27	0xbc7e1630	-0.01550822
28	0xbcde88d2	-0.02716485
29	0xbcdfef8e	-0.027335908
30	0xbbf7167f	-0.0075405235
31	0x3a8fc5b9	0.001096896
32	0x3c9513e8	0.018197969
33	0x3c26c9b8	0.010179929
34	0xbc7088f9	-0.014681094
35	0x3c1500ed	0.009094459
36	0x3cad86fb	0.021182528
37	0x3cc32c1b	0.023824742
38	0xbc2b443b	-0.010453279
39	0xbce68358	-0.028138801
40	0xbc83ca22	-0.016087595
41	0x3cb984a0	0.022646248
42	0x3c53428b	0.012894283
43	0x3c897333	0.016778564
44	0xba88f41c	-0.0010448727
45	0xbc27af97	-0.010234735
46	0x3c38fa35	0.011290123
47	0x3cc207d6	0.023685377
48	0xbb550eb5	-0.0032509987
49	0xbc94403a	-0.018097032
50	0x3d00312d	0.031296898
51	0x3c3b496a	0.0114310775
52	0x3ca0cdd0	0.019629389
53	0x3c554e95	0.013019224
54	0xbcafd60d	-0.021464372
55	0x3ca2c4b6	0.01986919
56	0x3c0d9f0c	0.008643877
57	0xbca6deef	-0.020369975
58	0x395ae48b	0.00020875239
59	0x3b767832	0.0037608263
60	0xbc61e77c	-0.0137881
61	0x3cee0972	0.029057238
62	0xbbeee015	-0.0072898963
63	0xbd12f7f3	-0.035880994
64	0xbcc498fd	-0.023998732
65	0xbc71a7d5	-0.014749487
66	0x3c8e7f75	0.01739476
67	0xbcd1f5a7	-0.025629831
68	0xbcfe1783	-0.03101707
69	0xbccd9a54	-0.025098003
70	0xbc5aa691	-0.013345377
71	0xbca89888	-0.020580545
72	0x3b6ea5ec	0.0036414815
73	0xbcfea3e0	-0.031084001
74	0xbc86c6af	-0.016452162
75	0xbca4fc1e	-0.02013975
76	0x3bf18fac	0.0073718634
77	0x3b157cf5	0.0022810076
78	0x3bc70b0b	0.0060743145
79	0x3c8ee35d	0.0174424
80	0x3c0d5df2	0.008628355
81	0xbccfa58f	-0.0253475
82	0xbc6b9b98	-0.014380358
83	0xbc955e62	-0.018233482
84	0x3ca2e3ec	0.019884072
85	0xbcf3b09d	-0.029747302
86	0xbbf96a53	-0.007611552
87	0xbb582695	-0.003298198
88	0xbc26af6d	-0.010173661
89	0xbcb465c5	-0.022021184
90	0x3cb73de8	0.022368386
91	0xbc809e71	-0.01570055
92	0xbbdf5493	-0.006815502
93	0x3ceb45b1	0.028719755
94	0x3d27db4f	0.040980633
95	0x3c0d70f5	0.008632888
96	0x3caaf20e	0.020867374
97	0xbc12623c	-0.008934554
98	0x3bfa6e1c	0.0076425206
99	0xbcfad5e5	-0.030619571
100	0xbcc6a7b6	-0.024249893
101	0xbbf76fd2	-0.007551172
102	0xbcb6def2	-0.022323105
103	0xbcc1347e	-0.0235846
104	0x3cee8f0b	0.029120943
105	0x3cb79dc5	0.022414098
106	0xbafca23d	-0.0019274425
107	0xbaf5cfc7	-0.0018753939
108	0x3cdb748f	0.026788978
109	0xbcacadd1	-0.021078976
110	0xbcb36243	-0.02189744
111	0xbcb1ee3f	-0.02172005
112	0x3c33b295	0.01096787
113	0xbc05fd96	-0.008178135
114	0xbbe5f07a	-0.0070171924
115	0xbd047021	-0.032333497
116	0xbbb3bd50	-0.0054852143
117	0x3d237e7b	0.039915543
118	0xbc534450	-0.012894705
119	0xbd0f291d	-0.034951318
120	0x3c70cd96	0.014697453
121	0x3af07081	0.0018344076
122	0x3cad8138	0.02117978
123	0x3cd38e2f	0.025824634
124	0x39e69517	0.000439801
125	0x3c69ce4e	0.014270378
126	0x3cf6d7c8	0.03013219
127	0xbd0f0b31	-0.034922782

fc2.weight f4 [2, 128]
0	0xbd5f1c0e	-0.054470114
1	0xbd8bb02c	-0.068207115
2	0x3d9516da	0.07279749
3	0xbc9d3dd1	-0.019194515
4	0xbb8ff991	-0.0043937643
5	0x3c038ad8	0.008028708
6	0x3d16551b	0.036702257
7	0x3d74526c	0.059648916
8	0xbd6e8762	-0.05823458
9	0xbd793340	-0.06083989
10	0x3d868fff	0.06570434
11	0x3c2addc9	0.010428854
12	0xbcb73516	-0.02236418
13	0x3ce18f07	0.027534021
14	0xbd06c228	-0.032900006
15	0x3c98f6d2	0.01867238
16	0xbda71ee5	-0.081601895
17	0x3d55ef03	0.052229892
18	0x3d926093	0.07147326
19	0xbd03a49c	-0.032139406
20	0xbc43a278	-0.011940591
21	0x3cf42a76	0.029805403
22	0xbd04ca10	-0.032419264
23	0xbd26abdb	-0.040691238
24	0x3d4743e1	0.04864872
25	0x3d93ed1a	0.07222958
26	0x3d35a9ef	0.044351514
27	0x3d7793f2	0.060443826
28	0xbd236e44	-0.03990008
29	0xbd363ae2	-0.04448975
30	0xbd12a31e	-0.035800092
31	0x3c837354	0.016046204
32	0x3cd0c7ec	0.025485955
33	0x3c498435	0.012299587
34	0x3c738d7a	0.014865274
35	0xbdaba0bb	-0.08380266
36	0x3d4f1ac9	0.050562654
37	0xbd467543	-0.048451673
38	0x3d138b61	0.036021594
39	0x3d2b111a	0.041764356
40	0x3d082135	0.033234794
41	0xbd88c1d2	-0.06677593
42	0x3dade3e3	0.084907316
43	0x3d9df712	0.077131405
44	0x3c959791	0.018260749
45	0xbc38551d	-0.011250761
46	0x39f98d14	0.00047598092
47	0xbd858ab3	-0.065205954
48	0x3d0d53cd	0.034503747
49	0x3d04650a	0.03232292
50	0x3cbb4cd1	0.022863777
51	0xbd10a426	-0.035312794
52	0x3d3fa559	0.046788547
53	0xbba1d033	-0.0049381494
54	0x3cfa97de	0.030589994
55	0xbd24a577	-0.040196862
56	0x3db5d7ce	0.08879052
57	0xbc4d0ff9	-0.012516015
58	0xbd83aa2d	-0.06428943
59	0x3d893eaa	0.06701405
60	0x3cb57f15	0.022155324
61	0xbd607629	-0.054800186
62	0x3d77de8f	0.060514983
63	0x3bfc3ddb	0.0076978034
64	0xbdbfbb37	-0.0936188
65	0xbcde5d67	-0.027144147
66	0x3d6382ff	0.05554485
67	0xbc1daa82	-0.009623172
68	0x3c2e2a35	0.01063018
69	0xbd1fb239	-0.038988326
70	0x3c5e71d7	0.013576946
71	0x3a07e380	0.00051837415
72	0x3a1da365	0.00060134224
73	0x3d427a06	0.047479652
74	0xbd37fd15	-0.044919092
75	0x3bb77953	0.00559918
76	0x3d80c3ca	0.06287344
77	0xbcc02998	-0.023457333
78	0xbd1f8e61	-0.038954142
79	0x3d8a8c09	0.06764991
80	0xbd604a83	-0.05475856
81	0xbd92e3bc	-0.07172343
82	0xbd9eb5b0	-0.07749498
83	0xbd4d5b59	-0.050135944
84	0xbd752d7c	-0.05985783
85	0x3da6f7a7	0.08152705
86	0x3d56610c	0.052338645
87	0x3d8b7091	0.0680858
88	0x3d759b65	0.05996265
89	0x3dad9d46	0.08477263
90	0xbd9364a6	-0.071969315
91	0xbcfd7d28	-0.030943468
92	0xbad59aaf	-0.001629671
93	0xbc342c4c	-0.010996889
94	0x3d41eb2d	0.04734342
95	0xbc85a02e	-0.016311731
96	0x3dac690d	0.08418474
97	0x3c8d6ef5	0.017264822
98	0x3d63493b	0.05548976
99	0xbd99459d	-0.07483981
100	0xbd8d54be	-0.06900929
101	0x3c562422	0.013070138
102	0xbcf50170	-0.029907912
103	0xbb57f139	-0.0032950176
104	0x3d33cf56	0.043898903
105	0x3c7fb48e	0.015607012
106	0xbd521305	-0.05128767
107	0xbca31b0a	-0.019910354
108	0x3d151390	0.03639561
109	0xbd55d817	-0.052208032
110	0xbdae679a	-0.08515854
111	0xbd0bcd72	-0.034131475
112	0x3d66a922	0.05631364
113	0xbce58289	-0.028016346
114	0xbc93ba77	-0.01803325
115	0xbd3c9f83	-0.04605056
116	0xbd86739f	-0.06565022
117	0x3b9c2dec	0.0047662165
118	0xbd92a82e	-0.07160984
119	0x3c075952	0.008261042
120	0xbd2d6201	-0.042329792
121	0xbda5a781	-0.080885895
122	0xbd58975b	-0.05287872
123	0x3d85a8a5	0.06526307
124	0xbbdfce40	-0.006830007
125	0x3d0eac97	0.034832563
126	0xbd4b5d1f	-0.049649354
127	0xbda89074	-0.08230677
128	0x3d8fb4f2	0.070169345
129	0xbd468e26	-0.048475407
130	0xbd68c68d	-0.056829978
131	0x3d0c661b	0.034277063
132	0x3c4d1cdf	0.01251909
133	0xbd9073fc	-0.07053372
134	0x3bb0283b	0.0053758896
135	0xbc32e24e	-0.010918213
136	0x3ae2f4d0	0.0017315391
137	0xbcebaac3	-0.028767949
138	0xbd83c546	-0.06434111
139	0xbd8eace1	-0.06966568
140	0x3d656e3c	0.05601333
141	0xbd541ea6	-0.05178704
142	0xbd2d6991	-0.042337004
143	0x3cc5eeba	0.024161685
144	0xbdb0e566	-0.08637504
145	0xbcf8246e	-0.030290809
146	0x3da55a29	0.08073837
147	0x3d80dc00	0.06291962
148	0xbd9bf525	-0.07615117
149	0x3d317863	0.0433277
150	0xbade7192	-0.0016971102
151	0xbd4e7a56	-0.050409637
152	0xbd3dd9e9	-0.046350393
153	0xbbb4cf70	-0.0055178925
154	0xbd0c26b5	-0.0342166
155	0x3ca419e3	0.020031875
156	0xbda70c7b	-0.08156677
157	0x3d2112ea	0.03932468
158	0x3d3e6d1e	0.04649078
159	0x3d0b4cc7	0.034008767
160	0x3cc426d0	0.023944288
161	0x3d8ec17e	0.069704995
162	0xbd8e11fd	-0.06937025
163	0x3d107c51	0.035274807
164	0x3d3d1c47	0.046169546
165	0x3d397e0b	0.04528622
166	0x3d09a0c5	0.033600587
167	0x3d88f71d	0.06687758
168	0x3c54c61f	0.012986689
169	0xbd08cbd4	-0.03339751
170	0x3d77b6c7	0.060477044
171	0x3d12ea46	0.03586795
172	0x3db321d5	0.08746687
173	0x3d810770	0.06300247
174	0x3cc59ed4	0.024123587
175	0x3ccbf085	0.024894962
176	0x3d047383	0.032336723
177	0xbd97eb53	-0.074179314
178	0xbab28e95	-0.0013622815
179	0x3c977bd7	0.018491669
180	0x3d4db4e3	0.050221335
181	0x3d6bffe3	0.05761708
182	0x3cc4eb86	0.024038088
183	0xbc62ece2	-0.013850423
184	0x3d879bdb	0.06621524
185	0xbc42cca0	-0.011889607
186	0xbd0132b6	-0.031542502
187	0xbd3afe04	-0.045652404
188	0x3ccd79f3	0.025082564
189	0xbdb4d171	-0.0882901
190	0xbd1e7b43	-0.03869177
191	0xbd3f6c25	-0.046733994
192	0xbd3d289d	-0.04618131
193	0xbc6e292b	-0.014536182
194	0x3da8dd93	0.08245387
195	0x3c865136	0.016396146
196	0xbc4ac07b	-0.0123749925
197	0xbd95836f	-0.073004596
198	0x3d9da228	0.076969445
199	0xbda4e6a1	-0.080518015
200	0x3d8472b6	0.06467192
201	0x3cdefdc0	0.027220607
202	0xbd3acfed	-0.04560845
203	0xbd0f95e7	-0.035055067
204	0x3d282143	0.041047346
205	0x3d240985	0.04004814
206	0x3c8db32a	0.017297346
207	0x3d0578d9	0.032585952
208	0x3d8bc1e7	0.06824093
209	0xbcc42348	-0.023942605
210	0xbd6c4894	-0.057686403
211	0xbd515f38	-0.0511162
212	0x3bbab7c8	0.005698178
213	0x3d937d31	0.07201613
214	0x3d8290c3	0.06375267
215	0x3d8eab61	0.06966282
216	0xbbefef6a	-0.0073222416
217	0x3d968c0b	0.0735093
218	0xbd602525	-0.054722924
219	0x3d03fc9d	0.032223333
220	0x3b6faf32	0.003657293
221	0xbdb6bc68	-0.089226544
222	0xbda36778	-0.079787195
223	0xbd847a75	-0.06468669
224	0x3da51cc7	0.080621295
225	0xbd00da56	-0.03145822
226	0xbc3c7594	-0.011502642
227	0xbb1b6f7a	-0.0023717568
228	0x3c8a9be8	0.016920045
229	0x3c3ffa4d	0.011717391
230	0xbd7d1732	-0.0617897
231	0xbc029ac2	-0.007971467
232	0x3d0053e0	0.03132999
233	0x3c51e80d	0.012811673
234	0xbd5cb864	-0.053886786
235	0xbd0056d0	-0.03133279
236	0xbd3192a7	-0.04335275
237	0xbd9971f3	-0.07492437
238	0xb910e200	-0.00013817102
239	0x3ce74dc8	0.028235331
240	0xbd937c25	-0.07201413
241	0xbd9a3d2f	-0.07531201
242	0x3da46a01	0.08028031
243	0xbd6e8a9a	-0.05823765
244	0xbdb15830	-0.086593986
245	0xbd7e8e38	-0.06214735
246	0x3d870f2d	0.065946914
247	0xbd1ea47f	-0.038731094
248	0xbb712101	-0.0036793354
249	0xbd808cd0	-0.06276858
250	0xbd9187b5	-0.07105962
251	0x3d9e4331	0.077276595
252	0x3d92d88f	0.071702115
253	0x3daf11c0	0.085483074
254	0xbd5a7094	-0.05333002
255	0x3d10931c	0.035296544

fc2.bias f4 [2]
0	0x3c30b801	0.010786057
1	0x3d53d394	0.05171545
