models/2024-05-10_12-24-38_Model.onnx (onnx, 614400 bytes, 10 tensors)

conv1.weight f4 [8, 1, 2, 2, 2]
0.21974549 0.05510475 -0.15512112 -0.1403062 -0.2639499 0.2429929 0.24712855 -0.14551474
-0.05005514 0.23834752 0.32464874 0.3236926 -0.17561951 -0.35107023 -0.022718575 -0.19505207
0.016289677 -0.26002884 0.33267072 -0.07966312 0.12987298 0.11003058 -0.21749718 0.2127046
-0.060482193 -0.10739735 0.053165227 -0.055993583 0.2883275 -0.25631765 -0.25567245 -0.069030814
-0.16040488 -0.1182147 0.19797261 -0.18138471 -0.12935485 0.3553719 0.09513179 -0.038083076
-0.22235188 -0.32032913 0.34649464 0.3257803 -0.3153866 -0.011731466 -0.055294454 0.022656647
-0.23714285 0.33279723 0.11569799 0.15714972 0.33766183 0.25833327 0.1301153 0.34934187
-0.0139003955 0.3041841 0.12911253 0.07185765 -0.11132035 -0.09290463 0.16156146 -0.28568864
00000000: f604 613e 85b5 613d 12d8 1ebe 6eac 0fbe
00000010: 7124 87be 21d3 783e 440f 7d3e d101 15be
00000020: 9e06 4dbd 5f11 743e 5c38 a63e 09bb a53e
00000030: 9ad5 33be 7abf b3be 4e1c babc bbbb 47be
00000040: ee71 853c 8022 85be d153 aa3e 6b26 a3bd
00000050: 6cfd 043e b657 e13d 95b7 5ebe 3ccf 593e
00000060: 2dbc 77bd 24f3 dbbd c8c3 593d 8759 65bd
00000070: a99f 933e 113c 83be 80e7 82be 0760 8dbd
00000080: 2d41 24be 8c1a f2bd 55b9 4a3e eabc 39be
00000090: 9975 04be 4ef3 b53e 75d4 c23d 00fd 1bbd
000000a0: 36b0 63be 2e02 a4be bf67 b13e adcc a63e
000000b0: 5a7a a1be 5635 40bc 707c 62bd 6f9a b93c
000000c0: 93d5 72be 6664 aa3e 11f3 ec3d dbeb 203e
000000d0: 03e2 ac3e 4244 843e f23c 053e f0dc b23e
000000e0: 7cbe 63bc 05be 9b3e 1336 043e 1b2a 933d
000000f0: ecfb e3bd c844 bebd 5e70 253e c845 92be

conv1.bias f4 [8]
-0.21215194 0.024505174 -0.34076717 -0.18560226 -0.2982291 -0.14607194 -0.22361591 -0.21031387
00000000: 5c3e 59be 13bf c83c 0979 aebe 850e 3ebe
00000010: 7cb1 98be e293 15be 92fb 64be 855c 57be

conv2.weight f4 [16, 8, 2, 2, 2]
-0.06054634 0.07119763 0.058722273 -0.027501272 -0.044131238 -0.0008133627 0.008664188 -0.1021218
-0.0025988426 0.11535268 0.024677766 -0.048212413 -0.097968414 0.07913685 -0.06912672 -0.055256393
0.12448807 -0.007530301 0.03491158 0.08889154 -0.07801997 -0.0246281 -0.1082682 -0.10242688
-0.05786569 0.04202507 -0.11410223 0.081929885 -0.0131427245 0.020890292 0.06244114 -0.054919504
0.03573101 -0.07224973 0.059438325 0.051857818 0.099273 -0.068734586 -0.07630814 -0.053369537
-0.011808895 -0.10718276 -0.042954188 -0.092784695 0.10861008 0.074154764 -0.06995558 -0.15617697
-0.065679766 0.112892725 -0.11588486 0.05397669 0.1013024 -0.033295687 0.05032126 0.083041236
0.07134332 0.08253098 0.04877423 0.025839508 -0.07241375 -0.03425313 -0.020074595 0.12056238
-0.09448824 0.0040561613 -0.05608301 0.13833378 -0.10842339 0.13555357 -0.013310043 0.037142433
-0.027127907 -0.053136706 -0.009143938 0.0926398 0.07016359 0.005568696 -0.075152874 0.08500278
0.07418254 -0.09313408 0.03718997 0.00031822556 0.07006855 0.08533225 0.10859648 -0.1144643
0.03699448 -0.10847276 -0.11173156 0.015588726 -0.12560531 0.10570332 0.11983784 0.02782059
0.050120093 -0.070859075 -0.09120085 0.019092062 0.08901448 0.13264613 -0.07910351 0.06210205
0.087690204 -0.12514976 0.0005665883 0.035176884 0.048185743 0.08327885 0.01769377 0.026077466
-0.030354392 0.12014354 -0.07988568 0.03448257 -0.051162176 0.034303192 0.063562155 0.0014792313
0.05271043 -0.033939756 0.09420799 0.07077009 0.0073941452 0.10264231 -0.016820405 -0.058644403
0.05472966 -0.114959195 0.0007366971 0.0012960938 -0.04627604 -0.12842117 0.06649389 0.09298208
-0.13648054 0.008031145 0.0037388778 0.110325985 -0.06051794 0.027565416 -0.005256023 0.028262474
0.013612428 0.14211048 -0.054903276 0.15064198 -0.08121251 -0.031327825 -0.04252682 0.07626573
0.03507766 -0.097441986 0.058689922 0.024730472 0.046891674 -0.12607758 -0.07345373 -0.019398108
-0.113549486 -0.14317277 -0.06858693 0.033577986 0.13667342 -0.059331566 0.15854073 0.002518604
-0.031127008 -0.060508385 0.12338182 0.14214201 -0.022443194 0.06371558 0.05236296 -0.011969449
-0.08790959 -0.08108276 -0.0115653165 -0.015737044 -0.066685915 -0.10176352 0.14428051 0.053076934
0.010326084 0.08482219 0.09936572 -0.01689729 -0.06305606 0.09677284 -0.04146858 -0.09896035
-0.12423696 0.14229435 0.11366318 -0.014644383 -0.010355611 -0.061351314 0.026736515 0.055675726
-0.12518269 0.11604902 -0.04203341 0.058489304 0.025562324 -0.107591756 0.10467594 0.03755306
0.048128244 -0.012232966 0.011265659 -0.065677255 -0.024724126 0.06644352 0.01347341 0.015541556
-0.0032883682 0.1242518 -0.08685622 0.102682665 -0.06816221 0.022870189 0.11135029 -0.066973805
0.10317196 0.08956594 -0.0486302 0.09402304 0.109354 -0.12314117 -0.067780465 -0.013131937
-0.051110618 0.056856435 -0.048062824 0.039511364 -0.002070763 -0.004732285 0.09632337 0.08576217
0.076972276 0.06742336 -0.05758895 -0.030752229 -0.08545812 -0.03995469 -0.091874585 0.075996146
-0.0698774 -0.056217715 0.094829924 0.06797177 0.061354 0.084757745 -0.013348336 -0.12476436
00000000: 70ff 77bd 10d0 913d c486 703d 594a e1bc
00000010: f5c2 34bd d937 55ba 3df4 0d3c 3c25 d1bd
00000020: 5851 2abb 073e ec3d 0729 ca3c 617a 45bd
00000030: aaa3 c8bd 8012 a23d 4f92 8dbd 8754 62bd
00000040: 9af3 fe3d bec0 f6bb 72ff 0e3d c50c b63d
00000050: efc8 9fbd dfc0 c9bc b8bb ddbd 2fc5 d1bd
00000060: 9304 6dbd 7b22 2c3d 6eae e9bd dbca a73d
00000070: 9554 57bc 1e22 ab3c 48c2 7f3d 46f3 60bd
00000080: ae5a 123d abf7 93bd 9a75 733d dd68 543d
00000090: a54f cb3d b8c4 8cbd 7147 9cbd 049a 5abd
000000a0: 187a 41bc a382 dbbd bbf0 2fbd e705 bebd
000000b0: f66e de3d 74de 973d df44 8fbd dbec 1fbe
000000c0: 1d83 86bd 4d34 e73d 0b55 edbd a916 5d3d
000000d0: a277 cf3d 0f61 08bd aa1d 4e3d 8611 aa3d
000000e0: 721c 923d 0106 a93d 7dc7 473d 60ad d33c
000000f0: a94d 94bd 034d 0cbd 7a73 a4bc 69e9 f63d
00000100: 0d83 c1bd 8ce9 843b 4cb7 65bd 5fa7 0d3e
00000110: 150d debd 8ece 0a3e 5e12 5abc aa22 183d
00000120: 583b debc e0a5 59bd 75d0 15bc efb9 bd3d
00000130: eeb1 8f3d 9c79 b63b c0e9 99bd f015 ae3d
00000140: 04ed 973d 15bd bebd 8354 183d 83d7 a639
00000150: 1a80 8f3d adc2 ae3d d567 de3d 426c eabd
00000160: 8687 173d f726 debd 84d3 e4bd db67 7f3c
00000170: ae9e 00be fb7a d83d 8b6d f53d 02e8 e33c
00000180: ba4a 4d3d 901e 91bd 83c7 babd f566 9c3c
00000190: 394d b63d 63d4 073e 0501 a2bd b85e 7e3d
000001a0: ec96 b33d 4227 00be 1987 143a a315 103d
000001b0: 6a5e 453d 1a8e aa3d 86f2 903c 69a0 d53c
000001c0: c6a9 f8bc d10d f63d 1a9b a3bd 983d 0d3d
000001d0: 6e8f 51bd 8181 0c3d e02c 823d c4e2 c13a
000001e0: e4e6 573d 6a04 0bbd 1ef0 c03d e9ef 903d
000001f0: 964a f23b 2236 d23d f2ca 89bc 1d35 70bd
00000200: 352c 603d ba6f ebbd e81e 413a b1e1 a93a
00000210: f28b 3dbd d780 03be f32d 883d 646d be3d
00000220: 8ec1 0bbe 1095 033c f607 753b 97f2 e13d
00000230: a9e1 77bd ded0 e13c b73a acbb b486 e73c
00000240: a906 5f3c 6985 113e 42e2 60bd e441 1a3e
00000250: bf52 a6bd 9b51 00bd 9a30 2ebd 3531 9c3d
00000260: 98ad 0f3d aa8f c7bd d864 703d 8f97 ca3c
00000270: 7c11 403d 7b1a 01be e96e 96bd c8e8 9ebc
00000280: a28c e8bd e29b 12be 4e77 8cbd 1289 093d
00000290: 1ef4 0b3e a805 73bd 8058 223e 2a0f 253b
000002a0: 11fe febc a4d7 77bd 9caf fc3d ad8d 113e
000002b0: cada b7bc 507d 823d 8b7a 563d 821b 44bc
000002c0: f109 b4bd b80e a6bd 747c 3dbc f9ea 80bc
000002d0: a092 88bd 6469 d0bd 45be 133e 3367 593d
000002e0: bc2e 293c 42b7 ad3d 4180 cb3d 2f6c 8abc
000002f0: 8923 81bd d730 c63d f5da 29bd b9ab cabd
00000300: f36f febd 9cb5 113e 3ec8 e83d ffee 6fbc
00000310: 95aa 29bc 844b 7bbd 8906 db3c 3b0c 643d
00000320: e42f 00be 1cab ed3d 3a2b 2cbd 7b92 6f3d
00000330: 1468 d13c 1159 dcbd 5760 d63d 3dd1 193d
00000340: 1f22 453d c76c 48bc 9993 383c cc81 86bd
00000350: 408a cabc 8a13 883d 94bf 5c3c 03a2 7e3c
00000360: aa81 57bb ba77 fe3d ade1 b1bd 4a4b d23d
00000370: a198 8bbd 435a bb3c 9f0b e43d 9029 89bd
00000380: d24b d33d 596e b73d 7630 47bd 278f c03d
00000390: fdf4 df3d 7031 fcbd 7cd0 8abd 5627 57bc
000003a0: 5e59 51bd 4be2 683d 86dd 44bd abd6 213d
000003b0: a3b5 07bb 4911 9bbb 3045 c53d 14a4 af3d
000003c0: a4a3 9d3d 4215 8a3d 64e2 6bbd 19ec fbbc
000003d0: ab04 afbd 87a7 23bd be28 bcbd dea3 9b3d
000003e0: e21b 8fbd 8c44 66bd 3136 c23d c934 8b3d
000003f0: 554e 7b3d 7895 ad3d fbb2 5abc 7584 ffbd

conv2.bias f4 [16]
0.014869688 -0.05411184 -0.020026686 0.099940784 -0.014072565 0.053912666 -0.10883178 0.07876862
0.08588354 -0.097839996 0.015518953 -0.004651149 -0.123376876 -0.064314015 -0.10278089 0.1186605
00000000: fe9f 733c 60a4 5dbd 010f a4bc c1ad cc3d
00000010: 9e90 66bc 87d3 5c3d 32e3 debd 7151 a13d
00000020: b6e3 af3d 5660 c8bd 3543 7e3c aa68 98bb
00000030: 04ad fcbd 11b7 83bd ca7e d2bd 4704 f33d

conv3.weight f4 [32, 16, 2, 2, 2]
-0.019348094 0.06536722 -0.062667295 -0.039420497 0.034415167 0.07814627 -0.02525179 -0.062937886
-0.053571112 -0.08929838 -0.021147948 -0.08019389 -0.09572676 -0.01773089 -0.024062427 0.00487275
-0.011704419 0.0054940474 0.031122534 -0.041764546 0.08527635 -0.05992991 -0.0011275387 -0.06854365
-0.08245107 -0.07548924 -0.10758121 -0.054522563 -0.037572686 0.026151154 -0.019726716 0.06685515
0.04344395 0.02663907 0.011208913 -0.08090084 0.011356799 -0.031186383 -0.06965095 0.09262711
-0.08245544 0.012114069 -0.08182613 -0.066910155 -0.104303606 -0.042010743 -0.02591551 0.070081815
-0.049038976 0.06098666 -0.035821535 0.006992433 0.018109422 0.0053954036 -0.0580588 0.027126238
-0.0035325964 -0.07984181 -0.08231178 0.027735911 -0.061235685 -0.016484214 0.06563676 0.06321196
0.029979624 -0.10733396 -0.058613896 -0.0018431043 0.07711016 0.015216336 -0.08889004 0.048063174
0.025101636 -0.08007301 -0.118304074 0.016040923 -0.05745862 0.07074535 -0.016689902 -0.007817391
-0.037162017 0.02896461 0.07724703 -0.07866136 -0.03229389 0.010652936 0.020831082 0.015558033
0.08624291 0.052164387 0.0010967776 -0.0028472883 0.05988728 0.042264383 0.0036669609 -0.096219964
-0.046113487 0.036907144 -0.045947146 0.007763386 0.015662866 -0.003955021 -0.103399724 -0.012287188
-0.035973005 -0.04421567 -0.034375995 -0.009213677 0.07222992 0.10061676 -0.052232835 0.069578744
0.069611624 -0.071557276 -0.041236106 -0.026663128 0.008094005 -0.042389277 -0.07289811 0.06530841
0.005179197 0.036326427 -0.06397215 -0.08034221 0.067818396 -0.026509646 0.040595 -0.083493024
-0.04546927 0.06243281 0.013535487 -0.061515585 0.035330012 -0.08307099 -0.033548027 -0.036782447
0.042470403 -0.07888323 -0.057276275 -0.049392775 -0.051047765 0.06881808 -0.07840439 -0.005522573
-0.0702362 -0.06924825 -0.040705923 -0.03624966 0.09539531 0.03713938 0.033803098 0.04611644
-0.026672138 0.057879917 0.03027439 -0.06892496 0.025651177 0.05978438 -0.03376299 -0.009096741
-0.103567116 -0.072598234 -0.012166738 -0.07907364 0.044641048 0.030481633 0.075020656 0.058498032
-0.06806832 -0.07987979 0.07096693 0.09040042 -0.020294514 -0.080779456 -0.07653167 -0.0744043
0.06580797 -0.059124447 0.11672152 0.063355014 0.066019334 0.014075029 0.03526759 -0.076857105
0.033321984 -0.008803741 -0.031279176 -0.028773263 0.019179616 0.06734817 0.016447412 -0.0143678
0.020160535 -0.08325404 -0.045936063 0.07035355 0.049059257 0.032148685 -0.077173084 -0.036171954
-0.00018505957 -0.08699305 0.029012768 0.049285863 0.024522986 0.040511698 -0.0196822 -0.0044294246
0.089182936 -0.040739886 0.07457902 -0.055159118 0.07823808 0.0004282321 -0.05793302 0.04133951
-0.0505146 0.02400292 -0.110421024 -0.015917385 -0.065773934 -0.03623592 -0.041228507 0.064191
-0.0021752545 -0.039873917 0.018275162 0.06090922 0.019262737 0.0641701 0.04603914 -0.102088265
-0.09324766 -0.019082308 0.052519824 -0.017959738 0.05721756 0.06232952 -0.07641272 -0.07658445
-0.10295096 0.06445512 0.015233213 -0.013578858 -0.057846665 0.0853049 -0.05414811 -0.07545692
-0.046000052 -0.058101352 0.07951143 -0.07545517 -0.10544024 -0.09737112 0.00628487 -0.0095301
00000000: e57f 9ebc 40df 853d b657 80bd 6377 21bd
00000010: ebf6 0c3d 270b a03d d8dc cebc 94e5 80bd
00000020: 626d 5bbd 12e2 b6bd 763e adbc b23c a4bd
00000030: 640c c4bd 5f40 91bc 911e c5bc 97ab 9f3b
00000040: e4c3 3fbc 6907 b43b aff4 fe3c 4d11 2bbd
00000050: 5ea5 ae3d 1179 75bd ecc9 93ba 9d60 8cbd
00000060: 1bdc a8bd 1a9a 9abd 8a53 dcbd 0d53 5fbd
00000070: d1e5 19bd f23a d63c ec99 a1bc 5aeb 883d
00000080: 49f2 313d 2e3a da3c 97a5 373c 57af a5bd
00000090: de11 3a3c 967a ffbc 28a5 8ebd 48b3 bd3d
000000a0: 66de a8bd 177a 463c 7594 a7bd 3108 89bd
000000b0: 219d d5bd 7513 2cbd c34c d4bc 0e87 8f3d
000000c0: 18dd 48bd 26cd 793d 9ab9 12bd c820 e53b
000000d0: 365a 943c edcb b03b 10cf 6dbd d837 de3c
000000e0: 2283 67bb 1a84 a3bd 1493 a8bd 6c36 e33c
000000f0: 45d2 7abd e709 87bc 916c 863d 4675 813d
00000100: d497 f53c e8d1 dbbd 2015 70bd 5194 f1ba
00000110: eeeb 9d3d f04d 793c fb0b b6bd e4dd 443d
00000120: f2a1 cd3c 51fd a3bd 6849 f2bd 4168 833c
00000130: bb59 6bbd f0e2 903d 43b9 88bc 8414 00bc
00000140: 3337 18bd 3147 ed3c b133 9e3d 3519 a1bd
00000150: 9946 04bd a789 2e3c f2a5 aa3c 1fe7 7e3c
00000160: 1fa0 b03d 53aa 553d c0c1 8f3a 9299 3abb
00000170: 5d4c 753d 6b1d 2d3d 6551 703b f90e c5bd
00000180: 7fe1 3cbd f22b 173d 1333 3cbd 0064 fe3b
00000190: 694f 803c 1f99 81bb 3cc3 d3bd 3450 49bc
000001a0: 6e58 13bd 7e1b 35bd d8cd 0cbd f6f4 16bc
000001b0: 48ed 933d 2910 ce3d 19f2 55bd 4d7f 8e3d
000001c0: 8a90 8e3d 9f8c 92bd 31e7 28bd a26c dabc
000001d0: b89c 043c 61a0 2dbd 9b4b 95bd 6ac0 853d
000001e0: 41b6 a93b 05cb 143d d503 83bd 758a a4bd
000001f0: 5fe4 8a3d c22a d9bc f146 263d 64fe aabd
00000200: fc3d 3abd 8cb9 7f3d f3c3 5d3c c4f7 7bbd
00000210: 34b6 103d 2021 aabd a869 09bd 31a9 16bd
00000220: 72f5 2d3d 888d a1bd 879a 6abd 1450 4abd
00000230: 7617 51bd 7ef0 8c3d 7b92 a0bd b3f6 b4bb
00000240: ffd7 8fbd 07d2 8dbd 41bb 26bd 867a 14bd
00000250: 9e5e c33d 761f 183d 1e75 0a3d 98e4 3c3d
00000260: 877f dabc 7e13 6d3d ff01 f83c 8828 8dbd
00000270: 6b22 d23c 77e0 743d 104b 0abd 7f0a 15bc
00000280: ff1a d4bd 62ae 94bd ff56 47bc 5cf1 a1bd
00000290: 88d9 363d 9eb4 f93c 6ea4 993d a29b 6f3d
000002a0: 6767 8bbd 0498 a3bd 1c57 913d db23 b93d
000002b0: ae40 a6bc b36f a5bd a3bc 9cbd 4861 98bd
000002c0: 54c6 863d 7a2c 72bd b10b ef3d 46c0 813d
000002d0: 2535 873d f39a 663c c074 103d 4267 9dbd
000002e0: a27c 083d 913d 10bc 981e 00bd e8b5 ebbc
000002f0: 921e 9d3c d6ed 893d b9bc 863c ec66 6bbc
00000300: b527 a53c 1881 aabd 7427 3cbd 8615 903d
00000310: 5cf2 483d 57ae 033d ec0c 9ebd 0b29 14bd
00000320: 8d0c 42b9 6a29 b2bd 2fac ed3c f9df 493d
00000330: 6ee4 c83c 98ef 253d 913c a1bc b524 91bb
00000340: 8ba5 b63d dede 26bd e3bc 983d 87ee 61bd
00000350: 493b a03d 5784 e039 2d4b 6dbd 9e53 293d
00000360: 66e8 4ebd c6a1 c43c 6b24 e2bd 2d65 82bc
00000370: 7cb4 86bd 1e6c 14bd 39df 28bd 9276 833d
00000380: b78e 0ebb d552 23bd cbb5 953c f27b 793d
00000390: e3cc 9d3c 9d6b 833d 8a93 3c3d a713 d1bd
000003a0: a1f8 bebd 8052 9cbc 071f 573d 4d20 93bc
000003b0: f65c 6a3d 3d4d 7f3d 467e 9cbd 4fd8 9cbd
000003c0: f4d7 d2bd 0c01 843d ba94 793c dc79 5ebc
000003d0: a0f0 6cbd 56b4 ae3d 69ca 5dbd 2889 9abd
000003e0: 8d6a 3cbd affb 6dbd e3d6 a23d 3d88 9abd
000003f0: 0df1 d7bd 826a c7bd 50f1 cd3b 2324 1cbc

conv3.bias f4 [32]
-0.008211117 -0.045161013 -0.057509895 -0.03340851 -0.08645646 0.020342866 0.039535206 -0.08552253
-0.005119653 -0.03711963 -0.0626024 0.0015186535 -0.030747006 -0.07787646 -0.049498037 -0.0013139251
-0.058435556 0.03953162 0.025492819 0.024924051 0.014667832 -0.029119506 -0.009798964 -0.08389648
-0.09931648 0.00181528 -0.015834201 0.03253338 0.018047208 0.028980754 -0.020503728 -0.03643345
00000000: ec87 06bc c1fa 38bd 7f8f 6bbd 5dd7 08bd
00000010: 1610 b1bd 15a6 a63c abef 213d 7026 afbd
00000020: c3c2 a7bb c10a 18bd b035 80bd 8e0d c73a
00000030: 25e1 fbbc b27d 9fbd 74be 4abd 0338 acba
00000040: 1f5a 6fbd e8eb 213d 51d6 d03c 862d cc3c
00000050: 5951 703c 088c eebc d58b 20bc ebd1 abbd
00000060: 7066 cbbd b0ee ed3a bab6 81bc b941 053d
00000070: bdd7 933c 0c69 ed3c 6ff7 a7bc 3e3b 15bd

fc1.weight f4 [128, 1152]
-0.012061093 -0.00619819 0.012725322 0.011247939 -0.026987547 0.0022684534 -0.005411156 -0.011868974
-0.01574649 0.0010056646 -0.017133381 -0.005904561 0.021851817 0.011926064 0.018291513 0.0038251542
0.026592279 -0.015323645 0.013174675 -0.005898813 -0.01644025 -0.02988564 -0.023301162 0.019176992
-0.01471403 -0.022667482 0.021525456 0.005873551 -0.022950785 -0.028143752 0.014109448 -0.022220725
0.02622882 -0.0043782997 -0.0055800807 0.012449646 -0.0061814673 0.024400396 0.004077157 -0.021311814
-0.010783451 0.016165255 0.021302914 -0.01955447 -0.033041865 -0.01598478 0.018872442 -0.013122728
0.028374186 0.018566592 0.0009589009 -0.009383379 0.01681753 -0.0053416323 0.02340745 -0.01595272
0.00901348 0.013934424 0.013080336 0.00223186 0.014426386 0.028973972 0.0063241282 0.017947586
-0.020821534 0.0057320725 0.027162498 -0.0055491272 0.019392444 0.0033710215 0.0029124115 -0.033826735
0.0265025 0.025805878 -0.00819215 -0.019114252 -0.0027619172 -0.0045562964 -0.025875721 -0.01562925
0.016150298 -0.024404392 0.019850371 0.012925604 0.0203411 -0.019405331 -0.021026978 -0.016459925
0.019211272 0.01836965 0.011459129 0.008794116 0.00030189008 -0.0042495653 0.01623899 -0.0006457921
0.01783955 -0.024823971 0.01635679 -0.017803293 -0.006307259 0.012605472 0.015096368 0.014901979
0.020948457 0.025156634 0.0072056297 0.001397375 0.0034212824 0.026004715 0.0058187824 -0.02702111
0.011601059 -0.009696361 -0.025488093 0.0053927135 0.027266355 -0.008717401 -0.025791114 0.020582018
0.02634381 -0.018010914 0.017065583 0.01973571 0.0084691625 0.014210893 0.014947055 0.01811588
-0.010223262 0.008771034 0.0038922932 -0.017333735 -0.010580597 0.02501767 -0.005011998 0.010988565
-0.029325366 0.026030468 -0.011995541 0.022781016 -0.016064426 -0.0088260565 -0.011846341 -0.019413745
-0.006436635 0.009636188 -0.0025140345 -0.012428667 0.028487338 0.020803215 0.014962936 0.0040101316
-0.009748587 -0.0064073037 0.016310489 0.019931363 -0.021548644 0.016223343 0.014400062 0.006887311
-0.012354443 -0.025989657 -0.023512173 0.017057406 0.008383082 0.020412797 -0.00922933 -0.010760797
-0.026478307 0.008589139 0.003918512 -0.024878157 -0.011138856 0.016427355 -0.018823748 0.008553827
-0.011256946 0.01801568 -0.006953854 0.013969468 0.012389618 -0.012440185 -0.026953192 0.004406028
0.012825948 0.006456818 0.00882688 -0.026636714 -0.026491892 -0.029030506 -0.010410135 0.00220875
-0.0030062087 -0.033640336 -0.030669764 -0.020569373 0.00789121 0.024386605 -0.0041491855 -0.021294862
0.022147728 -0.026766771 0.01687243 -0.012535454 -0.030006453 -0.03376789 -0.0029333606 -0.0087200375
-0.02939435 0.0009544081 -0.016990468 -0.00718648 0.014742683 0.008763949 -0.019478515 -0.025172565
-0.03466481 0.0014850032 -0.023742044 0.014561269 0.016926667 -0.020190798 -0.00890044 -0.03173553
0.0068565053 0.020765746 -0.022865886 -0.004541492 0.013469935 0.009676978 -0.03399322 -0.025928413
-0.033030123 0.005995887 0.022646291 0.015761811 -0.00764592 0.014260499 -0.03208766 -0.004959448
0.0037038405 -0.0023781096 0.010638301 -0.033939414 -0.019325117 -0.0010051136 -0.0324105 -0.015072171
0.0023427394 0.00096610904 -0.009942364 0.010967006 -0.014337744 -0.01806292 0.024710441 -0.0072863754
00000000: e49b 45bc 301a cbbb de7d 503c 4749 383c
00000010: fd14 ddbc 55aa 143b 1150 b1bb 1676 42bc
00000020: c8fe 80bc 81d0 833a 4e5b 8cbc 0c7b c1bb
00000030: 9502 b33c 8a65 433c 15d8 953c 70af 7a3b
00000040: 0dd8 d93c 0710 7bbc 98da 573c d44a c1bb
00000050: b4ad 86bc bbd2 f4bc 14e2 bebc 1119 9d3c
00000060: 1d13 71bc 28b1 b9bc 2756 b03c eb76 c03b
00000070: 4903 bcbc ba8d e6bc 502b 673c 3d08 b6bc
00000080: d3dd d63c d777 8fbb 1cd9 b6bb 9af9 4b3c
00000090: e88d cabb 57e3 c73c ac99 853b 1d96 aebc
000000a0: 12ad 30bc ff6c 843c 7383 ae3c b230 a0bc
000000b0: e856 07bd 83f2 82bc 619a 9a3c b600 57bc
000000c0: fb70 e83c f718 983c c05e 7b3a bebc 19bc
000000d0: ebc4 893c dc08 afbb fbc0 bf3c 47af 82bc
000000e0: 46ad 133c 364d 643c e84e 563c 6644 123b
000000f0: a65c 6c3c d35a ed3c a23a cf3b d106 933c
00000100: ec91 aabc 1cd4 bb3b e383 de3c 74d5 b5bb
00000110: e7dc 9e3c 5bec 5c3b 28de 3e3b e78d 0abd
00000120: c51b d93c d966 d33c 5e38 06bc 7e95 9cbc
00000130: 4801 35bb fc4c 95bb 52f9 d3bc ea08 80bc
00000140: a14d 843c b8eb c7bc 3f9d a23c eac5 533c
00000150: 61a2 a63c eef7 9ebc c540 acbc f7d6 86bc
00000160: f560 9d3c f37b 963c 12bf 3b3c 3215 103c
00000170: 0047 9e39 f03f 8bbb a107 853c 604a 29ba
00000180: 3f24 923c a45b cbbc adfe 853c 36d8 91bc
00000190: 20ad cebb 2e87 4e3c c256 773c 6e27 743c
000001a0: 199c ab3c 4915 ce3c 341d ec3b 2028 b73a
000001b0: 9837 603b d707 d53c 7cab be3b 605b ddbc
000001c0: 5e12 3e3c 7cdd 1ebc 68cc d0bc 5cb5 b03b
000001d0: b15d df3c 6ed3 0ebc e347 d3bc 9f9b a83c
000001e0: f9ce d73c a08b 93bc 1fcd 8b3c c9ac a13c
000001f0: 3ec2 0a3c ced4 683c 7ee4 743c c167 943c
00000200: 787f 27bc 62b4 0f3c d815 7f3b 7aff 8dbc
00000210: 3e5a 2dbc dbf1 cc3c b03b a4bb 6209 343c
00000220: c03b f0bc d93d d53c f288 44bc 419f ba3c
00000230: 8b99 83bc 2a9b 10bc 2817 42bc 9309 9fbc
00000240: 68ea d2bb 1ae1 1d3c 80c2 24bb 9ca1 4bbc
00000250: 475e e93c 816b aa3c 1a27 753c 6c67 833b
00000260: 8ab8 1fbc 5cf4 d1bb 939d 853c 1947 a33c
00000270: c886 b0bc d1e6 843c 3dee 6b3c f4ae e13b
00000280: 4a6a 4abc 43e8 d4bc 9a9c c0bc f9bb 8b3c
00000290: 3259 093c bd38 a73c 9e36 17bc 0e4e 30bc
000002a0: 09e9 d8bc 76b9 0c3c dc66 803b 47cd cbbc
000002b0: c07f 36bc a992 863c 4334 9abc 5a25 0c3c
000002c0: 0e6f 38bc 9f95 933c 28dd e3bb 32e0 643c
000002d0: d3fd 4a3c ebd1 4bbc f1cc dcbc 7160 903b
000002e0: ed23 523c b793 d33b 9e9e 103c 3d35 dabc
000002f0: 8605 d9bc 62d1 edbc 458f 2abc adc0 103b
00000300: d003 45bb 73ca 09bd 283f fbbc 1a81 a8bc
00000310: 224a 013c 6bc6 c73c e4f5 87bb 9072 aebc
00000320: 276f b53c fd45 dbbc 0d38 8a3c 8161 4dbc
00000330: 18d0 f5bc 3350 0abd a03d 40bb 7dde 0ebc
00000340: 6bcc f0bc 3e31 7a3a 982f 8bbc 907c ebbb
00000350: 4b8b 713c ab96 0f3c 6891 9fbc b236 cebc
00000360: b0fc 0dbd 70a4 c23a ad7e c2bc 6492 6e3c
00000370: cba9 8a3c 2c67 a5bc 27d3 11bc 1dfd 01bd
00000380: 89ac e03b ed1c aa3c 3d51 bbbc ccd0 94bb
00000390: 01b1 5c3c 308c 1e3c 7a3c 0bbd d367 d4bc
000003a0: 984a 07bd 2579 c43b b784 b93c ea1e 813c
000003b0: a08a fabb dea4 693c 5a6e 03bd dd82 a2bb
000003c0: 22bc 723b 0fda 1bbb 454c 2e3c 0e04 0bbd
000003d0: b54f 9ebc 04be 83ba dfc0 04bd 44f1 76bc
000003e0: a588 193b 7b42 7d3a 4ce5 22bc f5ae 333c
000003f0: dbe8 6abc b0f8 93bc 8d6d ca3c 8cc2 eebb

fc1.bias f4 [128]
-0.019477176 0.006326042 0.014074141 -0.005240571 0.01748805 -0.02159135 0.014042029 -0.029161893
-0.01110131 0.0067991707 0.020298325 0.0018685659 -0.017113637 -0.016434345 -0.008032497 0.021102611
0.008268994 -0.014321009 0.020106757 0.023708815 0.010522711 0.011346943 -0.0014871245 -0.009049359
0.022072066 0.022898108 0.01750907 0.013211319 -0.00818878 0.022704914 -0.0235466 0.0015436799
-0.018334929 0.02272027 -0.008518632 -0.0039396463 0.010758543 -0.025009356 0.007828813 0.010124204
-0.0054243444 -0.013434383 0.00560523 -0.0017546432 0.004033755 -0.04106312 -0.00041306324 -0.03078315
-0.0019940704 -0.032630432 0.022184093 -0.0024635964 -0.010412542 0.0017069689 0.011532153 0.0031967643
0.014955955 -0.01680094 -0.028614774 0.018922875 -0.033464473 0.03140151 0.029470682 -0.007090862
-0.03281333 0.0074503226 -0.015984554 0.023214774 -0.012065707 -0.01825014 -0.008395061 -0.040865097
0.0038290217 0.0054864855 0.017430024 -0.005791579 0.0018863507 -0.013657798 0.010337144 0.0020821332
0.020206321 0.0016928614 0.009907564 -0.020105997 -0.01106236 0.000119879165 -0.0044997483 -0.0015186332
0.020546215 -0.012943005 0.020158319 0.00023195776 -0.015850851 -0.02886457 -0.021323167 -0.014531761
-0.012632959 0.018633423 -0.011920641 0.020245668 -0.011461367 -0.028614875 0.018405754 0.024927866
0.017974315 -0.01698427 0.007859833 -0.028703962 -0.01925872 0.0054602884 0.024151526 -0.01884849
-0.027553849 -0.027617583 -0.012127565 -0.034313522 -0.022959407 -0.023509098 0.002076245 0.009032311
0.016811317 -0.0036613378 0.015082258 0.005292346 -0.009042322 0.012051171 0.016113086 0.011878979
00000000: 998e 9fbc b04a cf3b 3a97 663c 19b9 abbb
00000010: 1943 8f3c 58e0 b0bc 8a10 663c ece4 eebc
00000020: 45e2 35bc 94cb de3b ac48 a63c abea f43a
00000030: e631 8cbc 52a1 86bc bc9a 03bc 62df ac3c
00000040: ad7a 073c aaa2 6abc edb6 a43c fd38 c23c
00000050: 7367 2c3c 87e8 393c 9eeb c2ba c343 14bc
00000060: 7ad0 b43c d094 bb3c 2e6f 8f3c 4a74 583c
00000070: 3c2a 06bc a8ff b93c cde4 c0bc 4d55 ca3a
00000080: 2233 96bc dc1f ba3c bb91 0bbc 2618 81bb
00000090: 9a44 303c 6ce0 ccbc 6c44 003c fddf 253c
000000a0: b3be b1bb e31b 5cbc 14ac b73b 0efc e5ba
000000b0: 972d 843b cd31 28bd 6990 d8b9 f22c fcbc
000000c0: f3ae 02bb 7da7 05bd 6abb b53c 4a74 21bb
000000d0: 5e99 2abc 5fbc df3a 5bf1 3c3c ce80 513b
000000e0: d209 753c 20a2 89bc 8869 eabc 2504 9b3c
000000f0: 0b12 09bd df9e 003d 806c f13c 765a e8bb
00000100: 4567 06bd d621 f43b 0af2 82bc e92c be3c
00000110: 3eaf 45bc 5181 95bc 708b 09bc 2962 27bd
00000120: 53f0 7a3b fac7 b33b 69c9 8e3c 49c7 bdbb
00000130: 6d3f f73a f5c4 5fbc 205d 293c 6674 083b
00000140: ba87 a53c 01e3 dd3a 5653 223c 55b5 a4bc
00000150: e73e 35bc a367 fb38 a072 93bb e00c c7ba
00000160: 8950 a83c e60e 54bc 0f23 a53c b039 7339
00000170: a5d9 81bc 6475 ecbc ecad aebc a016 6ebc
00000180: 78fa 4ebc 1fa5 983c cb4e 43bc 3eda a53c
00000190: 75c8 3bbc be69 eabc aac7 963c 8635 cc3c
000001a0: df3e 933c 9922 8bbc 87c6 003c 9224 ebbc
000001b0: 77c4 9dbc 38ec b23b 6cd9 c53c 2668 9abc
000001c0: 9cb8 e1bc 453e e2bc b2b2 46bc 568c 0cbd
000001d0: 5e15 bcbc 2796 c0bc 9c11 083b 42fc 133c
000001e0: e3b7 893c 0ef3 6fbb 931b 773c 6a6b ad3b
000001f0: 3f26 14bc 4672 453c 97ff 833c 0da0 423c

fc2.weight f4 [2, 128]
0.0797922 -0.033346802 0.017741343 0.019993657 -0.088688284 -0.008856548 0.0351442 0.06359058
-0.0754051 -0.03602563 -0.055411283 -0.020479681 -0.0072253854 -0.07207418 0.048136212 -0.019296307
0.049787175 0.051657237 -0.01837329 0.040629353 0.054975126 0.018958788 0.07659613 0.042341065
-0.0066247135 -0.058302537 0.07687223 0.038813986 -0.048971303 0.0481666 -0.016409412 0.050937593
0.011159521 0.045716446 0.054674167 0.027883189 -0.045045305 0.043265637 -0.06661016 0.05332648
0.01894667 -0.043834332 -0.0025403867 0.059057914 0.0727965 -0.031756908 -0.029815085 0.054612044
-0.03329435 0.058411695 -0.054348893 -0.048125714 0.044017263 0.043661427 0.05107071 -0.05331683
0.014474434 -0.051227387 -0.041803855 -0.054917365 0.0478157 -0.09034405 -0.054013368 0.040856965
0.054741453 0.026873043 0.037974972 -0.044646397 -0.05016052 -0.04507903 0.010765571 -0.063589275
0.0749535 0.037265856 0.013207444 0.06520995 -0.05449047 -0.052005302 -0.019283708 0.047349617
0.07916423 0.030278297 -0.025375431 0.0086666085 0.06445491 -0.040145528 0.078199886 0.00926158
0.014472621 0.002378497 -0.030029006 -0.007541908 0.013244106 -0.030719815 -0.047876395 0.07133592
0.08205544 -0.07596526 -0.04558873 0.068645135 0.034996584 -0.014551197 -0.058173083 0.041414488
-0.08603523 0.0068681547 0.08413 0.020181429 0.012330518 -0.02773318 -0.06915119 -0.042792276
-0.062617466 0.063379705 7.107244e-05 -0.033759635 -0.04551795 0.021008609 -0.00510904 0.07000571
-0.05077955 -0.010603939 0.049909703 -0.0573841 -0.078949675 0.055878785 -0.07144336 0.08170613
0.072995245 -0.020326255 0.023540555 -0.04043499 -0.041252032 0.0006150334 0.03734116 -0.038756132
0.07579372 -0.04294409 -0.0060584373 -0.028480744 0.038283993 -0.028219193 0.06789614 -0.020330776
-0.02515144 0.05492889 0.03671908 0.040890638 0.04235393 -0.03770018 -0.0038424358 0.046605933
-0.037907623 -0.048697762 -0.07858009 0.033155516 -0.056184236 0.06477898 0.051571086 0.06463393
-0.017157676 -0.07996304 0.039823275 -0.038934626 0.030063618 0.028246922 -0.008091689 -0.05948449
0.056027826 0.029889787 0.0023379528 0.0652376 0.076839305 -0.010050387 -0.07014087 -0.05397505
-0.05556418 0.053138904 -0.013937499 0.04615445 -0.045263495 0.030256653 -0.0110581545 0.039576598
0.009143831 0.037263785 -0.051055863 0.021335294 0.056252178 -0.019918876 0.0036881298 -0.008173838
0.056251187 0.008173465 0.06594927 -0.039513398 0.06380744 -0.034334026 0.06890081 -0.060598653
-0.07808933 -0.074260995 0.09623634 -0.010083683 -0.022927588 0.051941264 -0.01910995 0.046799242
0.022457326 0.062451165 -0.0037690233 -0.040981658 -0.040757813 -0.067965575 0.08491262 0.06634295
-0.059887756 -0.01341293 0.011853925 -0.019333383 -0.023041844 -0.034067594 -0.033064112 0.081741236
-0.03286393 -0.06624685 0.093308926 0.014548054 -0.034575503 -0.02517642 0.0419229 -0.0056117577
-0.028622687 -0.004540587 -0.078199655 -0.07710682 -0.06230739 -0.030101262 0.07477856 -0.077647395
-0.06105024 0.060715362 0.07300675 -0.03317717 0.043027494 0.037343465 0.010393861 0.065957606
0.042210646 -0.070133395 -0.06025293 0.06578379 -0.07034947 -0.072228424 0.06129233 0.015930941
00000000: 186a a33d a896 08bd 4b56 913c bdc9 a33c
00000010: 34a2 b5bd 0e1b 11bc 5df3 0f3d c73b 823d
00000020: fd6d 9abd 9c8f 13bd f1f6 62bd 01c5 a7bc
00000030: edc2 ecbb a19b 93bd 7a2a 453d 4a13 9ebc
00000040: a3ed 4b3d 8a96 533d 9583 96bc f76a 263d
00000050: 992d 613d 764f 9b3c 6fde 9c3d d36d 2d3d
00000060: 2014 d9bb a4ce 6ebd 306f 9d3d 6afb 1e3d
00000070: 2296 48bd 574a 453d 086d 86bc f0a3 503d
00000080: 6cd6 363c 2b41 3b3d 05f2 5f3d 496b e43c
00000090: 6d81 38bd 4f37 313d e86a 88bd de6c 5a3d
000000a0: 0c36 9b3c a18b 33bd 9e7c 26bb b6e6 713d
000000b0: 5516 953d 8813 02bd c43e f4bc e1b0 5f3d
000000c0: a85f 08bd 1a41 6f3d f29c 5ebd 781f 45bd
000000d0: 724b 343d 53d6 323d 852f 513d c062 5abd
000000e0: 2d26 6d3c cfd3 51bd 853a 2bbd 08f1 60bd
000000f0: 65da 433d 4d06 b9bd 1f3d 5dbd a259 273d
00000100: 9338 603d db24 dc3c a58b 1b3d 24df 36bd
00000110: 1e75 4dbd caa4 38bd 1462 303c 183b 82bd
00000120: 3881 993d 15a4 183d 0964 583c cb8c 853d
00000130: 6631 5fbd 8303 55bd def8 9dbc acf1 413d
00000140: db20 a23d 310a f83c 23e0 cfbc 64fe 0d3c
00000150: f000 843d a36f 24bd 4327 a03d e2bd 173c
00000160: 921e 6d3c 8fe0 1b3b 64ff f5bc 1c22 f7bb
00000170: cffd 583c 1fa8 fbbc 0a1a 44bd 9118 923d
00000180: af0c a83d ad93 9bbd 40bb 3abd d295 8c3d
00000190: 9458 0f3d 2568 6ebc e646 6ebd 3da2 293d
000001a0: 3d33 b0bd 420e e13b 594c ac3d 8653 a53c
000001b0: f105 4a3c b230 e3bc 249f 8dbd f446 2fbd
000001c0: 963d 80bd 38cd 813d ba0c 9538 8b47 0abd
000001d0: 0871 3abd 3f1a ac3c bc69 a7bb 275f 8f3d
000001e0: 38fe 4fbd 25bc 2dbc 1e6e 4c3d 970b 6bbd
000001f0: 5eb0 a1bd 27e1 643d e550 92bd 8b55 a73d
00000200: 887e 953d 3f83 a6bc 1fd8 c03c 299f 25bd
00000210: e4f7 28bd 313a 213a 0bf3 183d c0be 1ebd
00000220: bd39 9b3d 24e6 2fbd db85 c6bb 7350 e9bc
00000230: adcf 1c3d f02b e7bc 220d 8b3d ba8c a6bc
00000240: 650a cebc 1efd 603d bf66 163d f17c 273d
00000250: 517b 2d3d 816b 1abd 60d1 7bbb dde5 3e3d
00000260: 0645 1bbd 4e77 47bd 99ee a0bd 14ce 073d
00000270: 7121 66bd d8aa 843d 343c 533d cb5e 843d
00000280: 418e 8cbc aac3 a3bd bb1d 233d ea79 1fbd
00000290: fa47 f63c 1766 e73c 0193 04bc 02a6 73bd
000002a0: 6f7d 653d 6ddb f43c 5738 193b 4a9b 853d
000002b0: ed5d 9d3d 61aa 24bc 04a6 8fbd f114 5dbd
000002c0: 4497 63bd 2ea8 593d 1c5a 64bc 730c 3d3d
000002d0: 3766 39bd cddc f73c 432d 35bc 121b 223d
000002e0: 02d0 153c e9a1 183d f41f 51bd 5bc7 ae3c
000002f0: af68 663d e92c a3bc 8db4 713b 90eb 05bc
00000300: a567 663d ffe9 053c 6910 873d cdd8 21bd
00000310: 7aad 823d d6a1 0cbd de1b 8d3d 4b36 78bd
00000320: 4ced 9fbd 2616 98bd 8f17 c53d 0836 25bc
00000330: a3d2 bbbc 5dc0 543d 788c 9cbc 90b0 3f3d
00000340: 6df8 b73c cbcc 7f3d b801 77bb 62dc 27bd
00000350: aaf1 26bd 8931 8bbd abe6 ad3d d0de 873d
00000360: dd4c 75bd e8c1 5bbc f736 423c 0b61 9ebc
00000370: 40c2 bcbc 768a 0bbd 3c6e 07bd f367 a73d
00000380: 549c 06bd 6eac 87bd c018 bf3d f65a 6e3c
00000390: 0b9f 0dbd c83e cebc 59b7 2b3d d6e2 b7bb
000003a0: 207a eabc 34c9 94bb 2427 a0bd 2eea 9dbd
000003b0: 0936 7fbd ec96 f6bc 8025 993d 9905 9fbd
000003c0: d10f 7abd acb0 783d 9084 953d c9e4 07bd
000003d0: 993d 303d 76f5 183d 034b 2a3c c814 873d
000003e0: 12e5 2c3d 19a2 8fbd c7cb 76bd a7b9 863d
000003f0: 6213 90bd 7fec 93bd ab0d 7b3d 9b81 823c

fc2.bias f4 [2]
-0.025362471 0.0055931406
00000000: f5c4 cfbc aa46 b73b
