models/2024-05-10_12-10-56_Model.onnx (onnx, 448796 bytes, 10 tensors)

conv1.weight f4 [8, 1, 1, 1, 1]
0	0xbd34e023	-0.044159066
1	0xbf3e1346	-0.7424816
2	0xbf43c237	-0.76468223
3	0x3f636ca3	0.8883764
4	0x3e3fa2a8	0.18714392
5	0xbdec8930	-0.11549604
6	0x3f391098	0.72290945
7	0xbea35734	-0.31902468

conv1.bias f4 [8]
0	0x3f39c0d4	0.7255986
1	0xbf42026a	-0.75784934
2	0x3f6b9b65	0.9203399
3	0xbd490f44	-0.049086824
4	0xbeca2499	-0.39481047
5	0xbedcbf18	-0.43114543
6	0xbf3b0a54	-0.73062634
7	0xbf0517de	-0.51989543

conv2.weight f4 [16, 8, 1, 1, 1]
0	0x3de57ee6	0.112058446
1	0xbe9e1ceb	-0.30881438
2	0xbe5ec976	-0.21756539
3	0x3c5ee0b3	0.013603377
4	0xbe2ac735	-0.16677554
5	0x3c063160	0.008190483
6	0x3decfe9c	0.115720004
7	0xbe566357	-0.20936333
8	0x3e76a9c8	0.24088204
9	0x3eb14311	0.3462148
10	0xbea3a0e0	-0.31958675
11	0x3b8622d6	0.0040935082
12	0xbea9c4ee	-0.33158058
13	0xbe563f8b	-0.20922677
14	0x3cfcf437	0.03087817
15	0xbe34c90b	-0.17654817
16	0x3eae1924	0.34003556
17	0x3ce270d0	0.027641684
18	0xbe07f728	-0.13277876
19	0x3e7411ce	0.23834917
20	0x3cca03da	0.02466004
21	0x3e0311ea	0.12799802
22	0xbe9e0412	-0.3086248
23	0xbddbb186	-0.10727219
24	0xbd2f67a5	-0.042823453
25	0x3d536f00	0.05161953
26	0xbe800895	-0.25006548
27	0x3cbb0238	0.022828206
28	0xbe7970cf	-0.2435944
29	0xbe0dd36d	-0.13850184
30	0x3d7fed8f	0.062482413
31	0xbe75a48a	-0.23988548
32	0xbe857b44	-0.26070607
33	0x3e4e0f96	0.20123133
34	0x3e050de8	0.12993586
35	0x3e36dd99	0.1785797
36	0x3ea3e205	0.32008377
37	0x3ad9fe00	0.0016631484
38	0xbe4d3b67	-0.20042191
39	0x3e30a7d2	0.17251518
40	0x3d256448	0.04037884
41	0x3e98e049	0.29858616
42	0xbe1cd372	-0.15315035
43	0xbe8222ed	-0.2541727
44	0x39441800	0.00018700957
45	0x3de22104	0.110414535
46	0xbd403110	-0.04692179
47	0xbd7d50a0	-0.061844468
48	0x3e92dbae	0.28683227
49	0x3b98b340	0.00466004
50	0x3e86e672	0.2634769
51	0x3e4a7c52	0.19773987
52	0xbead127d	-0.33803168
53	0xbde38efe	-0.11111258
54	0xbe19839e	-0.14991614
55	0xbeb01163	-0.34388265
56	0xbea491f1	-0.32142594
57	0xbe061562	-0.13094094
58	0x3c8c369f	0.01711589
59	0x3d3073a5	0.043079037
60	0xbe310ca9	-0.17289986
61	0xbe35571e	-0.17709014
62	0x3e81960f	0.25309798
63	0x3e25177e	0.16122243
64	0xbdd0ea04	-0.10200885
65	0x3e35a9fa	0.17740622
66	0xbbe0c900	-0.0068598986
67	0xbe95d58b	-0.29264483
68	0x3e38ff36	0.18066105
69	0xbe63ac8c	-0.2223379
70	0x3dacf174	0.08444491
71	0x3d4bb558	0.04973349
72	0xbe911cc5	-0.28342262
73	0xbe911ce9	-0.2834237
74	0x3e50a152	0.20374039
75	0xbe616c3b	-0.22013943
76	0x3d88d10c	0.066804975
77	0xbe77cbc9	-0.24198832
78	0xbe63be25	-0.22240503
79	0xbe83d48b	-0.25748095
80	0xbe4e9352	-0.20173386
81	0xbe601f21	-0.21886875
82	0x3ccc9f44	0.024978288
83	0x3e7584ea	0.23976484
84	0x3d85c6a4	0.06532028
85	0x3e0f0802	0.13967898
86	0x3bcbcfc3	0.0062198355
87	0xbe099bd9	-0.13438357
88	0xbe81f650	-0.25383234
89	0xbe87b4a0	-0.26504993
90	0x3e42db05	0.19028862
91	0xbdd8d826	-0.10588102
92	0xbeaf7cef	-0.34275004
93	0x3e730ada	0.23734608
94	0xbea9ed01	-0.33188632
95	0x3ea1df63	0.31615743
96	0x3bf03380	0.007330358
97	0x3dcec7d8	0.10096711
98	0xbe44d0cb	-0.19220273
99	0xbe03d205	-0.12873085
100	0xbe5d309a	-0.21600571
101	0xbe11005e	-0.14160296
102	0xbe5bd8d1	-0.21469428
103	0x3e6e7e2e	0.23290321
104	0x3e2b124d	0.167062
105	0x3c86b020	0.016441405
106	0x3d35b2fa	0.04436014
107	0x3e1879bb	0.14890186
108	0x3e2e5b5a	0.17027035
109	0xbe23bb5b	-0.15989439
110	0x3ea58730	0.32329702
111	0xbe23038d	-0.15919323
112	0x3d395d06	0.04525473
113	0xbe8fcb09	-0.2808459
114	0x3de7a7ea	0.11311324
115	0xbd95018b	-0.07275685
116	0x3e963cb4	0.29343188
117	0x3e92f967	0.28705904
118	0x3e9ef69a	0.31047517
119	0xbe96d176	-0.2945668
120	0x3d749a9c	0.05971776
121	0x3e3d4d3e	0.18486497
122	0x3e9daa65	0.30794063
123	0x3d11212b	0.035432022
124	0x3d9d55aa	0.07682355
125	0xbcf02160	-0.02931279
126	0x3e8f0490	0.27933168
127	0xbe186a1e	-0.1488423

conv2.bias f4 [16]
0	0x3e2d3f2e	0.16918632
1	0xbce3e8cb	-0.027820965
2	0xbe93368d	-0.28752556
3	0x3dd5de4b	0.1044279
4	0x3ea472e9	0.3211892
5	0xbd6c8ee8	-0.057753474
6	0xbe8b3817	-0.2719123
7	0xbe56d0a2	-0.20978025
8	0x3d6017f8	0.05471036
9	0xbc6cd7c3	-0.0144557385
10	0x3e948f42	0.29015547
11	0x3d7f4e06	0.06233027
12	0xbe69a63a	-0.22817317
13	0xbe950d18	-0.29111552
14	0xbd5fca30	-0.05463618
15	0xbeb1e761	-0.3474684

conv3.weight f4 [32, 16, 1, 1, 1]
0	0x3e6d8257	0.23194252
1	0xbce1b8b6	-0.027553897
2	0xbe583dc9	-0.21117319
3	0xbe47599a	-0.19467774
4	0x3e63bd6d	0.22240229
5	0x3e105c90	0.1409781
6	0xbdd0544a	-0.10172327
7	0x3e1aa061	0.15100242
8	0xbdf3b238	-0.11899227
9	0xbe3ac8b7	-0.18240629
10	0xbbf28165	-0.007400679
11	0xbdd1e428	-0.102485955
12	0x3d589248	0.05287388
13	0xbe55a4c5	-0.20863636
14	0xbe28ca1d	-0.1648335
15	0x3de9120b	0.113803945
16	0xbd5fba40	-0.05462098
17	0x3e14b128	0.14520705
18	0x3dc400a8	0.09570438
19	0xbddabc6c	-0.1068047
20	0x3e616840	0.22012424
21	0xbd2200e0	-0.039551616
22	0xbe331c54	-0.17491275
23	0xbd2a2cc8	-0.041546613
24	0x3c00e3c0	0.0078668
25	0x3e46e8e0	0.19424772
26	0xbdd2b340	-0.102880955
27	0xbdad4d60	-0.08462024
28	0xbcabfbe0	-0.020994127
29	0x3df61af0	0.12016857
30	0x3e0b12ec	0.13581437
31	0xbe2e2850	-0.17007565
32	0xbe4fcaf2	-0.20292261
33	0x3c374ac0	0.011187255
34	0x3dad01c4	0.084476024
35	0xbe3772f6	-0.17914948
36	0xbd6ff5a2	-0.058583863
37	0xbe011dc6	-0.12609014
38	0xbd028b18	-0.03187093
39	0xbe57c3be	-0.21070763
40	0x3dcc0e78	0.09963697
41	0xbd9c8944	-0.07643369
42	0xbe58987e	-0.21151921
43	0xbceee5d6	-0.029162329
44	0x3e670ef4	0.22564298
45	0x3ceb8580	0.028750181
46	0x3d493eba	0.049132086
47	0xbdd6f251	-0.10495437
48	0x3de6899d	0.112567164
49	0x3e6de86f	0.23233198
50	0xbe2347c9	-0.15945353
51	0xbe63d141	-0.22247793
52	0x3e1ebaf2	0.15501001
53	0x3db2ba5c	0.087269515
54	0xbe5f9b3a	-0.21836558
55	0x3e2320ea	0.15930524
56	0xbe336348	-0.17518342
57	0xbe1d5e48	-0.15367997
58	0xbc91a690	-0.017779619
59	0xbe70ecd2	-0.2352784
60	0x3e02b82a	0.12765566
61	0x3c9c7db4	0.019102909
62	0xbe164ce3	-0.14677767
63	0x3d1df3c8	0.038562566
64	0x3e09e01c	0.13464397
65	0xbd944fc1	-0.07241774
66	0x3dc7947c	0.09745118
67	0x3dbf3627	0.093365006
68	0x3d7bb1dd	0.06144892
69	0x3db71a64	0.089405805
70	0x3e55bb94	0.20872337
71	0x3e3ca9ed	0.18424197
72	0xbd8e1b48	-0.06938797
73	0xbe831aa5	-0.25606266
74	0x3dcc053b	0.09961935
75	0xbd212049	-0.03933743
76	0xbd443840	-0.047905207
77	0x3d8088c0	0.06276083
78	0xbdc86532	-0.097849265
79	0x3e2f9504	0.17146689
80	0x3e387cc2	0.18016341
81	0x3e34ccca	0.17656246
82	0x3daf373d	0.08555458
83	0x3de156e7	0.110029034
84	0x3e646177	0.22302805
85	0xbdbabb30	-0.091177344
86	0xbe4ceb03	-0.20011525
87	0x3de84755	0.113417305
88	0xbdd29848	-0.102829516
89	0xbe12b8f5	-0.14328368
90	0x3e74d4d1	0.23909308
91	0x3e619447	0.2202922
92	0xbdc5187c	-0.09623811
93	0x3e33fbb9	0.17576493
94	0x3c7e6268	0.015526392
95	0xbe249763	-0.16073374
96	0x3e47c12a	0.1950728
97	0x3e70699c	0.23477787
98	0x3c08a200	0.008339405
99	0x3e170b5e	0.1475043
100	0x3dee214c	0.116274446
101	0x3dd05348	0.10172135
102	0xbd5df408	-0.054187804
103	0x3e37920c	0.17926806
104	0x3e5ff2c6	0.21869954
105	0x3e6be6d8	0.23037279
106	0xbc9e11a0	-0.019295514
107	0x3e5c20f6	0.21496949
108	0x3e138922	0.14407781
109	0xbe49bb6c	-0.19700402
110	0xbdbaaf8c	-0.09115514
111	0x3ddf7820	0.10911584
112	0x3e4f66ed	0.20254107
113	0x3e3650d1	0.17804267
114	0x3d8b36cd	0.06797562
115	0x3e5b6fd5	0.2142938
116	0xbe5ae06c	-0.21374673
117	0x3e6ba37a	0.2301158
118	0x3e722d17	0.23650013
119	0xbd0b5e8f	-0.034025725
120	0xba5af200	-0.0008352101
121	0x3d41f203	0.04734994
122	0xbe18d291	-0.14924075
123	0xbe55322b	-0.20819919
124	0x3de3d960	0.11125445
125	0xbe13b7c7	-0.14425574
126	0x3d10d751	0.03536159
127	0x3e499ea8	0.19689429
128	0xbe6afcef	-0.22948049
129	0xbdacda1a	-0.08440037
130	0x3d02fe0d	0.031980563
131	0x3d3a19c6	0.045434736
132	0x3e56cb3d	0.20975967
133	0x3e03f984	0.12888151
134	0x3ba7810a	0.005111818
135	0xbe361b8c	-0.17783946
136	0x3de6d3b0	0.11270845
137	0x3d9ab5ef	0.07554232
138	0xbe073686	-0.13204393
139	0xbdd75d55	-0.105158485
140	0x3e15b7c2	0.1462088
141	0xbe6c6262	-0.23084405
142	0x3dc8688c	0.09785566
143	0xbe6af82b	-0.22946231
144	0x3dd2dd40	0.10296106
145	0xbda36acc	-0.07979354
146	0xbd729010	-0.05921942
147	0x3e547a00	0.20749664
148	0xbdf0cea0	-0.117581606
149	0x3d42ab10	0.04752642
150	0xbe031892	-0.12802342
151	0x3d2d01f0	0.042238176
152	0x3da65c88	0.08123118
153	0x3e19879c	0.14993137
154	0xbe6c0dde	-0.23052165
155	0x3e43810e	0.19092199
156	0x3dcd93a8	0.10037929
157	0xbd92e710	-0.07172978
158	0xbd54ec00	-0.05198288
159	0x3df43e08	0.11925894
160	0xbbaa5e3d	-0.0051992224
161	0xbe2b3edd	-0.16723199
162	0xbe19e020	-0.15026903
163	0xbe2659e9	-0.16245236
164	0xbdd8eb84	-0.10591796
165	0xbdee1258	-0.116245925
166	0xbda83f39	-0.08215184
167	0x3e5bcc1e	0.21464583
168	0x3e42795e	0.1899161
169	0xbe84d941	-0.25947002
170	0xbcad24f9	-0.021135794
171	0x3c71e7ba	0.014764721
172	0x3dfe43ac	0.12415251
173	0x3e5a4877	0.21316706
174	0x3e03e5f7	0.12880693
175	0xbd01abdb	-0.031658035
176	0xbcee2390	-0.029069692
177	0x3d4694b0	0.048481643
178	0x3e7cd85a	0.24691907
179	0xbd8dcea0	-0.06924176
180	0xbc599aa0	-0.013281494
181	0xbe5317e0	-0.20614576
182	0x3e1ebc8e	0.15501615
183	0xbe39c132	-0.18140104
184	0xbd21d5e8	-0.039510638
185	0xbe1aec64	-0.15129238
186	0xbe382eb8	-0.17986572
187	0xbd26b720	-0.040701985
188	0x3e3b3302	0.18281177
189	0x3d0a51c8	0.0337694
190	0x3d9163ec	0.07099137
191	0x3c9234a0	0.01784736
192	0xbb483826	-0.0030551045
193	0xbd4f3e20	-0.050596356
194	0xbe6a9430	-0.22908092
195	0xbe7ecce8	-0.24882853
196	0xbe2cdd74	-0.16881353
197	0xbe305a0a	-0.17221847
198	0xbc93d64d	-0.018046523
199	0xbc02fd69	-0.007994988
200	0x3c899ca0	0.016798317
201	0xbdebf451	-0.11521209
202	0x3e1a0e64	0.15044552
203	0xbdb04ad3	-0.086080216
204	0xbd2db068	-0.042404562
205	0xbe5139de	-0.20432231
206	0xba851e41	-0.0010156111
207	0x3d0586e6	0.032599352
208	0x3d9b733a	0.07590337
209	0xbd0f7a19	-0.03502855
210	0xbe3a6cb2	-0.18205526
211	0x3e48cba7	0.19608937
212	0x3d04279a	0.03226433
213	0x3e644b4e	0.22294351
214	0x3d0b728d	0.03404479
215	0x3e3c6186	0.18396577
216	0xbc9fbd60	-0.01949948
217	0xbb5f0927	-0.0034032555
218	0xbe3ef6d8	-0.18648851
219	0xbd4cf827	-0.050041344
220	0xbcb7d070	-0.022438258
221	0x3e265ba5	0.16245897
222	0x3c4cf078	0.012508504
223	0x3dec8b00	0.1154995
224	0x3d8a573c	0.0675492
225	0xbe2a298a	-0.16617408
226	0xbb926380	-0.0044674277
227	0xbdaddf70	-0.08489883
228	0xbe16d45a	-0.14729443
229	0x3e4c3a7e	0.19944188
230	0xbe0d6b08	-0.1381036
231	0x3d3e32a0	0.046435
232	0x3d8ded60	0.06930041
233	0x3d8294d8	0.06376046
234	0xbcca4570	-0.024691314
235	0x3e16cb26	0.14725932
236	0x3d189388	0.03725007
237	0xbdfefdd8	-0.124507606
238	0x3e68647a	0.22694579
239	0xbe52e116	-0.20593676
240	0x3d8fdcb7	0.0702452
241	0xbd308989	-0.043099914
242	0x3c6377d2	0.013883548
243	0x3bc2e54b	0.005947744
244	0x3c827243	0.015923625
245	0xbe5838d2	-0.21115425
246	0xbe0e9de3	-0.13927417
247	0x3de8870e	0.11353885
248	0x3e5a7796	0.21334681
249	0x3dd13f1e	0.10217117
250	0x3e69b6c0	0.2282362
251	0xbe2cf114	-0.16888839
252	0x3e09d22c	0.1345908
253	0xbd240fd2	-0.04005415
254	0x3e73a5b0	0.23793674
255	0x3e3b7181	0.18305017

conv3.bias f4 [32]
0	0x3e26100b	0.16217057
1	0xbe039258	-0.12848794
2	0x3ddf701d	0.10910056
3	0x3e4e003b	0.20117275
4	0x3e5725ee	0.21010563
5	0x3e07b755	0.1325353
6	0xbe7e4a6a	-0.24833074
7	0xbd98ab06	-0.07454495
8	0x3d1b2e79	0.037886117
9	0xbdf35ab4	-0.118825346
10	0xbd30be22	-0.043150075
11	0xbd6eeb78	-0.05833003
12	0x3e5a7bb9	0.21336259
13	0x3e15da08	0.14633954
14	0xbe1a4604	-0.15065771
15	0xbdad8331	-0.084722884
16	0xbe189273	-0.14899616
17	0x3e359351	0.17731978
18	0x3e167cb5	0.1469601
19	0xbe751221	-0.23932697
20	0x3daa527a	0.083165124
21	0xbdf96cc1	-0.12178946
22	0x3e5ca627	0.21547757
23	0xbe3e7b7e	-0.18601796
24	0x3e3c4ddc	0.18389076
25	0xbde938dc	-0.11387798
26	0xbe383f02	-0.17992786
27	0xbe109640	-0.14119816
28	0x3e0b3fba	0.13598529
29	0xbe63a222	-0.22229818
30	0xbdde068b	-0.10841092
31	0xbd091786	-0.0334697

fc1.weight f4 [128, 864]
0	0xbca4836c	-0.020082198
1	0x3b756eed	0.003745015
2	0xbcc246ac	-0.02371534
3	0x39db7598	0.0004185855
4	0x3cdaa558	0.02669017
5	0xbbe03ee5	-0.006843435
6	0x3b9b0b01	0.0047315364
7	0xbcf7a842	-0.030231599
8	0xbbd28f9f	-0.0064258124
9	0xbb1ab9ad	-0.0023609207
10	0xbc4f9ddc	-0.012671914
11	0xbd12c306	-0.03583052
12	0x3c8362d0	0.016038328
13	0x3c1d0f2e	0.009586139
14	0x3c9aab48	0.018880501
15	0xbc7350a6	-0.014850771
16	0xbba65412	-0.00507594
17	0x3bc1cdb5	0.005914415
18	0x3c3dfe1a	0.011596227
19	0xbd202b26	-0.03910365
20	0xbc8c4b4e	-0.017125752
21	0xbd0ae82c	-0.033912823
22	0xbd16d35a	-0.036822654
23	0x3cc75eb0	0.024337143
24	0x3c38778d	0.011258972
25	0x3b2a724a	0.0026008063
26	0xbcf9464f	-0.030429034
27	0xbbaa7158	-0.0052015
28	0x3d04e614	0.032445982
29	0xbd060244	-0.032717004
30	0xbbbfb78c	-0.005850738
31	0xbb771378	-0.0037700813
32	0xbc02f9f6	-0.007994166
33	0xbd01115f	-0.031510707
34	0x3d0293f0	0.031879365
35	0x3cacc5aa	0.021090347
36	0x3a6094c0	0.00085670874
37	0xbcafd7a9	-0.02146514
38	0x3c357644	0.01107556
39	0x3cf293f0	0.029611558
40	0xbcd5f8d0	-0.02611962
41	0x3af535a0	0.0018707998
42	0x3cd70578	0.026247725
43	0x3ccbe382	0.024888758
44	0xbccb5021	-0.024818482
45	0xbc32c05e	-0.010910122
46	0x3cfe1ef8	0.031020626
47	0x3bb9ea10	0.0056736544
48	0x3b8dc478	0.0043263994
49	0x3c36d51c	0.011159208
50	0x3bc27390	0.0059341863
51	0x3bfa4290	0.0076373294
52	0xbb861128	-0.0040914007
53	0x39c63800	0.00037807226
54	0x3ca45f2a	0.020064909
55	0xbccea4de	-0.0252251
56	0xbd027b3a	-0.0318558
57	0x3b8d4ceb	0.004312148
58	0x3cb8f988	0.022579923
59	0xbcd13440	-0.02553761
60	0x3c934c36	0.017980676
61	0xbc28c46e	-0.010300739
62	0xbcc56636	-0.02409659
63	0x3c276e5b	0.010219182
64	0xbc3dfac0	-0.011595428
65	0xbc5fc94b	-0.013658832
66	0xbcf38859	-0.029728102
67	0x3d0b156c	0.033955976
68	0xbcb3e14c	-0.021958016
69	0xbc895d37	-0.016768081
70	0x3c6e6f5c	0.014552917
71	0xbc309844	-0.01077849
72	0x3ca01862	0.019542877
73	0x3c4afd37	0.012389473
74	0x3cdbb7cd	0.026821041
75	0x3bdf5df0	0.006816618
76	0x3ca9307a	0.020652998
77	0x3cea25f7	0.028582556
78	0x3ce88bab	0.028386911
79	0xbce3a86c	-0.02779027
80	0xbc8d62c8	-0.017259017
81	0xbcfccbdd	-0.030858928
82	0x3c2fa2bb	0.01071995
83	0x3c8202d3	0.015870487
84	0x3cc3faa8	0.023923233
85	0xbd137bda	-0.036006786
86	0xbd1195e0	-0.035543323
87	0xbd016464	-0.03158988
88	0xbbe63e21	-0.0070264493
89	0xbcb4a274	-0.02205012
90	0xbcc29916	-0.023754638
91	0xbb013c78	-0.001971988
92	0x3c80bca6	0.015714955
93	0x3c8a04a3	0.016847914
94	0xbd116a7f	-0.035501953
95	0xbd1eb864	-0.038750067
96	0xbcdbae8f	-0.026816634
97	0xbbec12f2	-0.007204407
98	0xbcbc4304	-0.022981174
99	0x3ca0c09c	0.019623093
100	0x3cce9481	0.025217297
101	0x397cadc1	0.00024097321
102	0x3c68fe20	0.014220744
103	0xbd0f4659	-0.034979198
104	0x3cb94f25	0.022620747
105	0xbb39d8ab	-0.0028357904
106	0xbcc3c471	-0.023897381
107	0x3cab89bd	0.020939702
108	0x3bb4f3c7	0.0055222246
109	0x3c32feb3	0.010924983
110	0xbc8792d7	-0.01654951
111	0x3ccf4c7d	0.025305027
112	0xbc22ee79	-0.009944552
113	0x3c5a8f06	0.0133397635
114	0xbcdb45e9	-0.026766734
115	0xbb9a778d	-0.0047139586
116	0xbd00e37b	-0.031466942
117	0x3cb03f48	0.02151455
118	0x3b63be79	0.0034750982
119	0xbcd4a31f	-0.025956688
120	0x3c212d36	0.009837439
121	0xbc8c1dd2	-0.017104063
122	0xbcbc4205	-0.0229807
123	0x3b924854	0.0044641886
124	0x3c08dea8	0.008353867
125	0x3c6820e4	0.014167998
126	0x3c8f07f1	0.017459841
127	0xbc9b98e6	-0.018993806
128	0xbd1d7648	-0.03844288
129	0xbbfcca03	-0.0077145114
130	0xbd00c2bb	-0.03143571
131	0xbc8b7f38	-0.017028436
132	0x3c4c63ec	0.012474995
133	0xbcacbb7d	-0.021085495
134	0x3c47ca2e	0.0121941995
135	0xbd02b8a3	-0.031914365
136	0x3c5920e4	0.013252471
137	0xbd06219b	-0.032746892
138	0x3c46ebd0	0.012141183
139	0xbb9cb1e1	-0.004781947
140	0x3ca38455	0.019960562
141	0xbcf5868c	-0.029971384
142	0xbd052538	-0.032506198
143	0xbc89063e	-0.01672661
144	0x3c5bd5ac	0.013417643
145	0x3c4645d7	0.012101612
146	0xbbf55c28	-0.0074877925
147	0x3be11e00	0.0068700314
148	0x3ca3d445	0.019998679
149	0xbd05623c	-0.032564387
150	0xbd068a46	-0.03284671
151	0xbc8e5adf	-0.017377315
152	0x3ca1a0ec	0.019730054
153	0xbb4bf24e	-0.0031119767
154	0x3b0ac5c0	0.0021174997
155	0xbd0894af	-0.03334492
156	0x3c9bdca8	0.019026116
157	0x3ca97291	0.020684512
158	0xbd1c8172	-0.038209386
159	0xbc75a45e	-0.0149928015
160	0xbc6a21fa	-0.014290327
161	0xbd0f204a	-0.034942903
162	0xbb06bcf0	-0.0020559393
163	0x3c5ad758	0.013357006
164	0xbc8ad309	-0.016946333
165	0x3c235b00	0.009970427
166	0x3cfe284c	0.031025074
167	0xbc741d82	-0.014899613
168	0x3ae0bda0	0.0017146356
169	0x3d08dc26	0.033413075
170	0xbc9150d4	-0.017738737
171	0xbc9108b6	-0.017704349
172	0x3c335868	0.010946371
173	0x3d02700a	0.03184513
174	0x3cb92b24	0.022603579
175	0x3d01fc16	0.03173455
176	0xbcf876a0	-0.030330002
177	0xbc278f50	-0.010227039
178	0xbc65cce8	-0.014025904
179	0x3c80ba98	0.015713975
180	0xbb0dfd40	-0.0021665841
181	0xbd006478	-0.031345814
182	0x3d07fc50	0.03319961
183	0x3c94dcac	0.01817163
184	0x3cc0121a	0.023446131
185	0xbd0a38ab	-0.03374545
186	0x3c6adae4	0.014334414
187	0xbc0c0d78	-0.008548133
188	0xbc8e6590	-0.017382413
189	0xbc71888a	-0.014742026
190	0x3cce9ef8	0.025222287
191	0xba857840	-0.0010182932
192	0x3a9064a0	0.0011016317
193	0x3cb4e077	0.02207969
194	0x3d05eb72	0.03269524
195	0xbd040241	-0.032228712
196	0x3ca6b99c	0.020352177
197	0x3ce8dd66	0.028425884
198	0xbc85b0f7	-0.016319735
199	0x3caa07a4	0.020755596
200	0x3c9fe69a	0.01951914
201	0x3c730275	0.014832129
202	0x3c5e9478	0.013585202
203	0x3ab1f0a9	0.0013575751
204	0x3cb7cd42	0.022436742
205	0x3caec0ca	0.021332163
206	0x3cd35f84	0.025802381
207	0xbd1eb3d5	-0.03874572
208	0x3cee400c	0.029083274
209	0xbbd5d1f8	-0.0065252744
210	0x3c9c96cc	0.019114874
211	0x3ca26cca	0.019827265
212	0x3c96b298	0.018395707
213	0xbcc4032a	-0.02392729
214	0xbc5d36dd	-0.01350185
215	0xbca53bc6	-0.020170104
216	0xbc834e8c	-0.016028665
217	0x3cdbe867	0.026844217
218	0xbc8b6dba	-0.017020095
219	0x3c6e521b	0.014545943
220	0xbbe5dc1c	-0.0070147645
221	0xbccad17e	-0.024758097
222	0x3b23b9ef	0.0024982651
223	0xbb98e42c	-0.004665872
224	0xbb841c15	-0.004031668
225	0xbb31f820	-0.002715595
226	0x3cb6fdca	0.022337813
227	0xbc898d02	-0.01679087
228	0xbc051afe	-0.008124111
229	0xbcd39a87	-0.02583052
230	0xbaaf7534	-0.001338637
231	0xbd079c19	-0.03310785
232	0x3c08829c	0.008331921
233	0xbc01a650	-0.007913187
234	0xbd023618	-0.03178987
235	0xbc45a823	-0.012064013
236	0xbc8c974a	-0.017161984
237	0x3ccb5516	0.024820846
238	0x3cf0aff0	0.029380769
239	0xb9dc1d5e	-0.0004198355
240	0x3ceac13e	0.028656598
241	0xbcc8f388	-0.024530187
242	0x3c92178a	0.01783349
243	0xbbd70b08	-0.0065625943
244	0xbc0a8bc4	-0.008456174
245	0x3c875b4c	0.016523026
246	0x3ccb5e4c	0.024825238
247	0xbc80fec3	-0.01574648
248	0xbcacde26	-0.021102022
249	0x3d06e852	0.0329364
250	0x3b88fb68	0.0041803606
251	0xbba9456c	-0.0051657464
252	0xbbfb94a4	-0.0076776315
253	0x3c3309a4	0.0109275915
254	0xbc80b85b	-0.015712908
255	0xbcc6428e	-0.024201658

fc1.bias f4 [128]
0	0xbbbfc64c	-0.0058524963
1	0xbc375b30	-0.011191174
2	0x3c591b5e	0.013251154
3	0xbafdec40	-0.0019372776
4	0xbc115d14	-0.008872289
5	0x3b4a7379	0.003089158
6	0xbc70a6a0	-0.014688164
7	0x3cbe917a	0.023262728
8	0xbc598836	-0.013277104
9	0x3b844907	0.004037026
10	0xbcbc7466	-0.023004722
11	0xbc2c33e0	-0.010510415
12	0xbcc3848e	-0.023866918
13	0xbcf48cb6	-0.029852252
14	0xbce20878	-0.027591929
15	0xbb538480	-0.003227502
16	0x3cbc7bce	0.023008253
17	0xbd052c89	-0.032513175
18	0xbccb1d22	-0.024794165
19	0x3cdf7100	0.027275562
20	0x3a987b73	0.001163347
21	0xbb944707	-0.0045250687
22	0xbcfc86a8	-0.030825928
23	0xbc9e8dfa	-0.01935481
24	0x3c1e0a60	0.009646028
25	0x3a369710	0.0006965259
26	0x3aba1940	0.0014198199
27	0x3cdc135a	0.026864696
28	0xbc86b168	-0.016442016
29	0x3ba9b7d0	0.005179383
30	0xbc753042	-0.014965119
31	0xbccc30a0	-0.02492553
32	0x3c7da48a	0.015481124
33	0xbcce1e9a	-0.025161076
34	0xbce197d2	-0.027538214
35	0x3b246538	0.0025084745
36	0xbc072f7c	-0.008251067
37	0x3c000b84	0.007815246
38	0x3c8a1790	0.016856939
39	0xbcf8a21b	-0.030350735
40	0x3c509fe0	0.01273343
41	0x3c38b934	0.011274625
42	0xbd181681	-0.037130836
43	0xbc606f76	-0.013698449
44	0xbcdaa482	-0.026689772
45	0xbc8e9dc7	-0.017409218
46	0x3b9bebbb	0.004758326
47	0x3c5d1b90	0.013495341
48	0xbcbfa055	-0.023391882
49	0xbbcf69f0	-0.0063297674
50	0xbba6164e	-0.005068577
51	0xbca9676f	-0.020679204
52	0xba07c1ee	-0.0005178739
53	0x3cea01e5	0.028565357
54	0xbcc2fd70	-0.023802489
55	0xbd052eb1	-0.03251523
56	0xbc035116	-0.008014938
57	0xb96f4a00	-0.00022820383
58	0xbc9f6cc8	-0.01946105
59	0xbd0adb50	-0.03390056
60	0x3cd439b6	0.025906425
61	0xbc65bbbf	-0.014021813
62	0x3aaade9d	0.0013036315
63	0xbd00bb41	-0.03142858
64	0xbd1af799	-0.037833784
65	0x3cfe3c2e	0.031034555
66	0xbc82fcfd	-0.015989775
67	0xbd184058	-0.037170738
68	0xbcb5cbbf	-0.02219188
69	0x3b306ac0	0.0026919097
70	0x3c178f21	0.009250433
71	0xbc10becb	-0.008834551
72	0x3bae3b76	0.005317147
73	0xbc233269	-0.009960749
74	0xbc19ba6b	-0.009382824
75	0xbd0b32b4	-0.0339839
76	0x3c8defbe	0.017326232
77	0xbca3c511	-0.01999143
78	0xbc96ccfb	-0.01840829
79	0x3cb3fdfc	0.021971695
80	0xbc94d2b1	-0.018166872
81	0xbc9cb684	-0.019129999
82	0x3b9b9290	0.004747696
83	0xbccbfa86	-0.024899732
84	0xbcafc49e	-0.021456059
85	0x3c7a1bfc	0.015265461
86	0x3cc3cdc0	0.02390182
87	0xbca62d37	-0.020285232
88	0x3d05d650	0.032675087
89	0x3bb2d228	0.0054571815
90	0x3c2dd748	0.010610409
91	0x3c3ddf30	0.011588857
92	0xbcfe1f9d	-0.031020934
93	0xba96cad7	-0.0011504543
94	0x3bac14a2	0.005251483
95	0xbca0e6fc	-0.019641392
96	0x3c7da9d4	0.015482385
97	0x3bdad52d	0.0066782446
98	0x3b8a3617	0.004217874
99	0x3b1a981a	0.0023589195
100	0xbd013011	-0.03153998
101	0xbd148815	-0.03626259
102	0x3c91f74d	0.017818118
103	0xbc745a74	-0.014914144
104	0xbc52f33e	-0.012875376
105	0xbc840627	-0.016116215
106	0xbc164be6	-0.009173369
107	0xbccca046	-0.024978768
108	0xbb271d41	-0.0025499614
109	0xbc28c056	-0.010299763
110	0x3cd5497b	0.026036015
111	0xbb8dfad4	-0.0043328796
112	0xbc23cb5a	-0.009997213
113	0x3a0dc280	0.0005407706
114	0xbc0a9942	-0.008459391
115	0xbc1733dc	-0.009228673
116	0x3cacc3a6	0.021089386
117	0x3c441bac	0.011969488
118	0xbcefbf5a	-0.029266048
119	0x3cd702ad	0.026246393
120	0x3c0f94e5	0.008763527
121	0xbce1e63c	-0.027575605
122	0xbbfe521d	-0.0077612535
123	0x3c718791	0.014741794
124	0xbc2d1d51	-0.010566072
125	0x3c4e351f	0.012585907
126	0x3ccdc746	0.025119435
127	0x3b80b297	0.0039275396

fc2.weight f4 [2, 128]
0	0xbccd6dc0	-0.025076747
1	0x3c90ad41	0.017660739
2	0x3d7da35d	0.061923373
3	0x3d3dbeba	0.04632447
4	0xbd10f29f	-0.03538763
5	0x3d8f3089	0.06991679
6	0x3c6a5710	0.014302984
7	0xbda82cfc	-0.08211705
8	0xbd93d6e5	-0.07218722
9	0x3cf57179	0.029961335
10	0x3d18c9ef	0.037301954
11	0x3dabb3f7	0.08383935
12	0xbdad3532	-0.08457412
13	0x3d503f68	0.05084172
14	0xbdb2905f	-0.08718943
15	0xbd6cfbfc	-0.0578575
16	0x3c8bcbcf	0.017064957
17	0x3b7047c0	0.003666386
18	0xbd66c5cd	-0.05634098
19	0x3dabc5e3	0.08387353
20	0x3d6c84f4	0.05774398
21	0xbd8147bc	-0.0631251
22	0x3d2a5466	0.041584395
23	0xbcacaad4	-0.021077551
24	0x3d50d017	0.0509797
25	0x3d96bd6a	0.073603466
26	0xbc2daf88	-0.010600932
27	0xbd9111a3	-0.07083442
28	0xbd984b7c	-0.074362725
29	0x3cc83850	0.024440914
30	0xbd10bdaf	-0.035337146
31	0x3ca6bbec	0.02035328
32	0xbbbf7b27	-0.0058435383
33	0xbd9c7a8f	-0.07640564
34	0xbd9102d9	-0.07080621
35	0x3c8d59b9	0.017254697
36	0x3dacfb35	0.084463514
37	0xbd75c719	-0.060004327
38	0xbc25c908	-0.01011873
39	0xbc1b5e45	-0.009482925
40	0xbcb087a4	-0.021549053
41	0xbd4e7942	-0.05040861
42	0xbd9f0478	-0.07764524
43	0xbc87f342	-0.016595487
44	0xbd679e05	-0.056547184
45	0xbd705960	-0.058678985
46	0x3d99bd76	0.0750684
47	0xbd7be933	-0.061501693
48	0xbda1773e	-0.07884072
49	0xbd851959	-0.06498975
50	0xbce112df	-0.027474819
51	0xbd36a159	-0.044587467
52	0xbd8d826f	-0.06909644
53	0xbda8df5f	-0.0824573
54	0xbc3691c3	-0.011143151
55	0xbd8925bf	-0.066966526
56	0xbce131fa	-0.027489651
57	0x3d02a292	0.03189332
58	0xbda2888b	-0.079362
59	0x3da1a5a1	0.07892919
60	0xbd58c352	-0.052920647
61	0xbb890a8b	-0.004182165
62	0x3d6b1306	0.05739119
63	0xbd980b6e	-0.07424055
64	0xbd79e74a	-0.06101159
65	0xbda5c280	-0.080937386
66	0xbd4ef77d	-0.050528992
67	0x3d2e276c	0.042518064
68	0xbcf1fb98	-0.029538915
69	0x3ce998d0	0.02851525
70	0xbd5d72f7	-0.054064717
71	0xbd897897	-0.06712454
72	0x3d250302	0.04028607
73	0xbd5938db	-0.053032737
74	0x3d92c085	0.071656264
75	0xbd7f4420	-0.06232083
76	0xbd697584	-0.056996837
77	0xbd9104a7	-0.070809655
78	0xbca26708	-0.01982452
79	0xbcb95bdc	-0.02262681
80	0x3d7fa33e	0.06241154
81	0x3cd8fd30	0.026487917
82	0x3bd65c80	0.0065417886
83	0x3b056f40	0.00203605
84	0x3d8794f9	0.06620211
85	0x3c94aabc	0.018147819
86	0xbd8fa9d0	-0.07014811
87	0xbd5c7664	-0.053823844
88	0xbcd72810	-0.02626422
89	0xbcedb394	-0.029016294
90	0xbc3be1d7	-0.011467419
91	0xbd4375bc	-0.047719702
92	0x3d8de25a	0.06927939
93	0xbc2d1127	-0.0105631715
94	0xbd9399ce	-0.0720707
95	0xbda4f9e6	-0.08055477
96	0xbd419217	-0.047258463
97	0xbd3538b4	-0.04424353
98	0xbc950fd0	-0.018196017
99	0x3d893170	0.066988826
100	0xbdb10d70	-0.08645141
101	0xbd5ad349	-0.053424153
102	0x3be6b755	0.007040898
103	0x3d81d2d0	0.063390374
104	0x3d940a87	0.072285704
105	0x3d1c0daa	0.03809897
106	0xbc45edfb	-0.012080665
107	0xbd5c932b	-0.053851288
108	0xbc8b6a52	-0.01701847
109	0x3cc431e7	0.023949577
110	0xbd3fd25a	-0.046831466
111	0x3c5e1ce0	0.013556689
112	0xbd049bff	-0.032375332
113	0xbd27192a	-0.040795483
114	0xbbfbdea5	-0.0076864534
115	0xbd79d199	-0.060990904
116	0xbd6c375d	-0.057669986
117	0xbd4d142b	-0.05006806
118	0xbd18be2b	-0.037290733
119	0x3c9c0663	0.019046014
120	0xbda8b02f	-0.08236729
121	0x3c316cb0	0.010829136
122	0xbcc012d2	-0.023446474
123	0x3c5d7ee7	0.013519025
124	0xbda2a645	-0.0794187
125	0xbd4129ec	-0.04715912
126	0x3d708792	0.05872304
127	0x3d9748bb	0.07386919
128	0xbca1d078	-0.019752726
129	0x3c8bccf3	0.0170655
130	0xbd2c6e12	-0.04209716
131	0xbcad7cc8	-0.021177664
132	0x3d5b018e	0.05346828
133	0xbd6598cb	-0.056053918
134	0x3d89495d	0.06703446
135	0x3d8f20fb	0.069887124
136	0x3bfd783d	0.007735281
137	0xbd9e3e60	-0.07726741
138	0x3ce6f8a3	0.028194731
139	0x3af40a00	0.0018618703
140	0xbd9a8a6b	-0.075459324
141	0xbc58f64e	-0.013242317
142	0x3c912cac	0.017721497
143	0xbd886cf6	-0.06661408
144	0x3c6fadff	0.014628886
145	0xbd1a09d5	-0.037607033
146	0xbd92df10	-0.07171452
147	0x3bef6590	0.0073058084
148	0x3d897c96	0.06713216
149	0xbd3a09c6	-0.045419477
150	0x3d1247ec	0.03571312
151	0xbda55c2f	-0.08074223
152	0xbd211995	-0.039331038
153	0xbcbd831a	-0.023133803
154	0x3d26edd2	0.040754147
155	0xbda2ec85	-0.07955269
156	0x3d04d7d1	0.03243238
157	0x3d23e76a	0.040015616
158	0xbc6f1287	-0.01459182
159	0x3d7dbbd2	0.061946698
160	0xbc02056a	-0.007935861
161	0x3d354fbe	0.0442655
162	0x3d80908b	0.062775694
163	0x3cd6e2af	0.026231138
164	0xbd98e5b6	-0.07465689
165	0xbd50ee51	-0.051008526
166	0xbd3f167c	-0.046652302
167	0xbd99731f	-0.07492661
168	0x3cf24d54	0.029577889
169	0xbc050608	-0.008119114
170	0xbdb7389d	-0.08946345
171	0x3a3ce091	0.0007205094
172	0x3da08703	0.078382514
173	0xbd6d2635	-0.057897765
174	0xbca0982d	-0.019603813
175	0x3d5dfcf7	0.054196324
176	0xbda58c10	-0.080833554
177	0x3c5071e8	0.01272247
178	0xbcf2f59a	-0.029658128
179	0x3d30d57e	0.043172352
180	0xbb752783	-0.0037407584
181	0xbd1a56e8	-0.037680537
182	0xbc23811e	-0.009979514
183	0xbd1f66e6	-0.03891649
184	0x3cc144f8	0.023592457
185	0xbd3c3170	-0.045945585
186	0xbc178d70	-0.00925003
187	0x3d01918d	0.03163295
188	0xbd903f0b	-0.070432745
189	0x39177706	0.00014444822
190	0xbd0b4886	-0.03400471
191	0xbd5f6f51	-0.05454952
192	0xbc9853d5	-0.018594662
193	0xbd6f303d	-0.058395613
194	0xbcdc3c68	-0.026884273
195	0x3d26c25c	0.0407127
196	0xbdab8393	-0.08374705
197	0xbd198961	-0.03748453
198	0x3d85b4b6	0.065286085
199	0xbca81f84	-0.02052284
200	0xbca62e48	-0.02028574
201	0xbd7e564a	-0.06209401
202	0xbb944b03	-0.0045255437
203	0x3d5ec345	0.054385442
204	0xbd56b1fc	-0.052415833
205	0x3d48b3f7	0.048999753
206	0x3d9a5541	0.07535792
207	0xbda1e551	-0.07905067
208	0x3c09fc88	0.008422025
209	0xbd167278	-0.03673026
210	0xbd9713f0	-0.0737685
211	0x3c957bf4	0.018247582
212	0x3d28c55e	0.04120385
213	0x3d414e96	0.047194086
214	0x3c38e600	0.011285305
215	0x3b9e76aa	0.004835923
216	0x3d7a8eaa	0.06117121
217	0xbce8733c	-0.02837526
218	0xbd883ee4	-0.066526204
219	0xbd5d0869	-0.0539631
220	0x3cc715d8	0.024302408
221	0xbd68ca5d	-0.056833614
222	0xbda2423a	-0.07922788
223	0xbd550e18	-0.052015394
224	0xbd208ba9	-0.03919569
225	0x3d2b88fa	0.041878678
226	0xbd96c0b0	-0.07360971
227	0x3d8ff91b	0.07029935
228	0x3d71609e	0.058930032
229	0xbd4a80fe	-0.049439423
230	0xbda65952	-0.08122505
231	0x3d5490bc	0.051895842
232	0xbd537c2c	-0.05163209
233	0xbb967f50	-0.0045928136
234	0xbca8d8df	-0.020611225
235	0x3d16462e	0.036688022
236	0xbd9f9af0	-0.07793224
237	0xbb3feb1b	-0.002928442
238	0xbcf5226e	-0.029923644
239	0xbbd40d20	-0.006471291
240	0xbd90bba3	-0.07067039
241	0x3ccdd994	0.025128163
242	0xbd8b2aff	-0.0679531
243	0x3ce618d8	0.028088018
244	0xbd99de1d	-0.07513068
245	0xbb9e8e40	-0.004838735
246	0xbd901136	-0.07034533
247	0x3cad8a9b	0.021184256
248	0x3d3d0423	0.046146523
249	0xbd949ec9	-0.07256848
250	0x3d105362	0.03523577
251	0xbd17c99f	-0.037057515
252	0xbda31796	-0.07963483
253	0xbbf02858	-0.007329028
254	0xbda15f66	-0.07879524
255	0xbc922fbd	-0.017845029

fc2.bias f4 [2]
0	0xbc3474a2	-0.011014136
1	0xbd5bbe2b	-0.053648155
