models/2024-05-10_12-09-55_Model.onnx (onnx, 448796 bytes, 10 tensors)

conv1.weight f4 [8, 1, 1, 1, 1]
000000 29 53 36 3f 34 78 3d bd ca 40 91 be 00 fa 97 bc
       0.7122064 -0.046257213 -0.28369743 -0.018551826
000010 5c af 56 bf 96 ef 01 bf f0 c3 dd be 07 05 61 bf
       -0.8386133 -0.50756204 -0.4331355 -0.87898296

conv1.bias f4 [8]
000000 a6 63 1e bf 3d fc ca 3c c7 b0 4d be 3a 40 66 bf
       -0.618708 0.02477848 -0.20086966 -0.8994175
000010 f3 ca f9 3e 34 85 df be 8e f8 52 bf 87 fb 13 3f
       0.4878765 -0.43656313 -0.82410514 0.57805675

conv2.weight f4 [16, 8, 1, 1, 1]
000000 3d 96 40 bb 79 da 8e be 97 ed c0 bd 28 55 b1 3d
       -0.0029386424 -0.27901056 -0.09420317 0.086588204
000010 70 80 9a 3e 06 ac 7f 3e 97 c4 82 be 34 bc 25 3e
       0.30176115 0.24967965 -0.2554061 0.16185075
000020 02 fc 9f 3e b3 60 a2 be 9f 81 9c 3e 49 0f 06 be
       0.31246954 -0.317144 0.30567643 -0.13091768
000030 62 d6 66 3e 66 73 79 3e ac 65 d5 3d e0 1f 8a 3d
       0.22542718 0.24360427 0.10419783 0.06744361
000040 24 44 b6 3e 2c 84 27 3d 39 a4 9c be 9d 1d 99 be
       0.35598862 0.040897533 -0.30594042 -0.29905406
000050 80 91 20 3e 27 ec ae 3e 6d 52 aa 3e f3 b0 d5 3c
       0.15680504 0.34164545 0.3326601 0.026085353
000060 90 02 61 be f6 57 5c be 2a 3e 70 3e 60 a3 42 bc
       -0.21973634 -0.2151793 0.23461214 -0.011879772
000070 88 e5 51 be 88 cc a1 be 10 08 a0 3d 38 ea 88 be
       -0.20497715 -0.31601357 0.07814038 -0.26741195
000080 bd b0 10 be c2 b1 24 3e 80 02 a7 bc 6c 35 3f be
       -0.1412992 0.16083434 -0.020386934 -0.18672723
000090 af f4 80 3e 58 54 77 bd b0 8f 7f bd 08 05 4e bd
       0.2518668 -0.06038317 -0.06239289 -0.050297767
0000a0 63 b8 2d 3e 7b 8d 53 3e 4d 36 89 3e 73 f7 aa 3e
       0.16964869 0.2065944 0.2679924 0.33391914
0000b0 34 0b 9b bd d0 28 b1 be 9e 5b 55 3e 9e f2 91 be
       -0.07570496 -0.3460145 0.2083573 -0.28505415
0000c0 02 0f 87 3e 39 c0 1b 3e 94 13 c2 3d 4c 83 18 be
       0.26378638 0.15210046 0.094763905 -0.14893836
0000d0 02 f5 f7 3d 56 27 94 be c0 59 de 3c 20 d2 95 be
       0.121072784 -0.2893626 0.027142406 -0.29261875
0000e0 62 46 08 be d8 e6 03 3e 8c 77 92 3d db 5b 85 be
       -0.13308099 0.12881029 0.07151708 -0.26046643
0000f0 f4 3e 97 3d 58 66 72 be b8 b5 fe bd 00 c9 b9 3a
       0.07385054 -0.23671854 -0.12437004 0.0014174283
000100 a5 05 2b 3c 2e 51 90 bd e8 66 76 bd 6a dd ad be
       0.0104383575 -0.07046734 -0.060156733 -0.33957988
000110 ca 51 c7 3b 92 de 01 be 18 3c 0f bd ff 04 73 be
       0.006082748 -0.1268256 -0.03496942 -0.23732375
000120 f9 08 a2 3e 6e 7b f7 bd 1b 48 37 be ea 3a 23 3e
       0.3164747 -0.12084089 -0.178986 0.15940443
000130 18 d7 8f be e8 ce 93 be d0 60 6e 3d 3e 70 21 3e
       -0.2809379 -0.28868794 0.058197796 0.15765473
000140 73 05 10 be e4 d8 26 3e b9 52 e8 bd c6 22 3e 3e
       -0.14064579 0.16293675 -0.11343903 0.18567953
000150 1b f7 b9 3e ae 79 4c 3e 2f 6d a7 be 02 d5 13 3e
       0.3632134 0.19968292 -0.32700488 0.14436725
000160 7e 57 aa be 8c fe da bd a3 e8 81 3e 1e 31 6f 3e
       -0.33269876 -0.10693082 0.253728 0.2335858
000170 e8 f5 a5 be 10 89 46 bd 94 96 d0 bd 90 d7 fd 3d
       -0.32414174 -0.048470557 -0.101849705 0.12394631
000180 e6 28 84 3e fd b0 fe 3d a2 b2 40 3d 9c c0 d8 3d
       0.25812453 0.124361016 0.047045358 0.10583612
000190 af 86 af 3e 30 ad c7 3c 12 29 6c 3e f4 83 35 be
       0.34282443 0.024374574 0.23062542 -0.17726117
0001a0 5b 84 94 3d d9 3b a2 3e 8f 27 07 3e 88 bc 1a be
       0.07251807 0.31686285 0.13198684 -0.15110981
0001b0 5b 3c 21 bd c4 cf 9b bd bc 19 fe bd a3 58 2c 3e
       -0.0393642 -0.076079875 -0.12407252 0.16830687
0001c0 de bb 5c 3d 7b 65 45 be 5f c2 3f 3e d4 ba 7f be
       0.0538901 -0.19276993 0.1872649 -0.24973613
0001d0 9e 78 9c bd b9 2d a6 3e 68 52 10 bd 8c 85 fe 3d
       -0.076401934 0.3245676 -0.03523484 0.12427816
0001e0 23 e4 b0 3e 60 c5 a9 3e f4 04 0a 3e 40 3c 56 3d
       0.34549055 0.33158398 0.13478452 0.052303553
0001f0 5b 0e 56 be 12 98 31 be d0 c2 71 bd 38 c8 8c 3e
       -0.20903914 -0.17343166 -0.05902368 0.27496505

conv2.bias f4 [16]
000000 4f e8 5b be 4d c0 f0 3d 47 21 84 bd 62 f4 ff bd
       -0.21475337 0.117554285 -0.0645166 -0.12497784
000010 02 5a 93 be 41 ee 82 bd 82 51 93 be 5e 9b 28 be
       -0.28779608 -0.063930996 -0.28773123 -0.16465518
000020 22 cb e8 3d ee 95 14 bc 7f 89 69 be dd 13 89 3d
       0.113668695 -0.009068949 -0.22806357 0.06693242
000030 e1 b8 19 3d 4f a3 91 3d 44 49 9b 3e 81 ce 5f bd
       0.03752983 0.07111227 0.30329335 -0.054640297

conv3.weight f4 [32, 16, 1, 1, 1]
000000 45 75 88 3d f2 1a 09 3e 55 59 45 3d 4e 2d 31 3e
       0.066629924 0.13389185 0.048180897 0.17302439
000010 f8 ed 3f 3d 24 f7 35 be a5 ae 9e 3d 60 cc c8 bd
       0.046857804 -0.17770058 0.077481546 -0.098046064
000020 71 43 02 be eb 2b 3f 3c a6 eb f4 3d 56 9b d8 3d
       -0.1272104 0.011668186 0.11959009 0.10576503
000030 10 ea 59 3e 47 35 66 be 98 0b 10 3e b4 b8 71 be
       0.21280694 -0.22481261 0.14066923 -0.23605615
000040 95 ed 12 3e ca 40 84 be 83 e0 b3 bd 98 a9 26 bd
       0.14348443 -0.2583068 -0.087830566 -0.04068908
000050 00 cd 78 be ac 19 9b 3d 0e 4e 21 3e 94 05 a7 3d
       -0.24296951 0.07573256 0.15752432 0.08155361
000060 7f 90 75 be 1d 61 85 be 40 24 4c be 0a e8 ae 3d
       -0.23980902 -0.26050654 -0.19935703 0.08540352
000070 0d cd 47 bd c1 a3 fd 3c fa 4c f0 3d cf 81 9f 3d
       -0.048779536 0.030961873 0.11733432 0.07788431
000080 fa 19 35 3e c0 53 68 3c 04 2a 09 bd a0 e6 e8 bd
       0.1768569 0.014180124 -0.033487335 -0.11372113
000090 c4 7b 26 3e 11 fc b0 3d c3 f1 0c be 42 aa 63 be
       0.1625815 0.08641828 -0.137641 -0.22232917
0000a0 56 80 29 3d a3 f7 25 3e c3 35 16 be d0 bf d5 3d
       0.041382156 0.16207747 -0.14668946 0.10436976
0000b0 91 36 5c b9 7d 23 3f be 24 ea 7b 3c e5 21 33 3e
       -0.00021001163 -0.18665881 0.015375648 0.17493398
0000c0 a0 8b 41 bc 90 b1 7f be ca 3b 0c be 40 d2 a9 bd
       -0.011813074 -0.24970078 -0.13694683 -0.08292055
0000d0 10 0d ff 3d 4e c8 71 3e da 2a 76 3e 70 e1 1b bd
       0.12453663 0.23611566 0.24039784 -0.03805679
0000e0 20 1d 03 bd 50 1a d3 bd 08 cc ec bd 40 9b 9c bb
       -0.032010198 -0.10307753 -0.115623534 -0.0047792494
0000f0 78 0f 3b bd 88 db 56 bd 92 b4 22 3e 4e df 22 be
       -0.04566905 -0.052455455 0.15889195 -0.15905496
000100 df 82 7c be 1c 0b 73 bd d2 85 cc 3d 50 31 77 be
       -0.24659298 -0.059336767 0.09986462 -0.24139905
000110 d8 5a 3c 3d 21 83 d6 bd c8 ea 0e be 4e d0 4a 3e
       0.045985073 -0.104742296 -0.1395675 0.19806024
000120 c1 82 33 3e ca 0a 4f be 8d 6b 18 be a9 08 2b 3e
       0.17530347 -0.2021896 -0.14884777 0.16702522
000130 63 c5 a5 bd 5e 7a 71 be b9 66 50 be 0f c9 b2 3d
       -0.08094289 -0.23581836 -0.20351686 0.08729755
000140 48 b7 a5 3d a0 fe 39 3e 9c 24 5c be c0 9d 79 bd
       0.08091599 0.18163538 -0.2149834 -0.060941458
000150 30 fc 89 3d ac ea c3 bd 34 97 da bd 3c f4 96 3d
       0.06737554 -0.095662445 -0.10673371 0.07370803
000160 de c1 02 be 20 ca cb 3c 80 d9 12 3e 6c df ca bd
       -0.12769267 0.024876654 0.14340782 -0.099058956
000170 de 27 11 be 9c 0d 94 bd a0 fc 44 be a6 56 35 3e
       -0.14175364 -0.07229158 -0.19236994 0.17708835
000180 90 d9 7a bd 40 2a 83 bc dc c9 d3 3d 9e 31 22 be
       -0.06124264 -0.016011357 0.10341236 -0.1583924
000190 88 e9 75 3e ba c1 08 3e f0 62 a7 bd bc 91 cc bd
       0.24014866 0.13355151 -0.08173168 -0.09988734
0001a0 90 7c 96 3d b8 e4 5d 3e b0 a9 6e 3e c8 f2 b9 3d
       0.07347977 0.2166928 0.23306918 0.0907951
0001b0 44 8a a3 3d ec f7 31 be 12 bb 42 be ac 5a d4 bd
       0.079853565 -0.17379731 -0.19016674 -0.10368857
0001c0 00 94 37 be 3a c0 7b be 9c 07 50 be d4 f6 79 3e
       -0.17927551 -0.24585047 -0.20315403 0.24410564
0001d0 60 54 97 bd 40 0b 49 bd 52 67 68 be f0 92 23 bd
       -0.0738914 -0.049082994 -0.22695664 -0.039935052
0001e0 3e 15 15 be 58 ac 67 3e 40 59 68 3d ea 2d 5d be
       -0.14558885 0.22624338 0.05672574 -0.21599546
0001f0 08 37 00 3e 4e 68 27 be 80 2c 9a bc 1a d4 30 be
       0.12520993 -0.16348383 -0.018820047 -0.1726841
000200 52 d4 45 be 40 9c a2 bc c4 d8 fc 3d 9c 6a f6 3d
       -0.19319275 -0.019849896 0.12346032 0.12032053
000210 c0 48 d9 3c 8a db 00 be b8 83 40 be a0 2b 06 3c
       0.026523948 -0.12583748 -0.18800247 0.008189112
000220 42 ce 11 be 94 b5 ca 3d 28 55 7f 3e cc ab 4b be
       -0.14238837 0.098979145 0.24934828 -0.19889754
000230 1c f0 41 3e a0 ce 2e bd 80 6e 5a bd aa 74 09 be
       0.1893925 -0.04267752 -0.053328037 -0.1342341
000240 2e 31 7b be 00 8d be ba c0 a3 21 be 80 1b 76 3c
       -0.2453048 -0.0014537871 -0.15785122 0.015021205
000250 18 4f 19 3d ec d4 54 3e 0a 54 10 be 28 49 37 3d
       0.037428945 0.20784348 -0.14094558 0.0447475
000260 9c 2f 2d 3e 90 c7 9a 3d a8 01 2b 3e b0 74 f3 bc
       0.16912693 0.07557595 0.1669985 -0.029718727
000270 14 b9 52 be 5c c7 3e 3e 42 0f 0b 3e f8 b5 6d be
       -0.20578414 0.18630737 0.13580039 -0.23213947
000280 43 d3 67 be 18 20 44 3d 4a b0 bd 3b 10 c8 4b 3d
       -0.22639184 0.04788217 0.0057888376 0.04975134
000290 2e 6b 10 3e 0f cb c4 bd 01 0f e4 3b 50 45 6c bd
       0.14103386 -0.09609043 0.0069597964 -0.05768329
0002a0 22 df 5d be ba 9b 55 be 9d 58 0b be 2b 3b 80 3e
       -0.2166715 -0.20860186 -0.13608022 0.25045142
0002b0 bc 98 10 be 9a b4 fd bd 63 c7 74 3e aa fb d1 3d
       -0.14120764 -0.12387963 0.23904185 0.10253079
0002c0 86 bd 5c 3e 33 16 95 3d b6 77 92 bc 98 29 6d 3d
       0.21556672 0.07279625 -0.017879348 0.057900995
0002d0 f0 73 66 bd e1 66 ad 3d 17 ff 27 be 9c 63 3a be
       -0.05626291 0.08466888 -0.16405903 -0.1820206
0002e0 1d d0 e9 bd c9 f3 16 bd 92 8e bf 3a 98 24 77 3e
       -0.114166476 -0.036853585 0.0014614633 0.24135053
0002f0 45 6f 49 3e 4f fc 50 3e 1e f8 2d 3e f5 22 18 3e
       0.19671352 0.20408748 0.1698918 0.14857085
000300 b8 8f c2 bd 46 a7 f3 bd e0 bd 6e 3e 06 8e 67 be
       -0.095000684 -0.11897139 0.23314619 -0.22612771
000310 1e ea 13 3e 83 e3 ff 3d f7 09 31 3e 72 a2 5f be
       0.14444777 0.12494566 0.17288958 -0.21839312
000320 2b 36 36 3e d4 f1 f3 bc 0b 7a 5d be 19 52 d6 bd
       0.17794101 -0.029778399 -0.21628587 -0.10464878
000330 44 93 e9 3c 58 1b 2d 3e 3d 21 d5 3c 16 ca cf 3d
       0.028512605 0.16904962 0.026016826 0.10145967
000340 b7 f2 3a 3d 6b 10 27 bc 83 ab 05 bd d8 75 3b bd
       0.045641627 -0.010196785 -0.03263427 -0.04576668
000350 8c bd 25 3e 94 7d e8 bd 89 83 ef 3c 40 c1 f8 3b
       0.16185588 -0.11352077 0.029237526 0.0075913966
000360 cc f3 81 3c 1b 79 2e bb aa fc 48 3d 23 6c 0e 3e
       0.015863322 -0.0026622477 0.049069084 0.13908438
000370 5c 95 e5 bd 9d f5 95 bc a2 11 b8 3c 92 13 31 be
       -0.11210129 -0.018305594 0.022469345 -0.17292622
000380 3a ef 82 3d b8 16 b9 bc 4c c5 06 bb c0 8d b7 3c
       0.06393285 -0.022593841 -0.0020564375 0.022406459
000390 80 25 cb bd 90 44 42 be 50 87 38 bd 78 6f 0c 3e
       -0.09919262 -0.18971467 -0.04505092 0.13714397
0003a0 a2 ce 19 be bd 8a 07 be b7 2d 0b 3e 19 88 e9 3d
       -0.1502023 -0.13236518 0.13591658 0.11402912
0003b0 37 4f 57 3d fb c3 f3 bd e3 12 82 bd ac 7a 16 be
       0.05256578 -0.11902615 -0.063512586 -0.14695233
0003c0 d1 34 0c be 0f 49 d3 bd 08 69 ac bc 1a af 78 be
       -0.13692023 -0.10316669 -0.021046177 -0.24285546
0003d0 96 a3 31 be 0e e2 1b be 46 d2 c6 bd de ad 00 be
       -0.1734756 -0.15222952 -0.09708075 -0.12566325
0003e0 af ce cb bd 26 58 7d 3e 37 b0 e2 3d 53 4e 60 be
       -0.09951531 0.24740657 0.110687666 -0.21904878
0003f0 07 1e 2b 3d 59 86 51 3e c7 36 2f be b3 06 48 3e
       0.041776683 0.20461406 -0.1711074 0.19533806

conv3.bias f4 [32]
000000 52 8d c0 bd 7d 3a 4a 3e 7e c6 3c bd f0 f4 7e be
       -0.09401955 0.19748874 -0.046087734 -0.24898124
000010 8b 2f e3 3d 14 56 a5 bd ba 46 4c be de 20 72 be
       0.110930525 -0.08073059 -0.19948855 -0.2364535
000020 78 48 7e be 28 58 5b be 73 72 dc 3c 0e cb bd bd
       -0.24832332 -0.21420348 0.026910042 -0.09267245
000030 36 1c dc bd fd 07 03 3e a7 e9 af 3d a6 11 50 3d
       -0.10747568 0.12796016 0.085894875 0.05079808
000040 6b 5b cd bc 03 7d 61 be 0d aa 96 3d d9 2b 61 be
       -0.025068006 -0.22020344 0.07356653 -0.21989383
000050 88 94 77 bd 29 af 2b 3e 45 ee ba bb 86 21 5e 3e
       -0.060444385 0.16766037 -0.0057046735 0.21692476
000060 98 6c 55 be c8 6f fc bd 06 59 90 bd 20 22 c8 bd
       -0.20842206 -0.12326008 -0.0704823 -0.09772134
000070 84 5e 31 be 11 07 08 be 40 df 1c 3e b2 e0 84 3d
       -0.17321211 -0.13283946 0.15319538 0.0648817

fc1.weight f4 [128, 864]
000000 30 e6 15 3d e6 ea 9a 3b 59 ef 59 bc 1d 0b 12 3d
       0.036596477 0.004727709 -0.013301694 0.03565513
000010 23 55 82 3c bc 9f 1a 3d 4b 55 52 bb b3 ce 7b 3c
       0.015909737 0.03774999 -0.0032094296 0.015369105
000020 ac ce f9 3b 68 3f 4e 3b 37 c3 03 3d 73 5f 91 3c
       0.007623514 0.0031470899 0.032168593 0.017745709
000030 59 31 8d 3b 90 aa b6 3c d2 53 91 3c 1f 4b cd bc
       0.004308861 0.022298127 0.017740164 -0.025060235
000040 5c 54 24 3c 88 03 01 bb e5 61 bd bb be 8d 93 3c
       0.0100298785 -0.0019685943 -0.005779492 0.018011924
000050 79 ff 08 3d 70 bf 9f bb a0 d0 39 bc cf 19 01 bc
       0.033446763 -0.004875116 -0.011341244 -0.007879688
000060 ed 93 82 3c bb fa 00 3d 25 37 31 bc 2d 5f 52 bc
       0.015939677 0.031489115 -0.01081637 -0.0128400745
000070 ab 61 0b 3d 4b cc c1 3c 74 46 f7 3c c2 cd 01 3d
       0.03402869 0.023656985 0.030184962 0.031690367
000080 e3 33 b9 bc 42 f6 81 3b 22 0e 6b 3c 25 9e a0 3c
       -0.02260775 0.003966124 0.014346631 0.01960666
000090 c9 a8 fa 3b 8a d2 07 3c 4d 0b f6 bb 71 01 50 bc
       0.0076495153 0.0082899425 -0.0075086714 -0.012695656
0000a0 d8 9c f8 bc 11 6c a5 bc bf 38 ff 3b 9f fe b9 3c
       -0.030348226 -0.020193132 0.007788747 0.02270442
0000b0 03 fc a0 3c 4d 32 8e bc 1e b4 f2 3c 15 7e 34 3c
       0.019651419 -0.01735797 0.029626902 0.011016388
0000c0 23 e0 57 3c 36 b6 d3 bb f1 84 20 3c e5 fc 8a 3b
       0.013175997 -0.00646093 0.009797321 0.004241573
0000d0 40 c4 84 3c 86 81 3e 3b 29 5b 24 3d 64 39 1e 3d
       0.01620686 0.0029068901 0.040126 0.03862895
0000e0 2c d3 02 3d 6c 08 4c bc ee 64 30 bc b1 d7 73 3d
       0.03193967 -0.01245318 -0.010766251 0.05953187
0000f0 1d 2e e3 3c b1 f4 8f 3c 0b 11 11 3d 2d 4c 82 3c
       0.02773195 0.017572733 0.035416644 0.015905464
000100 d5 3c d8 bc 65 be 55 3c bd 27 aa bc 43 74 36 3d
       -0.026396194 0.013045882 -0.020770902 0.04454447
000110 55 75 03 3d 35 0f 29 3d d2 e2 1e bd f7 9a 7e bc
       0.03209432 0.04127427 -0.03879053 -0.015539876
000120 84 12 51 bc c5 9e df bb 9f fc c6 3b 5b d4 c0 3c
       -0.012760762 -0.0068243467 0.0060725952 0.023538759
000130 f6 88 ce 3c dd cd c0 3c ac 15 bf 3b d6 6e 08 bc
       0.025211792 0.023535663 0.005831441 -0.008327207
000140 f6 86 3a bd c4 27 6e bc 04 ef 51 3c 30 3d f2 3b
       -0.045538865 -0.014535848 0.012813333 0.007392548
000150 b8 8d e9 3c 68 cc 3e bc 6a fc 00 bd 54 fd bb 3c
       0.02850996 -0.011645414 -0.03149072 0.022947945
000160 a4 78 5a 3c 06 bb 70 bc fc 5a eb 3c 56 0e b5 bc
       0.013334427 -0.014693027 0.028729908 -0.022101562
000170 68 30 27 3c a0 ad cc 3a 5c 6e cb bb 90 02 7b 3b
       0.010204412 0.0015615709 -0.006208224 0.0038301088
000180 e0 de 06 3d fc c0 0a 3d 88 25 b4 3b 80 cb 8d 39
       0.032927394 0.03387545 0.005497638 0.00027045235
000190 40 40 15 bb 80 4e 63 3a 62 a6 4b bc a8 1b 23 bc
       -0.0022773892 0.000867106 -0.0124298055 -0.009955324
0001a0 e2 55 d5 3c 24 b4 e8 bb 50 59 8e 3b a0 16 b4 3a
       0.026041929 -0.0071015526 0.004344143 0.0013739653
0001b0 e8 da 09 3c 11 be 07 3d ea e3 ce bc 9e 0b 85 3c
       0.008414008 0.033140246 -0.025255162 0.016240891
0001c0 92 6e c7 ba fc 8a ab 3b cb b8 1b bd a1 17 a6 3c
       -0.0015215448 0.005235074 -0.03801803 0.020274939
0001d0 7a f5 22 3d 56 1a 34 bd 0a 89 d1 3c 10 29 42 bc
       0.039784886 -0.04397043 0.02557804 -0.01185061
0001e0 8e 67 db 3b 7d 86 79 3c 0b 0b f2 bb 79 54 a3 bc
       0.0066956943 0.015229818 -0.0073865703 -0.01993774
0001f0 0d fb a0 bc 40 2c 22 3c e2 1b d8 3c 00 6e 09 bd
       -0.01965096 0.009898245 0.026380483 -0.03355217
000200 20 06 73 bb c0 62 19 bd d9 f6 32 3c 3b 6b 44 bc
       -0.0037082508 -0.03744769 0.010923111 -0.011988456
000210 d6 54 be 3b 25 20 26 3b ef 92 39 bc dc a3 ab bc
       0.005808453 0.002534875 -0.011326536 -0.020952158
000220 cc 49 dd 3c ce a6 48 bc e0 a0 55 bc 78 fb 86 3b
       0.027012728 -0.012246801 -0.013038844 0.004119333
000230 50 30 2e 3c f2 4b 62 bc 01 ed cf bc 08 c2 5b bb
       0.010631636 -0.013812052 -0.025381567 -0.00335324
000240 0e f9 6d bc 56 1b ab bc 40 d8 cf 3a 54 2e 70 bc
       -0.014524711 -0.020887058 0.0015857294 -0.014659483
000250 a8 04 f7 3c 00 bd fb 3a 9e ca 0a bc 6d 8b 00 bd
       0.030153587 0.0019206107 -0.008471159 -0.031382967
000260 78 df 4e bb 14 d4 6d 3c da c9 4f bc 7c 48 ce bc
       -0.0031566303 0.014515895 -0.0126824025 -0.025181048
000270 8e 68 00 3d f0 c1 22 bc 40 c8 e4 bb 6c bf 11 3c
       0.03134971 -0.009933934 -0.0069818795 0.008895736
000280 f0 f9 ef bc 92 76 16 bc 68 fb f3 bc 81 89 db bc
       -0.029293984 -0.009183543 -0.029782966 -0.026798965
000290 d4 11 f2 3c 9c a0 00 3d 40 fa a7 ba 18 fa 3a 3c
       0.029549517 0.03140317 -0.0012815669 0.011412166
0002a0 2c c5 16 3c 00 25 7a 39 02 fc 5d bc e4 1e 04 bd
       0.009202283 0.00023855641 -0.013548853 -0.032256022
0002b0 90 83 9d 3b 36 81 a5 3c 60 22 a2 3b 2e c7 c3 bc
       0.0048069432 0.020203214 0.0049479455 -0.023898687
0002c0 44 6f 9f 3c f6 73 cc 3c 80 af 34 bc a8 42 22 3c
       0.019462235 0.024957638 -0.011028171 0.009903587
0002d0 d8 d9 c9 bc 58 19 32 bc 30 42 09 bd e8 54 fe 3c
       -0.024640009 -0.0108703 -0.033510387 0.031046346
0002e0 c8 32 bb 3b e2 b3 bb bc 00 7f 74 ba 64 2f 04 3d
       0.0057128407 -0.022912923 -0.0009326786 0.032271758
0002f0 26 39 ea bc e8 ff 82 3c fc ef f5 bb 3e d5 83 3c
       -0.028591704 0.015991166 -0.007505415 0.016092893
000300 e4 31 65 3c 60 c7 b5 bc 00 1f ab 3c 8b 2b fe bc
       0.013988946 -0.022189796 0.020888805 -0.031026622
000310 56 18 0b 3d 64 99 a5 bb 9c c5 66 3c 28 70 86 3b
       0.033958755 -0.005053686 0.0140852 0.0041027255
000320 4d 67 ca bc 20 45 51 3b 08 f1 af 3c b0 9e d4 bb
       -0.02470746 0.003193207 0.021477237 -0.0064886436
000330 48 24 e7 3c 3c ae 24 3c 38 f6 18 3c 48 f3 ee bb
       0.028215542 0.010051306 0.009336047 -0.007292185
000340 fc 5b 9e 3c 14 2b 85 3c 3a e5 df 3c ec d0 88 3c
       0.019330971 0.016255893 0.027330983 0.016701184
000350 50 da dd 3b 74 81 c2 3c b0 c6 86 bc 64 02 89 3c
       0.0067704096 0.023743369 -0.016452163 0.016724773
000360 35 44 f5 bc 23 bf f3 bc 9a 5b ce 3c 28 f8 03 3c
       -0.02993975 -0.029754227 0.025190163 0.0080547705
000370 10 09 19 3b 70 59 09 3d 6a 9b 1f bc 02 c6 fc bc
       0.002335135 0.03353256 -0.009741643 -0.030856136
000380 68 13 c6 3b 70 79 db 3b ae 2a c2 3c 28 0e d6 3c
       0.006044794 0.006697826 0.023701992 0.026129797
000390 98 69 9a 3b 6c 5e f2 3c 20 b1 9a bc d8 ef 98 3b
       0.004712295 0.02958604 -0.018883288 0.0046672635
0003a0 c0 06 89 3a 25 ef 93 bc 66 94 b9 bc e4 36 f8 bb
       0.0010454282 -0.018058369 -0.02265377 -0.007574903
0003b0 da e3 8d bc c0 ed 08 3b ca 1f 95 3c d8 9d da bc
       -0.017320562 0.0020893663 0.018203635 -0.026686594
0003c0 24 63 72 3c f4 30 d0 bc 4e cf 9d 3c 77 05 91 bc
       0.014794145 -0.025413968 0.01926389 -0.017702801
0003d0 ec 48 1b 3c 54 6b 06 bd 64 44 fc 3c 40 cc a8 ba
       0.009477835 -0.0328172 0.03079433 -0.0012878254
0003e0 da f9 d9 3c f0 0f f2 bb 20 0e 67 3b b0 26 93 bc
       0.026608396 -0.007387154 0.0035256222 -0.017962784
0003f0 14 cb b6 bc 27 b6 81 bc 40 b7 b1 3c 4c 8e 31 3c
       -0.022313632 -0.015833927 0.021693826 0.010837149

fc1.bias f4 [128]
000000 66 72 42 3b 68 bd 13 3c 41 d3 88 bc c7 c7 82 3c
       0.0029670238 0.009017326 -0.016702296 0.015964402
000010 2c dc 8b 3a 6a 6a f3 bc a1 c8 44 3c 6c 85 48 bc
       0.0010670475 -0.029713828 0.012010724 -0.0122388415
000020 0a 53 69 3c 00 66 60 3c d8 f7 fa 3b 50 4d 0f bd
       0.014240989 0.013696194 0.00765894 -0.03498584
000030 e4 e2 0e 3c 60 f5 18 3d 77 55 c1 3c 13 85 b6 3c
       0.008721087 0.037343383 0.023600323 0.022280252
000040 76 95 00 bd 3a c6 c2 3c 77 62 6a bc 35 a0 b9 3c
       -0.031392537 0.023776162 -0.014305702 0.0226594
000050 2e 09 0b bc 6d 07 e1 bc 63 36 a5 bc 4f 50 43 3c
       -0.008486075 -0.027469361 -0.020167535 0.0119210025
000060 0e 92 ea bc c0 61 41 3c f7 b2 d8 3c 32 ad 02 bd
       -0.028634097 0.011803091 0.026452525 -0.031903453
000070 af 50 09 bd 0a 0d be bc 69 dd 46 3b 63 c1 45 bb
       -0.03352421 -0.023199577 0.0030344373 -0.0030175082
000080 5f ef 29 3c 33 82 3d bb 5e ae 9b 3c ae fc 03 3d
       0.010372012 -0.0028916716 0.019004043 0.032223396
000090 3a 61 75 3b 07 7e b6 3b fa ca 1a 3d d9 4c e5 3c
       0.0037441985 0.005569223 0.03779123 0.027990745
0000a0 1d 81 c9 3c 2b 46 0a 3c e1 c3 c4 bc 54 04 d9 bc
       0.024597699 0.008439581 -0.024019184 -0.026491322
0000b0 eb b6 12 bd 63 5f e1 bc de e1 e9 3b 82 29 d4 bc
       -0.035818975 -0.027511304 0.007137521 -0.025898699
0000c0 3b 73 c6 3c 64 23 40 bc e5 31 78 3c d0 1e be bc
       0.024224868 -0.011727188 0.0151486145 -0.023208052
0000d0 ae 23 b1 bc ed 8a 10 bd a0 b7 d5 bc 6e 79 11 bd
       -0.021623459 -0.03528874 -0.026088536 -0.035516195
0000e0 bc 55 5d bb 86 49 60 bc f2 78 ee bc 2d ca 95 3c
       -0.0033773025 -0.013689404 -0.029110406 0.018284881
0000f0 2b 04 5d 3c 90 e9 d6 3c c0 a9 b1 bb c0 8c c7 bb
       0.013489763 0.026234418 -0.005421847 -0.0060897768
000100 ea e2 57 3c 50 4a a5 bb e4 35 08 bd 15 6f 7e bc
       0.013176659 -0.005044259 -0.03325452 -0.015529414
000110 92 05 c9 bc 6e ea 68 3c c9 36 bb 3c 13 d5 3a bc
       -0.024538789 0.014216049 0.022853272 -0.01140334
000120 68 20 aa 3c 5c da 65 3c 23 22 5b bb d6 ea d1 3c
       0.020767406 0.014029112 -0.0033437095 0.025624674
000130 91 40 8f 3c 4f 60 89 bc b2 37 12 bc 72 1d 98 bc
       0.017486842 -0.016769556 -0.008924412 -0.018568728
000140 bf 21 aa 3b 66 7e 6d bc 00 70 f1 39 77 58 c1 bc
       0.005192011 -0.014495468 0.0004605055 -0.023601754
000150 14 0e 75 3c 2f f2 a0 bc 57 a5 1a bd 8b 9a b2 3b
       0.01495697 -0.019646732 -0.037755337 0.005450552
000160 71 62 fa 3b 80 be b7 3c cd ed a6 bc 11 26 ce bb
       0.0076411297 0.022429705 -0.020377064 -0.006291159
000170 75 2e 0d 3d ad bf 82 3b 7d de c4 bc 9f 98 b5 3b
       0.034468133 0.0039901347 -0.024031872 0.0055418755
000180 7b 41 22 3c fb 66 d8 bc a0 fd 11 bd af c7 db 3c
       0.009903307 -0.026416292 -0.035642266 0.026828615
000190 05 09 bf 3c 73 6a ba bc 75 9a 04 bd e9 10 5f 3c
       0.02331973 -0.022755837 -0.032373864 0.013614872
0001a0 5d 68 16 bc 97 ee 56 3c eb 05 f0 3c e9 55 2b b9
       -0.009180156 0.013118408 0.029299697 -0.00016339835
0001b0 48 76 da 3c 03 c8 98 3c 12 75 ae bc b9 3e 87 bc
       0.026667729 0.01865006 -0.021296058 -0.0165094
0001c0 52 66 91 3b c9 78 bf 3c 19 06 02 3d 45 11 07 bd
       0.0044372464 0.023373025 0.031744096 -0.032975454
0001d0 3f 1d 92 bc c1 a5 c3 bc b0 b7 35 bb 91 dc 9e bc
       -0.017836211 -0.023882749 -0.0027727894 -0.019392284
0001e0 6b 88 89 3b 30 c8 04 bc 90 29 74 3c 68 24 c5 bc
       0.0041971705 -0.008104369 0.014902487 -0.024065211
0001f0 43 0b db bc 32 c6 a2 3c a3 92 87 bc 95 e4 2f 3c
       -0.026738768 0.019869898 -0.016549414 0.010735651

fc2.weight f4 [2, 128]
000000 6f 98 83 bd ea 66 81 bd f1 21 d7 3a 8e c9 91 bb
       -0.06425559 -0.063184574 0.0016413314 -0.004449076
000010 19 62 30 bd dd fa 68 3d 8a aa 70 3d 09 d3 22 bc
       -0.043062303 0.056879867 0.05875639 -0.00993801
000020 eb 88 65 bd ea ad cb 3c 02 4d 3f ba ca 46 88 bc
       -0.05603878 0.024863202 -0.0007297547 -0.016635317
000030 f8 43 bd 3c 02 13 ff bc b2 9b 83 bd 17 7c 95 bd
       0.0231037 -0.031136993 -0.06426181 -0.07299059
000040 27 05 48 3d 68 2d a5 bd 9c 70 87 3c ee 5d 62 3d
       0.04883304 -0.08065301 0.016533189 0.05526536
000050 e3 97 93 bd 4a ef 47 3d 29 7d 3b 3d 07 16 b6 bc
       -0.072067045 0.04881219 0.04577366 -0.0222273
000060 62 cd a5 bc 2c 99 93 bc 0b c1 89 bd 08 86 f6 bc
       -0.020239536 -0.018017374 -0.06726273 -0.030093208
000070 84 9c ea 3c 7e 7e b2 3d b9 37 50 bd 70 02 b5 bd
       0.028639086 0.08715533 -0.05083439 -0.088383555
000080 c4 ce 10 3d aa ac 90 3d ac df 73 3d 83 5a f2 bb
       0.035353437 0.07064183 0.059539482 -0.0073960437
000090 f1 1e aa bc 07 9f ce 3c 52 22 9e bd ea b2 95 bd
       -0.020766707 0.025222315 -0.0772139 -0.07309516
0000a0 64 46 82 bd 3b ea 6a bd 5e f0 47 bd 0c 11 6d 3c
       -0.06361082 -0.057352286 -0.048813216 0.014469396
0000b0 64 1e 7b 3c c1 01 0f bd bd 4d c3 3c dc 65 9c 3c
       0.01532707 -0.034913782 0.02384078 0.01909154
0000c0 26 69 97 bc 11 d6 98 bd 34 62 8a bb d3 de 8d 3d
       -0.018482756 -0.07462705 -0.0042231325 0.06927266
0000d0 01 63 a7 3d 05 25 76 bc ea 80 e1 bc 47 72 05 bd
       0.0817318 -0.015023475 -0.027527291 -0.032579686
0000e0 53 1e 37 bd 8a 86 50 bd 2f 51 aa bd 7d cf 70 3d
       -0.044706654 -0.050909556 -0.08316266 0.058791626
0000f0 35 32 95 bc c9 07 51 3c be 05 6a bd 21 d5 b0 bd
       -0.018212417 0.012758204 -0.057134382 -0.08634401
000100 30 39 03 bd df 99 a7 bd 2b af 06 bd 59 09 a0 bc
       -0.03203696 -0.081836455 -0.032881897 -0.019535707
000110 9a 52 0d 3d e7 24 2f 3d 61 9c 56 bc 06 8e bc 3d
       0.034502603 0.042759802 -0.013098807 0.09206776
000120 91 76 12 bd 04 59 96 bd 3b c9 9b ba e6 5e 1e 3d
       -0.035757605 -0.07341197 -0.0011885533 0.03866472
000130 0e c9 51 3d 24 49 5f 3d 52 7d f7 3c 07 ff 32 bd
       0.05121713 0.05451311 0.030211125 -0.043700244
000140 99 a4 86 3d b8 66 26 bd 10 35 c5 3c 2e bf 81 bd
       0.06574363 -0.040625304 0.024073154 -0.06335293
000150 1c 6e 5b bd 2c 21 88 3c 0b 52 99 3d 5c 22 8f bd
       -0.053571805 0.01661738 0.074863516 -0.069889754
000160 30 85 55 3d 38 28 a6 bd 87 5a 9e 3d f0 f9 a4 3d
       0.05212897 -0.0811314 0.077321105 0.08055484
000170 9b ee 4b bd 94 4d 52 3b 74 8e 47 bc 80 64 0e 3d
       -0.0497881 0.0032089697 -0.01217996 0.034763813
000180 0e c9 0f bd 62 4a 20 3d 08 f2 30 bd 11 1e 86 3c
       -0.03510385 0.039133437 -0.04319957 0.016371759
000190 f9 e0 42 3b 67 ec 28 bc 36 8a fe 3c 8c d6 7b ba
       0.0029736145 -0.010310269 0.031071763 -0.000960686
0001a0 9f 44 b4 3c 53 eb 59 3b 97 3e 7a 3d 23 1a 44 bd
       0.022005377 0.0033251836 0.061094847 -0.04787649
0001b0 0d a1 9e bd 2e 9d 18 3d d4 66 48 bd e4 f1 83 bc
       -0.07745562 0.037259273 -0.04892619 -0.016106553
0001c0 71 9e eb bb 24 61 a7 bd 27 a6 59 3d 68 c4 86 bd
       -0.0071905185 -0.08172825 0.05313697 -0.0658043
0001d0 56 2a b2 3d 04 9f 2b bc ab d6 9c 3d e1 7b 6b bd
       0.08699481 -0.010474924 0.07658132 -0.057491187
0001e0 cc 4e 1c 3d da 1a 89 bc 09 84 55 3d b4 31 f8 bc
       0.038161084 -0.016736437 0.05212787 -0.030297138
0001f0 00 52 16 ba c5 ce 39 3c c2 58 58 3d f1 a5 88 bd
       -0.0005734265 0.011340802 0.05281902 -0.06672276
000200 3f 0c b1 3d 78 10 aa 3c 32 62 7c bb b5 4a a2 3d
       0.08644914 0.020759806 -0.0038510677 0.079244055
000210 57 e0 0a bb ea 62 a5 bd a7 61 41 bc 40 d1 a5 bb
       -0.0021190846 -0.08075507 -0.011803067 -0.005060345
000220 08 3f 28 3c 43 72 0b bd 0f 1a 25 bd 58 c5 04 bc
       0.010268934 -0.034044515 -0.040308055 -0.008103691
000230 30 42 da bb 88 0d 9c ba d9 6c c7 3a e0 6e 77 bd
       -0.006660722 -0.0011905888 0.0015214934 -0.060408473
000240 55 07 2f 3d 80 08 20 3d 66 b1 a8 3c 98 17 dc bc
       0.0427316 0.039070606 0.020592403 -0.02686672
000250 66 d3 5a 3d 0c f4 e7 3c 90 2c 95 3d 3d 18 8a bd
       0.05342426 0.028314613 0.0728389 -0.06742904
000260 ad cf 12 3d 28 95 dc 3c d5 d1 8b bd 27 d6 87 bd
       0.035842586 0.026926592 -0.06827132 -0.06632643
000270 20 bc 5b bc 44 b8 83 bb 47 7b 8e 3d 58 6a 5d bd
       -0.013411552 -0.004019769 0.06957107 -0.054056495
000280 a2 08 06 bd 0a be 2e 3d 64 f9 6b 3d 43 38 1a 3d
       -0.032723077 0.042661704 0.057610884 0.03765131
000290 08 c9 cd bc 48 23 97 3d cd 82 a7 3c 9c 84 18 bd
       -0.025120273 0.07379776 0.020448113 -0.03723584
0002a0 c0 79 86 bd b8 c2 70 bd 00 2d cd 3a 5d 53 09 3d
       -0.06566191 -0.05877945 0.001565367 0.033526767
0002b0 06 4d ca ba d4 93 17 bd e2 fe 6f bd 5e aa 92 bd
       -0.0015434332 -0.037006214 -0.058592685 -0.07161401
0002c0 0d 96 a3 bd 47 6b 82 bd 7e 8a b5 3c 7f e7 14 bd
       -0.07987604 -0.06368118 0.022160765 -0.036353584
0002d0 e0 f7 a4 bb 76 cc 37 bd 51 c7 77 bd 2f 58 5e bd
       -0.005034432 -0.044872724 -0.060492817 -0.054283317
0002e0 8a 58 b9 bc dc 4f 4a bd 6a 33 77 3d a5 82 26 bd
       -0.022625227 -0.049392566 0.060351767 -0.040651936
0002f0 ea d0 a3 3d 90 cd 32 bd f3 a8 93 bd 2b aa 82 3d
       0.079988316 -0.04365307 -0.07209959 0.06380113
000300 31 32 44 3c 84 25 f2 bc ba 91 82 3d 01 d7 52 3d
       0.011974857 -0.029558904 0.063754514 0.051474575
000310 b0 42 71 3c 34 3b 4d bd ae aa a4 bd ce 3b a5 3d
       0.014725372 -0.05010529 -0.08040367 0.080680475
000320 08 e7 61 3c 45 28 81 3d 44 74 6f bd 7f 2a 98 3c
       0.013787992 0.06306509 -0.05846049 0.018574951
000330 1e b4 33 bd 59 75 92 bd 7a 85 9b 3d 85 2d 4c bd
       -0.043872945 -0.071512885 0.07593818 -0.0498481
000340 87 56 8f 3d cb c5 37 bd 31 0c 9c 3d fa 82 3d bd
       0.06998926 -0.044866364 0.07619513 -0.046267487
000350 dd f9 0b bd 51 fc cb 3c ba 75 3b bc 07 72 00 bd
       -0.034173835 0.024900587 -0.011441642 -0.031358745
000360 8b 98 5c 3c e8 84 ca bc 1a 6d 1a bb 8b d4 90 bd
       0.013464103 -0.024721578 -0.0023563565 -0.07071789
000370 d6 02 7e 3d d1 81 f4 3c f2 ec e0 bb 10 d1 39 3d
       0.062014423 0.029847058 -0.0068641836 0.045365393
000380 58 9b b9 bb 15 d2 a2 3d 09 d6 f5 bc 9c f0 a2 bc
       -0.0056642704 0.07950226 -0.030009286 -0.019890122
000390 00 c5 06 bd f5 53 a1 bd e5 a7 74 3d 42 05 40 bb
       -0.032902718 -0.07877342 0.05973043 -0.002930001
0003a0 cd d4 a7 3d cb d2 26 bd 73 bb 78 bd f3 9d 96 bd
       0.081948854 -0.04072837 -0.06072564 -0.07354345
0003b0 6d 1f 5c bb 3c 62 3b bd ab 35 1b 3d a0 2c 39 bb
       -0.0033588067 -0.04574798 0.03789298 -0.0028255358
0003c0 86 3f 40 bd f7 54 8a bd 22 da c5 bb 98 86 8b 3c
       -0.04693558 -0.06754487 -0.0060379663 0.017031953
0003d0 87 5c 8e b9 78 b9 53 3d a0 7a ab 3c cd 71 21 3c
       -0.0002715329 0.05169055 0.020932496 0.009853792
0003e0 a2 ee 82 bc cb f8 50 3d 9f 87 b3 3d 7d 9a 3e 3c
       -0.01598293 0.051018517 0.08766102 0.011633513
0003f0 e5 6a b4 3d 3b 09 9d bd 41 0d 5b bc d1 81 8e bc
       0.08809451 -0.07667776 -0.013369859 -0.017395886

fc2.bias f4 [2]
000000 14 d0 9d 3d 3d d4 71 bd
       0.077057034 -0.059040297
