models/2024-05-10_12-33-35_Model.onnx (onnx, 614400 bytes, 10 tensors)

conv1.weight f4 [8, 1, 2, 2, 2]
00000000: 57fa 333e 6fae 313e 24f7 81be 3577 efbc
00000010: 159b 97bd 362d af3e 35a6 e4bb d5b4 a33e
00000020: c5e7 29bc 1a07 8dbd 135a c63c 3c21 893e
00000030: 98a5 aabe 4ab0 b73e 8f47 7b3e 21ba be3e
00000040: cd2e 523d 34bb 20be cd51 393e fb6f 7bbe
00000050: cf55 70be 0c0b d2bc 6ff7 dcbd eb62 3a3d
00000060: 26bd 333d fc43 a03e 8e5a 1ebe ae86 c83e
00000070: ed47 fb3d 3710 8f3e a790 5fbe bdac 863e
00000080: 84a6 823e fdf0 9c3e 3b37 853e 71d8 7d3e
00000090: dfdf 0dbe 38f9 a3be c38d 623e df37 3dbe
000000a0: 8c85 9dbe 4d55 8dbe 6c9f 39be 1839 ce3d
000000b0: 5b67 e93c 2597 893d c941 8f3e 65a2 77bc
000000c0: 0fc1 a53d 5780 303e 1085 783e 08e9 103e
000000d0: 1880 6fbe c1ed 9d3d 8dcf bc3e 8cce 07bc
000000e0: ac03 ba3e 9ade c73e 96ea 673d 5b1c bbbd
000000f0: e25b f4bd 67b6 023e 4928 b23e e29b b73e
0.17575966 0.17351697 -0.25383866 -0.029231647 -0.074026264 0.3421418 -0.0069778212 0.319739
-0.0103702 -0.0688612 0.024212873 0.26783168 -0.33329463 0.35876685 0.24539016 0.3725138
0.051314164 -0.15696412 0.18097611 -0.24554436 -0.23470233 -0.025640033 -0.10789382 0.04550449
0.043881558 0.31301868 -0.15464231 0.39165252 0.12269578 0.27942058 -0.21832524 0.26303664
0.25517666 0.3065261 0.260187 0.24789597 -0.13854931 -0.32026076 0.2212439 -0.18478344
-0.3076595 -0.27604142 -0.18127221 0.100694835 0.028491667 0.06718282 0.27979878 -0.0151144015
0.08093464 0.17236458 0.2426951 0.14151394 -0.23388708 0.077113636 0.368771 -0.008288991
0.36330926 0.3903702 0.056620203 -0.09136268 -0.11931588 0.12764893 0.3479636 0.35861117

conv1.bias f4 [8]
00000000: b3c3 9cbe 324d 24bd 0b08 23be c523 28be
00000010: 1564 9abd 5181 25be 6f9b 4bbd cd70 08be
-0.30618057 -0.04011268 -0.15921037 -0.16419895 -0.075386204 -0.16162612 -0.04970878 -0.1332428

conv2.weight f4 [16, 8, 2, 2, 2]
00000000: 65f6 0abe c39a 243d 3bc2 32bb 33e3 a93b
00000010: c83b cb3d 2a58 d1bd f0ae d3bc 3c1f 0b3e
00000020: 24ae fe3b 605d d7bb 2711 0d3d 7b0b ad3d
00000030: 8d9e 243d f8b2 d7bc 619c 1cbd 955c 243e
00000040: e8f2 e0bc 9033 02bd eae5 7b3d 6bfe 003c
00000050: 6d04 933d 8fdb e1bd b341 2dbd e2c8 0bbe
00000060: cfb6 873c 57d3 1bbd 2ff1 863d c9cf 26bd
00000070: d12e c8bd 2a51 03be 75ac c9bc 0567 d63d
00000080: df70 ecbd f397 f9bd bc52 8ebd fee5 22bc
00000090: 2838 f7bd 3ea6 e83c 4e58 b13b 75d8 61bd
000000a0: 2fec 0fbd 877d 9c3b 6b1d 673c 225f 063e
000000b0: 3880 67bd bdcd f8bd 511d bd3d 18c2 afbd
000000c0: e307 60bd d1e8 3d3d 67fd 8dbb fd41 093e
000000d0: 61f5 4bbd 12b3 bfbd 0e86 ae3d 7940 a1bd
000000e0: 5faf 083c 484c ecbd 9f05 e23d 80cb e3bd
000000f0: 869e b9bc 1611 8d3d f085 f1bd 7159 383d
00000100: 87ba f8bd 9599 9dbd 4a97 a9bd c67b b9bd
00000110: e647 68bd 2f8e 543c 88c1 99bd 8bc0 953d
00000120: b7ca 283d 848f a93c 9d9b 83bd cbc4 203c
00000130: 2d30 3abd bde7 b3bd b2aa e6bb f03d 943d
00000140: 11c5 903d 886b f43d c4ca df3d 2952 8f3d
00000150: 9120 8bbd 4c1e 60bc 831e b8bd ca5c 5fbd
00000160: 3b05 02be a16e 7e3d a53d e63d 03ea 933c
00000170: 0f71 ccbd e5aa abbd 3a47 d83d 00c6 103e
00000180: aa30 cf3d 0a08 e0bc a82c 1ebd d762 25bd
00000190: 98e8 9f3d eb05 15be 8db8 093e 85a7 3fbc
000001a0: e0d0 15bd 477f 46bd f5b4 64bd 58fb 183c
000001b0: 5379 fd3b 903b efbc 1a7a 6ebd 0d46 7cbd
000001c0: bd33 3c3d 2207 993d 81e9 b4bd 87cc 893c
000001d0: 3e2d 98bd 3482 a4bb 4478 8e3d 485d cc3c
000001e0: eb43 d5bd edbd 01be ff7b 9f3d d586 d63d
000001f0: 1fce 6cbc 67d4 8dbd b3fe ba3d ed43 d73c
00000200: fb18 df3d 04c9 a7bd 024d 4c3d cebd 3ebd
00000210: 56d7 f73c 1d00 1ebe 17ae bebc 0108 783d
00000220: efc1 323d 8c4f 9b3d d18b 5a3d a41b 25bd
00000230: a362 563c a9f6 17be f39f 1b3d 9644 b13d
00000240: 25ff dd3c 36c8 e33b 7eac 133d 0a68 71bd
00000250: 2941 e5bd 5096 0bbe 26cf ffbd 6735 1cbd
00000260: 01c0 56bd 8ff6 30bd 34f3 9b3d f7a9 e23c
00000270: 2025 f1bd 4311 1dbe 6300 02bd a749 a6bd
00000280: 55e2 763d 0534 a63d 4477 063e a7d3 2b3d
00000290: 910a 01be 0f73 81bc 0195 cdbd 74d3 e03d
000002a0: 5120 f33d 7a3a 743d f58b 0c3e fb3b 3b3b
000002b0: 0234 87bd d6d4 d3bd b979 90bd a580 bc3d
000002c0: 2864 8dbd 6b25 78bd 3ae5 c53d 17e0 debd
000002d0: 6270 cc3c f0c3 35bc 2fd4 1d3d bacd 4f3d
000002e0: de51 02bd d8d8 5b3d 4639 c33d 5acc d33c
000002f0: fe61 e1bd 38b8 d4bd da0c 563d 042b 86bc
00000300: 11b6 5bbd fb9e bc3d 8d4a d93d 33c6 b1bd
00000310: 6d30 14bd 11f4 a53d 1ab5 0dbe abea efbd
00000320: cd4f 9d3d c048 8cbd a011 c03d 1055 cd3d
00000330: e1f7 a03d bb3a 18bd a193 453d 3ab2 a33d
00000340: 77ad 55ba dc70 d33b 0e2f 58bc 1024 58bb
00000350: 08df e33d 58e5 38bd ff08 fbbd 4db3 5a3d
00000360: 4a84 df3d fcf9 d8bc 0e12 953c bb42 6b3d
00000370: 70cb 813d 5a95 b2bd beda 49bc 2b87 80bd
00000380: be28 063d fc23 aebd 7ee0 ed3d 81e2 2b3c
00000390: f980 443d 60e7 f0bc 21d1 e7bd 436f cabc
000003a0: 595c ebbd 7976 99bd 684f 99bd 2ce3 b53b
000003b0: 3dea 2d3d e509 cb3d c5f0 b83d 90e5 b43c
000003c0: 10a7 8bbd d9b1 1cbc 3424 04bd 19e2 5b3d
000003d0: 86a6 be3b c777 2cbd ed13 b6bc 3834 efbc
000003e0: 85cf 05be 044b dc3d 039e 143e 67e9 c1bd
000003f0: 3333 803a f483 54bd 06ea 0dbe 33c9 673d
-0.13570555 0.040186655 -0.0027276415 0.005184555 0.09923512 -0.10221894 -0.025840253 0.13586134
0.007772224 -0.0065724105 0.034440186 0.08449455 0.04019027 -0.026330456 -0.038235072 0.16050942
-0.027459577 -0.031787455 0.06149856 0.007873158 0.071785785 -0.110282056 -0.042298984 -0.1365085
0.016566662 -0.038043346 0.06588971 -0.040725503 -0.097745545 -0.1282393 -0.024618367 0.10468868
-0.11544966 -0.12187185 -0.06949374 -0.00994253 -0.12071258 0.028399583 0.005412138 -0.05513807
-0.03513735 0.004775706 0.014106135 0.13122228 -0.056518763 -0.121486165 0.09234107 -0.08581942
-0.05469502 0.04636461 -0.0043331864 0.13404079 -0.04979456 -0.09360327 0.08521663 -0.07873625
0.008342593 -0.11537987 0.110362284 -0.11122799 -0.022658598 0.068880245 -0.11793125 0.045007173
-0.12144952 -0.07695309 -0.08280809 -0.09056811 -0.056709193 0.012973352 -0.07507616 0.07312115
0.04120895 0.020698316 -0.06426165 0.009812544 -0.0454561 -0.08784435 -0.0070393914 0.07238376
0.070688374 0.119345725 0.10927346 0.06998093 -0.06793321 -0.013679098 -0.08990195 -0.05453185
-0.12697308 0.062117223 0.112422265 0.018055921 -0.09982502 -0.08382205 0.105604604 0.14138031
0.10116704 -0.027347583 -0.038616806 -0.040377464 0.078080356 -0.14553039 0.13449307 -0.011697655
-0.03657615 -0.048461225 -0.055836637 0.009337269 0.0077354102 -0.029203206 -0.058221914 -0.061590243
0.04594778 0.074720636 -0.088336 0.016821159 -0.07430504 -0.0050204042 0.069565326 0.024946824
-0.10413345 -0.12670107 0.07787322 0.10474936 -0.01445344 -0.06925278 0.09130611 0.026277507
0.108934365 -0.081926376 0.049878128 -0.04656773 0.030254047 -0.1542973 -0.023276372 0.060554508
0.04364198 0.07583532 0.053355996 -0.040309563 0.01308504 -0.14840187 0.037994336 0.0865566
0.027099201 0.0069513572 0.036053173 -0.05893711 -0.11194069 -0.13631558 -0.12490682 -0.038136866
-0.052429203 -0.043203887 0.07614747 0.027668936 -0.11774659 -0.15338616 -0.03173865 -0.08119517
0.06027444 0.08115391 0.13131434 0.041949894 -0.12601687 -0.015801935 -0.10038186 0.109778315
0.11871398 0.05962608 0.13725264 0.0028569687 -0.066017166 -0.103433296 -0.07054467 0.092042245
-0.06903869 -0.06058256 0.09662862 -0.108825855 0.024955932 -0.011094078 0.038532432 0.050733306
-0.031816356 0.053673595 0.095324084 0.025854278 -0.11005019 -0.103866994 0.05225835 -0.016377933
-0.05364043 0.092100106 0.106099226 -0.086803816 -0.036178995 0.081031926 -0.13838616 -0.11714681
0.076812364 -0.068498135 0.09378362 0.1002599 0.07859779 -0.037165385 0.048236493 0.079929784
-0.00081511535 0.006452663 -0.013194812 -0.003298048 0.11126524 -0.045140594 -0.12257575 0.05339365
0.10913904 -0.02648639 0.018197086 0.057436686 0.06337631 -0.08719893 -0.012320219 -0.06275781
0.0327537 -0.08502957 0.11615084 0.010491014 0.04797456 -0.029407203 -0.11319185 -0.024711257
-0.11492223 -0.074933 -0.07485849 0.0055507626 0.042459715 0.099139966 0.09030298 0.02208212
-0.06818974 -0.009563887 -0.03226109 0.05368242 0.005818191 -0.042106416 -0.022226298 -0.029199705
-0.13067444 0.107564956 0.14513402 -0.09468346 0.0009780884 -0.051883653 -0.13858804 0.056588363

conv2.bias f4 [16]
00000000: b107 103e 9f76 e7bd 724b 463d 329e cb3c
00000010: e84a edbd d70b b9bd deb7 5a3c c6c9 9dbd
00000020: 9164 d9bd 492f 443d 0038 5a3d a315 783d
00000030: 9073 c5bd 4d8a fdbd cca8 763d 9dd1 3f3d
0.14065434 -0.11301922 0.048411794 0.024855707 -0.11586553 -0.090354614 0.013349501 -0.07704501
-0.10614885 0.047896657 0.053276062 0.06056751 -0.096411824 -0.123798944 0.06021957 0.046830762

conv3.weight f4 [32, 16, 2, 2, 2]
00000000: 63da 38bc 73ed cd3d 32f8 803c 500e c23d
00000010: 9aff 98bd 02a5 a5bd fd00 d6bd 0316 8d3d
00000020: 4e2b 15bc 3df8 023e 1b13 b93d d52d 143d
00000030: 53fd 48bd 4040 053e a6ef 11bd bac3 f4bc
00000040: bd3d f43d 5f2e 093e 93b0 f93c 1fef 873d
00000050: 6f51 09bd c302 713c 0ba2 5d3a 7358 1dbd
00000060: 516f 663d 3794 8bbc 65b9 89bc 54ae 1dbb
00000070: 64a5 3d3d 9290 81bd ea59 adbd ae11 3bbd
00000080: 6b09 65bd 3aba 973c e7a1 9fbd 765b f93d
00000090: 74ce aa3d 8f30 96bd f3ae bebb 25e2 8c3d
000000a0: ffd9 1bbc 0dda 013e 2fb7 bebc 196e acbb
000000b0: 892e 953c 6fa8 833d a75d 66bd ce99 b63d
000000c0: 0264 8c3b f2af c53d cf64 17bd a92f 133d
000000d0: 4d0e 803d c247 ce3d a52b 03bd 309e 183d
000000e0: bf96 3a3d 6e96 cd3c 1a35 30bd a031 3f3d
000000f0: e203 703d 1222 97bb 0fec b4bd 27e6 b43d
00000100: 4d30 bc3d 0c8d b23d 8dfc 51bd e236 0dbd
00000110: 76dd a73d 5e87 853b 87e2 933c 5093 54ba
00000120: 8ca6 3c3d 6334 f83c f4bb 9fbd 95f6 e93d
00000130: c4e0 983d d659 083d 7a12 743d 3eb6 363c
00000140: cc37 9abd 7876 cb3d 8ad4 7c3d 4f9d 98ba
00000150: 0893 73bd 3c32 053e ca7a 523c 7e20 9cbd
00000160: aafc 663d 6df8 86bc a5f7 29bd ceff ec3c
00000170: 0555 a2bd 4879 ddbd 34a1 3abd 1d62 0f3d
00000180: 1a29 183d ff32 bfbc 3213 1d3d 31fc c13d
00000190: ff0a 9b3d 824e 64bd 01f5 4fbd ac7c 2e3d
000001a0: fab8 cf3d 01e6 94bb 280e 633d c7fb 7fbc
000001b0: 346b d63c 3911 5abd 735a 513a 0306 03be
000001c0: 94ec 793d da79 39bd d1fb 36bd abb7 ffbc
000001d0: fda8 92bd 09b1 78bd 7f08 153d 901a 34bc
000001e0: f27d d8bc c884 80bc 0e5a 14bc fe3c 10bd
000001f0: f58b 563d bd28 e43a 00f1 6dbd b68c 6fbd
00000200: 23e2 2dbd a087 a63d e51a bc3d 9961 913d
00000210: 2538 1fbc fe14 46bd b342 a13d bf0a e73d
00000220: 1b93 40bc 0d43 37bd 7a3e 8e3d 3b17 9fbd
00000230: a7b1 143e bc97 5abd 3a6f 90bd 150b 8c3d
00000240: 18b9 623d 6e65 703d 53dd 3e3d 944a e8bd
00000250: 32fa ba3d e528 1b3c 223a d0bc efd1 abbc
00000260: 430a cf3b 880d a2bd 7c8e 713d 97af 08bb
00000270: 1f57 e63c 563f bb3c 463d cdbd 70b1 8d3c
00000280: f670 26bd 2fb3 a43d 3b4c a03d cc89 943c
00000290: 758a 4e3d 1e92 443d 6e6b 7bbd 81f7 9ebb
000002a0: 6642 0abd fd5b f6bc 9182 b7bb 4da4 273c
000002b0: 5bc0 083e 3917 f5bc b5fb b23c 7e78 9a3d
000002c0: 8361 693d 89e2 81bd ed8e 623d 6291 c0bd
000002d0: a146 893c 02d3 b6bd c4ad 60bd b82e 5b3c
000002e0: 094f d13c 8f97 5ebd cc1f 47bc c06c 01be
000002f0: 6d24 ce3d 2c89 023c ea36 ba3c 45d9 123d
00000300: 967d 82bd cc51 73bc 8678 923d f21a e83c
00000310: 56f2 193d 068b 2ebb ba00 a03d 4eb8 80bd
00000320: 5fbe 8a3d d6cb 4abd c75b a2bc cf8b 3ebd
00000330: 8b7e 1c3e d0d1 313d c224 59bc 5e23 493c
00000340: b3f5 34bd 8756 af3d 3a38 673d f8a8 423c
00000350: 3b1c 803d abd2 e8bd 96f2 d3bd 62e0 143d
00000360: 6c89 0a3e b940 133d 084d 9d3d 9c51 333c
00000370: 35fc 7dbc 64c4 973d d297 283d 6ac5 7fbd
00000380: 2841 e33c 902f 86bd 8c5a b2bd 65e4 113d
00000390: 3030 d63b 8452 fdbc df1c 7fbd ad5b 563d
000003a0: 4b71 593d bac6 a0bc a562 453b 7f94 b5bd
000003b0: 9acb fd3c 1b01 d3bc ae8b b2bd fab5 2bbd
000003c0: 4e20 0c3d dcce cd3d a14e 983c 5858 c13d
000003d0: 17bb d6bb f98d 573b 5a85 b1bc 0b7a ad3c
000003e0: 4440 5dbd d676 cfbc dd7c 7fbd 2bb0 c9bd
000003f0: e177 843c ec16 7ebd 69e3 b9bb bd79 0f3d
-0.011282536 0.100550555 0.015743349 0.09475386 -0.07470627 -0.08088113 -0.10449407 0.06888964
-0.009104563 0.12790008 0.09036847 0.03617652 -0.049069714 0.1301279 -0.035628937 -0.029878486
0.11925838 0.13396595 0.030479705 0.066374056 -0.033524927 0.014710131 0.0008454627 -0.03841443
0.056258503 -0.017038448 -0.016812036 -0.0024060206 0.046300307 -0.06326403 -0.08464415 -0.045671158
-0.055917185 0.018521417 -0.07794552 0.12175648 0.08340159 -0.073334806 -0.0058191954 0.06879071
-0.009512424 0.12680836 -0.023280708 -0.005262148 0.018210666 0.064286105 -0.056241658 0.08916055
0.004284383 0.096526995 -0.036961373 0.035934124 0.06252728 0.100722805 -0.032024045 0.037260234
0.04555392 0.025096145 -0.04301939 0.046678185 0.058597453 -0.004612216 -0.08834087 0.088329606
0.091889 0.08718309 -0.05126624 -0.03447617 0.08196537 0.004074975 0.018052353 -0.00081091095
0.04605727 0.030298417 -0.07799521 0.11423985 0.07464746 0.0332888 0.059587933 0.011151848
-0.07530174 0.099347055 0.06172613 -0.0011643561 -0.05946639 0.13007444 0.012846658 -0.07623385
0.056393303 -0.01647588 -0.041495938 0.02893057 -0.079263724 -0.10814148 -0.04556389 0.035005677
0.037148573 -0.023339747 0.038348384 0.0947193 0.07570457 -0.055738933 -0.050770763 0.042599365
0.10142703 -0.00454402 0.055433422 -0.015623993 0.026174165 -0.05323908 0.0007986195 -0.12795262
0.061016634 -0.045282222 -0.044673745 -0.03121551 -0.07161138 -0.06071571 0.036385056 -0.010992661
-0.026427243 -0.015688315 -0.009054674 -0.035214417 0.052379567 0.001740716 -0.058091164 -0.0584838
-0.04245199 0.08131337 0.09184817 0.070986934 -0.009717976 -0.048359863 0.0787405 0.112813465
-0.011753823 -0.04474168 0.0694551 -0.07768103 0.14520894 -0.05336736 -0.07052465 0.06838051
0.0553523 0.05869048 0.04659779 -0.1134235 0.09129752 0.009470199 -0.025418345 -0.020974128
0.006318362 -0.07912737 0.058973774 -0.0020856613 0.028117714 0.02285735 -0.100214526 0.017296523
-0.04063507 0.08041989 0.0782704 0.018132113 0.05042501 0.04799091 -0.06138175 -0.004851282
-0.03375473 -0.03007316 -0.0056002815 0.010232043 0.13354628 -0.0299183 0.021848539 0.07542513
0.05697776 -0.06342036 0.055312086 -0.094027296 0.016757311 -0.08926965 -0.054853216 0.013377838
0.025550382 -0.054343756 -0.012153577 -0.12639141 0.100655414 0.007967275 0.022731263 0.035851736
-0.0637161 -0.014851045 0.07151894 0.028333161 0.037584625 -0.0026633157 0.078126386 -0.06285153
0.06774592 -0.0495108 -0.019819153 -0.04652005 0.15282647 0.043412983 -0.013253393 0.012276499
-0.04417963 0.08561426 0.056450106 0.011881106 0.062553845 -0.11368307 -0.10349004 0.0363468
0.13528985 0.035950396 0.07680708 0.01094475 -0.015502025 0.074105054 0.041160412 -0.062444128
0.02774103 -0.065520406 -0.08708677 0.035618205 0.006536506 -0.030923136 -0.062283393 0.052333523
0.05308656 -0.01962601 0.0030118611 -0.08866214 0.030980874 -0.025757363 -0.08718048 -0.041921593
0.034210496 0.10049221 0.01859218 0.09440678 -0.0065530646 0.0032891019 -0.021670032 0.021176359
-0.054016367 -0.02532522 -0.06237494 -0.098480545 0.016170444 -0.06203358 -0.0056728614 0.035028208

conv3.bias f4 [32]
00000000: 8f7e 91bd 123a 96bd c23a e53c 7846 0d3d
00000010: 7947 223d f9df 13bd beee 73bd eebe f23b
00000020: d77a bfbd c779 093c 990d 85bc b842 ad3c
00000030: 9e52 7bbd c753 2bbd dcd9 8fbd cf28 283d
00000040: ec06 b8bd 8af3 2dbd 27f2 f1bc e7e9 3c3d
00000050: 471f 0f3c 15cc adbd a71e 82bd a1fe 243d
00000060: 942d b0bd 5130 053d 93a6 46bd a2b9 193d
00000070: a3a1 4bbc 0566 90bc 231a f4bc bfe8 3a3d
-0.07104217 -0.07335295 0.02798212 0.034491032 0.039618943 -0.03610227 -0.059553854 0.0074080145
-0.09349602 0.00839085 -0.016241835 0.021149978 -0.061358087 -0.041827943 -0.07023975 0.041054543
-0.08985695 -0.042468585 -0.029534413 0.046121504 0.008735484 -0.08486191 -0.06353503 0.040281896
-0.08602443 0.03251678 -0.0484987 0.03753055 -0.012428674 -0.017626772 -0.02979762 0.04563212

fc1.weight f4 [128, 1152]
00000000: af40 b0bc a042 9dba db96 df3c 5dd6 923c
00000010: 0a2f 96bc c8ef e0bc f815 92bb a738 c33c
00000020: c634 48bc d0ee aebb c483 61bc 76a0 153c
00000030: 88df 993c f2a0 3abc 0312 c8bc 7453 08bd
00000040: 7fe5 a13c 72b7 243c ed5a 343c dadc ba3c
00000050: f8fe dcbb d837 74bb 6511 80bc f507 7f3a
00000060: 5a79 9a3c 7dc5 0e3c 0c33 c63b 72c0 293c
00000070: 6f3f 213b 3d4e 84bb e064 5bbc cdca a6bc
00000080: 5f7f 73bc e0b0 b3bc bbfb 343c 9e74 74bb
00000090: e4ce 28bc 1e08 063c f605 103c 5667 03bc
000000a0: eb54 923c 584c 2fbc 16fd b83c 8895 82bc
000000b0: 83a8 8f3c 6c5d d73b 98a6 2c3b 5792 73bc
000000c0: e8af d7bc fc53 9ebb 1e7b 353c 2c95 0dbc
000000d0: f062 d0bb 72ec 3cbc d444 8d3b 5ec4 33bc
000000e0: 048a 9a3b 949d 0abc b025 c5bb 3195 a0bc
000000f0: 3868 3ebc 1082 d4ba 3889 213b 2b09 d6bc
00000100: ca82 adbc 00c1 39bb 1780 b8bc dca3 f0bc
00000110: ab1b 803c 053a e23c 7686 41bc 947d f3bb
00000120: d794 bf3a d6c8 b33c 6dd5 943c 5ac5 bd3c
00000130: 1b62 3dbc c51a 7e3c dcfc 53bc 195e cf3a
00000140: ad06 45bc f6fc 8dbc f220 0cbd b996 fdbc
00000150: fa36 3fb7 d857 30bb fa57 cdbc 6f1e 613b
00000160: d1a3 8ebc 6059 01bc c59c 05bc 5e44 e1bc
00000170: 805a eabc 6322 98b8 8e7a bcbc ba1c 0f3c
00000180: 8252 6fbc 5b33 af3c b41f 09bd 31bb febc
00000190: 79c4 e6bc b783 a33b 6dd7 fcbc 7a61 c8bc
000001a0: a513 44bc e300 edbc aa86 a63c 6993 ebbb
000001b0: ff03 7d3c 3bae 133c 3dc3 70bc f486 583c
000001c0: 9561 43bc c821 4c3c 30c1 0ebd ca62 0bbd
000001d0: 179a 4cbb c9ee 9b3c 1877 c9bb c625 a23c
000001e0: ad44 84bc 8b10 94ba b5be 79b9 e166 7b3c
000001f0: 3fe9 ae3c 5557 cebb e672 dfbc f7e0 9f3c
00000200: 3e53 c13c 593a 63bc 1a40 883c 11f3 713c
00000210: 16be 08bd 0085 3f3a 9072 39bb a53b b1bc
00000220: b006 dc3b b5c8 e8bb 75c6 09bc ba06 b43c
00000230: 2eb2 583c 4f58 a6bb 7d12 743b 2141 233c
00000240: 941f 3e3c a58a 9fbc a97b e8bc bc5e 7f3a
00000250: 2c87 19bb af24 59bc 954a c9bc aa5a a53c
00000260: be61 23bb a631 073b 7b9c 303c 7946 99bb
00000270: 5ed4 b33a cc59 85bc 34f1 373c 6842 a6bc
00000280: f860 7abb 076f 9c3c d10f cfbc 228a 17bc
00000290: eae1 0dbd 290f a1bc 435c fcbc c7d1 973c
000002a0: c571 98bc 79ef ecbb 10a9 02bd ce3a 423c
000002b0: 06d9 8ebc 2b99 dc3c 7635 ae3b 484d 933c
000002c0: 86aa 08bd 4dde c6bc 9935 99bc 2c16 efbc
000002d0: 51a9 edbb 98f3 9fbb 2d0f 083c eee0 40bc
000002e0: bdb1 21bc 1de6 fc3b 090b c6bc d053 a33b
000002f0: f823 44bb 1e2d 61bc 225f 82bc 3437 eabc
00000300: 1767 b0bc 73aa 1b3c 7d76 8abc d80e aa3c
00000310: 7e37 1b3a 24b6 ebbb e37d 83bc 289c 0abc
00000320: a9e2 403a 8f29 07bd 17d8 dabc 6f21 0ebd
00000330: 1304 a9bc 85a1 a1bc 3109 863c 6319 733c
00000340: ddc9 b5bc 1389 5abc 1095 bc3c af23 d63a
00000350: 37d9 99bc 5b29 833c 9523 45bc bfe4 5c3c
00000360: 0090 30b9 e026 a4ba 6080 0f3a 09ce b43c
00000370: 856f adbc bc54 cebc 6e22 903c a096 92bb
00000380: 8dfb b63c 5848 d8bb 5080 a23c 6d32 823c
00000390: 72c2 93bc fa52 a03b 52bb 773c d3b8 89bc
000003a0: e684 e43b 562f 423c 2106 8dbc 254d 03bd
000003b0: c33e 9abc 04fb bc3c ef59 93bc eb3b 753c
000003c0: 29a5 323b cb2c 8b3c a488 f03b 4cbd 91bc
000003d0: edbc 0abd 0309 01bd 65cb 8a3c 1c3e 9c3c
000003e0: 7a58 79bc 772c 99bc 93d9 88bb b8ea ff3b
000003f0: a0a6 31bc 258b 823c 3b46 993c 43b1 dfbc
-0.021515219 -0.0011998005 0.027293613 0.017924482 -0.018332977 -0.027458087 -0.0044581853 0.023830725
-0.012219613 -0.0053385273 -0.0137643255 0.009132495 0.018783346 -0.011390911 -0.024422651 -0.033282712
0.019762753 0.010053502 0.0110080065 0.022810388 -0.006744262 -0.003726473 -0.015633294 0.0009728664
0.018856693 0.008714077 0.0060485657 0.010360824 0.002460446 -0.004037647 -0.01339075 -0.020360375
-0.014861911 -0.021934927 0.011046345 -0.0037300955 -0.010303233 0.008180646 0.008790484 -0.008020243
0.017862758 -0.010699354 0.022581618 -0.015940443 0.017536407 0.006572416 0.0026344415 -0.014866433
-0.026328996 -0.004831789 0.011076717 -0.008641522 -0.0063594505 -0.011530982 0.0043111835 -0.010972111
0.00471616 -0.008460421 -0.0060164556 -0.01960239 -0.011621527 -0.0016213078 0.002464844 -0.026127419
-0.02118053 -0.0028343797 -0.022522015 -0.02937501 0.015638193 0.027615556 -0.011811843 -0.0074307416
0.0014616501 0.021946352 0.018168176 0.023165394 -0.011559035 0.015509312 -0.012938704 0.001582089
-0.012025517 -0.017332535 -0.034211107 -0.03095566 -1.1397287e-05 -0.0026907828 -0.025066365 0.0034350415
-0.017412098 -0.007894844 -0.008155053 -0.02749842 -0.028607607 -7.25433e-05 -0.023007657 0.008734876
-0.014607074 0.021386793 -0.0334775 -0.03109512 -0.028169857 0.004990067 -0.030864442 -0.024460543
-0.011967574 -0.028931087 0.020327885 -0.0071892035 0.015442847 0.009013708 -0.014694986 0.013215769
-0.011925121 0.012459226 -0.034852207 -0.03402976 -0.0031219774 0.01903476 -0.0061482303 0.019793402
-0.016146028 -0.0011296434 -0.00023817534 0.015344352 0.021351455 -0.006297032 -0.027276468 0.019516451
0.023599263 -0.013868892 0.016632129 0.014767424 -0.033384405 0.00073058903 -0.0028297044 -0.021634886
0.0067146644 -0.0071040043 -0.008409132 0.021975864 0.013226075 -0.005076445 0.0037242465 0.009964258
0.0116042085 -0.01947529 -0.028379278 0.00097415945 -0.0023426516 -0.013253375 -0.024571696 0.020184834
-0.0024930085 0.0020628958 0.010779495 -0.0046775904 0.0013719907 -0.01627817 0.011226941 -0.020295337
-0.003820477 0.01909591 -0.025276097 -0.009249242 -0.034639277 -0.01966055 -0.030805713 0.018532647
-0.018608937 -0.007230696 -0.03189951 0.01185484 -0.01743747 0.026928505 0.0053164316 0.017981187
-0.03336575 -0.024275923 -0.018702315 -0.029185377 -0.00725285 -0.0048813336 0.008304399 -0.011772377
-0.009869036 0.0077178613 -0.024175184 0.0049843565 -0.0029928666 -0.013743667 -0.015914503 -0.028590776
-0.021533532 0.0095010875 -0.016902203 0.020759031 0.000592105 -0.0071933437 -0.016051238 -0.008460082
0.0007357994 -0.032998618 -0.026714368 -0.034699854 -0.020631826 -0.019730339 0.016361805 0.014837596
-0.022190982 -0.013338345 0.023020297 0.0016337539 -0.018780334 0.01601093 -0.012032409 0.013482272
-0.00016838312 -0.0012523793 0.00054741465 0.022070901 -0.02117134 -0.025186889 0.017594542 -0.0044735223
0.022336746 -0.006600421 0.019836575 0.015893186 -0.018037055 0.004892704 0.015120344 -0.016811764
0.0069738505 0.011852106 -0.017214837 -0.032055993 -0.018828755 0.023068912 -0.01798722 0.014967899
0.0027259088 0.016989132 0.0073405076 -0.01779046 -0.03387158 -0.031502735 0.01694269 0.019072585
-0.015218848 -0.01869796 -0.0041763275 0.007809963 -0.010842949 0.01593549 0.018710246 -0.027306205

fc1.bias f4 [128]
00000000: 1edb 143b e196 9dbc 1b2c babb 8eb6 b13a
00000010: 5df4 253a 2a89 ee3a a014 35bc e916 10bc
00000020: 599f 623c 2f54 b6bc 4f77 8f3c 1967 d73b
00000030: 7600 74bc 1880 193b 3131 3dbb d43d e83b
00000040: f081 a33c fcf4 c83b 5e19 fabb 7195 8d3c
00000050: 1adf eebb 9991 a63c d2c9 833c 03ce 083c
00000060: b0d5 403b 1c05 e1bc 6126 bb3c 1ffd c1bc
00000070: e119 e6bb f64d 9b3c 366a 8c3c 53ee 9bbc
00000080: eb9e e73c 8f72 b33c e7cb c8bb 39bc 903c
00000090: e2f3 333c efe5 fc3c 5c0a acbc 5e42 b93b
000000a0: 44f5 a43c 53a3 7939 52fb 933c 3e2c 523b
000000b0: 1ff5 a53c 3605 a43c e41b 50bc 86f7 c53b
000000c0: 92c4 47bc 9151 09bd a4d3 a83c a35e f4bc
000000d0: 1773 493c b876 f53b b5c3 883c a8d2 0e3d
000000e0: 6363 89bc 2036 66bc 3aa9 d4bc fb1a 40bc
000000f0: 9093 22bb b9f2 e0bc 33e1 f6bc ac6e 6cbc
00000100: ecf9 e5bc 7d5f 193d ffae ff3b c702 85bb
00000110: 9122 acbc f995 c9bb 027c 573c 4d34 fa38
00000120: 6cda 5ebc a604 49bc c81f eebc 725b aa3c
00000130: 271a e73a 788b e83c 0401 133c 0b40 583b
00000140: 6b51 eabc 3459 b3bc d416 623c f442 8d3c
00000150: 87a7 09bd 734a 9f3a 1710 0dbc 7964 433a
00000160: 69d0 71bc e6a4 f03c 544a a13c 6b9c 923c
00000170: 49ad bb3c b19d 08bc 43aa ea3c ddc5 dabc
00000180: 79a4 f2bb ecde a9bc 64bf 2cbc 0be2 f7bc
00000190: 1288 063b 193a f9bb 86b3 ac3c 7fec 033d
000001a0: c719 913c 802a 93bc 7cd5 d73c 3a3b c53c
000001b0: 6094 51bc 5fa7 10bc fa79 05bc 7a74 023c
000001c0: 2a1e 06bc 919b 22bb e253 26bc d7e6 ffbc
000001d0: 0c7a b23b 8bea ec3c 2135 afbc c1ef cbbc
000001e0: caf1 b23c 6b0c 9dbc 21c0 04bd 47af 9fb9
000001f0: 7a5f ebbc 900a dabb aa6b 183c 9761 5739
0.0022713612 -0.019236984 -0.0056815273 0.0013558434 0.00063306635 0.0018198837 -0.011052281 -0.008794525
0.013831937 -0.022256939 0.017512945 0.0065735695 -0.014892688 0.0023422297 -0.0028868432 0.0070874486
0.01995942 0.00613272 -0.0076324185 0.017283173 -0.0072897794 0.020333098 0.016087446 0.008349898
0.0029424243 -0.027468257 0.022845449 -0.023680268 -0.007022128 0.018958073 0.01714049 -0.01903454
0.02827402 0.021905212 -0.0061278227 0.017667877 0.010983439 0.03087136 -0.021001033 0.0056536635
0.020136483 0.00023807333 0.018064175 0.0032069827 0.020258484 0.020022016 -0.012701962 0.00604147
-0.012192862 -0.033525053 0.02060873 -0.029830283 0.012295506 0.007490959 0.016694883 0.034868866
-0.016771024 -0.01405099 -0.0259596 -0.011725183 -0.0024807192 -0.02745949 -0.03013668 -0.014430683
-0.028073274 0.03744458 0.0078028436 -0.004059169 -0.021012576 -0.0061519113 0.013152124 0.00011930671
-0.0136018805 -0.012269175 -0.029067889 0.020795558 0.0017631695 0.028386816 0.00897241 0.0032997157
-0.028603276 -0.021893121 0.013799388 0.01724384 -0.033607032 0.0012152925 -0.008609793 0.0007453631
-0.0147591615 0.029375505 0.019688763 0.017896852 0.022909777 -0.008338378 0.02864564 -0.026705677
-0.0074048606 -0.02073618 -0.010543678 -0.030259153 0.0020527882 -0.0076058027 0.021081697 0.032207962
0.017712487 -0.017964602 0.026346914 0.024076093 -0.012791723 -0.008828967 -0.008146757 0.0079623405
-0.008185903 -0.0024811963 -0.010151835 -0.031238003 0.005446678 0.028920433 -0.021387639 -0.024894597
0.02184381 -0.01917096 -0.03240979 -0.00030457435 -0.02873205 -0.006654091 0.009303013 0.00020540353

fc2.weight f4 [2, 128]
00000000: 09c4 85bd 4bc5 a9bd 7f4c dd3d ef7a 8ebd
00000010: 439e 7f3c 1230 85bd 0fdf 8bbd 2c79 c23d
00000020: 3014 a43c 6b1c b03d 77b3 a63d bce1 9dbb
00000030: 0928 a43c 993e ddbd 8c8a c0bc 8f2b 84bd
00000040: f6b3 5dbd 7f57 a9bd 2c54 33bd 6f36 c03c
00000050: 05c0 ae3d 501c 923d 0c5b 7cbd 78d4 ed3c
00000060: b97b 56bd a279 223d 32a7 473d bef6 7a3d
00000070: 5aa4 f33c 3349 6cbd 9eb3 793d 32e8 dbbd
00000080: 30b0 293c 91f3 913c 9f28 f3bc e7fd 5d3c
00000090: 8a1a 753d e92a 04bd aea5 5a3d e3c7 343d
000000a0: 3800 b73d d7ff a53d 4660 4c3d 9b45 193d
000000b0: 0260 39bc 0be8 66bd fda2 48bc c054 27bd
000000c0: a47c 793d 7342 09bc f81a 423d 58b7 a5bd
000000d0: b453 9c3d c44c 613d 06ac 8abd df04 c2bd
000000e0: a4f3 bbbc 0035 1f3c 657e b13d cb1e 9e3b
000000f0: 1208 e23d 272e ac3c 95fb a23c 466a 5dbd
00000100: 66e6 0bbd 9bb6 b4bd 34ff 823d d031 4fbd
00000110: e7f2 123d d3d1 473d 176b aa3d 74ca f9bc
00000120: 1260 8d3d ee27 d73b 9670 a8bd 3ac0 cabd
00000130: e4c3 89bc 67a3 0b3d 8ce3 8f3d 9bf5 a3bd
00000140: 1928 a33d bdf0 82bb f295 ca3d 428c 60bd
00000150: 21d6 633d d8de 913d b91b 87bd b4f9 383d
00000160: 67ce 2a3c 9da1 35bd 631e e83d 0572 a33b
00000170: 891d b93d a585 64bd 5cea f93d 1eb4 fbbc
00000180: e921 9bbd 63c8 4e3d c0e2 14bd 654f 2d3d
00000190: af4f e53b 245d 8e3d 2333 87bc f77c 68bd
000001a0: 5584 8abc f71d 9dbd b360 9e3d d3dc cdbd
000001b0: ea09 c73c 6513 abbd fbb2 25bd 735b 7bbd
000001c0: 2a0a ecbc e4b4 a83d 49b1 5bbd 9088 9939
000001d0: daa8 3b3d fd8a 5bbd baa5 54bc 45de 10bd
000001e0: 512f bebd 530a 4dbd c8f0 053d f8a9 8cbd
000001f0: c066 d43c 678c b6bd 7e5e b6bc 0afd eb3c
00000200: 8b4b 59bd c485 eebb b6f3 b93c 2427 9c3d
00000210: 2026 14bd 51ca c93d 3824 ee3c 19d2 783c
00000220: 43dd 4ebd 47d5 2ebd 87c8 1abd b3ab 6d3d
00000230: 7e9f 043d 1196 453d a225 3fbd 9717 cabc
00000240: 938b 6a3d 00f0 2abc cba1 52bd 481a 4dbc
00000250: d11a 89bd d8cc 073d b3bc 7e3d f9f9 7f3d
00000260: 4737 d13c a427 803d 8461 bebd adb5 96bd
00000270: 43b9 903d 51aa 923d dba2 dabc 8d51 ebbc
00000280: c2df c2bd e4b2 9d3d 4940 19bd 34d8 ecbd
00000290: cf27 25bd b0a1 e23d 5a4f 183d 5136 71bd
000002a0: 18d1 adbc d16f 54bd 1ae8 5d3d 1987 68bd
000002b0: 0253 1b3a 5086 b13c 6a0e 4d3d bedf f23c
000002c0: 66f7 89bd 81f1 9dbc 8339 3bbd 0ebe 86bb
000002d0: dd80 ccbd abc2 a93b 0d0d 563d 34a6 203c
000002e0: 38f5 053d 03b4 a63d 2046 70bd 6dfd 4dbd
000002f0: f252 a9bd a92e 0f3d 1dca 1f3c 2d6a 72bd
00000300: a35c 15bd 7efa 39bb 07b4 eebd 99bf cb3c
00000310: cdc0 2f3c b012 c63c f0ed a1bb 6a2f a83d
00000320: 90f7 853d ebcc 963a 8fd8 b13a 86aa ba3d
00000330: 93a7 acbc c718 98bd 1b2a 8b3c 8fd4 fabc
00000340: 7c4d d0bd 70cf 49bc 2ea4 8d37 7a0e 84bd
00000350: c4ee 0f3c 0cca c8bc c7f0 a63d eed9 adbd
00000360: ad3c ab3c 13c1 af3d a349 1b3d aab3 c43a
00000370: 800c 90bd a3b9 353b 436e 24bc 4d86 21bd
00000380: c677 81bc 0e6c 4fbd a40f 97bd 6611 92bc
00000390: 6b7e 453c 0111 8e3d 5f65 953d 9703 cc3c
000003a0: a9ac 9e3c b4c2 5abc 8973 d9bd c65c d13d
000003b0: 9661 6abd df66 a4bd 4238 8bbc 009c b0bb
000003c0: bfe8 d83c be58 ddbd 4ac6 ef3b 5a52 8abb
000003d0: 2be0 4ebd 8f07 703d 13c4 b83c b962 0abd
000003e0: 0318 f63d 30be 9dbd 483d 9fbc e36b a73d
000003f0: 0a45 92bd 40b9 43bb d27c b1bc e92e 163d
-0.06531531 -0.08289584 0.10805606 -0.069570415 0.015601697 -0.06503309 -0.068296544 0.09495768
0.020029157 0.0859917 0.08139699 -0.0048181694 0.020038622 -0.10802955 -0.023503564 -0.06453621
-0.054126702 -0.08268642 -0.043781444 0.023463456 0.085327186 0.071343064 -0.061610267 0.029031977
-0.052364085 0.03966678 0.048743434 0.061270468 0.029741455 -0.057686996 0.060962312 -0.10737647
0.010356948 0.017816337 -0.029682456 0.013549305 0.059839763 -0.032267485 0.05338066 0.04413594
0.089355886 0.08105438 0.0498965 0.037419897 -0.011314394 -0.056373637 -0.012245891 -0.04085231
0.060909882 -0.008377659 0.047389 -0.08091611 0.076331526 0.05500485 -0.06771092 -0.09473585
-0.022943325 0.009717226 0.08666686 0.004825448 0.110366955 0.0210181 0.019895354 -0.05405643
-0.034155272 -0.08823892 0.063963324 -0.050584614 0.03587618 0.04878409 0.08321207 -0.030492045
0.069030896 0.0065660393 -0.08224599 -0.098999456 -0.01681704 0.03409138 0.07025823 -0.0800583
0.079666324 -0.0039959834 0.09891881 -0.05482126 0.05562413 0.07122582 -0.065970846 0.04516001
0.010425187 -0.04434358 0.11333921 0.0049879574 0.090388365 -0.055791516 0.12202904 -0.030725535
-0.07574827 0.050484072 -0.03634906 0.042312045 0.0069980244 0.06951359 -0.016503876 -0.0567598
-0.016908804 -0.07671731 0.07733288 -0.100518845 0.02429672 -0.083533086 -0.040453892 -0.06136651
-0.02881344 0.08237627 -0.05363587 0.0002928418 0.045815326 -0.053599346 -0.012978965 -0.035368223
-0.09286369 -0.050058674 0.03270033 -0.068683565 0.025927901 -0.08913498 -0.022261854 0.028807182
-0.05305056 -0.0072791297 0.022699218 0.07624653 -0.03616917 0.09853042 0.029070005 0.01518681
-0.05050398 -0.042683866 -0.037788894 0.058025073 0.032378666 0.048238818 -0.04666675 -0.024669452
0.057262015 -0.010433197 -0.05142383 -0.012518473 -0.06694568 0.03315434 0.062191676 0.062494252
0.025539054 0.06257561 -0.092959434 -0.07358871 0.07066586 0.071613915 -0.026688984 -0.02872541
-0.09515335 0.07700136 -0.037414823 -0.11564675 -0.040321168 0.11065996 0.03718505 -0.05888969
-0.021217868 -0.05186445 0.054176427 -0.056769464 0.000592515 0.02167049 0.050062574 0.029647704
-0.06736641 -0.019280197 -0.045709144 -0.0041120118 -0.09985516 0.005180677 0.05225854 0.009805251
0.032704562 0.08139803 -0.058660626 -0.050290514 -0.08267774 0.034956608 0.009752777 -0.05918329
-0.0364653 -0.0028378065 -0.11655431 0.024871634 0.01072712 0.024178833 -0.0049416944 0.082121685
0.065413594 0.0011505162 0.0013568568 0.09114556 -0.021076 -0.07426601 0.01698785 -0.030618934
-0.10171029 -0.012317523 1.6884962e-05 -0.06448074 0.0087849535 -0.024510406 0.081513934 -0.084888324
0.020902956 0.08581748 0.037912022 0.0015007157 -0.07033634 0.0027729056 -0.010036054 -0.03943472
-0.015804183 -0.05064016 -0.0737603 -0.017830562 0.012054066 0.06936837 0.072947256 0.024904056
0.01936944 -0.013352085 -0.1061774 0.10222773 -0.05722197 -0.080274336 -0.0169946 -0.0053896904
0.02647817 -0.10807942 0.007317339 -0.004221243 -0.050506752 0.05860096 0.022554433 -0.033785556
0.120162986 -0.07702291 -0.0194384 0.08174875 -0.071420744 -0.0029865056 -0.021665964 0.03666583

fc2.bias f4 [2]
00000000: 0d16 9abc 83e8 5bbd
-0.018809343 -0.053688537
