models/2024-05-10_12-44-09_Model.onnx (onnx, 516192 bytes, 10 tensors)

conv1.weight f4 [8, 1, 3, 3, 3]
0.076623924 0.17305121 0.12972704 -0.065906696 -0.12888125 -0.045346383 0.065720476 0.14649054
-0.13713585 -0.10795749 0.07578064 0.1173427 -0.18036938 -0.04297366 -0.10154124 -0.081265636
0.16578272 0.120291114 -0.0011604949 -0.040797945 -0.06933699 -0.045200028 -0.17332934 -0.12886061
-0.1544566 0.12872885 -0.057677403 0.19739634 -0.0061315955 0.010201578 -0.17194147 0.033485044
-0.12807056 -0.16861628 -0.0054196506 0.016616035 -0.14826564 0.1688891 -0.12671778 -0.024624472
-0.11109657 0.058621194 0.06506221 0.06793569 -0.12640643 -0.16548343 0.11644321 -0.08629221
-0.08257324 0.010491882 0.008891427 0.12924202 -0.15012561 -0.10507965 -0.15279871 0.15406443
0.12170493 -0.060617376 -0.15974645 -0.04519142 -0.09942871 0.020177793 0.1271262 0.15427357
-0.16653223 0.20291771 -0.14671174 0.1828328 0.029647848 0.12555164 -0.12201238 -0.0034563483
-0.027269246 -0.09524499 0.16382158 -0.15563059 -0.04486191 0.11902001 0.09800811 0.16309594
-0.018887462 -0.06864288 0.107316695 -0.082388744 0.04581425 -0.06873331 -0.009477349 -0.09883707
0.18227573 0.027874097 0.15154478 0.14841796 0.003594935 -0.09934087 0.119858615 -0.014932194
0.098663345 -0.16708219 -0.14168988 -0.18932633 -0.16562702 -0.05109547 -0.092743225 0.13835655
0.1854253 0.15835394 -0.17061402 0.07170386 -0.09039503 -0.07216407 -0.067883536 -0.021577794
0.17143986 -0.029094659 0.109269805 0.124575675 -0.04403936 -0.1097186 0.09901295 0.119211346
-0.185422 0.01747073 0.07323676 0.007940751 -0.094294265 -0.0454348 0.143218 0.10862325
0.10595167 0.14869924 -0.13686018 0.049005114 -0.061220855 -0.07644081 0.012263951 -0.071067676
0.15641625 0.08618138 0.04967562 -0.07039989 -0.11821551 0.19227745 0.0862168 -0.13977593
-0.01686792 0.055653006 -0.046517584 -0.0021077425 -0.061735548 0.1815811 -0.14730002 0.14717136
0.0734498 -0.032242317 0.12552865 0.15958402 -0.12253818 0.011476185 -0.18750772 -0.16727042
0.03797069 -0.08648554 -0.026019817 -0.112776645 -0.15090193 0.06990084 0.16260578 0.03250694
0.18092966 0.17042716 -0.022589331 0.0038392127 0.043771926 -0.05002565 0.10891034 0.12037636
-0.17014058 -0.05923163 -0.097047225 0.15311213 -0.040019467 0.04247178 0.13839044 0.10415195
-0.13064401 -0.10826195 -0.015808057 0.050166775 -0.011056866 -0.031033196 -0.12216591 -0.12787732
-0.0686442 -0.08666847 -0.035253372 -0.027264498 -0.030477256 0.19969036 -0.066042565 -0.050847735
-0.15953217 -0.106988214 -0.054792847 0.07722808 0.13695338 0.19325443 -0.13616079 -0.07816734
0.055483 0.18243618 0.17668256 0.16775076 0.14030114 -0.042713664 0.13883887 0.015750047
00000000: 01ed 9c3d 5634 313e 2ad7 043e 17fa 86bd
00000010: 72f9 03be 21bd 39bd 7598 863d 9e01 163e
00000020: 576d 0cbe d118 ddbd e132 9b3d 5f51 f03d
00000030: c0b2 38be 2605 30bd dbf4 cfbd 996e a6bd
00000040: f2c2 293e 305b f63d bf1b 98ba bf1b 27bd
00000050: 8d00 8ebd aa23 39bd 3f7d 31be 09f4 03be
00000060: df29 1ebe 7fd1 033e 243f 6cbd 4422 4a3e
00000070: 8deb c8bb 8524 273c 6d11 30be 9d27 093d
00000080: ee24 03be bfa9 2cbe 5397 b1bb 5a1e 883c
00000090: f3d2 17be 44f1 2c3e 4ec2 01be 43b9 c9bc
000000a0: 9986 e3bd c71c 703d 563f 853d de21 8b3d
000000b0: b070 01be 7d74 29be c779 ee3d f8b9 b0bd
000000c0: 291c a9bd 25e6 2b3c 59ad 113c 0558 043e
000000d0: 87ba 19be 0034 d7bd 4477 1cbe 11c3 1d3e
000000e0: 6f40 f93d ed49 78bd 9394 23be a31a 39bd
000000f0: 48a1 cbbd e64b a53c 5f2d 023e e4f9 1d3e
00000100: 6d87 2abe a9c9 4f3e 9a3b 16be 8638 3b3e
00000110: 0be0 f23c 9c90 003e a0e1 f9bd e783 62bb
00000120: c163 dfbc ce0f c3bd d8c0 273e a05d 1fbe
00000130: 1fc1 37bd c3c0 f33d 7ab8 c83d 9f02 273e
00000140: e1b9 9abc a394 8cbd dbc8 db3d 6ebb a8bd
00000150: b9a7 3b3d 0dc4 8cbd e246 1bbc 176b cabd
00000160: 7da6 3a3e 3858 e43c 8e2e 1b3e e1fa 173e
00000170: 0099 6b3b 3a73 cbbd 6f78 f53d 29a6 74bc
00000180: 0210 ca3d 9817 2bbe 2717 11be c3de 41be
00000190: 219a 29be 7c49 51bd 29f0 bdbd 57ad 0d3e
000001a0: 21e0 3d3e 8927 223e 71b5 2ebe 79d9 923d
000001b0: 0821 b9bd c2ca 93bd 8606 8bbd eac3 b0bc
000001c0: ee8d 2f3e ec57 eebc d9c8 df3d 8821 ff3d
000001d0: 9e62 34bd 25b4 e0bd 4dc7 ca3d 1425 f43d
000001e0: 44df 3dbe c71e 8f3c 28fd 953d ec19 023c
000001f0: 5a1d c1bd d719 3abd bda7 123e de75 de3d
00000200: 30fd d83d 9d44 183e 1325 0cbe 96b9 483d
00000210: b8c2 7abd 008d 9cbd bdee 483c ee8b 91bd
00000220: 952b 203e dd7f b03d aa78 4b3d d12d 90bd
00000230: f91a f2bd 61e4 443e 6f92 b03d 6c21 0fbe
00000240: 982e 8abc 68f4 633d 3989 3ebd 0d22 0abb
00000250: 6ade 7cbd 65f0 393e d1d5 16be 17b4 163e
00000260: d96c 963d 8510 04bd 958a 003e fe69 233e
00000270: 4cf5 fabd 9c06 3c3c 0602 40be f048 2bbe
00000280: 2787 1b3d 551f b1bd 8327 d5bc 71f7 e6bd
00000290: 0986 1abe 2c28 8f3d 2182 263e ff25 053d
000002a0: a045 393e 7584 2e3e 430d b9bc 4d9b 7b3b
000002b0: 314a 333d b2e7 4cbd 620c df3d e287 f63d
000002c0: 5539 2ebe de9c 72bd b2c0 c6bd 6dc9 1c3e
000002d0: 74eb 23bd e4f6 2d3d 39b6 0d3e 9e4d d53d
000002e0: 8bc7 05be 71b8 ddbd e67f 81bc ad7b 4d3d
000002f0: db27 35bc 5439 febc 1f32 fabd 46f2 02be
00000300: 5595 8cbd 3d7f b1bd d765 10bd cc59 dfbc
00000310: 70ab f9bc a17b 4c3e 5341 87bd b745 50bd
00000320: 675c 23be a31c dbbd 776e 60bd c129 9e3d
00000330: 823d 0c3e 7de4 453e bc6d 0bbe 3316 a0bd
00000340: 2442 633d 8dd0 3a3e 46ec 343e dbc6 2b3e
00000350: 1aab 0f3e 86f4 2ebd c72b 0e3e 3e06 813c

conv1.bias f4 [8]
0.12237777 -0.1041903 0.13804252 -0.18455087 0.08891652 0.03844255 -0.11594899 -0.0848755
00000000: 32a1 fa3d b961 d5bd 055b 0d3e e7fa 3cbe
00000010: dd19 b63d ef75 1d3d aa76 edbd 35d3 adbd

conv2.weight f4 [16, 8, 3, 3, 3]
0.019128848 -0.050426073 0.0057043214 -0.04026746 0.0057255733 -0.05425457 0.009969612 -0.01865621
-0.030129176 -0.042007364 -0.00033569793 -0.033549346 -0.0059022326 -0.014998998 0.021140832 -0.0058106347
-0.037667967 -0.06735607 -0.05460899 -0.033858307 -0.0013365332 -0.005832059 0.034802727 0.009369891
-0.028407253 -0.057713553 0.056190696 -0.028541138 -0.027118975 -0.05490071 0.009616466 0.019759905
-0.07492261 0.01811539 -0.06208059 0.031031309 0.0074373037 -0.05236337 -0.06695296 -0.063968875
-0.056801006 0.0004943342 0.06146263 -0.040365476 -0.04780382 -0.040362615 0.0064872517 -0.07229873
-0.03288263 0.016981367 0.00018814114 -0.040880464 0.006971876 -0.021384055 -0.057007525 0.01680881
0.018725693 0.038721498 -0.06747023 -0.009253695 -0.053844683 -0.037074894 -0.050940204 0.015714483
-0.06567447 -0.06816224 0.038069136 -0.032956127 0.039569024 -0.017591676 -0.06621036 -0.020701855
0.022112101 0.005837072 0.008180549 -0.04712131 -0.0032909012 -0.07406816 -0.012303375 -0.06784036
0.035994235 -0.030035568 -0.020013684 0.045310814 0.033744816 0.053146955 0.022879709 0.0032005364
0.03917809 -0.016973756 -0.028997801 0.018908074 0.017777804 -0.043789208 -0.013372889 -0.010819553
-0.050478417 0.027267015 -0.011106476 -0.009973093 -0.024797343 -0.02365428 0.06004544 -0.010592393
0.029431082 0.0060826372 -0.047338057 -0.017839076 -0.06696554 -0.0008589845 0.054760505 -0.004981722
0.024443733 -0.05077252 0.04178717 -0.02039269 -0.035253298 -0.043443635 -0.06969727 0.037933774
-0.05546737 0.021034556 -0.03250615 -0.005317174 0.045211665 -0.06490825 0.058108747 -0.05247596
0.007704121 0.05499162 -0.04415414 -0.014465669 -0.037195954 0.0147854285 -0.02094585 0.033960152
0.06603809 0.052078787 0.03893879 -0.012760947 -0.02484558 -0.007818427 -0.032277428 -0.013665866
-0.030707987 0.06332601 0.052035242 -0.04992403 -0.0400699 0.020400522 -0.0670818 -0.023552828
0.04325651 -0.067811385 -0.03095769 0.0033762935 0.028516352 0.03650373 0.047099594 0.028854953
0.023306357 -0.022961415 -0.018911105 -0.007004034 0.025636477 0.060364883 -0.04345986 -0.043741785
-0.0071593714 0.009771841 0.047245145 0.060496647 -0.057848383 0.04339757 0.053114917 0.04951011
-0.05554255 0.04881063 0.023082564 -0.06204687 0.05732367 0.03724545 -0.039690655 -0.014723226
-0.051739488 -0.031341117 -0.047962967 0.0296562 0.017735282 0.06589796 0.04794355 -0.061541118
0.015850436 -0.019571759 -0.002464851 0.0042747557 0.030423664 -0.06048276 -0.028998537 -0.028578414
0.0060997983 -0.037447184 -0.00238346 -0.0146426065 0.021017581 0.046390504 -0.0711713 0.05644706
0.0074901585 -0.06859914 -0.057823066 0.05550992 0.03606881 -0.047501396 -0.037641663 0.05274651
0.018481836 0.031259045 -0.06266477 -0.02930328 -0.005271328 0.045303177 -0.0056614056 -0.048974264
-0.06702992 -0.03974094 -0.04193289 0.03528519 0.012584936 -0.034124598 0.060843486 -0.012523962
-0.029655034 0.027746003 0.016314691 -0.07292237 -0.06915753 -0.062167272 -0.068236 0.052002747
-0.02031695 -0.06386283 -0.07133207 -0.07257987 -0.038011726 0.030734211 -0.038961813 0.019643627
0.056792554 0.049608313 0.018926423 0.016671581 -0.04853736 -0.0070134336 0.054217614 -0.034157563
00000000: 1ab4 9c3c 928b 4ebd 51eb ba3b 7eef 24bd
00000010: 979d bb3b 0a3a 5ebd 9557 233c e8d4 98bc
00000020: 76d1 f6bc ea0f 2cbd 9d00 b0b9 0a6b 09bd
00000030: 8467 c1bb 5bbe 75bc 8a2f ad3c 2367 bebb
00000040: ba49 1abd fbf1 89bd adad 5fbd 02af 0abd
00000050: 9d2e afba db1a bfbb 4e8d 0e3d 2c84 193c
00000060: 54b6 e8bc 0c65 6cbd 3728 663d 1bcf e9bc
00000070: 9d28 debc 91df 60bd 628e 1d3c 86df a13c
00000080: 0671 99bd ba66 943c 3748 7ebd 5f35 fe3c
00000090: a0b4 f33b f97a 56bd a21e 89bd 1d02 83bd
000000a0: 2ca8 68bd 3596 013a 3dc0 7b3d 4556 25bd
000000b0: f0cd 43bd 4553 25bd 0393 d43b 5b11 94bd
000000c0: f0af 06bd 821c 8b3c c147 4539 4672 27bd
000000d0: 5674 e43b 9d2d afbc b980 69bd a1b2 893c
000000e0: a066 993c 6f9a 1e3d d52d 8abd cf9c 17bc
000000f0: 3e8c 5cbd d8db 17bd ada6 50bd a9bb 803c
00000100: 5680 86bd a598 8bbd 62ee 1b3d 01fd 06bd
00000110: 2113 223d 6b1c 90bc 4c99 87bd f096 a9bc
00000120: 7024 b53c e944 bf3b b607 063c 4602 41bd
00000130: 29ac 57bb 0cb1 97bd 1894 49bc e3ef 8abd
00000140: b16e 133d 270d f6bc bdf3 a3bc d597 393d
00000150: 0138 0a3d 9fb0 593d 3a6e bb3c 17c0 513b
00000160: 3479 203d 8c0c 8bbc cc8c edbc 1be5 9a3c
00000170: c2a2 913c 505c 33bd f619 5bbc 7f44 31bc
00000180: 75c2 4ebd 135f df3c f0f7 35bc 2f66 23bc
00000190: cc23 cbbc 9fc6 c1bc 35f2 753d b78b 2dbc
000001a0: 7419 f13c dc50 c73b 8de5 41bd 4123 92bc
000001b0: 3b25 89bd 792d 61ba 8d4c 603d b73d a3bb
000001c0: 393e c83c d9f6 4fbd 0629 2b3d 920e a7bc
000001d0: c365 10bd f4f1 31bd 71bd 8ebd 7260 1b3d
000001e0: c131 63bd a950 ac3c 2b25 05bd b03b aebb
000001f0: de2f 393d 9eee 84bd 7003 6e3d 08f1 56bd
00000200: da72 fc3b e53e 613d f9da 34bd 6a01 6dbc
00000210: c95a 18bd 953e 723c a296 abbc cd19 0b3d
00000220: fa3e 873d 9150 553d 487e 1f3d 4b13 51bc
00000230: f588 cbbc dc18 00bc 5635 04bd cce6 5fbc
00000240: 518f fbbc 11b1 813d e822 553d 247d 4cbd
00000250: 5620 24bd ff1e a73c 2f62 89bd dcf1 c0bc
00000260: bd2d 313d b2e0 8abd fb9a fdbc ce44 5d3b
00000270: 209b e93c ef84 153d 81eb 403d 3961 ec3c
00000280: f9ec be3c 9419 bcbc 76eb 9abc 1882 e5bb
00000290: 9703 d23c 2b41 773d f702 32bd 962a 33bd
000002a0: 2999 eabb 121a 203c 2084 413d 55cb 773d
000002b0: 6df2 6cbd a6c1 313d 078f 593d 1dcb 4a3d
000002c0: 9680 63bd a8ed 473d a517 bd3c dc24 7ebd
000002d0: 39cc 6a3d af8e 183d ab92 22bd b039 71bc
000002e0: c9ec 53bd 8b5f 00bd d174 44bd 8ff1 f23c
000002f0: 9549 913c 82f5 863d 7560 443d 8a12 7cbd
00000300: c6d8 813c f454 a0bc 5689 21bb 4013 8c3b
00000310: 0c3b f93c c5bc 77bd 578e edbc 471d eabc
00000320: d1e0 c73b 3862 19bd d333 1cbb 8be7 6fbc
00000330: 102d ac3c f803 3e3d 42c2 91bd 0835 673d
00000340: 0170 f53b b57d 8cbd e1d7 6cbd 5f5e 633d
00000350: e3bc 133d d390 42bd 252e 1abd b90c 583d
00000360: 3867 973c 7c09 003d 6356 80bd 6f0d f0bc
00000370: 1bbb acbb d38f 393d 5083 b9bb 3d99 48bd
00000380: fc46 89bd 65c7 22bd d2c1 2bbd 3487 103d
00000390: 0c31 4e3c 3cc6 0bbd 0537 793d 4e31 4dbc
000003a0: 1def f2bc 964b e33c 63a6 853c 5358 95bd
000003b0: 77a2 8dbd 1ca3 7ebd 51bf 8bbd d500 553d
000003c0: bb6f a6bc 84ca 82bd 8c16 92bd c1a4 94bd
000003d0: 2fb2 1bbd 50c6 fb3c 6c96 1fbd aceb a03c
000003e0: 4f9f 683d 1632 4b3d 960b 9b3c d792 883c
000003f0: 1ccf 46bd f2d0 e5bb 4a13 5e3d cde8 0bbd

conv2.bias f4 [16]
0.03173914 0.032705694 -0.020080367 0.028515426 -0.024569612 -0.052094795 -0.010396789 -0.04363408
-0.050413623 0.003532109 -0.0024496524 -0.024745693 0.04051559 -0.020280346 -0.051769976 -0.027077544
00000000: e700 023d 68f6 053d 957f a4bc 2f99 e93c
00000010: 3646 c9bc 5a61 55bd 4b57 2abc a6b9 32bd
00000020: 847e 4ebd f57a 673b 598a 20bb 7bb7 cabc
00000030: adf3 253d f822 a6bc c10c 54bd bad1 ddbc

conv3.weight f4 [32, 16, 3, 3, 3]
0.026608719 0.008821816 -0.052008245 -0.045663193 0.0023420257 -0.038202044 0.040672008 -0.040362287
-0.05307835 -0.012459435 -0.05840424 -0.016813073 0.02818102 -0.0380999 -0.040466353 0.0038798293
-0.022270855 0.022623451 -0.012561449 0.015605456 -0.031725194 -0.009385296 -0.027700586 -0.04878194
0.00011522127 -0.020377234 0.009518423 0.044867285 -0.0285047 0.017138971 0.044130176 0.023461727
-0.013642748 -0.017462151 0.02693945 -0.05733436 -0.028641878 -0.020450076 0.040137336 0.053560898
-0.007490039 0.025840934 -0.045947667 0.040524565 -0.014477302 0.0074020317 0.0024139937 -0.028883185
0.020255951 0.018750502 -0.017677506 -0.039219476 -0.040584717 -0.039888814 -0.010857904 0.019628856
-0.04751365 -0.02797337 -0.048645154 0.018940687 0.023350006 0.025500104 -0.030728111 0.010728896
0.0051916237 -0.023533877 -0.04437478 -0.033749655 0.029199824 -0.0034841811 0.0024758317 0.037970994
-0.057932872 -0.047432497 0.014760342 0.0027702623 0.01422067 0.0046480424 -0.026224561 -0.04113563
-0.031035084 -0.036247663 -0.02011309 0.0021306814 0.015802512 -0.0009663242 -0.020766966 0.015656468
-0.05000035 0.034605805 -0.05124033 -0.054539092 0.015195117 0.0150342025 -0.051870495 0.005750038
-0.032460805 0.010632538 0.00884022 -0.03344254 -0.0057307035 -0.051904466 -0.032454807 0.0043246443
-0.030321654 -0.04464878 -0.05368968 -0.0014794283 -0.05329704 -0.05182863 -0.03128645 0.031202614
0.025841407 0.03178238 0.02041567 0.033785604 -0.016136963 -0.0011534801 -0.028701004 -0.021900324
-0.03626451 0.019800112 0.020096948 0.01166818 -0.053342786 0.014668907 -0.0066283485 0.0039685285
0.016271552 -0.04730455 -0.052962746 -0.013714612 -0.03367338 0.017832492 0.040219776 -0.027053753
0.0050071864 0.051637564 -0.01303002 0.0044565056 0.037772413 0.017714212 0.03284515 0.003223589
-0.028151968 0.012198444 0.014702776 -0.016792797 0.020254077 0.019667102 0.01302761 -0.031893857
0.032511853 0.0024640923 0.0038920385 0.04542889 0.050508715 -0.0361862 -0.03798779 0.010742989
-0.019838134 -0.0050554476 -0.043110076 -0.010552351 0.01726439 0.03907274 -0.02423848 -0.01366742
0.007726501 -0.01208487 -0.00038821882 0.025154226 0.012946844 -0.03351748 0.04958589 -0.04336851
0.0029181987 0.018665446 -0.04646875 -0.029538797 0.025078604 -0.027905378 -0.023645785 0.022079865
0.015769597 0.0387796 -0.014799 0.023092082 0.009145198 0.006960324 -0.010619665 0.017949179
-0.042562753 -0.026348433 -0.035447355 -0.020930436 -0.0128336735 0.009107576 0.0050755423 0.032232333
0.025636673 -0.022602601 0.01486973 -0.015643932 -0.04580132 0.013868312 -0.015518794 -0.021311311
0.032218672 0.025868714 0.015384753 -0.0028209025 -0.01444759 0.013661534 -0.048293374 -0.03620016
0.0049894815 0.019312259 0.024174253 0.029737271 0.030599857 -0.03737461 -0.026967302 0.03517102
0.0017586647 -0.006011415 -0.020390552 0.035008814 -0.054395348 -0.04033876 -0.03490881 0.010858639
0.025037969 -0.007968507 0.020094013 0.012914476 -0.040555295 0.01488551 0.002933027 -0.020281635
-0.023202172 -0.04576559 0.0058962777 -0.023401888 -0.03699037 -0.027183231 -0.027145494 -0.0495162
-0.045560382 -0.04059329 -0.03859209 -0.0007556078 -0.00040314297 -0.037942976 -0.0028540408 -0.036804684
00000000: 87fa d93c 6189 103c 9906 55bd 5409 3bbd
00000010: ac7c 193b bf79 1cbd b197 263d ed52 25bd
00000020: af68 59bd a822 4cbc 4939 6fbd 92bb 89bc
00000030: e2db e63c a40e 1cbd 0cc0 25bd bc44 7e3b
00000040: 5e71 b6bc d154 b93c 89ce 4dbc 07ae 7f3c
00000050: 47f2 01bd c9c4 19bc 57ec e2bc 92cf 47bd
00000060: f3a2 f138 28ee a6bc 29f3 1b3c c2c6 373d
00000070: b082 e9bc 0767 8c3c d8c1 343d cf32 c03c
00000080: d585 5fbc c90c 8fbc 1fb0 dc3c 6fd7 6abd
00000090: 5fa2 eabc eb86 a7bc 0c67 243d ac62 5b3d
000000a0: 006f f5bb 5eb0 d33c 9f33 3cbd 16fd 253d
000000b0: 3532 6dbc be8c f23b 1834 1e3b 6e9c ecbc
000000c0: cfef a53c a79a 993c 6bd0 90bc 9aa4 20bd
000000d0: 293c 26bd 7462 23bd 5ae5 31bc b2cc a03c
000000e0: ac9d 42bd 6928 e5bc 2440 47bd 8029 9b3c
000000f0: 8348 bf3c 98e5 d03c 85b9 fbbc 40c8 2f3c
00000100: 7f1e aa3b 1eca c0bc 54c2 35bd 143d 0abd
00000110: 7834 ef3c dc56 64bb 9041 223b 7987 1b3d
00000120: 054b 6dbd 9448 42bd 5dd5 713c 4a8d 353b
00000130: d0fd 683c 9b4e 983b e4d4 d6bc d67d 28bd
00000140: 4a3d febc 6e78 14bd 35c4 a4bc e7a2 0b3b
00000150: 4574 813c eb50 7dba 7c1f aabc fe41 803c
00000160: 2bcd 4cbd d1be 0d3d 61e1 51bd 6264 5fbd
00000170: f1f4 783c 0452 763c 2876 54bd d16a bc3b
00000180: 9ff5 04bd 1934 2e3c 92d6 103c 0bfb 08bd
00000190: a0c8 bbbb c799 54bd 55ef 04bd bfb5 8d3b
000001a0: 1e65 f8bc a4e1 36bd b6e9 5bbd 60e9 c1ba
000001b0: ff4d 5abd 424a 54bd 3826 00bd a09c ff3c
000001c0: 5cb1 d33c 3e2e 023d c33e a73c c662 0a3d
000001d0: aa31 84bc 5f30 97ba 5e1e ebbc 4f68 b3bc
000001e0: 188a 14bd d833 a23c 5ba2 a43c e52b 3f3c
000001f0: f77d 5abd db55 703c 9e32 d9bb 6e0a 823b
00000200: eb4b 853c 6ac2 41bd 77ef 58bd 41b3 60bc
00000210: 19ed 09bd 7215 923c 7ebd 243d d59f ddbc
00000220: 5313 a43b e981 533d dd7b 55bc e107 923b
00000230: 3fb7 1a3d 651d 913c a388 063d d942 533b
00000240: f59e e6bc fcdb 473c eae3 703c 0c91 89bc
00000250: e1eb a53c e71c a13c c271 553c 22a3 02bd
00000260: 262b 053d 9c7c 213b 9211 7f3b a513 3a3d
00000270: 3ae2 4e3d fb37 14bd 1699 1bbd 5d03 303c
00000280: 9583 a2bc 2ba8 a5bb 3194 30bd c5e3 2cbc
00000290: 0d6e 8d3c bd0a 203d c78f c6bc 50ed 5fbc
000002a0: 972e fd3b 9eff 45bc d989 cbb9 3c10 ce3c
000002b0: 001f 543c a049 09bd 931a 4b3d 2ea3 31bd
000002c0: 403f 3f3b 47e8 983c 0456 3ebd 59fb f1bc
000002d0: a571 cd3c d299 e4bc ceb4 c1bc d5e0 b43c
000002e0: 3e2f 813c 5cd7 1e3d 8177 72bc 9b2b bd3c
000002f0: bed5 153c 6e13 e43b 1afe 2dbc 280a 933c
00000300: 4856 2ebd abd8 d7bc 3f31 11bd 4e76 abbc
00000310: 5444 52bc f137 153c bc50 a63b 0d06 043d
00000320: 0004 d23c 1729 b9bc 2ba0 733c b427 80bc
00000330: 2a9a 3bbd eb37 633c 8a42 7ebc 0f95 aebc
00000340: baf7 033d a0ea d33c 5510 7c3c e4de 38bb
00000350: 96b5 6cbc a0d4 5f3c 46cf 45bd 9e46 14bd
00000360: ce7e a33b be34 9e3c 1509 c63c 949b f33c
00000370: 8dac fa3c 1e16 19bd 88ea dcbc 7d0f 103d
00000380: ff82 e63a 67fb c4bb 160a a7bc 6765 0f3d
00000390: a8cd 5ebd 413a 25bd 8afc 0ebd 6fe8 313c
000003a0: 6d1c cd3c 578e 02bc 339c a43c 3d97 533c
000003b0: 4f1d 26bd 5be2 733c 0738 403b ac25 a6bc
000003c0: 7b12 bebc b374 3bbd 9035 c13b 51b5 bfbc
000003d0: 3783 17bd 5eaf debc 3a60 debc 80d1 4abd
000003e0: 869d 3abd 2645 26bd bd12 1ebd fb13 46ba
000003f0: ef5c d3b9 186a 1bbd dc0a 3bbb 82c0 16bd

conv3.bias f4 [32]
-0.051184103 -0.046400387 0.03249491 -0.0034424313 -0.04258743 -0.047528874 0.021050654 -0.004297278
-0.009658215 0.015159758 -0.030198049 -0.045232512 -0.024579892 0.03479852 -0.051850468 -0.025190588
0.01479795 0.011349833 0.007003509 -0.032661628 -0.045835312 -0.022309665 0.0041503706 -0.022567008
-0.016900916 -0.036916167 0.023793237 -0.03836174 -0.02453119 0.014694836 0.007519588 0.03612072
00000000: 6ca6 51bd 550e 3ebd 6219 053d 6a9a 61bb
00000010: 2870 2ebd a3ad 42bd 6c72 ac3c 2ed0 8cbb
00000020: 7d3d 1ebc a260 783c e661 f7bc ba45 39bd
00000030: c55b c9bc e588 0e3d 2861 54bd 7e5c cebc
00000040: 1a73 723c a6f4 393c b17d e53b 33c8 05bd
00000050: cfbd 3bbd c2c2 b6bc d5ff 873b 72de b8bc
00000060: ca73 8abc 6835 17bd 09ea c23c 3321 1dbd
00000070: a2f5 c8bc 9cc2 703c e066 f63b 52f3 133d

fc1.weight f4 [128, 864]
-0.025837211 -0.026338525 -0.0024556972 0.030365657 0.029809982 0.018565811 0.01703702 -0.029932238
-0.007815056 -0.0071215387 -0.00960578 -0.0066999416 -0.025149649 0.004668543 0.011401147 -0.015823469
-0.016659321 0.000561757 -0.0049850084 -0.023899857 0.013205551 0.01319061 -0.0045011044 0.01289292
0.017116291 -0.0065028514 0.024253078 -0.008126482 -0.032923974 0.017330088 -0.010089362 0.011772774
-0.03953369 0.019068561 0.03103155 0.0183075 0.027328072 -0.037335306 -0.016239626 -0.023403302
0.019422887 -0.03511709 0.006369836 -0.0029921085 -0.0006608522 -0.028567428 -0.013501658 0.028532775
-0.007408143 0.007985683 -0.005912719 -0.029995086 -0.039365668 -0.02731143 -0.016527861 -0.03047418
-0.035053197 -0.038276136 0.005491761 0.02169376 0.028212046 0.022360127 0.0013044741 0.0114984205
-0.0037664534 -0.010569651 -0.03325974 -0.013496028 0.017375575 -0.02000885 0.020065201 0.01853625
-0.014365614 0.016047917 -0.008916123 0.021806935 -0.02482449 -0.003066347 0.027953045 0.020042187
0.014021749 -0.029209645 0.019215912 0.021825004 0.025426969 -0.00024969957 0.020339476 0.016546335
0.009902552 0.019858718 0.011607018 -0.031485785 -0.035462186 -0.018276095 0.015183402 0.020848373
-0.025914144 0.0023984495 -0.04263485 -0.03819602 -0.01705556 -0.0016414361 0.007301072 0.010444458
0.0022263725 0.01754616 0.026278678 0.0019201346 -0.02228197 -0.004933261 0.030441776 0.0013439077
-0.0015724152 -0.022785053 -0.036522478 -0.01834233 0.0071800277 -0.028997833 -0.039380737 -0.025500435
0.014253368 -0.017536458 -0.014566633 -0.012774569 -0.0012575848 0.004903256 -0.039138168 -0.011102555
0.019542947 -0.032738592 0.014893903 -0.011649848 -0.006073119 0.0073097744 -0.035350963 -0.01804223
-0.033885367 -0.017173246 -0.023566784 -0.013449524 0.0075025577 0.0020645792 -0.022827951 0.009958816
0.007602761 -0.001429998 0.022401322 -0.003551393 -0.014790152 -0.030145345 0.0054799872 -0.009724783
0.026011823 -0.024166355 -0.036878675 -0.008304436 -0.0056582075 -0.00396516 -0.009445132 0.026375199
-0.034344185 0.026343873 -0.0056241886 -0.03193562 -0.021960624 0.0058737937 -0.023996972 -0.031779815
0.00563348 0.020021088 -0.03248998 -0.01664454 0.027123412 0.017273417 0.026295677 -0.028846657
0.022944035 -0.00034084782 0.02617688 -0.02397791 -0.0021200075 -0.0019277264 0.016310338 -0.010229696
-0.022582771 -0.018702492 0.005421036 -0.037226073 -0.022486564 -0.011430028 -0.023556953 -0.0063191256
-0.024597036 -0.0035847009 0.008369226 -0.00430096 0.023693712 -0.023398478 -0.0019531425 -0.028709047
0.00071980536 0.019471247 0.005618032 -0.016692296 -0.023892932 -0.016096102 -0.0018104798 -0.02425389
0.0011309854 0.01733644 -0.03674649 -0.03494368 0.004967109 -0.004956782 -0.026043963 0.00059940945
0.008631059 -0.037756298 0.023669228 -0.009351725 0.025581922 0.008690172 0.013709479 -0.020965192
0.02703167 0.0055465377 -0.029319048 -0.009750731 -0.03142649 -0.014820239 -0.003960917 -0.017472086
-0.007763922 -0.019232998 -0.038391776 0.009732213 0.021532431 -0.01861053 0.009096857 0.0063722692
-0.030111983 -0.02298557 -0.0060666497 -0.031958017 0.009813031 -0.004099638 0.005873142 0.011142938
0.00990867 -0.020463593 0.024650976 -0.014293308 0.007869524 0.010513798 0.0022392913 0.026916582
00000000: 8fa8 d3bc e4c3 d7bc c3ef 20bb 66c1 f83c
00000010: 1034 f43c 5417 983c 3891 8b3c 7434 f5bc
00000020: b80a 00bc cc5b e9bb 9061 1dbc 2f8b dbbb
00000030: a306 cebc 94fa 983b e0cb 3a3c 38a0 81bc
00000040: 2179 88bc e042 133a 4859 a3bb a2c9 c3bc
00000050: 185c 583c 6e1d 583c 007e 93bb d33c 533c
00000060: 7737 8c3c df15 d5bb 64ae c63c f024 05bc
00000070: 4adb 06bd d4f7 8d3c da4d 25bc 98e2 403c
00000080: 14ee 21bd ac35 9c3c e135 fe3c 9cf9 953c
00000090: 1fdf df3c e8ec 18bd f708 85bc 48b8 bfbc
000000a0: bf1c 9f3c f0d6 0fbd 0fba d03b 4017 44bb
000000b0: 0a3d 2dba 3d06 eabc 0f36 5dbc 91bd e93c
000000c0: 02c0 f2bb 62d6 023c 7bbf c1bb 41b8 f5bc
000000d0: e53d 21bd 38bc dfbc 7065 87bc fda4 f9bc
000000e0: f193 0fbd 70c7 1cbd 3bf4 b33b 1db7 b13c
000000f0: f31c e73c 962c b73c e3fa aa3a df63 3c3c
00000100: 9ad6 76bb 542c 2dbc 5d3b 08bd 721e 5dbc
00000110: 3957 8e3c 9ae9 a3bc c75f a43c 55d9 973c
00000120: c15d 6bbc ec76 833c ee14 12bc 75a4 b23c
00000130: bb5c cbbc c4f4 48bb c9fd e43c 832f a43c
00000140: 7abb 653c 1149 efbc b06a 9d3c 5aca b23c
00000150: 384c d03c 1cea 82b9 f99e a63c 2e8c 873c
00000160: 503e 223c c0ae a23c 5d2b 3e3c 3df7 00bd
00000170: cc40 11bd c0b7 95bc cec3 783c 35ca aa3c
00000180: e649 d4bc 4e2f 1d3b e1a1 2ebd 6e73 1cbd
00000190: 1ab8 8bbc 7525 d7ba d53d ef3b 3b1f 2b3c
000001a0: 55e8 113b f7bc 8f3c 6246 d73c 07ad fb3a
000001b0: ae88 b6bc 31a7 a1bb 0861 f93c 0f26 b03a
000001c0: 8019 ceba b8a7 babc 9898 15bd a742 96bc
000001d0: 7046 eb3b dd8c edbc b24d 21bd 4ae6 d0bc
000001e0: f586 693c 9ea8 8fbc e3a8 6ebc 6d4c 51bc
000001f0: 8bd5 a4ba 7eab a03b 584f 20bd 7ee7 35bc
00000200: 8818 a03c e718 06bd 8f05 743c 01df 3ebc
00000210: 0401 c7bb d586 ef3b 2ccc 10bd 4ccd 93bc
00000220: 62cb 0abd e8ae 8cbc 210f c1bc 645b 5cbc
00000230: 04d8 f53b e44d 073b af01 bbbc 4d2a 233c
00000240: 9520 f93b c56e bbba fa82 b73c 7dbe 68bb
00000250: 6552 72bc 5ff3 f6bc 7791 b33b b254 1fbc
00000260: bf16 d53c 85f8 c5bc 180e 17bd 540f 08bc
00000270: 7c68 b9bb 2cee 81bb c1bf 1abc cd10 d83c
00000280: 7dac 0cbd 1bcf d73c 1d4b b8bb edce 02bd
00000290: c4e6 b3bc f478 c03b 4c95 c4bc 8d2b 02bd
000002a0: 0e99 b83b 4403 a43c 3714 05bd 215a 88bc
000002b0: eb31 de3c fb80 8d3c 086a d73c d34f ecbc
000002c0: 21f5 bb3c d2b3 b2b9 e570 d63c 526d c4bc
000002d0: d3ef 0abb c4ab fcba 429d 853c 749a 27bc
000002e0: 81ff b8bc f835 99bc f2a2 b13b 5e7a 18bd
000002f0: be35 b8bc 0345 3bbc 83fa c0bc ab10 cfbb
00000300: b97f c9bc 4ded 6abb 141f 093c 11ef 8cbb
00000310: 5119 c23c 2aae bfbc 4b00 00bb 3c2f ebbc
00000320: 52b1 3c3a 2a82 9f3c 7817 b83b 48be 88bc
00000330: 1cbb c3bc f9db 83bc 9f4d edba 18b0 c6bc
00000340: 933d 943a 2605 8e3c 7d83 16bd 1b21 0fbd
00000350: 21c3 a23b 806c a2bb 265a d5bc b021 1d3a
00000360: 4969 0d3c 59a6 1abd f8e5 c13c fa37 19bc
00000370: 2e91 d13c 3961 0e3c b99d 603c 32bf abbc
00000380: 8571 dd3c bbbf b53b 802e f0bc 88c1 1fbc
00000390: 10b9 00bd 96d0 72bc 94ca 81bb 9f21 8fbc
000003a0: 8068 febb 858e 9dbc b240 1dbd dc73 1f3c
000003b0: c864 b03c 1c75 98bc fc0a 153c 78ce d03b
000003c0: 68ad f6bc 3c4c bcbc bfca c6bb 69e6 02bd
000003d0: d6c6 203c 4256 86bb 7c73 c03b df90 363c
000003e0: f957 223c 44a3 a7bc d8f0 c93c 7b2e 6abc
000003f0: 2def 003c 1142 2c3c 13c1 123b 2a80 dc3c

fc1.bias f4 [128]
-0.019294031 0.0037463945 0.026107335 0.016636262 0.006042904 -0.02499349 -0.014886884 0.020334825
0.009176183 0.004970985 0.010992973 0.0042051314 0.017726468 0.010024806 -0.015292922 -0.01706118
-0.019677086 -0.03215729 -0.028054291 0.021531215 0.02333863 0.0047716754 0.002125526 -0.040303174
-0.021351801 -0.027007418 0.022639973 0.020976868 -0.029939406 -0.021273673 -0.018376157 -0.02292374
0.020302914 -0.016708914 -0.005363678 -0.0131722 0.02344474 0.017387554 -0.017919688 -0.012884157
0.00084409973 -0.026867282 -0.03784784 -0.014478674 -0.025032774 0.014927264 0.0061884113 -0.03145438
-0.032761943 -0.005938572 -0.015141109 0.008083973 0.019032769 -0.027446868 0.017400986 -0.03419609
-0.0019926254 0.010995351 0.011636561 -0.008256579 -0.035438802 -0.021409651 -0.010552666 -0.013693111
0.02070098 0.01947885 0.027006334 0.005930256 -0.024658566 -0.013805437 0.017386615 -0.012698371
-0.007958233 0.015197528 0.015731812 0.00046181108 0.0071641244 -0.034966398 -0.024417233 0.020540254
-0.024728386 0.025778031 -0.027339887 -0.024266304 0.00026398338 -0.018336993 0.008801791 -0.023244936
-0.0031178198 0.008574397 -0.017537013 -0.02103747 -0.032226812 0.0101693515 0.012660395 0.018648522
0.0011170745 0.014666848 -0.019463629 -0.018094907 0.0041553606 -0.023736902 -0.0031729129 -0.021963427
-0.02506168 0.029657183 -0.0025520714 0.00049232447 0.025666026 -0.004241311 0.019185234 -0.025546793
-0.0068271714 0.026309572 -0.013624295 -0.030761598 0.010631638 0.01064482 0.016845714 0.023938647
-0.03858081 0.0036287154 -0.0273581 -0.0007452069 -0.035119984 -0.011134579 -0.023798145 0.015978305
00000000: 840e 9ebc 1286 753b 0ddf d53c c548 883c
00000010: 8e03 c63b 26bf ccbc 1ee8 73bc 3895 a63c
00000020: b357 163c a5e3 a23b df1b 343c 33cb 893b
00000030: 1937 913c 153f 243c 2a8f 7abc e3c3 8bbc
00000040: d731 a1bc 5db7 03bd 1dd2 e5bc 3b62 b03c
00000050: a830 bf3c b75b 9c3b 694c 0b3b f114 25bd
00000060: f9e9 aebc a93e ddbc 7777 b93c aed7 ab3c
00000070: 7c43 f5bc 2046 aebc 9889 96bc 91ca bbbc
00000080: 4c52 a63c 22e1 88bc cbc1 afbb 36d0 57bc
00000090: 2f0f c03c 5870 8e3c 4fcc 92bc 1218 53bc
000000a0: 9346 5d3a c618 dcbc 5606 1bbd f637 6dbc
000000b0: 8811 cdbc 7c91 743c 28c8 ca3b 4fd6 00bd
000000c0: 6331 06bd 5a98 c2bb 6a12 78bc a472 043c
000000d0: 9cea 9b3c 41d8 e0bc 838c 8e3c 3311 0cbd
000000e0: b596 02bb d825 343c 46a7 3e3c 9a46 07bc
000000f0: 4728 11bd 4b63 afbc 17e5 2cbc 1259 60bc
00000100: 1a95 a93c 1c92 9f3c 633c dd3c 9852 c23b
00000110: c300 cabc 3330 62bc 606e 8e3c d40c 50bc
00000120: 4063 02bc 0dff 783c 00e0 803c 3c1f f239
00000130: 08c1 ea3b ed38 0fbd a606 c8bc 0944 a83c
00000140: 2f93 cabc 732c d33c e6f7 dfbc 21ca c6bc
00000150: 4067 8a39 7637 96bc 6335 103c 2a6c bebc
00000160: 5654 4cbb a17b 0c3c c8a9 8fbc c656 acbc
00000170: 4300 04bd 5a9d 263c 8c6d 4f3c c9c4 983c
00000180: cd6a 923a 384d 703c 3072 9fbc c53b 94bc
00000190: b129 883b e473 c2bc a5f0 4fbb a5ec b3bc
000001a0: 274e cdbc 9ff3 f23c a740 27bb 560f 013a
000001b0: 8f41 d23c b2fa 8abb 5a2a 9d3c 8247 d1bc
000001c0: 77b6 dfbb 2c87 d73c 6f38 5fbc bfff fbbc
000001d0: 5230 2e3c 9c67 2e3c 0600 8a3c fb1a c43c
000001e0: e906 1ebd becf 6d3b 181e e0bc fd59 43ba
000001f0: f9d9 0fbd cf6d 36bc 54f4 c2bc efe4 823c

fc2.weight f4 [2, 128]
-0.01140801 0.020354956 0.07711937 0.029855777 0.045147944 -0.054509394 0.008640993 -0.07678486
0.06963993 -0.034273945 -0.07199234 -0.061806075 0.052702785 0.028726507 -0.0737622 0.0536839
0.024186876 0.05731041 -0.007928691 0.04572481 0.053114645 0.01209763 -0.012995671 -0.013237377
0.0024784638 0.08595843 0.0757127 0.077686474 -0.04950302 0.030964198 0.011423783 -0.029938806
-0.05493585 -0.006078127 -0.037758738 0.0022054848 -0.08399451 0.01676459 0.013528757 0.08106935
-0.0635255 0.025535332 0.049935706 -0.05659763 -0.030515904 0.032979183 -0.06244885 0.041218635
0.058554363 0.06482204 -0.014337215 -0.027027665 0.00782682 0.08456963 0.038709484 -0.06364463
-0.012611462 0.046547815 0.009142623 -0.07297159 0.013074365 -0.05746843 0.012174606 0.00013282023
0.06133236 0.009388849 0.07119053 0.07794734 0.012693417 0.05689057 -0.07683057 -0.03916011
0.0645521 -0.008725767 0.014321775 0.059027426 -0.03028176 0.011365064 0.0012244345 -0.023862569
0.015968692 0.015182578 0.01916498 0.05971422 0.030678907 0.060043324 0.05622907 0.00054172863
0.030348368 -0.067178845 0.043659315 0.06383779 -0.08002233 -0.0017317401 -0.086174324 0.07706814
-0.049467947 -0.036106765 0.040478654 -0.06499261 -0.066894226 -0.019145899 0.031390723 0.073154256
-0.08032084 0.05948802 0.030951098 -0.04823479 -0.093118116 0.00866831 -0.0067623556 0.06516411
-0.08093487 0.012879363 -0.013383632 0.013918214 -0.030062946 0.022354094 -0.017677443 -0.08607737
0.060842182 -0.037896186 -0.041880094 0.026950745 -0.040198218 0.07557471 0.057704143 -0.07960552
0.007648155 0.08200144 -0.036034767 0.020253304 -0.05624451 0.01613978 -0.011027021 -0.0837541
0.00818334 0.06749961 0.041596264 0.061788112 0.054293983 0.048600893 0.0047914973 -0.030700795
-0.033284333 0.047857888 -0.02428423 -0.036120974 -0.078486726 0.017965905 -0.037940938 -0.07819001
0.030145932 0.06615027 0.019217517 0.086378604 0.077044 -0.020162828 -0.02554066 -0.008429299
0.050311554 -0.06915528 -0.07065465 -0.07963455 -0.042989958 -0.011768932 0.054331865 0.004150335
-0.035415553 0.032614123 -0.006281139 -0.0039972877 0.06052807 -0.061387934 0.038360227 0.07447979
-0.011231544 0.05300262 0.08103642 -0.06605091 0.0472265 -0.030959588 -0.056581486 -0.076526724
0.0037975984 -0.037996538 -0.012728304 -0.055092707 0.06283862 0.078545175 0.022685565 -0.042741243
0.0113738235 -0.07617618 0.08611431 -0.011360513 -0.0042102085 -0.03688967 0.07038972 0.017677959
0.072810076 -0.001836298 0.004960996 -0.073384576 -0.03710431 -0.014333806 0.0627125 0.04391676
-0.048123524 0.021381736 0.02765899 0.03193408 -0.061924137 -0.012374387 -0.023035355 -0.06445266
-0.009936798 0.05137674 0.03763236 0.023595229 0.020764489 0.045718282 -0.065753154 -0.064453885
-0.006076692 0.0039704037 0.007535152 0.065367155 0.014963217 -0.05223456 -0.06620978 0.079206616
-0.08580172 0.04477765 0.010877901 0.0014086906 -0.025055122 -0.042680044 0.06816315 -0.08547225
0.022519622 0.029302107 -0.05251535 -0.013921715 -0.024820236 -0.048960075 -0.024133602 0.07548734
0.07328541 0.033284027 -0.036946367 -0.011355691 -0.033611316 0.033008557 0.011111155 0.010125317
00000000: a9e8 3abc 70bf a63c c3f0 9d3d 1a94 f43c
00000010: 0ded 383d 3e45 5fbd f492 0d3c 6141 9dbd
00000020: 619f 8e3d d662 0cbd b870 93bd 5e28 7dbd
00000030: e0de 573d da53 eb3c a310 97bd a6e3 5b3d
00000040: 8e23 c63c 52be 6a3d 57e7 01bc f049 3b3d
00000050: be8e 593d 2335 463c cbeb 54bc 95e1 58bc
00000060: b96d 223b f90a b03d 430f 9b3d 161a 9f3d
00000070: aec3 4abd a1a8 fd3c d22a 3b3c 3a42 f5bc
00000080: 6a04 61bd 062b c7bb e8a8 1abd e589 103b
00000090: 5005 acbd e555 893c b8a7 5d3c b007 a63d
000000a0: a819 82bd 792f d13c 6289 4c3d ebd2 67bd
000000b0: 7dfc f9bc 2e15 073d 5eca 7fbd dfd4 283d
000000c0: b3d6 6f3d 6bc1 843d a3e6 6abc 1f69 ddbc
000000d0: 103c 003c d832 ad3d d68d 1e3d 1e58 82bd
000000e0: 4ea0 4ebc eca8 3e3d f1ca 153c 2172 95bd
000000f0: dd35 563c 0464 6bbd 0078 473c a945 0b39
00000100: a437 7b3d b0d3 193c 57cc 913d dba2 9f3d
00000110: 0df8 4f3c 1606 693d 5959 9dbd 5a66 20bd
00000120: e433 843d 85f6 0ebc e1a5 6a3c bec6 713d
00000130: 7411 f8bc 8934 3a3c 347d a03a 6f7b c3bc
00000140: c6d0 823c 59c0 783c e0ff 9c3c e696 743d
00000150: 5552 fb3c fdef 753d 7450 663d cb02 0e3a
00000160: 249d f83c 1095 89bd 1cd4 323d 63bd 823d
00000170: bfe2 a3bd 8efb e2ba 2a7c b0bd e7d5 9d3d
00000180: e79e 4abd b0e4 13bd f2cc 253d d81a 85bd
00000190: d7ff 88bd dcd7 9cbc 8f93 003d e6d1 953d
000001a0: 417f a4bd b6a9 733d 288d fd3c d891 45bd
000001b0: b6b4 bebd 8705 0e3c c096 ddbb c374 853d
000001c0: 2ec1 a5bd f703 533c 0547 5bbc 3809 643c
000001d0: 9146 f6bc ef1f b73c 49d0 90bc 5549 b0bd
000001e0: a735 793d 0839 1bbd 768a 2bbd cfc7 dc3c
000001f0: e3a6 24bd eac6 9a3d 2e5b 6c3d 3808 a3bd
00000200: 609d fa3b 5ff0 a73d 3199 13bd 42ea a53c
00000210: a560 66bd 9237 843c aeaa 34bc 4587 abbd
00000220: 6a13 063c 3c3d 8a3d d860 2a3d 8815 7d3d
00000230: 5e63 5e3d bb11 473d fe01 9d3b 3c80 fbbc
00000240: 2755 08bd a206 443d b9ef c6bc 96f3 13bd
00000250: a6bd a0bd 3c2d 933c f567 1bbd 1522 a0bd
00000260: 9af4 f63c cb79 873d 0e6e 9d3c 44e7 b03d
00000270: 3fc9 9d3d 842c a5bc a53a d1bc 0b1b 0abc
00000280: 7d13 4e3d 49a1 8dbd 63b3 90bd 7017 a3bd
00000290: 3d16 30bd 7bd2 40bc 178b 5e3d 89ff 873b
000002a0: e60f 11bd 6396 053d 03d2 cdbb aefb 82bb
000002b0: 48ec 773d ea71 7bbd 9d1f 1d3d dc88 983d
000002c0: 8304 38bc 4619 593d 6cf6 a53d b345 87bd
000002d0: 9370 413d f69e fdbc fdc1 67bd 0bba 9cbd
000002e0: 21e1 783b 42a2 1bbd 608a 50bc e4a8 61bd
000002f0: 89b1 803d 4bdc a03d 14d7 b93c 7111 2fbd
00000300: 4659 3a3c 4202 9cbd b35c b03d 7221 3abc
00000310: caf5 89bb 9f19 17bd 7c28 903d 5ed1 903c
00000320: 731d 953d f0af f0ba da8f a23b a74a 96bd
00000330: b0fa 17bd 57d8 6abc 696f 803d 0fe2 333d
00000340: 2c1d 45bd c028 af3c 1b95 e23c 4fcd 023d
00000350: 2aa4 7dbd f1bd 4abc a4b4 bcbc c2ff 83bd
00000360: f4cd 22bc 6b70 523d 6424 1a3d c84a c13c
00000370: 4a1a aa3c 1843 3b3d 97a9 86bd 6600 84bd
00000380: fd1e c7bb 291a 823b 70e9 f63b 37df 853d
00000390: 4828 753c e8f3 55bd fe98 87bd 1437 a23d
000003a0: d0b8 afbd c568 373d 3939 323c d0a3 b83a
000003b0: 6640 cdbc 45d1 2ebd 1f99 8b3d 130c afbd
000003c0: 127b b83c f90a f03c 561a 57bd e817 64bc
000003d0: cf53 cbbc 5c8a 48bd d5b3 c5bc 1b99 9a3d
000003e0: a916 963d d554 083d 1355 17bd 380d 3abc
000003f0: 05ac 09bd fb33 073d 900b 363c a8e4 253c

fc2.bias f4 [2]
-0.026454248 -0.008431838
00000000: 94b6 d8bc b125 0abc
