models/2024-05-10_12-28-20_Model.onnx (onnx, 614400 bytes, 10 tensors)

conv1.weight f4 [8, 1, 2, 2, 2]
0	0xbdfa8228	-0.122318566
1	0x3eabc370	0.33547544
2	0x3dd8e0d6	0.10589759
3	0x3e95204b	0.291262
4	0x3ea6be2d	0.32566968
5	0x3d2bed68	0.041974455
6	0x3a7a3fdd	0.00095462595
7	0xbd9db923	-0.07701328
8	0xbd9b9cf1	-0.075982936
9	0x3e830574	0.25590098
10	0x3d9e0b89	0.07717044
11	0xbd7dd48d	-0.061970282
12	0x3dbd2dca	0.09237249
13	0x3d67a13e	0.056550257
14	0xbde4ae3c	-0.11166045
15	0x3e71e7aa	0.23623529
16	0xbe206b51	-0.15665938
17	0x3e765a47	0.24057876
18	0xbe8a79f7	-0.27046177
19	0x3e310748	0.17287934
20	0xbe0e535f	-0.13898991
21	0xbe1f5791	-0.15560748
22	0xbe6df97b	-0.232397
23	0x3deea718	0.11652964
24	0x3d01cbd5	0.03168853
25	0x3e46d87c	0.1941852
26	0x3e82aedd	0.25524035
27	0xbe1d31a4	-0.15350968
28	0xbda2ebed	-0.079551555
29	0xbea573ac	-0.32314813
30	0xbea408d1	-0.32037976
31	0xbe5bfab3	-0.21482353
32	0xbda2b374	-0.07944384
33	0xbeaa72d9	-0.33290747
34	0x3d8ff03f	0.07028245
35	0xbb214cb2	-0.0024612364
36	0xbe9e4482	-0.30911642
37	0x3d773736	0.060355388
38	0x3bb5becd	0.005546427
39	0x3ea49131	0.32142022
40	0x3dfa86f5	0.12232772
41	0xbe8c877e	-0.27447122
42	0x3e822f21	0.25426582
43	0x3e810864	0.25201714
44	0xbeb08b74	-0.34481394
45	0xbe9f0ec9	-0.31065968
46	0x3de71876	0.112839624
47	0xbe46f506	-0.19429407
48	0x3e99f49b	0.30069432
49	0x3cfd8c18	0.030950591
50	0x3e981aaa	0.29707843
51	0xbe06b9ae	-0.13156769
52	0x3e7af407	0.24507152
53	0xbe61821e	-0.22022292
54	0xbcad6a79	-0.021168934
55	0x3dbb2352	0.09137596
56	0xbe9aeb44	-0.30257618
57	0xbd19d49b	-0.037556272
58	0x3d10e9b5	0.03537913
59	0x3d8eff92	0.0698234
60	0x3eafceb6	0.34337395
61	0xbe7695a2	-0.24080518
62	0x3db17bd8	0.086661994
63	0x3e4202a4	0.1894632

conv1.bias f4 [8]
0	0x3e55a60c	0.20864123
1	0x3d8d0c3e	0.06887101
2	0x3eac3845	0.3363668
3	0xbe965111	-0.29358724
4	0x3e8a37f0	0.26995802
5	0xbdfc7005	-0.123260535
6	0xbe74a4d8	-0.23891008
7	0xbe2b902e	-0.16754219

conv2.weight f4 [16, 8, 2, 2, 2]
0	0x3d11f027	0.035629418
1	0xbe04ebd8	-0.12980592
2	0x3d10262f	0.035192665
3	0x3d6b4be4	0.05744542
4	0x3db0ef96	0.086394474
5	0xbda69e78	-0.08135694
6	0xbdfd476b	-0.123671375
7	0xbbf65e5f	-0.007518574
8	0xbd90d59f	-0.07071995
9	0x3d9e85fd	0.077404
10	0xbe0b3720	-0.13595247
11	0xbd61c401	-0.055118565
12	0xbc4d396d	-0.012525898
13	0x3cb570e9	0.022148566
14	0x3cd6ab93	0.02620486
15	0xbd838d5e	-0.06423448
16	0x3d443724	0.04790415
17	0xbd7532b0	-0.059862792
18	0x3b9de345	0.0048183524
19	0x3d02d7d7	0.031944122
20	0xbd9a9fe8	-0.07550031
21	0x3d62baf5	0.055354077
22	0xbd2d34a6	-0.042286538
23	0xbddf84d8	-0.1091401
24	0x3de8131f	0.11331772
25	0x3d7e3756	0.06206449
26	0x3d741d2d	0.059598137
27	0x3d7084c5	0.05872037
28	0x3d179c23	0.037014138
29	0xbdcafdce	-0.09911691
30	0xbcbfb1e2	-0.02340025
31	0x3ccc9569	0.024973588
32	0xbcfbcc8f	-0.03073719
33	0xbc3c1935	-0.011480619
34	0x3d772e83	0.06034709
35	0x3be35cc4	0.0069385488
36	0xbc6dcd49	-0.014514276
37	0x3dd0e85b	0.10200568
38	0xbd42f5e9	-0.0475978
39	0x3d8218e4	0.06352404
40	0xbbb9b13e	-0.005666881
41	0x3dc35161	0.09537006
42	0x3db32835	0.08747903
43	0x3d46f595	0.04857405
44	0xbd6afd86	-0.057370685
45	0x3d22163f	0.039571997
46	0x3c8fdbb0	0.01756081
47	0xbdd9d739	-0.106367536
48	0x3db531b7	0.08847373
49	0x3bf6d977	0.007533248
50	0x3dc0a874	0.0940713
51	0xbe06e8a3	-0.13174681
52	0xbd9833e6	-0.07431774
53	0xbd95735c	-0.07297394
54	0x3dbdbe21	0.0926478
55	0xbdb51e14	-0.088436276
56	0x3d509d28	0.050931126
57	0xbd5973f1	-0.053089086
58	0xbccc3869	-0.024929242
59	0x3cae822f	0.02130231
60	0x3d5e5195	0.05427702
61	0xbd1e592f	-0.03865927
62	0xbc1bb076	-0.009502521
63	0x3d5507b4	0.0520093
64	0xbdaede61	-0.08538509
65	0xbd164091	-0.03668267
66	0x3dd2d24a	0.10294016
67	0xbd97ff57	-0.07421749
68	0x3da0d951	0.0785395
69	0xbe09a266	-0.13440856
70	0x3d11e8d6	0.03562244
71	0xbe0e4841	-0.1389475
72	0xbc9c296a	-0.019062717
73	0xbdbf766e	-0.093487605
74	0x3cf25bc5	0.029584775
75	0xbdf04eea	-0.11733802
76	0x3b6c8ad7	0.0036093497
77	0x3dab10f6	0.083528444
78	0x3d69ca9e	0.057077996
79	0xbd04f215	-0.03245743
80	0xbce2170f	-0.027598886
81	0xbd041069	-0.032242212
82	0x3ad68242	0.0016365724
83	0xbd5684f0	-0.052372873
84	0xbdda4f53	-0.10659661
85	0x3daa8b27	0.083273225
86	0x3de2528d	0.110509016
87	0x3cf30054	0.029663242
88	0xbc70f96f	-0.014707907
89	0xbdf2dd9a	-0.118586734
90	0xbdb26964	-0.08711508
91	0x3d22a996	0.03971251
92	0x3ddd9e68	0.10821229
93	0x3d4695b7	0.048482623
94	0xbe05a1ae	-0.13049957
95	0x3cb553fb	0.022134772
96	0xbd836811	-0.064163335
97	0x3d9f8ffb	0.07791134
98	0xbd359633	-0.044332694
99	0xbdd62664	-0.10456541
100	0xbd7b2745	-0.061316747
101	0x3cad9913	0.021191156
102	0xbcc87725	-0.024470875
103	0xbdaacb2e	-0.08339535
104	0xbd83178f	-0.06400978
105	0xbd246830	-0.040138423
106	0xbd1e7577	-0.038686242
107	0x3d9a981c	0.07548544
108	0x3d7be291	0.061495367
109	0xbc0274b9	-0.007962399
110	0x3da53ff5	0.080688395
111	0x3dcaa684	0.098950416
112	0x3d765936	0.060143672
113	0xbccd1cc2	-0.025038127
114	0xbb276185	-0.0025540304
115	0x3da0930d	0.07840548
116	0xbd6150e8	-0.0550088
117	0x3dca2246	0.098698184
118	0xbd0db48f	-0.034596022
119	0x3cf4b89f	0.02987319
120	0xbc6c97b7	-0.0144404685
121	0xbdecedaf	-0.11568772
122	0xbde118a1	-0.10991026
123	0x3d141fa2	0.03616298
124	0x3dc1cf83	0.09463408
125	0xbd35f667	-0.04442444
126	0x3d81e8c3	0.06343224
127	0xbda3c6f8	-0.07996935
128	0xbd94e1fb	-0.07269665
129	0xbdee4204	-0.11633685
130	0x3cba752a	0.022760946
131	0xbd2b8918	-0.04187879
132	0x3dd25eb7	0.10271972
133	0xbd5ca57c	-0.053868756
134	0xbd504c8c	-0.05085425
135	0x3cf620f6	0.030045014
136	0x3da4366a	0.08018191
137	0x3c234ca6	0.009967005
138	0xbd1c5324	-0.038165227
139	0xbd9177c5	-0.07102922
140	0xbdd1b2c0	-0.10239172
141	0xbc7c4d8e	-0.01539935
142	0x3da15108	0.078767836
143	0xbd027697	-0.031851377
144	0x3d924782	0.07142545
145	0x3de49b14	0.11162391
146	0x3cae964f	0.021311907
147	0x3de39599	0.11112518
148	0x3da5ea93	0.08101382
149	0x3da9e3ed	0.082954265
150	0x3dd2d991	0.10295404
151	0x3dc66fbf	0.096892826
152	0x3c721674	0.014775861
153	0x3d8730bd	0.06601093
154	0xbd99d4c3	-0.07511284
155	0x3db64d64	0.0890148
156	0x3c259125	0.010105406
157	0x3cc33563	0.023829168
158	0x3c151185	0.009098415
159	0xbd7afc1e	-0.061275594
160	0xbce370ee	-0.02776381
161	0xbd7e1996	-0.06203612
162	0xbc5454fc	-0.012959715
163	0xbc9f16ce	-0.019420054
164	0x3daae392	0.08344187
165	0xbcbb2421	-0.022844376
166	0xbbf80638	-0.0075691007
167	0xbdd1b810	-0.10240185
168	0xbae20ce4	-0.0017246273
169	0xbd42fbb9	-0.047603343
170	0xbdeb50b9	-0.11490006
171	0x3d4077cb	0.046989243
172	0xbd68cc80	-0.05683565
173	0xbdc70aae	-0.09718834
174	0x3c81f5a7	0.015864206
175	0x3d7c9e01	0.06167412
176	0x3dd5b55e	0.10434984
177	0x3d1b1325	0.037860055
178	0x3d902f95	0.070403256
179	0xbdb88413	-0.09009566
180	0xbde110da	-0.10989542
181	0xbd44e0c7	-0.048065927
182	0x3d2b4ecc	0.041823193
183	0x3c985d87	0.018599285
184	0x3ce1ea0b	0.02757742
185	0x3d62982d	0.055320907
186	0x3d86a707	0.06574827
187	0xbddf9d4e	-0.10918675
188	0xbd869430	-0.06571233
189	0x3d449bcb	0.04800014
190	0xbc946f86	-0.018119585
191	0x3d32b87b	0.043632966
192	0x3ce6b2e0	0.028161466
193	0xbd8e4562	-0.069468275
194	0x3d5608ac	0.052254364
195	0xbc5003ce	-0.01269622
196	0x3d0f7367	0.035022166
197	0xbdd1c8b5	-0.1024336
198	0x3cf7331d	0.03017574
199	0xbd981ddc	-0.0742757
200	0xbd1358b5	-0.03597327
201	0xbdf8b8d2	-0.12144627
202	0xbde1aa12	-0.110187665
203	0xbbf1433d	-0.0073627518
204	0x3d27a279	0.04092643
205	0xbdaaa9fd	-0.08333204
206	0x3d0e08c2	0.03467632
207	0xbde1cd6b	-0.110255085
208	0x3dde8e3b	0.10866972
209	0xbd90ce67	-0.07070618
210	0xbc638766	-0.013887262
211	0x3df0e4c8	0.117623866
212	0xbdceccaa	-0.1009763
213	0xbd83760b	-0.06418999
214	0xbdc79b59	-0.09746427
215	0xbc6bd2b2	-0.014393495
216	0x3dc35c19	0.095390506
217	0x3d988113	0.07446494
218	0xbbed9573	-0.0072504818
219	0xbde7ad69	-0.11312372
220	0xbd620f45	-0.055190343
221	0xbab874e6	-0.0014072924
222	0xbda3efcb	-0.08004721
223	0x3da57e9e	0.08080791
224	0xbb88a61f	-0.004170194
225	0x3d81283d	0.06306503
226	0xbdc4a158	-0.096010864
227	0xbdf6ccad	-0.120507576
228	0xbb75ec3e	-0.0037524845
229	0xbdd93391	-0.10605539
230	0xbd9feba4	-0.07808617
231	0xbd70cff5	-0.058792073
232	0x3d0fc536	0.035100184
233	0x3c0c7c52	0.008574562
234	0xbe02399f	-0.12717293
235	0xbd8478e4	-0.064683706
236	0x3d86fce1	0.065912016
237	0xbdee93f7	-0.11649316
238	0xbc978e82	-0.01850057
239	0x3d00aa56	0.031412445
240	0x3dad089c	0.08448908
241	0x3cf45f1b	0.029830506
242	0xbe011f5a	-0.12609616
243	0xbdc92ccd	-0.09822998
244	0x3dbc9736	0.09208529
245	0xbd8f7089	-0.07003886
246	0x3d0ebc7f	0.034847733
247	0x3d0efecb	0.03491096
248	0x3dbc7fda	0.09204073
249	0xbc0d4811	-0.008623139
250	0xbd10892f	-0.03528708
251	0xbd971fab	-0.07379087
252	0x3c3cc86d	0.011522395
253	0x3d99b634	0.075054556
254	0x3d99ae27	0.0750392
255	0x3c9202c2	0.01782358

conv2.bias f4 [16]
0	0xbd942efd	-0.07235525
1	0x3dd675a8	0.1047166
2	0xbce13de4	-0.027495332
3	0xbdf2d6e2	-0.11857392
4	0xbe0b66a7	-0.13613378
5	0xbd9d74ed	-0.076883174
6	0xbcc1d02a	-0.02365883
7	0xbdf50456	-0.11963718
8	0xbdd472ca	-0.10373457
9	0x3de26820	0.110550165
10	0x3d1dc695	0.03851946
11	0xbdfd23b1	-0.12360323
12	0xbda36535	-0.07978288
13	0xbd800bc3	-0.06252243
14	0x3de7e60b	0.11323174
15	0x3dae6630	0.085155845

conv3.weight f4 [32, 16, 2, 2, 2]
0	0xbd52e50f	-0.05148798
1	0x3d34f3ae	0.044177704
2	0xbd7dc5f9	-0.06195638
3	0x3c8b5fa9	0.017013388
4	0xbd8a06b2	-0.06739558
5	0xbc1b5ad7	-0.009482107
6	0x3cfe80e3	0.031067317
7	0xbd85944b	-0.06522425
8	0xbd9398e8	-0.07206899
9	0xbcf97465	-0.030451009
10	0x3c0601f6	0.008179178
11	0xbd960d28	-0.07326728
12	0x3b772d64	0.0037716264
13	0x3c90fe3a	0.01769935
14	0xbd199a18	-0.03750047
15	0xbd78d181	-0.060746673
16	0xbcca35e9	-0.02468391
17	0xbd80a75a	-0.0628192
18	0xbc4a59d2	-0.012350516
19	0x3d8fa31b	0.07013532
20	0xbd8b0a44	-0.067890674
21	0xbd0f0651	-0.034918133
22	0x3ce034d8	0.027368948
23	0xbd276484	-0.040867344
24	0x3cefcbac	0.029271923
25	0xbd13a953	-0.036050152
26	0x3d7dc5dd	0.061956275
27	0x3d579d4b	0.05264024
28	0xbcc48ce0	-0.023992956
29	0x3ce2d0ec	0.027687512
30	0x3cddb251	0.027062567
31	0x3dbc9eda	0.09209986
32	0xbd9749f6	-0.07387154
33	0x3daddb2d	0.0848907
34	0xbd50c420	-0.05096829
35	0x3d17de5e	0.0370773
36	0x3d1c3f1a	0.038146116
37	0x3d641e08	0.055692703
38	0xbda63925	-0.08116368
39	0xbd92d074	-0.071686655
40	0xbd5b5fb3	-0.053558063
41	0x3cc54410	0.024080306
42	0xbd05c645	-0.032659788
43	0x3ca809b6	0.020512443
44	0xbd8ec3bc	-0.06970927
45	0xbd93cf78	-0.07217306
46	0xbd267639	-0.04064009
47	0xbd55fd06	-0.052243255
48	0x3d492f2c	0.049117252
49	0x3d92a859	0.07161016
50	0x3d8d6dd4	0.06905714
51	0xbd24e941	-0.04026151
52	0xbc1d424c	-0.009598326
53	0x3ce8f839	0.028438674
54	0xbd8b0fdf	-0.067901365
55	0x3d56b4f7	0.052418675
56	0x3d8722a0	0.06598401
57	0x3c2434aa	0.010022322
58	0xbda1e57c	-0.07905099
59	0xbaa96f73	-0.0012926891
60	0xbda47ae2	-0.080312505
61	0xbc996681	-0.018725635
62	0x3ca77882	0.020443205
63	0x3cdce622	0.026965205
64	0x3d3d508a	0.046219386
65	0xbc8634ee	-0.01638266
66	0xbd83c575	-0.06434146
67	0x3d043ac4	0.032282606
68	0x3d7ccdf8	0.061719865
69	0xbcbbd9a9	-0.022930937
70	0x3c47d096	0.012195727
71	0xbd31776a	-0.043326773
72	0xbc8c0a77	-0.017094834
73	0xbd8c01fa	-0.068363145
74	0x3c36247f	0.0111171
75	0x3d1f700c	0.038925216
76	0xbc8bf31b	-0.017083695
77	0x3b9eda94	0.004847834
78	0xbd1ac60e	-0.037786536
79	0x3cab77e8	0.0209312
80	0x3d6f51c5	0.05842759
81	0xbd29ea66	-0.041483305
82	0xbbbf77ac	-0.0058431234
83	0x3ce66012	0.028121982
84	0xbd34a6a9	-0.044104252
85	0xbda53bb2	-0.080680266
86	0xbce1d4df	-0.027567325
87	0xbccb0a4f	-0.024785189
88	0xbdb45cf5	-0.08806793
89	0x3cb0818c	0.021546148
90	0x3d221fe4	0.039581195
91	0x3d74dee0	0.059782863
92	0x3d909db2	0.07061328
93	0xbdc86576	-0.09784977
94	0xbdafbcb5	-0.08580915
95	0xbcedc175	-0.029022912
96	0xbd9e8127	-0.077394776
97	0xbd0b00d3	-0.033936333
98	0x3cc69e69	0.024245458
99	0xbc93e495	-0.018053332
100	0x3d5fda2c	0.054651424
101	0x3d070cd8	0.032971233
102	0xbd26b808	-0.04070285
103	0xbd3547bb	-0.04425786
104	0xbd5a5ade	-0.053309314
105	0x3d50ca45	0.05097415
106	0xbc69c8fe	-0.014269112
107	0xbd1ecc8a	-0.038769282
108	0x3d50c95a	0.050973274
109	0x3ca48dc3	0.020087129
110	0xbd39721a	-0.04527483
111	0x3d904643	0.07044651
112	0xbd77237a	-0.060336567
113	0x3da2fdd3	0.079585694
114	0xbcea1804	-0.028575905
115	0x3b80bd92	0.0039288485
116	0xbd90b22f	-0.07065236
117	0xbcfc7b29	-0.030820446
118	0xbc84e4e0	-0.016222417
119	0x3c6e3ac7	0.014540381
120	0x3d1c83fa	0.0382118
121	0xbd8612c1	-0.06546546
122	0xbca5a956	-0.020222347
123	0xbc3def75	-0.011592736
124	0x3c9165a9	0.01774867
125	0xbdb42150	-0.08795416
126	0x3d445970	0.047936857
127	0x3d28d59f	0.04121935
128	0x3c7de2af	0.01549594
129	0xbd22eb33	-0.039775085
130	0x3d986afa	0.07442279
131	0xbd2e2860	-0.042518973
132	0xbd95f099	-0.07321281
133	0xbd5e7937	-0.05431482
134	0xbd5c0967	-0.053719904
135	0x3d30b41b	0.043140512
136	0x3d81f7e0	0.063461065
137	0x3d8a8b7f	0.06764888
138	0x3b8482f7	0.0040439325
139	0xbc7bf788	-0.01537884
140	0xbd9ac121	-0.07556368
141	0x3d51855f	0.051152583
142	0xbdc704b1	-0.09717692
143	0xbd0cc2bb	-0.034365397
144	0x3d156c8e	0.03648048
145	0xbc9b8674	-0.01898501
146	0xbd9b3972	-0.07579316
147	0xbd7e754e	-0.06212359
148	0xbda52cdb	-0.08065196
149	0x3d266d20	0.040631413
150	0xbc5a4334	-0.013321687
151	0xbd643698	-0.055716127
152	0xbcf06e86	-0.029349577
153	0xbd846724	-0.06464985
154	0x3d7b9e24	0.06143011
155	0xbda61b9b	-0.08110734
156	0xbd0ae980	-0.03391409
157	0x3d79f38e	0.061023287
158	0x3af6b0c0	0.0018820986
159	0xbb635c99	-0.0034692644
160	0xbda5f145	-0.08102659
161	0xba70b8ca	-0.0009182809
162	0x3d1b5c9b	0.037930112
163	0xbd6ea6f1	-0.058264676
164	0xbdbeee42	-0.09322788
165	0xbd9c3faf	-0.07629334
166	0x3da0bc53	0.0784842
167	0x3c9bab26	0.019002508
168	0x3d1fab2e	0.03898161
169	0xbb90c90a	-0.004418497
170	0x3d5b02e7	0.053469565
171	0x3d568560	0.05237329
172	0xbc1725a2	-0.009225281
173	0x3d7347b5	0.059394557
174	0xbcb60898	-0.022220895
175	0x3d8310af	0.063996665
176	0xbd0b938b	-0.034076255
177	0x3d5bbbe0	0.05364597
178	0xbdcb0e12	-0.09914793
179	0x3cd39f37	0.025832755
180	0x3d85ced9	0.06533594
181	0xbd5dd3ff	-0.054157253
182	0xbbc08c7f	-0.0058761234
183	0x3d4188c4	0.04724957
184	0xbd801e7a	-0.06255813
185	0xbc135905	-0.008993392
186	0x3d5a292e	0.05326193
187	0x3d42ab31	0.047526542
188	0xbc1f8b0e	-0.009737743
189	0xbdc64707	-0.09681516
190	0xbd7df787	-0.06200364
191	0x3b445994	0.002996062
192	0x3d710761	0.058844928
193	0xbb87c5a3	-0.004143433
194	0xbdc4ded0	-0.096128106
195	0xbd08daf8	-0.03341195
196	0xbc1fc0bf	-0.009750544
197	0x3d91c17c	0.07116982
198	0x3d746928	0.059670597
199	0xbd232814	-0.039833143
200	0x3d81f4a7	0.06345492
201	0xbd59f641	-0.05321336
202	0x3ae626b1	0.0017559138
203	0xbda220af	-0.0791639
204	0x3d6893a2	0.05678142
205	0x3cd4d6d2	0.02598134
206	0xbd399d13	-0.045315813
207	0x3b976c56	0.004621069
208	0xbd68190d	-0.056664515
209	0x3d158c53	0.036510777
210	0xbd574eff	-0.05256557
211	0x3d638317	0.05554494
212	0x3c07c31b	0.008286263
213	0x398959d0	0.00026197592
214	0x3d00e94f	0.0314725
215	0xbd2757e9	-0.040855322
216	0xbca8887f	-0.020572899
217	0x3b5c74fb	0.0033639062
218	0xbd3acbee	-0.04560464
219	0x3d4fad1c	0.0507022
220	0x3d9ba993	0.07600703
221	0xbc9bedb0	-0.019034237
222	0x3d6108de	0.054940097
223	0xbb8ff13d	-0.0043927715
224	0x3cedfea7	0.029052092
225	0xbda28568	-0.079356015
226	0xbd3e3255	-0.04643472
227	0xbd6fab1a	-0.058512785
228	0x3cb89543	0.022532111
229	0xbdc23d5b	-0.09484359
230	0xbc83b4d1	-0.01607743
231	0x3d3e5943	0.046471845
232	0x3ce77080	0.028251886
233	0x3cc32ea9	0.02382596
234	0x3d2c4d0e	0.042065673
235	0xbd229fd3	-0.0397032
236	0x3d20f35a	0.039294578
237	0xbca8d2bf	-0.020608304
238	0x3d859da0	0.06524205
239	0x3d80acde	0.06282972
240	0xbd099de5	-0.033597846
241	0xbdaf9591	-0.085734494
242	0xbce002be	-0.027345058
243	0xbb89478c	-0.0041894373
244	0xbda24d6b	-0.079249226
245	0x3d88e978	0.06685156
246	0xbc8af894	-0.016964234
247	0x3d9b74a3	0.07590606
248	0x3ca03054	0.019554295
249	0x3d28fc37	0.041256156
250	0x3d4a4a61	0.04938734
251	0x3d3c8a41	0.046030287
252	0x3d2b8766	0.041877173
253	0x3d48f1ed	0.049058843
254	0x3d6e25ef	0.058141645
255	0x3d271a7a	0.040796734

conv3.bias f4 [32]
0	0xbdb852ec	-0.09000191
1	0x3caf223e	0.021378633
2	0x3c515aa8	0.012777962
3	0xbd406377	-0.046969857
4	0x3d151e4f	0.036405858
5	0x3c2ad996	0.010427853
6	0xbd298d4b	-0.041394513
7	0x3d91b75c	0.07115051
8	0x3c428b68	0.011874057
9	0xbd8ba1e3	-0.06817987
10	0x3d0379a2	0.03209842
11	0x3c847b8d	0.016172195
12	0x3cff4f2a	0.031165678
13	0x3aba9279	0.0014234326
14	0x3c085693	0.008321422
15	0xbc961009	-0.018318193
16	0xbbdf974e	-0.006823457
17	0xbcb7665b	-0.022387674
18	0x3d88c2a6	0.06677751
19	0x3c54e45a	0.012993896
20	0xbca92ca5	-0.020651171
21	0x3cafa650	0.021441609
22	0x3cef8e3d	0.02924263
23	0x3c4b72fb	0.01241755
24	0xbd3c38b0	-0.0459525
25	0x3c8c8f2c	0.017158113
26	0x3bfed975	0.0077773877
27	0xbd22100f	-0.039566096
28	0xba4742ed	-0.000760122
29	0xbd8c0b9f	-0.06838154
30	0x3d5c111d	0.053727258
31	0xbd83293d	-0.0640435

fc1.weight f4 [128, 1152]
0	0x3c9f6e21	0.019461693
1	0x3cced548	0.025248185
2	0x3cb32a87	0.021870865
3	0x3cae69a3	0.021290606
4	0x3c84f095	0.016228
5	0x3bcf67a4	0.0063294936
6	0x3c693cde	0.014235703
7	0x3c8cd50b	0.01719143
8	0x3c9e7447	0.019342555
9	0xbc8b5098	-0.017006204
10	0x3caa6501	0.020800116
11	0x3ae10e20	0.0017170347
12	0xbca223a0	-0.019792378
13	0xbc34477e	-0.011003373
14	0xbbcc65c2	-0.0062377164
15	0x3b211029	0.0024576283
16	0x3b69d948	0.0035682488
17	0x3ba0a55c	0.004902525
18	0xbc1f530a	-0.009724388
19	0xbcd71734	-0.026256181
20	0xbc8cde45	-0.01719583
21	0xbbfeccf4	-0.007775897
22	0x3c8e021e	0.017334994
23	0x3c4bb23e	0.012432633
24	0xbab675fb	-0.0013920659
25	0x3abe10c4	0.0014500846
26	0x3c9d4010	0.019195586
27	0x3bb1f15d	0.005430384
28	0x3c115fcd	0.008872938
29	0xbc6294c2	-0.013829412
30	0x3d0b03e6	0.033939265
31	0x3d110fb2	0.03541536
32	0x3c2a03b3	0.0103768585
33	0xbb8ebd74	-0.0043560807
34	0x3c1d4819	0.009599709
35	0x3c902e29	0.017600136
36	0xbaed548d	-0.0018106863
37	0x3d2fe4a8	0.042942673
38	0x3d1f0da7	0.03883138
39	0x3c5f3531	0.013623522
40	0xbb1d32f0	-0.002398666
41	0x3d152ab2	0.03641767
42	0x3ca5a963	0.020222371
43	0xbb1afda5	-0.002364972
44	0x39c8de7a	0.0003831273
45	0x3c07f10a	0.008297214
46	0x3c9ffaf9	0.019528853
47	0x3cc740d9	0.024322914
48	0x3d06e655	0.032934505
49	0xbb73ff17	-0.0037230903
50	0x3c6f80a8	0.014618076
51	0x3c446f09	0.0119893635
52	0x3d1f60ec	0.03891079
53	0x3c98b954	0.018643059
54	0x3c403af3	0.011732805
55	0xbcfc942e	-0.030832376
56	0x3d06d4f8	0.032917947
57	0x3ba6903e	0.005083113
58	0xbbd0100a	-0.0063495683
59	0xbc2fb021	-0.010723145
60	0x3c5bd031	0.013416336
61	0xbc1142f1	-0.008866058
62	0xbc6c37af	-0.014417573
63	0x3c14ca0c	0.009081375
64	0x3b97fd66	0.0046383617
65	0x3b67534f	0.0035297459
66	0x3d22575c	0.039634094
67	0x3b75b2ea	0.0037490674
68	0x3c1841a6	0.009292996
69	0xbbaea167	-0.0053292993
70	0xba954674	-0.0011388795
71	0xbaae4b5f	-0.0013297609
72	0x3b4c612b	0.0031185846
73	0x3cf1929a	0.02948885
74	0x3cc90e47	0.02454294
75	0x3bee64a3	0.0072751804
76	0x3c9073bf	0.017633317
77	0x3ca05734	0.019572832
78	0xbaa9f5db	-0.0012966947
79	0x3d3372b3	0.043810558
80	0x3c48e4e7	0.012261606
81	0x3c6491a0	0.013950735
82	0x3cb143ac	0.021638714
83	0x3d09a563	0.03360499
84	0x3d0e7e56	0.034788452
85	0x3b32c97b	0.0027280736
86	0x3ab32047	0.0013666236
87	0x3bfd45cd	0.007729268
88	0xbc492a55	-0.012278159
89	0x3d222565	0.039586443
90	0xbc052700	-0.008126974
91	0x3bad8f85	0.00529665
92	0x3bf264b0	0.007397257
93	0x3bd2806e	0.0064240014
94	0x3c951d89	0.01820256
95	0xbc5796b1	-0.013158486
96	0x3d0605b2	0.032720275
97	0x3ca01b12	0.019544158
98	0x3c3aecda	0.011409009
99	0x3bbddf0a	0.0057944106
100	0x3c983590	0.018580228
101	0x3b938abb	0.004502622
102	0xbc0d0461	-0.008607001
103	0xbb4506fe	-0.0030063982
104	0xbb691790	-0.0035567023
105	0x3cff68b1	0.03117785
106	0x3cf4dfe1	0.02989191
107	0x3cac3a1c	0.021023802
108	0xbc7ea155	-0.015541394
109	0x3cb463f1	0.022020312
110	0x3abdc950	0.0014479551
111	0x3b904932	0.004403257
112	0x3c892f93	0.016746318
113	0xbbdcce1b	-0.006738437
114	0xbc42feb8	-0.01190155
115	0xbbc708c5	-0.0060740435
116	0xbb6d1a4c	-0.0036179004
117	0x3cd95f21	0.026534619
118	0xbada76d1	-0.001666749
119	0x3a75e200	0.0009379685
120	0x3ca02cf4	0.019552685
121	0x3c9fe4b7	0.01951824
122	0xbb174bf0	-0.0023086034
123	0x3c92b827	0.017910076
124	0x3ce8d272	0.02842066
125	0x3c7bf3eb	0.015377979
126	0x3c92dc5d	0.017927343
127	0x3c89a8e0	0.016804159
128	0x3cdafaea	0.026730973
129	0x3d06d17c	0.032914624
130	0x3d1f3c65	0.038875956
131	0x3c6efff5	0.014587392
132	0x3cb3ea8c	0.021962427
133	0x3cee57e3	0.029094642
134	0x3bd3833c	0.0064548533
135	0xbc4e5e92	-0.0125957895
136	0x3d2c1f50	0.04202205
137	0x3d0f2553	0.034947705
138	0x3d22b2a5	0.03972115
139	0x3ca1e61b	0.019763043
140	0x3bd237a4	0.0064153243
141	0x3c7f3002	0.015575411
142	0x3d521ca4	0.051296845
143	0x3c95ee54	0.01830212
144	0xbc6086e5	-0.013704036
145	0xbbc5ae77	-0.0060327607
146	0xb9452fc0	-0.00018805172
147	0x3c8209dc	0.015873842
148	0x3c13990d	0.009008658
149	0xbc586b71	-0.01320921
150	0x3c6f7750	0.014615849
151	0x3cb6187c	0.022228472
152	0xbc328557	-0.0108960485
153	0xbca035d0	-0.01955691
154	0xb9ff2980	-0.0004866831
155	0x3cef5b18	0.029218242
156	0x3cc41a87	0.02393843
157	0x3d08f811	0.0334397
158	0x3c5c9ed3	0.013465601
159	0x3d4190b5	0.047257144
160	0x3ac27bc3	0.0014837909
161	0xbc564f10	-0.013080373
162	0x3bc6a29a	0.006061864
163	0xbb2f8de4	-0.0026787454
164	0x3c32d10a	0.010914097
165	0xbb5a6ff5	-0.0033330892
166	0x3b04c974	0.0020261677
167	0x3cb3b7a9	0.021938162
168	0x3b1e2d73	0.0024135977
169	0x3bd29fb8	0.0064277314
170	0x3c9e3b43	0.019315368
171	0x3d2c3073	0.042038392
172	0x3cee9d7f	0.029127834
173	0x3cf7d2ba	0.03025185
174	0x3ccf45cc	0.025301836
175	0x3ce91421	0.028451981
176	0x3c466c29	0.012110748
177	0xbbd03c5b	-0.006354851
178	0x3cc278b7	0.023739202
179	0xbb920ecd	-0.004457331
180	0xbb2e5394	-0.002660011
181	0x3d2a7c7d	0.041622628
182	0x3c2b261c	0.010446098
183	0x3c520b52	0.012820082
184	0x3c1a80d1	0.009430126
185	0x3d003a96	0.031305872
186	0xbc31bbb4	-0.010847975
187	0x3cc529c9	0.024067776
188	0xbc681ad7	-0.014166555
189	0xbcadd43b	-0.021219363
190	0x3cd1ef36	0.02562676
191	0x3c4746b6	0.012162855
192	0xbc8c949a	-0.017160702
193	0x3c7c3e11	0.015395657
194	0x3cbab096	0.02278928
195	0x3c35802b	0.011077921
196	0xbb2012b5	-0.0024425213
197	0x3adcf479	0.0016857526
198	0x3d13c45b	0.03607593
199	0x3cc5ab02	0.024129394
200	0x3c99314a	0.01870026
201	0xbc4b32b5	-0.012402226
202	0x3d2637d2	0.04058058
203	0xba8d4250	-0.0010777209
204	0x3c9724c6	0.018450152
205	0x3c991319	0.018685864
206	0xbb20590e	-0.0024467143
207	0xb9f9f18b	-0.00047672944
208	0x3c885a3d	0.016644591
209	0x3cedf0fe	0.029045578
210	0x3be2401c	0.006904615
211	0x3cff2d46	0.031149518
212	0x3c86507c	0.0163958
213	0xbc9622d4	-0.018327154
214	0xbc80a230	-0.015702337
215	0x3c6a0fb8	0.014285974
216	0x3d2ba36a	0.04190389
217	0xbb2e3b90	-0.0026585795
218	0xbacf26c3	-0.0015804399
219	0x3c8ef63a	0.017451394
220	0x3d16bbd6	0.036800228
221	0x3c0171d4	0.007900674
222	0x3c6273a5	0.013821517
223	0xbc806c1e	-0.015676554
224	0xbb380814	-0.0028080987
225	0x3d18809a	0.03723202
226	0x3cc5b4c3	0.024134045
227	0x3d1d6087	0.038422134
228	0x3ca9bd78	0.020720229
229	0xbc0f885b	-0.008760537
230	0x3c891ae0	0.016736448
231	0x3caa30fd	0.020775313
232	0xbc982979	-0.018574463
233	0xbc4b4dfb	-0.012408729
234	0xbb352444	-0.0027640024
235	0x3c16d317	0.009205601
236	0x3c50e51c	0.012749936
237	0x3cabb95f	0.020962415
238	0xbc46de71	-0.012137995
239	0x3d2b227b	0.04178093
240	0x3d0971c7	0.033555772
241	0xbbce2416	-0.006290923
242	0xbae318ef	-0.0017326156
243	0x3cc272dd	0.023736412
244	0x3b121658	0.002229115
245	0x3c2088ae	0.009798212
246	0x3b3b5ad5	0.0028588076
247	0xba3efec5	-0.00072858884
248	0x3cac423e	0.02102768
249	0x3d11d893	0.035606932
250	0xbb716cea	-0.00368386
251	0x3d174c45	0.03693797
252	0x3c4257f9	0.011861795
253	0x3d23e017	0.04000863
254	0x3c227dfa	0.00991773
255	0x3c41ecd4	0.011836249

fc1.bias f4 [128]
0	0xbc61d63f	-0.01378399
1	0xbb514688	-0.003193291
2	0xbca4b361	-0.020105066
3	0xbcedca62	-0.029027168
4	0xbcc50164	-0.024048515
5	0x3c70f542	0.0147069115
6	0x3b6ea403	0.0036413677
7	0x3b155610	0.0022786893
8	0xbbc95538	-0.006144192
9	0xbbca9216	-0.0061819656
10	0xbc98ff83	-0.018676525
11	0xbcac05e8	-0.02099891
12	0xbce52d60	-0.027975738
13	0x3a7ebfc7	0.0009717908
14	0xbd02f742	-0.031974085
15	0xbcb0874e	-0.021548893
16	0xbcd42f15	-0.025901357
17	0x3c615f1c	0.013755586
18	0xbca940a6	-0.02066071
19	0xbccb3554	-0.024805702
20	0xbd03e765	-0.032203097
21	0xbbcc809c	-0.0062409174
22	0x3bb1abcb	0.0054220906
23	0xbc967ab4	-0.018369056
24	0xbd0964a1	-0.033543233
25	0xbbfa5898	-0.0076399557
26	0xbab3f0c0	-0.0013728365
27	0xbc361b56	-0.011114916
28	0xbc3c7544	-0.011502568
29	0x3abd4d17	0.001444253
30	0xbd002c73	-0.03129239
31	0xbcab22a6	-0.020890545
32	0xbd160450	-0.036625206
33	0xbb81e890	-0.003964491
34	0xbca5d1ad	-0.020241583
35	0x3c678bec	0.014132481
36	0xbce2ea80	-0.027699709
37	0xbcd5a43d	-0.026079291
38	0x3bb6c9b0	0.0055782422
39	0x3c6241c8	0.013809629
40	0xbbc3ccd0	-0.0059753433
41	0x3cb3209a	0.021866132
42	0x3c0de1e3	0.008659813
43	0xbbbf32a6	-0.005834895
44	0xbca6e8cd	-0.02037468
45	0xbcb4299f	-0.021992503
46	0xbcac461c	-0.021029525
47	0x3c63c295	0.013901372
48	0xbaa2ad70	-0.0012411308
49	0xbd0f5f2a	-0.035002865
50	0xbd0485d4	-0.03235419
51	0x3c4ddf0b	0.012565385
52	0xbbcd8145	-0.0062715136
53	0xbbf590ee	-0.0074940836
54	0x3c706dae	0.014674587
55	0x3b5b0aa8	0.00334231
56	0xbbe94755	-0.007119099
57	0x3c9cf8cc	0.019161604
58	0x3ca7dcfe	0.02049112
59	0xbc71bcd7	-0.014754496
60	0xbcef2095	-0.029190341
61	0x3c3cb203	0.011517051
62	0x3b4cbfa7	0.0031242163
63	0xbb87db7a	-0.0041460367
64	0x3bf1ed54	0.007383028
65	0x3cb55f9e	0.02214032
66	0xbc9b961f	-0.018992482
67	0x3bdb62b2	0.006695115
68	0xbce6aee1	-0.02815956
69	0xbcf87557	-0.03032939
70	0x3c9f4cb3	0.019445753
71	0x3c1f8a07	0.009737498
72	0xbcbd8e1e	-0.023139056
73	0x3cafe29a	0.021470357
74	0xbcd77d99	-0.026305007
75	0x3be4bac8	0.006980274
76	0x3aa5fbd8	0.0012663556
77	0x3c1bf0a4	0.009517822
78	0x3c456eb9	0.012050324
79	0x3c3105c1	0.0108045945
80	0x391df227	0.00015062896
81	0xbcb82383	-0.02247787
82	0x3c686758	0.014184795
83	0xbb7396f3	-0.003716883
84	0xbbaba133	-0.0052377223
85	0x3b84ca9b	0.0040524728
86	0xbbcf29eb	-0.0063221357
87	0x3c98501c	0.018592887
88	0x3ca4e072	0.020126555
89	0xbc652a5e	-0.013987152
90	0xbce91fe7	-0.028457595
91	0x3bcbf155	0.0062238374
92	0xbbec7ba3	-0.007216887
93	0x3b86c0a8	0.004112322
94	0xbcc805b6	-0.024416786
95	0x3b402388	0.0029318053
96	0xbc924cbf	-0.017858861
97	0x3c9f668e	0.019458082
98	0xbcee66ae	-0.029101696
99	0x3b17ac7e	0.0023143585
100	0xbc7b4e9e	-0.015338568
101	0x3c14ab78	0.009074084
102	0x3cae24d9	0.021257805
103	0xbb0942fa	-0.0020944462
104	0xbce37a87	-0.027768387
105	0x3c60e404	0.013726238
106	0xba3ddd60	-0.0007242765
107	0xbcad276a	-0.021136958
108	0x3c671d0e	0.014106048
109	0xbcef43e6	-0.029207181
110	0x3c1b6e3f	0.009486734
111	0xbc9f7d80	-0.019469023
112	0x3cbab735	0.022792438
113	0x3b8d2514	0.0043073986
114	0x3c94df61	0.018172922
115	0xbc163084	-0.00916684
116	0xbcc02d7a	-0.023459185
117	0xbc1de78f	-0.009637727
118	0x3c143c05	0.009047513
119	0x3c6a1a18	0.014288448
120	0x3b90afb2	0.0044154758
121	0x3c0387ce	0.008027984
122	0x3c2142bf	0.009842574
123	0x3b8625d0	0.004093863
124	0xbcca8b0b	-0.024724504
125	0xbc8eae35	-0.017417053
126	0xbc30d01e	-0.0107918065
127	0xbcc59193	-0.024117267

fc2.weight f4 [2, 128]
0	0xbd6bf4f9	-0.05760667
1	0x3d3712de	0.044695728
2	0x3c839e84	0.016066797
3	0x3cbe7ecc	0.02325382
4	0xbd99abe8	-0.07503492
5	0xbd37f2cd	-0.044909287
6	0x3cedff45	0.029052386
7	0xbd2faef9	-0.042891476
8	0x3d327b32	0.04357452
9	0x3d2fad3f	0.04288983
10	0x3db70c60	0.08937907
11	0x3d35d506	0.044392608
12	0x3c66b8e8	0.014082171
13	0x3d03c430	0.03216952
14	0x3d2f1f91	0.042754713
15	0x3cfe03d0	0.031007677
16	0xbd58aed0	-0.05290109
17	0xbd93ce53	-0.072170876
18	0x3d998900	0.07496834
19	0xbcc2574c	-0.023723267
20	0xbc7f1cb5	-0.015570809
21	0x3cdae7c6	0.026721846
22	0xbab323c6	-0.0013667278
23	0x3cbb2632	0.022845361
24	0xbd695329	-0.056964073
25	0x3d983d27	0.07433539
26	0xbd80fed0	-0.062986016
27	0xbc288d90	-0.010287657
28	0xbc8efbcc	-0.01745405
29	0x3d6d3eb0	0.05792111
30	0xbd721320	-0.05910027
31	0xbd73a340	-0.05948186
32	0x3d8dc057	0.069214515
33	0xbd0d0a27	-0.03443351
34	0x3da7d60c	0.08195123
35	0x3c84a627	0.016192509
36	0x3d9accd9	0.07558603
37	0xbc7f1200	-0.015568256
38	0x3d93e3ce	0.07221185
39	0xbd26fb8b	-0.040767234
40	0x3bf3d313	0.0074409335
41	0x3d22d1f1	0.039750997
42	0xbba88ed2	-0.0051439786
43	0x3d6dda51	0.05806953
44	0xbd43677c	-0.047706112
45	0xbd1877be	-0.03722357
46	0x3d0eac86	0.0348325
47	0x3cc3f0b0	0.02391848
48	0xbd02cf1b	-0.031935792
49	0x3d610c98	0.05494365
50	0x3d923ed4	0.0714089
51	0xbd8d001c	-0.068847865
52	0xbc63a9b3	-0.01389544
53	0x3c999b40	0.018750787
54	0xbd9eaa0e	-0.07747279
55	0x3d125007	0.03572085
56	0xbd68ce6a	-0.056837477
57	0xbcc9bd00	-0.024626255
58	0x3c3d8d2d	0.011569303
59	0xbd8b6ba2	-0.06807639
60	0x3c9aef24	0.01891286
61	0xbd55c37b	-0.052188378
62	0x3d7b568b	0.06136183
63	0x3ca3ab0f	0.019979028
64	0xbd3823c8	-0.044956
65	0x3d70ab45	0.058757085
66	0x3daf1842	0.08549549
67	0xbda25ced	-0.079278804
68	0xbda75f12	-0.0817243
69	0xbd384015	-0.04498299
70	0x3ac60e0c	0.0015110387
71	0xbd3c9976	-0.04604479
72	0x3d88280f	0.066482656
73	0xbd7721db	-0.06033502
74	0xbd0e897e	-0.03479909
75	0xbc45afd6	-0.012065848
76	0xbc60f1e6	-0.013729548
77	0xbd82a7d9	-0.06379671
78	0x3d1aac9f	0.03776228
79	0xbd488ea4	-0.048964158
80	0x3d98ecfb	0.074670754
81	0xbd745871	-0.059654657
82	0x3c792a23	0.0152078
83	0x3d65e172	0.056123205
84	0x3c3232de	0.0108763855
85	0xbd953558	-0.07285565
86	0xbd68ad1b	-0.05680571
87	0x3be1e45e	0.0068936786
88	0xbca084fe	-0.019594666
89	0xbd71556e	-0.058919363
90	0xbcec037e	-0.028810259
91	0xbd64009c	-0.055664644
92	0xbd72725e	-0.0591911
93	0x3d07390c	0.03301339
94	0xbce420ca	-0.027847666
95	0x3b5177a0	0.0031962171
96	0xbd229e35	-0.03970166
97	0x3cb0ba1e	0.021573123
98	0xbd61c420	-0.05511868
99	0xbd2d5ecb	-0.04232673
100	0xbbeb2cba	-0.0071769627
101	0xbce510cb	-0.02796211
102	0xbda3057b	-0.0796003
103	0x3d990661	0.0747192
104	0x3cdf1f68	0.027236655
105	0xbda40ffe	-0.08010863
106	0xbd40f445	-0.047107954
107	0xbb29c83a	-0.0025906698
108	0xbd6e0726	-0.058112286
109	0x3cfe506a	0.031044204
110	0x3b6199d2	0.003442396
111	0x3c7b85c0	0.015351713
112	0xbd6cfe2c	-0.057859585
113	0x3d2114e2	0.039326556
114	0xbcc62d29	-0.024191456
115	0xbbf950bf	-0.0076085026
116	0xbd342069	-0.04397622
117	0xbbd19e34	-0.006397033
118	0xbd9a0c80	-0.075219154
119	0xbd19bc33	-0.037532996
120	0xbc786589	-0.015160927
121	0xbda04367	-0.07825356
122	0xbb98b865	-0.0046606534
123	0xbcb975b5	-0.022639135
124	0x3d8a230f	0.06744968
125	0xbcf53e14	-0.029936828
126	0x3d39df3a	0.0453789
127	0xbd294b30	-0.04133147
128	0xbb86bb64	-0.004111694
129	0x3c4ab010	0.012371078
130	0x3cf0ab20	0.029378474
131	0xbcf4e098	-0.02989225
132	0xbd5e614f	-0.05429202
133	0xbd2a4de6	-0.041578196
134	0x3d89fa2b	0.06737169
135	0xbd1aa1f0	-0.037752092
136	0x3cc9ff6c	0.024657927
137	0x3d9dbc2c	0.077019066
138	0x3da5c078	0.08093351
139	0xbd8b15ed	-0.067912914
140	0xbd57ee0c	-0.052717254
141	0xbc812fdc	-0.015769891
142	0xbd81e68e	-0.06342803
143	0xbda39cec	-0.07988915
144	0x3d83404b	0.06408747
145	0xbd1b7d68	-0.037961394
146	0x3d436187	0.04770043
147	0x3d089b50	0.033351243
148	0xbd9db403	-0.0770035
149	0xbd3a72ea	-0.045519747
150	0xbd874a34	-0.0660595
151	0x3d664119	0.056214426
152	0x3d99234b	0.07477435
153	0xbc76536c	-0.015034538
154	0xbd945719	-0.07243175
155	0x3d6be8a1	0.0575949
156	0x3c04f9e0	0.0081162155
157	0xbd79dc9c	-0.061001405
158	0xbce13aa3	-0.02749378
159	0x3d16e40f	0.036838587
160	0x3d910279	0.0708055
161	0x3d5b8c0e	0.053600363
162	0xbd240618	-0.040044874
163	0xbbf0f7d7	-0.0073537636
164	0xbc36b960	-0.011152595
165	0xbd3096a4	-0.043112412
166	0xbc133383	-0.008984449
167	0x3d92fb47	0.071768336
168	0x3c3eec6f	0.01165305
169	0x3d8f509d	0.06997798
170	0x3c66a526	0.01407746
171	0xbd3e8117	-0.04650983
172	0x3cad3f9d	0.021148497
173	0xbd8c18a4	-0.06840637
174	0xbd165abb	-0.03670762
175	0x3cc1260c	0.023577712
176	0xbd86f4d0	-0.06589663
177	0x3d36e6bc	0.04465364
178	0x3ba226e5	0.0049484842
179	0x3cbba47a	0.022905577
180	0xbc69c975	-0.0142692225
181	0x3bea6508	0.007153157
182	0xbd17d2a3	-0.037066113
183	0x3d5775f2	0.052602716
184	0xbd8c195c	-0.068407744
185	0x390d1875	0.00013455919
186	0xbd8f7e55	-0.07006518
187	0x3d19eeb5	0.037581164
188	0x3cd9f848	0.026607648
189	0x3d2336fd	0.039847363
190	0x3d5d9155	0.054093678
191	0x3d080193	0.033204626
192	0x3d50d9b8	0.050988883
193	0x3d1573dd	0.03648745
194	0x3b9fe4f9	0.0048795906
195	0xbcd0e397	-0.025499148
196	0x3b78cb60	0.0037963018
197	0x3d824f20	0.06362748
198	0xbbbfca51	-0.0058529754
199	0xbc95bac3	-0.018277531
200	0xbc5fbf48	-0.013656445
201	0x3d63e8bd	0.05564188
202	0xbd4d45d0	-0.050115407
203	0x3d9e006b	0.077149235
204	0xbc036a33	-0.008020925
205	0xbd2209fc	-0.039560303
206	0xbd607575	-0.054799516
207	0x3c86a13d	0.016434306
208	0x3d8ebf8f	0.06970131
209	0xbc93a2b3	-0.018021917
210	0x3d8111db	0.06302234
211	0x3cf468cb	0.029835125
212	0xbd96743f	-0.07346391
213	0x3d2f4919	0.04279432
214	0xbd594617	-0.05304536
215	0x3d287b4a	0.041133203
216	0x3ba623b5	0.0050701746
217	0xbb78d9e0	-0.003797166
218	0xbcc94af0	-0.024571866
219	0x3d67cec4	0.05659367
220	0xbcab8078	-0.020935282
221	0xbd9dc3ce	-0.077033624
222	0xbc735238	-0.014851145
223	0xbd79ef92	-0.061019488
224	0x3d2b182b	0.041771095
225	0x3cf838b6	0.03030048
226	0x3d2f90be	0.042862646
227	0xbd060905	-0.032723445
228	0xbcc5028c	-0.024049066
229	0x3d24ac36	0.040203296
230	0xbcc0b624	-0.023524351
231	0xbd82e62f	-0.0639156
232	0x3d081a37	0.033228125
233	0xbd94fda7	-0.07274943
234	0x3ce0f0a0	0.027458489
235	0xbd32540b	-0.04353718
236	0xbd771c14	-0.06032951
237	0xbd6f2154	-0.058381394
238	0xbb9f1545	-0.0048548304
239	0xbd427ae1	-0.047480468
240	0x3b2922b9	0.002580805
241	0x3cd9ca54	0.026585735
242	0x3d8c1395	0.068396725
243	0x3d98101f	0.0742495
244	0x3da3c9ed	0.07997499
245	0x3bfe8490	0.0077672675
246	0xbd9d8df4	-0.07693091
247	0x3da22fdd	0.079192854
248	0xbd29b79e	-0.041434877
249	0x3bb61aaa	0.005557378
250	0x3da5f2ef	0.081029765
251	0xbd68535a	-0.056720115
252	0x3d7ab15d	0.061204303
253	0x3d5d4c4d	0.054027844
254	0xbd19dda9	-0.037564907
255	0x3d9bae00	0.07601547

fc2.bias f4 [2]
0	0x3cbea81d	0.023273522
1	0x3d2910d1	0.041275803
