models/2024-05-10_12-40-20_Model.onnx (onnx, 516192 bytes, 10 tensors)

conv1.weight f4 [8, 1, 3, 3, 3]
0	0xbe18eff5	-0.14935286
1	0xbe0f4beb	-0.13993804
2	0x3dc0b7e5	0.09410075
3	0x3dfd4348	0.123663485
4	0x3e188254	0.14893466
5	0xbdd0c9e3	-0.10194757
6	0xbd12bb5a	-0.035823204
7	0xbd8bbb1f	-0.068228
8	0x3e3e05da	0.1855692
9	0x3e1aa972	0.15103701
10	0xbdb7751f	-0.08957886
11	0x3dd5efe2	0.10446145
12	0x3dc76d72	0.09737672
13	0x3e346805	0.17617805
14	0x3d51aa50	0.051187813
15	0x3db1d87c	0.08683869
16	0x3d1a5774	0.037681058
17	0xbbfc0217	-0.007690679
18	0xbdd3e952	-0.10347237
19	0x3d681f9c	0.05667077
20	0xbd861e1e	-0.06548713
21	0xbe01500d	-0.12628193
22	0x3cb1af4e	0.021690037
23	0x3b9a019b	0.0046998984
24	0xbca0467d	-0.019564861
25	0xbdd5bc2e	-0.10436283
26	0xbe29263c	-0.16518492
27	0xbded3298	-0.115819156
28	0x3cdc7012	0.026908908
29	0x3cafecf9	0.021475302
30	0xbcb49dfe	-0.022047993
31	0xbdfeb3cc	-0.12436637
32	0xbda779ab	-0.08177503
33	0xbe2cea2a	-0.16886202
34	0xbdb45e14	-0.088070065
35	0x3e25b331	0.16181637
36	0x3d3b564f	0.045736607
37	0x3dc188b3	0.094499014
38	0xbdeeba94	-0.11656681
39	0x3d835f6a	0.06414683
40	0x3c279544	0.010228459
41	0xbe2c2a28	-0.16812956
42	0xbe03e4a5	-0.1288019
43	0x3e4469a7	0.19180928
44	0xbe0fbc52	-0.14036682
45	0x3ca00af6	0.019536477
46	0xbd2b35dc	-0.04179941
47	0xbe2a7b66	-0.16648635
48	0x3d236bb6	0.039897643
49	0xbd911e76	-0.07085888
50	0xbd34a45f	-0.04410207
51	0x3df4e557	0.119578056
52	0xbde99084	-0.11404517
53	0xbdd4f5ac	-0.10398421
54	0x3df025da	0.117259696
55	0xbe24a461	-0.1607833
56	0x3c4ed3aa	0.012623707
57	0xbe25e207	-0.16199504
58	0xbdad2527	-0.08454352
59	0x3ceef3da	0.029169012
60	0x3d6c453e	0.057683222
61	0xbd65cf55	-0.05610593
62	0x3e1bfc57	0.15232979
63	0xbd7e170c	-0.062033698
64	0xbded2672	-0.115795985
65	0xbdb77a3c	-0.08958861
66	0x3dd40918	0.10353297
67	0xbd173c48	-0.036922723
68	0xbdced167	-0.10098534
69	0x3d18694c	0.037209794
70	0x3e35e871	0.1776445
71	0xbdf35cf7	-0.11882966
72	0x3e00f676	0.12594017
73	0x3d98539a	0.07437821
74	0x3c3f5e5d	0.011680213
75	0xbd884369	-0.066534825
76	0x3da7597b	0.08171364
77	0x3ce8129d	0.028329188
78	0xbdb7ba5d	-0.08971093
79	0xbd7851b7	-0.060624804
80	0xbe0b3d46	-0.13597593
81	0x3ce1445a	0.027498413
82	0x3b393c8a	0.0028264844
83	0x3da8b063	0.08236768
84	0xbe43ad85	-0.19109161
85	0x3e05a9f5	0.13053115
86	0xbdbc6430	-0.09198797
87	0x3e169638	0.14705741
88	0xbe1b4e9a	-0.15166703
89	0x3dc8902d	0.09793124
90	0x3d4bfc3c	0.049801096
91	0xbd767c24	-0.060176983
92	0x3db6520e	0.089023694
93	0xbd9fcb04	-0.07802394
94	0x3e359de2	0.17736009
95	0xbe305d59	-0.1722311
96	0xbe14a051	-0.14514281
97	0xbe2b25e7	-0.16713677
98	0x3e3f02bf	0.18653391
99	0x3d7844cb	0.06061248
100	0x3d888920	0.066667795
101	0xbcd3941a	-0.025827456
102	0xbddb0078	-0.10693449
103	0x3d44279e	0.047889344
104	0x3c9c34ed	0.019068206
105	0xbc649096	-0.013950488
106	0xbdc79f1e	-0.09747146
107	0x3c64b584	0.013959292
108	0xbdcbbeab	-0.099484764
109	0x3c62da7b	0.013846035
110	0xbd5398d1	-0.05165941
111	0x3d994d1c	0.074854106
112	0xbe11a35b	-0.14222471
113	0xbe12efc4	-0.14349276
114	0xbe3c5020	-0.1838994
115	0x3dd880d0	0.10571444
116	0xbdbd288b	-0.092362486
117	0xbdccea10	-0.100055814
118	0x3e146fa1	0.14495708
119	0x3e0e0a52	0.13871124
120	0x3e2c4711	0.16823985
121	0xbdc3dcfe	-0.09563635
122	0x3d078c5f	0.033092853
123	0x3d95d26f	0.07315528
124	0xbe158a45	-0.14603527
125	0x3e0cfc84	0.13768202
126	0x3e2a9e20	0.16661882
127	0x3e10acdf	0.14128445
128	0xbdfc8d45	-0.123316325
129	0xbd82f10c	-0.06393632
130	0x3dff65d7	0.12470596
131	0x3ddab389	0.10678775
132	0xbe14f36a	-0.1454598
133	0xbd85983f	-0.06523179
134	0x3a92ae52	0.0011190868
135	0x3d4933c7	0.049121644
136	0xbd7fbb11	-0.06243426
137	0xbd9604e3	-0.07325151
138	0x3d59bfc0	0.053161383
139	0xbcee3ccb	-0.029081723
140	0x3dcc9fbb	0.09991404
141	0x3d88c257	0.066776924
142	0xbbb713d0	-0.0055870786
143	0xbe210f16	-0.15728411
144	0x3d74adc6	0.059736036
145	0xbcdf8ed7	-0.027289791
146	0xbd3d7b32	-0.046260066
147	0x3d3c2fa3	0.045943867
148	0x3b8dc80d	0.0043268264
149	0xbd82a365	-0.06378821
150	0x3db650f9	0.08902163
151	0x3e25e3e6	0.16200218
152	0x3df4b45e	0.11948465
153	0xbd5da271	-0.054109994
154	0xbe15fb89	-0.14646734
155	0x3c13668e	0.008996619
156	0xbd64e6c1	-0.055884127
157	0xbd6c6b1f	-0.057719346
158	0x3e1da589	0.15395178
159	0x3ba92249	0.005161558
160	0xbde88855	-0.11354128
161	0x3e17cdf1	0.14824654
162	0xbd175cc3	-0.0369537
163	0xbdff6b10	-0.124715924
164	0xbe2ec8dd	-0.17068811
165	0xbc2f36e4	-0.010694239
166	0x3da0edd7	0.07857864
167	0xbcac58ac	-0.021038376
168	0xbdeec705	-0.11659054
169	0xbe3080aa	-0.17236581
170	0x3c4c0c4f	0.0124541065
171	0xbe0a6bdd	-0.13517709
172	0x3d361ad2	0.04445917
173	0xbdf3a394	-0.118964344
174	0x3d147380	0.036242962
175	0xbe3347b5	-0.17507823
176	0xbe288eac	-0.16460675
177	0xbd8b9e99	-0.068173595
178	0x3d8ec3a7	0.069709115
179	0x3d8ce1b3	0.06878986
180	0x3e31a15e	0.17346713
181	0xbe260a88	-0.16214955
182	0x3d998b91	0.07497323
183	0x3e47a6eb	0.19497268
184	0xbdcb5138	-0.099276006
185	0x3e368b0c	0.1782648
186	0xbe3bfafa	-0.18357459
187	0x3de4b76f	0.111678
188	0xbd8f7b70	-0.07005966
189	0xbe0f2cb1	-0.13981892
190	0x3e185750	0.14877057
191	0x3c3ee76f	0.011651858
192	0x3da067a8	0.07832271
193	0xbc666813	-0.014062899
194	0x3e2848af	0.16433977
195	0x3e37ea26	0.17960414
196	0x3e269b0e	0.16270086
197	0x3e1d66e3	0.1537128
198	0x3dabfe27	0.08398085
199	0x3d9dd499	0.077065654
200	0x3e3185e6	0.17336234
201	0x3dda982c	0.10673556
202	0x3c6a4f90	0.014301196
203	0xbd0df769	-0.034659777
204	0x3d6eeb33	0.058329772
205	0x3e3929e9	0.18082394
206	0x3e10da96	0.14145884
207	0x3e0fa8c2	0.1402922
208	0x3db9ca69	0.0907181
209	0x3c8406a7	0.016116453
210	0x3e01e175	0.12683661
211	0x3d98e82d	0.07466159
212	0x3e032344	0.12806422
213	0x3de02c1e	0.10945915
214	0xbc7f6f3c	-0.015590485
215	0xbda6d1a8	-0.081454575

conv1.bias f4 [8]
0	0xbdb4a393	-0.08820262
1	0xbdd3c618	-0.10340518
2	0x3da04091	0.07824815
3	0x3dadd74c	0.0848833
4	0x3e226e8c	0.15862483
5	0xbd982f16	-0.07430856
6	0x3e07f222	0.1327596
7	0x3d33728a	0.043810405

conv2.weight f4 [16, 8, 3, 3, 3]
0	0x3cae7b4f	0.021299032
1	0x3c81cb61	0.015844049
2	0xbd13ec59	-0.03611407
3	0xbc947c49	-0.01812567
4	0x3d79171e	0.060813062
5	0x3d4ccfc2	0.05000282
6	0x3b3559c1	0.0027671906
7	0xbc97cab9	-0.018529283
8	0x3ccc1a2d	0.024914825
9	0x3ccd9e8a	0.025100011
10	0x3d2508d2	0.040291615
11	0xbd7d4288	-0.061831027
12	0x3c8b8b40	0.017034173
13	0x3c067aee	0.00820802
14	0x3d168c5c	0.03675495
15	0x3c532e79	0.012889498
16	0xbd314b58	-0.043284744
17	0x3d787d20	0.060666203
18	0xbd15bdc5	-0.03655793
19	0xbcf0f19c	-0.029412083
20	0xbb9ada2d	-0.0047257156
21	0x3d519f31	0.051177207
22	0x3b812e42	0.003942282
23	0xbd8fda02	-0.070240036
24	0x3c99618d	0.018723274
25	0x3d03e565	0.03220119
26	0xbcae634c	-0.021287583
27	0xbc3d42a1	-0.01155153
28	0x3cba6f56	0.022758167
29	0xbd717a76	-0.05895468
30	0xbd846681	-0.064648636
31	0x3d306f0b	0.04307465
32	0xbcf422b1	-0.029801698
33	0x3cf510e8	0.029915288
34	0x3d387e4c	0.04504232
35	0x3b3fb3de	0.0029251496
36	0xbd4ddb42	-0.05025793
37	0xbc82d569	-0.015970903
38	0xbbe78f12	-0.007066616
39	0xbd7fab7c	-0.0624194
40	0xbd5ee020	-0.05441296
41	0xbd1be885	-0.038063545
42	0x3d1cae1a	0.038251974
43	0x3d4ecc9d	0.050488103
44	0xbc065dd3	-0.00820108
45	0xbd817992	-0.06322016
46	0xbcc98f89	-0.024604576
47	0xbb41a24a	-0.0029546195
48	0xbd96ca7d	-0.0736284
49	0x3d74b563	0.059743296
50	0xbb89c9c3	-0.00420496
51	0x3d2ee820	0.04270184
52	0x3d50c9a1	0.05097354
53	0x3d6b44d7	0.057438698
54	0xbd770605	-0.060308475
55	0xbd892584	-0.06696609
56	0x3c8c67a3	0.017139262
57	0xbca4cd37	-0.020117385
58	0xbd81dc73	-0.063408755
59	0xbd7bdda9	-0.06149069
60	0x3c48e51b	0.012261654
61	0xbd31f065	-0.04344215
62	0xb9e7e30d	-0.0004422892
63	0xbd4be3f4	-0.04977794
64	0xbd12c967	-0.035836603
65	0x3d122910	0.03568369
66	0x3d73e839	0.059547637
67	0x3cb52999	0.022114562
68	0xbd0b0169	-0.03393689
69	0xbcdb6cab	-0.026785215
70	0x3c847de4	0.01617331
71	0x3d72efb8	0.059310645
72	0xbbfed5f8	-0.007776972
73	0xbd04dd13	-0.032437395
74	0xbd383533	-0.04497261
75	0x3d05b472	0.03264279
76	0xbcf32827	-0.029682232
77	0x3d6f073a	0.0583565
78	0xbd28b73d	-0.041190375
79	0x3d79a206	0.060945533
80	0x3d7906c1	0.060797457
81	0x3c0a20cb	0.00843067
82	0xbb10400c	-0.002201083
83	0xbd75e134	-0.060029224
84	0x3d52870c	0.051398322
85	0xbd4e30bb	-0.05033944
86	0xbd24b170	-0.04020828
87	0x3d05f06e	0.032699995
88	0xbb0f93f4	-0.0021908255
89	0xbd76d5e1	-0.060262565
90	0xbd780a0a	-0.06055645
91	0x3ca535d2	0.020167265
92	0xbcda40b3	-0.02664218
93	0xbc6b041b	-0.014344241
94	0x3d2b8301	0.041872982
95	0xba780fe8	-0.00094628194
96	0x3d809590	0.06278527
97	0x3bddd21b	0.0067694313
98	0xbd7fc5e3	-0.06244458
99	0x3c93f904	0.018063076
100	0xbd848fce	-0.06472741
101	0x3d19b2bb	0.037523966
102	0x3d4e8d45	0.050427694
103	0x3d883ab2	0.0665182
104	0x3c2efecd	0.010680866
105	0x3c7dd9fc	0.015493866
106	0x3d17c71b	0.037055116
107	0x3c894ab2	0.01675925
108	0xbd6a0d02	-0.05714131
109	0xbd803196	-0.06259458
110	0x3c759303	0.014988664
111	0x3d804958	0.06263989
112	0xbcc8058e	-0.024416711
113	0x3c106855	0.008813937
114	0x3cc4b39f	0.024011431
115	0xbc40029a	-0.01171937
116	0xbd77723b	-0.060411673
117	0x3d6de7ea	0.0580825
118	0xbbdeffae	-0.0068053817
119	0x3d26ebe1	0.040752295
120	0xbd276df8	-0.04087636
121	0xbd40a372	-0.047030874
122	0xbd116b75	-0.03550287
123	0xbadfe517	-0.0017081824
124	0x3d69de43	0.05709673
125	0x3d4d3a30	0.05010432
126	0x3d6f7d16	0.0584689
127	0x3d3f156b	0.046651285
128	0x3ca9480b	0.020664236
129	0x3c846f0f	0.016166238
130	0x3d005ce4	0.031338587
131	0x3d267fda	0.040649273
132	0x3d237585	0.039906997
133	0xbb86294a	-0.0040942775
134	0x3cc69c21	0.02424437
135	0x3c2c195f	0.010504096
136	0xbb963a6d	-0.0045846016
137	0x3c8cdc2b	0.017194828
138	0xbd6a33e5	-0.057178397
139	0xbd3a6d98	-0.045514673
140	0x3c979437	0.018503292
141	0xbc9dcfe0	-0.019264162
142	0x3c11b88f	0.0088941
143	0x3b295ff9	0.0025844558
144	0xbbbf03f2	-0.0058293277
145	0xbcb3b45f	-0.021936594
146	0xbaedd446	-0.0018144927
147	0xbc8ab74c	-0.016933106
148	0xbd424dbc	-0.047437415
149	0x3b3850a9	0.002812425
150	0x3d5fc1c5	0.054628152
151	0xbd494161	-0.049134616
152	0xbb72974f	-0.0037016456
153	0xbd42be96	-0.04754504
154	0xbd474a09	-0.04865459
155	0xbac6865a	-0.0015146241
156	0xbd1b6096	-0.03793391
157	0xbcbba499	-0.022905635
158	0x3d7afd23	0.061276566
159	0xbd5b2b9b	-0.053508382
160	0x3cd2192e	0.025646772
161	0xbd2fc303	-0.042910587
162	0x3cea90a2	0.02863342
163	0xbb72288d	-0.003695044
164	0xbc73327b	-0.014843578
165	0xbd0b98fb	-0.03408144
166	0x3c83c89f	0.016086875
167	0xbd1c0287	-0.038088348
168	0x3adb6109	0.0016737293
169	0x3d489fda	0.04898057
170	0x3c96252c	0.018328272
171	0xbce38f86	-0.027778398
172	0x3c6a88df	0.014314859
173	0xbd3e86ad	-0.046515156
174	0x3c8430e1	0.016136589
175	0x3c2976dd	0.010343281
176	0xbd846f9e	-0.06466602
177	0xbc85a1fc	-0.016312592
178	0x3d243e80	0.040098667
179	0xbd6ce075	-0.057831246
180	0x3ac0e383	0.0014716241
181	0x3c99b214	0.018761672
182	0xbd1989bd	-0.037484873
183	0xbd05e7d4	-0.03269179
184	0x3d7fb94e	0.06243258
185	0xbcc72c8d	-0.024313236
186	0x3d819d2a	0.06328805
187	0x3cb5b31c	0.022180133
188	0xbd3571e0	-0.044298053
189	0x3c696b98	0.014246844
190	0x3c747a8b	0.014921795
191	0xbc1a1ede	-0.009406773
192	0x3c013cef	0.007888063
193	0xbd1136b0	-0.035452545
194	0xbc211769	-0.009832242
195	0xbca548d4	-0.020176329
196	0x3c9ff719	0.019527005
197	0x3d71750d	0.05894952
198	0xbd57731f	-0.052600022
199	0xbb9694e1	-0.0045953845
200	0xbc8162db	-0.015794208
201	0x3d6c0cea	0.057629503
202	0xbccabe81	-0.024749042
203	0xbd89d230	-0.06729543
204	0xbd8d2f39	-0.06893773
205	0xbd1d8719	-0.038458917
206	0xbc07d7c0	-0.008291185
207	0xbc0bed52	-0.008540468
208	0x3d17702c	0.03697221
209	0x3cfca5be	0.03084075
210	0xbb6f5e6d	-0.0036524788
211	0xbd517342	-0.05113531
212	0xbd478e44	-0.04871966
213	0x3d3a233f	0.04544377
214	0xbc3132e1	-0.010815353
215	0xbd23fe69	-0.040037546
216	0x3d221f42	0.03958059
217	0xbc89d85a	-0.016826797
218	0xbd028e29	-0.031873856
219	0x3d539c74	0.051662877
220	0xbd7ca0a3	-0.061676633
221	0xbd8aba76	-0.06773846
222	0xbd69bd3b	-0.05706523
223	0x3d125627	0.035726693
224	0xbd2dddc5	-0.042447824
225	0xbd836a26	-0.064167306
226	0xbd0c097f	-0.034188744
227	0xbd193163	-0.037400614
228	0xbc980ab5	-0.018559793
229	0x3d689907	0.056786563
230	0x3c44d197	0.012012861
231	0x3d2264e4	0.039646998
232	0xb8d02e03	-9.926783e-05
233	0xbd995e32	-0.074886695
234	0xbca5af7e	-0.020225283
235	0xbcb35eb9	-0.021895753
236	0x3bbf001b	0.00582887
237	0xbd6f41ce	-0.058412366
238	0x3d0fd99a	0.03511963
239	0xbd6464f6	-0.055760346
240	0xbd60f11b	-0.054917436
241	0xbbca96c7	-0.006182525
242	0x3d4b4330	0.049624622
243	0xbd90737c	-0.07053277
244	0xbc328c9e	-0.010897784
245	0xbd5f1fd8	-0.054473728
246	0xbd523cd2	-0.051327534
247	0xbd5c2c7f	-0.053753372
248	0xbca197da	-0.019725729
249	0xbda4cec3	-0.08047249
250	0xbbc5fb00	-0.0060418844
251	0x3bac868f	0.005265064
252	0x3d048cca	0.03236083
253	0xbd738b57	-0.059459057
254	0x3d2e7b17	0.042597856
255	0xbc8bd720	-0.017070353

conv2.bias f4 [16]
0	0x3ce35e25	0.027754853
1	0x3d65cdf6	0.056104623
2	0xbd929fe7	-0.07159405
3	0x3c1cb85a	0.009565437
4	0xbbc70f70	-0.0060748383
5	0x3d44704c	0.047958657
6	0x3ca369eb	0.019947967
7	0xbbc1597f	-0.0059005613
8	0x3d3338c2	0.0437553
9	0xbd654fba	-0.055984236
10	0xbce7cf5a	-0.028297115
11	0x3cbaa02f	0.02278146
12	0x3c2422a0	0.010018021
13	0x3c786125	0.01515988
14	0x3bd238ef	0.0064154784
15	0x3cf02ebe	0.029319163

conv3.weight f4 [32, 16, 3, 3, 3]
0	0xbd3adb03	-0.045619022
1	0x3c4db77a	0.012555951
2	0xbcd2104c	-0.025642537
3	0x3d050a9c	0.03248082
4	0x3d16633c	0.03671573
5	0xbd5c35fb	-0.053762417
6	0x3c26f6f0	0.01019071
7	0x3d14a7a0	0.036292672
8	0xbd160d2d	-0.03663366
9	0xbcdbc8ce	-0.02682915
10	0xbd1e8fd4	-0.038711384
11	0xbd0fb052	-0.03508026
12	0x3d05543a	0.032551028
13	0x3ab313bb	0.0013662496
14	0x3ca51427	0.020151211
15	0xbca4306d	-0.020042622
16	0x3c036386	0.008019334
17	0x3c01c7ab	0.00792114
18	0xbce97f7c	-0.028503172
19	0xbcb4b583	-0.022059208
20	0xbd385b97	-0.045009222
21	0x3c103bec	0.008803349
22	0x3c5012af	0.012699767
23	0x3c1ec09c	0.009689476
24	0xbd5b7e1f	-0.053587075
25	0x3d2b8589	0.041875396
26	0x3c5bd019	0.013416314
27	0xbc2df136	-0.010616591
28	0xbc9e1eb8	-0.019301757
29	0x3cdc9490	0.026926309
30	0x3babb276	0.00523978
31	0xbc343d2e	-0.0110009145
32	0xbbc496b1	-0.005999409
33	0x3d0bba14	0.034113005
34	0x3d041413	0.032245707
35	0x3cad718e	0.021172311
36	0x3c9d4cd6	0.019201677
37	0xb8b90fc6	-8.8244255e-05
38	0x3c8631d9	0.016381191
39	0xbd61c9db	-0.055124145
40	0x3c47fb5b	0.012205924
41	0xbd327ec1	-0.043577913
42	0xbb91881d	-0.004441275
43	0x3cd663fc	0.026170723
44	0x3d1b5700	0.037924767
45	0xbd2ab6dc	-0.041678295
46	0xbd3d3e0a	-0.046201743
47	0x3c0554b9	0.008137875
48	0xbd653365	-0.055957217
49	0xbd583ddd	-0.052793372
50	0xbaa8c3f6	-0.0012875784
51	0x3c0e38d1	0.008680538
52	0x3d0eb33b	0.034838896
53	0xbd3c0233	-0.045900535
54	0xbd47dea6	-0.04879632
55	0x3b9f8bd0	0.004868962
56	0xbcb50200	-0.02209568
57	0xbcf9b916	-0.030483764
58	0x3d00e859	0.031471584
59	0xbd244cc7	-0.040112283
60	0xbbf46530	-0.0074583516
61	0xbc226a00	-0.009912968
62	0xbcf8f0a3	-0.030388182
63	0xbd350666	-0.044195555
64	0xbba5d860	-0.0050611943
65	0x3cfb55a4	0.030680485
66	0xbd5b5f1d	-0.053557504
67	0xbd486bdf	-0.048931
68	0x3cb1ef3e	0.021720525
69	0x3a967341	0.001147844
70	0xbcae682c	-0.021289907
71	0x3c81cb6b	0.015844068
72	0xbd465de6	-0.048429392
73	0x3d159733	0.036521148
74	0x3c18b486	0.009320384
75	0x3d056f61	0.032576922
76	0xbd0e314c	-0.034714982
77	0xbd031755	-0.032004673
78	0xbd4c9d58	-0.049954742
79	0x399c2100	0.00029779226
80	0x3b44c492	0.0030024392
81	0xba217175	-0.0006158569
82	0xbd07192b	-0.032982986
83	0xbbc634fe	-0.0060487976
84	0xbd2da762	-0.042395957
85	0x3c18f178	0.009334914
86	0xbcc2e4c8	-0.023790732
87	0xbd24f5b4	-0.040273383
88	0xbd3a1877	-0.045433488
89	0xbd084615	-0.03326996
90	0x3d032cfb	0.03202532
91	0xbd5c4f6c	-0.05378668
92	0x3d1477ac	0.03624694
93	0x3d18e934	0.037331775
94	0xbd33c227	-0.04388633
95	0x3cdb608b	0.026779434
96	0x3c85375d	0.01626175
97	0xbb37a019	-0.002801901
98	0x3c35a5a1	0.011086852
99	0x3ba0bedc	0.0049055647
100	0x3d19c85f	0.037544604
101	0x3ca2cea9	0.019873934
102	0xbd1472b4	-0.036242202
103	0x3d11eee9	0.035628233
104	0xbd0f8765	-0.03504123
105	0xbc79c690	-0.015245095
106	0xbd335fb8	-0.043792456
107	0x3d050af9	0.032481167
108	0xbcd6f8d5	-0.0262417
109	0xbd501a3c	-0.05080627
110	0xbc607e83	-0.013702038
111	0x3d20e0f2	0.039277025
112	0xbd3e50fc	-0.04646395
113	0x3c119930	0.00888662
114	0xbc72e17d	-0.014824268
115	0x3d019ea9	0.03164545
116	0x3a6e7e6d	0.00090978184
117	0xbd5b6144	-0.053559557
118	0x3ca38824	0.019962378
119	0xbcc173b3	-0.02361474
120	0xbc0634d9	-0.008191311
121	0xbd08c01a	-0.033386327
122	0xbd301d25	-0.042996544
123	0xb63c9658	-2.8101695e-06
124	0xbc8975ea	-0.016779859
125	0x3c533d1b	0.012892987
126	0xbd41fea5	-0.04736199
127	0x3d0243c6	0.031802915
128	0xbd2232e3	-0.03959931
129	0x3d22aa20	0.039713025
130	0x3cd7df09	0.026351469
131	0x3c8124a7	0.015764548
132	0x3d22943f	0.03969216
133	0xbcdd6aa8	-0.027028397
134	0x3c8d0065	0.017212102
135	0x3cf48f19	0.02985339
136	0x3c94e66b	0.018176278
137	0x3ccc8c64	0.024969287
138	0x3c266533	0.010155964
139	0x3c4c9405	0.0124864625
140	0xbcc9d832	-0.024639223
141	0xbd452a4d	-0.048136044
142	0xbd5f0410	-0.054447234
143	0xbd3b2349	-0.045687947
144	0xbcf628ef	-0.030048816
145	0xbd541d8e	-0.051785998
146	0x3c3ee75c	0.01165184
147	0xbd425e65	-0.047453303
148	0x3c048f60	0.008090824
149	0x3c73cb07	0.014879948
150	0xbb0f87ab	-0.0021900933
151	0x3cb2342d	0.021753395
152	0xbccf532e	-0.025308218
153	0x3ced7a64	0.028989024
154	0x3d05974b	0.032614987
155	0xbcd5ea47	-0.026112689
156	0x3ca9f2a4	0.020745583
157	0xbb294818	-0.0025830325
158	0x3cd466c1	0.025927903
159	0xbc8033c0	-0.015649676
160	0xbd1cdd18	-0.03829679
161	0x3c6fc0fe	0.014633415
162	0x3cea7379	0.028619515
163	0xbc0d373b	-0.008619125
164	0x3d016883	0.03159381
165	0xbc59b362	-0.013287397
166	0xbd40a433	-0.047031593
167	0xbd5be7b3	-0.053687762
168	0xbc41d7b3	-0.011831212
169	0xbd71b127	-0.059006836
170	0xbd1d1975	-0.038354356
171	0x3d1bf09a	0.038071252
172	0x3c935b65	0.017987916
173	0x3b8e03b4	0.0043339375
174	0x3c8c1a11	0.017102273
175	0x3cd6a8fc	0.026203625
176	0xbd3431e7	-0.043992903
177	0x3c8644e1	0.016390266
178	0x3d11814b	0.035523694
179	0xbc41c34d	-0.0118263485
180	0x3b85163d	0.004061489
181	0xbd0ce457	-0.03439745
182	0x3d1b97fb	0.037986737
183	0xbcf3d19f	-0.029763041
184	0xbc5318c6	-0.012884324
185	0x3b7785c2	0.0037768935
186	0x3cfcc2cb	0.030854603
187	0x3cd4e18a	0.025986452
188	0xbcb857f2	-0.022502873
189	0xbd2a5e88	-0.04159406
190	0x3cccb072	0.02498648
191	0xbd36ff72	-0.044677205
192	0xbd4fc433	-0.05072422
193	0x3bebf454	0.007200757
194	0xbd557f4e	-0.05212336
195	0xbd1742ea	-0.03692905
196	0x3be5dffe	0.0070152273
197	0x3d05ee7a	0.032698132
198	0xbd519ca3	-0.05117477
199	0xbd0a32c3	-0.033739816
200	0xbd330585	-0.043706436
201	0x3cc39bb2	0.023877952
202	0xbce64a92	-0.02811173
203	0xbce11922	-0.027477805
204	0x39c02f18	0.0003665618
205	0x3ce49004	0.027900703
206	0xbd166fc2	-0.036727674
207	0xbba31c86	-0.0049777655
208	0xbd434c30	-0.04768008
209	0x3cb6820f	0.022278814
210	0xbd4759f6	-0.048669778
211	0x3c86b692	0.016444478
212	0xbd357e14	-0.04430969
213	0xbd3d35e6	-0.04619398
214	0xbbcc8cd4	-0.006242374
215	0x3d18d051	0.03730804
216	0xbcf2a3dd	-0.029619152
217	0x3d09b023	0.033615243
218	0x3b55245f	0.00325229
219	0xbb885b30	-0.004161261
220	0xbbdbcd2a	-0.006707807
221	0x3c9ec1d8	0.019379541
222	0xbcf158ad	-0.02946123
223	0xbaee01ea	-0.001815853
224	0xbcc1b72c	-0.023646913
225	0x3cd65323	0.02616269
226	0xbc1cffcf	-0.009582474
227	0x3cee0273	0.029053902
228	0xbc5b2f14	-0.0133779235
229	0xbca1ae41	-0.019736411
230	0x3d1b5300	0.03792095
231	0xbd4f826b	-0.050661486
232	0x3c4e1c98	0.0125800595
233	0xbd56f5f3	-0.05248065
234	0x39c4c0c5	0.00037527658
235	0x3ce941e1	0.028473796
236	0xbd0229d1	-0.03177816
237	0xbc3320d9	-0.010933124
238	0xbd56781d	-0.052360643
239	0x3cf07572	0.029352877
240	0x3d4c1599	0.049825285
241	0xbc22b7ea	-0.009931544
242	0xbcd5dfba	-0.026107658
243	0xbcd489a1	-0.025944533
244	0xbac6edb5	-0.0015177043
245	0x3ce67e83	0.028136497
246	0xbcc7bb98	-0.024381444
247	0xbccb8bc4	-0.024846919
248	0x3cd771e1	0.026299419
249	0xbc435d14	-0.011924047
250	0xbbe50798	-0.0069894306
251	0xbb5e68fe	-0.0033937092
252	0x3d0115b6	0.031514846
253	0x3c9b3a22	0.018948618
254	0x3c8e8eca	0.017402072
255	0xbc38d1df	-0.011280506

conv3.bias f4 [32]
0	0x3d04a32e	0.032382183
1	0x3c0e781c	0.0086956285
2	0x3cf9ceba	0.030494083
3	0x3cd4e10f	0.025986223
4	0xbd3505be	-0.04419493
5	0xbc008974	-0.007845271
6	0xbd09e601	-0.033666614
7	0xbce0d06c	-0.027443133
8	0xbcc1ce27	-0.023657871
9	0x3b5052af	0.0031787565
10	0xbbd27b84	-0.0064234156
11	0x3a767a85	0.0009402412
12	0x3d19b905	0.037529964
13	0x3b8d0ab7	0.004304256
14	0x3c224cbb	0.009905989
15	0xbd4cabdb	-0.04996858
16	0xbcd8a9e8	-0.026448205
17	0x3ccb7952	0.024838123
18	0xbd3b8c77	-0.045788255
19	0x3d21509d	0.03938352
20	0xbc737d18	-0.014861368
21	0x3cf595af	0.029978601
22	0x3c27d5c8	0.0102438405
23	0xbd0337f4	-0.032035783
24	0xbc046813	-0.008081454
25	0x3ce11ce2	0.027479593
26	0xbd04ca40	-0.032419443
27	0xbc80ad49	-0.015707629
28	0x3bbfe90a	0.005856638
29	0xbb81df3c	-0.003963379
30	0xbd39a110	-0.045319617
31	0x3c8a94b4	0.01691661

fc1.weight f4 [128, 864]
0	0x3cd07356	0.025445621
1	0xbc9222d8	-0.01783888
2	0xbbcc7547	-0.0062395665
3	0xbc5bf3f0	-0.013424858
4	0x3cbdf692	0.023188863
5	0x3c8961ef	0.016770331
6	0xbd0f37d9	-0.03496537
7	0xbca42629	-0.020037727
8	0xbc46ae00	-0.012126446
9	0xbad7b391	-0.0016456713
10	0xbd04c048	-0.032409936
11	0xbd0bc5d0	-0.034124196
12	0x38a08d20	7.655681e-05
13	0x3cb46bd2	0.022024069
14	0xbc030320	-0.0079963505
15	0x3bf601ff	0.007507562
16	0xbc5a4a29	-0.013323345
17	0x3c98903c	0.018623464
18	0x3c80f150	0.015740067
19	0x3ce32bb9	0.02773081
20	0xbc07fc14	-0.008299846
21	0xbba9fdeb	-0.00518774
22	0xba9cc0f7	-0.0011959363
23	0xbcefa499	-0.029253291
24	0xbc5d842f	-0.013520285
25	0x3cdda628	0.027056769
26	0x3d17b435	0.037037093
27	0xbc022390	-0.007943049
28	0xbc884bf2	-0.016637776
29	0x3ceb56a4	0.028727837
30	0x3cf3f67a	0.029780615
31	0xbcf4e291	-0.029893192
32	0xbb080f30	-0.0020761006
33	0x3c85028f	0.016236572
34	0x3c1f206c	0.00971232
35	0xbd07dc99	-0.033169363
36	0xbc99d1d2	-0.018776808
37	0x3aaf053e	0.0013353003
38	0xbd055218	-0.032548994
39	0xbd1a143b	-0.03761695
40	0x3c9a14cd	0.018808747
41	0xbc1ad731	-0.00945072
42	0x3c3211f6	0.01086854
43	0x3bf73766	0.007544446
44	0xbbebe7e4	-0.0071992744
45	0x3c42b9ec	0.011885148
46	0x3be26f0f	0.006910212
47	0xbcbec5b0	-0.023287624
48	0x3b1b244a	0.0023672753
49	0xbcc0466f	-0.023471085
50	0x3c64ae48	0.0139575675
51	0xbcd6bce9	-0.026213126
52	0xbcec5336	-0.028848272
53	0xb9b10337	-0.00033762466
54	0xbc20cae8	-0.009814002
55	0xbd29b84d	-0.04143553
56	0xbb8f2e2f	-0.004369519
57	0xbca46f59	-0.020072626
58	0xbc28a2b5	-0.010292699
59	0x3c687ace	0.014189435
60	0xbce80124	-0.028320856
61	0xbd2fb558	-0.042897552
62	0x3bc2fa3b	0.00595024
63	0xbc544adf	-0.012957304
64	0xbc0ac389	-0.008469471
65	0xbcbde067	-0.023178292
66	0xbca99ac6	-0.020703685
67	0x3c1d156c	0.009587627
68	0x3c4c8083	0.012481811
69	0xbc2f1897	-0.010687015
70	0xbce6d08c	-0.028175615
71	0xbc8bf6a4	-0.01708538
72	0x3bd125ee	0.0063826954
73	0x3c8f4653	0.017489588
74	0xbcf9d04c	-0.030494832
75	0xbd02e7c1	-0.0319593
76	0x3cf0055f	0.029299436
77	0xbcf28581	-0.029604675
78	0xbc825cb0	-0.015913337
79	0xbb41381a	-0.0029482902
80	0xbcc07b96	-0.02349643
81	0xbd12b424	-0.035816327
82	0xbc098179	-0.008392685
83	0xbd131603	-0.035909664
84	0x3cc79c95	0.024366656
85	0x3c113ef2	0.008865105
86	0xbd1673b0	-0.036731422
87	0xb9e6d20b	-0.00044025513
88	0xbcaa7cbd	-0.020811433
89	0x3c9b63f4	0.01896856
90	0x3bd38007	0.006454471
91	0xbd171caa	-0.03689257
92	0x3ce7db6f	0.028302876
93	0xbcc7cec9	-0.024390595
94	0xbc6a6ad2	-0.0143076945
95	0xbc012912	-0.007883327
96	0xbcb6f0ed	-0.02233168
97	0x3a311739	0.00067554746
98	0x3c86b9f8	0.016446099
99	0xbd216e92	-0.03941209
100	0x3cc85220	0.024453223
101	0x3b96de00	0.004604101
102	0xbc3630d0	-0.011120036
103	0xbccabbcf	-0.024747757
104	0x3c9105f4	0.017703034
105	0xbd01d427	-0.031696465
106	0x3a841d20	0.0010079481
107	0x3cea585f	0.028606592
108	0xbd0b1263	-0.03395308
109	0xbb89f3b8	-0.0042099617
110	0xbccd8f2a	-0.02509268
111	0x3ccd0eb2	0.025031421
112	0x3be56f13	0.0070017665
113	0x3ca62256	0.020280045
114	0x3c845946	0.01615585
115	0xbcb422fc	-0.021989338
116	0xbc5c1d90	-0.013434783
117	0xbc965c76	-0.018354636
118	0xbc65bf3a	-0.014022643
119	0x3cd9ea9c	0.026601128
120	0xbbc4159d	-0.005984022
121	0xbab99262	-0.0014158005
122	0xbb68e911	-0.003553931
123	0xbd0a7015	-0.033798296
124	0x3cac15cc	0.021006487
125	0x3c963738	0.018336877
126	0xbc5b6155	-0.013389905
127	0x3caa0ce8	0.020758107
128	0xbc236702	-0.009973289
129	0xbcb7ad72	-0.022421572
130	0xbcf57d85	-0.029967079
131	0x3c47dbf8	0.012198441
132	0x3d03f340	0.032214403
133	0xbcee34b5	-0.029077867
134	0x3c499860	0.012304395
135	0xbd183073	-0.03715558
136	0xbcfc839a	-0.030824471
137	0xbbda98ee	-0.0066710627
138	0x3b50c1c7	0.0031853782
139	0xbc76233e	-0.015023051
140	0xbd164f18	-0.036696523
141	0xbbb2952b	-0.005449911
142	0xba69f740	-0.0008925088
143	0x3ccd8bc4	0.02509106
144	0xbd263d8e	-0.040586047
145	0xbd1a945b	-0.03773914
146	0x3c10bad9	0.00883361
147	0x3cd1b69a	0.025599767
148	0xbab96459	-0.0014144286
149	0x3c0e53f3	0.008687007
150	0xba9ad658	-0.0011813147
151	0xba1143e6	-0.00055414287
152	0x3b960d27	0.0045792046
153	0xbc4416a9	-0.011968293
154	0xbcf631a0	-0.03005296
155	0xbc8df96c	-0.017330848
156	0x3c0598a7	0.008154071
157	0x3c683346	0.014172381
158	0x3bc8b4c7	0.006125066
159	0x3a823ed1	0.0009936934
160	0xbbe852c1	-0.007089943
161	0x3cb71158	0.022347137
162	0xbbcbee9e	-0.0062235137
163	0xbd1e4ccb	-0.038647454
164	0xbcb0a23a	-0.02156173
165	0xbc686afa	-0.014185661
166	0x3cabb7aa	0.020961601
167	0x3cefbca0	0.029264748
168	0xbc7b5a48	-0.015341349
169	0x3c0efab4	0.0087267645
170	0x3d08df78	0.03341624
171	0xbcf2832e	-0.029603567
172	0xbd213319	-0.03935537
173	0x3c7b282c	0.015329402
174	0x3a923de0	0.0011157356
175	0xbbce3218	-0.0062925927
176	0x3c3444c4	0.011002723
177	0xbc9f4d8c	-0.019446157
178	0xbbc1bee0	-0.0059126467
179	0x3d024868	0.031807333
180	0x3b86b9cc	0.004111504
181	0x3d1e99f4	0.03872104
182	0x3c414a63	0.01179752
183	0xbc42e78c	-0.011896025
184	0x3cc36cb2	0.02385554
185	0x3a725ec4	0.00092456886
186	0xbc83b210	-0.016076118
187	0xbc7623ec	-0.015023213
188	0xbccce8be	-0.025013324
189	0xbc72852a	-0.014802257
190	0x3c5d6414	0.01351263
191	0x3b98f208	0.0046675242
192	0xbb61d5b0	-0.0034459643
193	0x3c8b6638	0.017016515
194	0xbd071713	-0.03298099
195	0xbcbddbde	-0.02317613
196	0x3bae78c8	0.005324457
197	0x3cc3fa64	0.023923106
198	0xbadd84f5	-0.0016900586
199	0xbbbb7a64	-0.005721377
200	0xbce65bc8	-0.028119937
201	0xbc671f1e	-0.01410654
202	0x3c20ba88	0.0098100975
203	0x3beacbb8	0.0071653984
204	0x3c8261ac	0.015915714
205	0x3bebc268	0.007194806
206	0x3c9b6608	0.01896955
207	0xbd0814b8	-0.033222884
208	0xbcd5361e	-0.026026782
209	0xbd02e11e	-0.03195297
210	0xbc97f64c	-0.01855006
211	0x3c2f14f0	0.010686144
212	0x3c386a40	0.011255801
213	0x3b2fc100	0.0026817918
214	0xbcec5f80	-0.028854132
215	0xbcb36a6d	-0.021901334
216	0xbc050f98	-0.008121394
217	0x3be6d71e	0.007044687
218	0x3c3867b0	0.01125519
219	0xbd2b8a83	-0.041880142
220	0xbbad48d6	-0.0052882237
221	0xbce8e18f	-0.028427867
222	0xbc738489	-0.014863142
223	0xbc3ac1d9	-0.011398756
224	0x3967a3f7	0.00022090958
225	0x3ca22f6b	0.019798001
226	0x3c3142ba	0.0108191315
227	0xbc304f6f	-0.010761126
228	0x3c012c41	0.007884086
229	0xbb7b24f2	-0.0038321582
230	0x3aa50ced	0.0012592353
231	0xbb0c76e7	-0.0021433176
232	0xbafe2fad	-0.0019392871
233	0xbd49e96e	-0.04929488
234	0xbd28548f	-0.041096266
235	0x3b9103a7	0.004425484
236	0x3c8c7244	0.01714433
237	0xbccfe321	-0.025376858
238	0x3c49a675	0.012307753
239	0xbb9dd156	-0.0048162146
240	0x3c0e7dca	0.008696983
241	0x3c8239da	0.015896726
242	0xbcf6b9a3	-0.030117815
243	0x3c94ca29	0.018162804
244	0xbd14337f	-0.036181923
245	0xbc9e217f	-0.019303082
246	0xbcb9a660	-0.022662342
247	0xbc752fdf	-0.014965027
248	0xbb418756	-0.002953013
249	0xbcbf0f6c	-0.023322783
250	0xbc4e43f0	-0.01258944
251	0xbc73c92e	-0.014879508
252	0xbb83c0ba	-0.0040207775
253	0xbb55be8b	-0.0032614793
254	0xbc9d26b0	-0.019183487
255	0xbbf41ef2	-0.007449978

fc1.bias f4 [128]
0	0x3ca6224c	0.020280026
1	0xbd254a8d	-0.0403543
2	0xbc09880c	-0.0083942525
3	0xbd00c0d2	-0.031433888
4	0xbd090f79	-0.03346202
5	0xbc536f3e	-0.01290494
6	0xbca651ed	-0.020302737
7	0xbc8e16de	-0.017344888
8	0xbc80cdb5	-0.015723089
9	0x3af4bd5f	0.001867216
10	0x3cbd359e	0.023096856
11	0xbc4afb08	-0.012388952
12	0xbcba6026	-0.022750925
13	0x3d01ab95	0.031657774
14	0x3c1ff039	0.009761863
15	0xbcfe54a2	-0.031046215
16	0x3c583f50	0.013198689
17	0xbc8e7356	-0.01738898
18	0xbaaac847	-0.0013029658
19	0xbd00c418	-0.03143701
20	0xbcfe118a	-0.031014223
21	0x3cf3db75	0.029767731
22	0xbbe109dc	-0.0068676304
23	0x3bd8e2ee	0.006618849
24	0x3cd2ff4d	0.025756503
25	0x3c8a1474	0.016855456
26	0x3b825e4a	0.0039785253
27	0xbc0dae6c	-0.008647542
28	0x3cf33d7f	0.02969241
29	0xbcd435f1	-0.025904628
30	0xbcb816ed	-0.02247187
31	0x3ba8fa81	0.0051568155
32	0xbca63e9a	-0.020293523
33	0x3c4f5ee4	0.012656901
34	0xbc904216	-0.017609637
35	0xbbe47364	-0.0069717634
36	0xbd1e2b12	-0.038615294
37	0xbb518e58	-0.0031975713
38	0x3cf34428	0.029695585
39	0xbcf76ea2	-0.030204121
40	0x3c3b211a	0.011421466
41	0x3d103622	0.035207875
42	0x3c9e4df4	0.01932428
43	0x3c91d1b5	0.017800191
44	0x3bc13a5c	0.0058968496
45	0xbade3883	-0.0016954098
46	0x3d0ba48d	0.034092475
47	0x3cbb24e0	0.022844732
48	0x3ca5f948	0.020260468
49	0x3c47a6a4	0.012185726
50	0x3b62c27b	0.0034600783
51	0xbb9cc430	-0.0047841296
52	0xbd1284cc	-0.035771176
53	0x3cb6671c	0.022265963
54	0x3d1c927d	0.03822564
55	0xbd1cbc38	-0.038265437
56	0xbd120f43	-0.035659086
57	0xbca6c0bd	-0.020355577
58	0x3ced09df	0.028935371
59	0xbc93dd85	-0.018049965
60	0xbc6e8adf	-0.014559477
61	0xbc53d6b9	-0.012929612
62	0x3d0669bb	0.032815676
63	0xbd1278b7	-0.035759654
64	0x3c300f7e	0.010745881
65	0x3c8eaa8f	0.017415313
66	0xbb0a4a05	-0.0021101248
67	0xbbfe3961	-0.007758305
68	0xbcc68026	-0.024231028
69	0xbcab2192	-0.020890031
70	0x3c866b4b	0.016408583
71	0x3cbce72a	0.023059446
72	0xbce79d94	-0.028273381
73	0xbcd50808	-0.026004806
74	0x3cbfeb89	0.023427742
75	0x3cbd1637	0.023081882
76	0xbc6dbcea	-0.014510373
77	0x3cfdb054	0.030967869
78	0xbcfc7a32	-0.030819986
79	0x3cc105cf	0.02356234
80	0xbcfdea31	-0.03099546
81	0x3b66196a	0.0035110363
82	0x392b6e28	0.00016348867
83	0x3cc56bc7	0.024099244
84	0xbbde0e99	-0.0067766425
85	0xbc31be46	-0.010848587
86	0xba620742	-0.00086222973
87	0xbcfc4f18	-0.030799434
88	0x3c5b508f	0.013385906
89	0xbcaed5ea	-0.021342237
90	0xbc70b0cb	-0.014690588
91	0xbca38276	-0.01995967
92	0x3c6a113c	0.014286336
93	0xbcdf57e2	-0.027263585
94	0xbbaabb6c	-0.0052103307
95	0xbd0e0893	-0.034676146
96	0x3cbfdba7	0.023420168
97	0x3c09fd16	0.008422157
98	0xbd07903c	-0.033096537
99	0xbce78450	-0.028261334
100	0x3c8de385	0.017320404
101	0x3c34c556	0.011033377
102	0xbc901a52	-0.017590676
103	0xbcb39e0c	-0.021925949
104	0xbcfb1d30	-0.030653566
105	0xbcfc3d1b	-0.030790856
106	0x3caf06bf	0.021365521
107	0x3cf324b4	0.029680587
108	0x3931c635	0.00016953873
109	0xbcb8c5b0	-0.022555202
110	0x3cca0a75	0.02466319
111	0xbb2e8184	-0.002662749
112	0xbcafb469	-0.021448331
113	0xbc80994b	-0.015698096
114	0x3acb3406	0.0015503175
115	0xbcaea8be	-0.021320697
116	0xbd00699c	-0.031350717
117	0x3d07d884	0.03316547
118	0x3be39108	0.0069447793
119	0x3cd6033a	0.026124585
120	0xb93cf922	-0.00018021886
121	0xbc6fd44c	-0.014638018
122	0xbcd810eb	-0.026375255
123	0xbd2e9609	-0.042623553
124	0xbc35c807	-0.0110950535
125	0xbc77e59a	-0.015130425
126	0x38a8979c	8.039104e-05
127	0x3ce79d68	0.0282733

fc2.weight f4 [2, 128]
0	0x3d403b7b	0.046931725
1	0xbd6b0f3f	-0.057387587
2	0x3c534699	0.01289525
3	0xbd1a3094	-0.037643984
4	0xbd750b76	-0.059825383
5	0xbda49a19	-0.08037204
6	0xbd6e6a53	-0.058206867
7	0xbcdbc423	-0.026826924
8	0xbb5cdbdf	-0.003370039
9	0x3cb63975	0.022244195
10	0x3dc587cf	0.09645044
11	0xbc1a3023	-0.009410891
12	0x3d70b5ce	0.058767132
13	0x3d1f245f	0.038853046
14	0x3d53a0b8	0.051666945
15	0xbcba675a	-0.02275436
16	0x3da20903	0.07911875
17	0x3d9f8cb5	0.077905096
18	0x3d4a62e5	0.04941072
19	0xbcd33eba	-0.025786746
20	0x3d987cbb	0.074456654
21	0x3bdf2c81	0.006810725
22	0x3d8c3f91	0.06848062
23	0xbd851cc5	-0.06499628
24	0x3d977bda	0.0739667
25	0xbc847c2d	-0.016172493
26	0xbd9a8fbd	-0.07546947
27	0x3cd7804c	0.026306294
28	0x3d389797	0.045066442
29	0x3cc17b8c	0.023618482
30	0x3d098c68	0.033581167
31	0xbdca550d	-0.098795034
32	0x3d993d98	0.07482451
33	0xbd8e4a20	-0.06947732
34	0xbd2cb1d7	-0.04216179
35	0xbd8f8a72	-0.07008828
36	0x3d3e7673	0.04649968
37	0xbd74043a	-0.059574343
38	0xbdc89039	-0.09793133
39	0x3c0a3d81	0.008437515
40	0x3c92a442	0.01790059
41	0x3df3bda1	0.11901403
42	0x3cfc2221	0.030777993
43	0xbd9a385b	-0.0753028
44	0xbd88f0d2	-0.06686558
45	0x3d08171f	0.033225175
46	0x3de303aa	0.11084683
47	0x3d732073	0.059357118
48	0xbca9d2dc	-0.020730428
49	0x3d977cdc	0.07396862
50	0xbcddab38	-0.027059183
51	0x3dc209b4	0.09474507
52	0xbcf9f50e	-0.030512359
53	0x3d60029a	0.05468998
54	0x3d8c22dd	0.06842587
55	0x3d8787ca	0.066176966
56	0x3c83bd9b	0.016081622
57	0xbc2894b7	-0.010289363
58	0xbd2c19f1	-0.042016927
59	0xbd93fca7	-0.07225924
60	0xbd952526	-0.07282476
61	0x3d7be25a	0.061495163
62	0x3c1023ce	0.008797599
63	0x3d03934c	0.032122895
64	0x3d643849	0.05571774
65	0xbbd2996d	-0.006426981
66	0x3bc38329	0.0059665632
67	0xbc213b22	-0.0098407585
68	0x3d913046	0.070892856
69	0xbcaefb75	-0.021360138
70	0xbc85de09	-0.016341226
71	0x3d8d1d36	0.06890337
72	0x3d3dc755	0.046332676
73	0xbbe406e0	-0.0069588274
74	0x3e0150e7	0.12628518
75	0x3d25cd25	0.040478844
76	0xbb4de42e	-0.0031416523
77	0x3dc47ced	0.0959414
78	0xbce558dd	-0.027996475
79	0x3daae004	0.08343509
80	0x3d3aa7d7	0.04557022
81	0xbcb1165c	-0.021617107
82	0x3c96ded7	0.018416805
83	0x3da7c3e3	0.08191659
84	0xbcaec837	-0.021335704
85	0x3d9b6efd	0.07589529
86	0x3da92610	0.08259213
87	0x3d56e58b	0.052465003
88	0x3c3232ed	0.010876399
89	0x3d15905f	0.036514636
90	0x3d503573	0.050832223
91	0xbd069811	-0.032859866
92	0x3d9e34a9	0.07724888
93	0xbd50bed3	-0.050963234
94	0xbd9123f4	-0.07086936
95	0x3dbc7003	0.09201052
96	0x3d2f7526	0.04283633
97	0x3da01dc9	0.07818181
98	0xbbc99247	-0.006151471
99	0x3ca190f7	0.019722445
100	0x3ce110d2	0.02747384
101	0xbd0f940e	-0.035053305
102	0x3d8f8f2c	0.0700973
103	0xbcb11566	-0.021616649
104	0x3c933c40	0.017973065
105	0x3d8814f0	0.066446185
106	0xbcd27ac3	-0.025693303
107	0x3da7329b	0.08163949
108	0xbd577ec4	-0.052611127
109	0xbd25aef5	-0.040450055
110	0x3d864a40	0.06557131
111	0xbd1ffd4d	-0.039059926
112	0x3d9e3263	0.07724454
113	0xbd39dc83	-0.045376312
114	0xbd0fca27	-0.035104897
115	0x3cdd7a14	0.02703575
116	0x3d641781	0.055686478
117	0x3db4d927	0.08830481
118	0xbda3c601	-0.079967506
119	0x3d819983	0.06328108
120	0x3da2a5e1	0.07941795
121	0xbcd48f7d	-0.025947327
122	0xbd064a59	-0.032785747
123	0x3d5ae9f8	0.053445786
124	0xbc22f3c7	-0.009945816
125	0x3d2aa4f4	0.041661218
126	0xbd3ba887	-0.045815017
127	0x3d76ae40	0.06022477
128	0xbd3912a9	-0.04518381
129	0xbd86d971	-0.065844424
130	0xbcacf1a2	-0.021111313
131	0xbd9be5c8	-0.07612187
132	0x3cc73610	0.024317771
133	0xbc516e83	-0.012782696
134	0xbd23946c	-0.039936468
135	0xbd38cbdb	-0.045116287
136	0x3ba3c272	0.004997545
137	0xbd90dcf2	-0.07073392
138	0xbda05575	-0.078288
139	0x3d53796b	0.051629465
140	0x3d6125c0	0.05496764
141	0xbd91583a	-0.07096906
142	0x3d34b5d6	0.044118725
143	0x3d21dc0d	0.039516497
144	0xbdbf23fa	-0.09333034
145	0xbcd6dd7e	-0.026228663
146	0xbd210bdd	-0.039317954
147	0xbd82eb97	-0.063925914
148	0x3cada697	0.0211976
149	0x3da4cc69	0.08046801
150	0x3d3b443c	0.04571937
151	0xbd080686	-0.033209346
152	0x3bc550e3	0.0060216053
153	0x3d8bb1a2	0.0682099
154	0xbd3a79ec	-0.04552643
155	0xbd7eaf95	-0.062179167
156	0x3c06c0c8	0.008224674
157	0x3d452bfe	0.048137657
158	0x3d906cc1	0.07051993
159	0x3d1db6d5	0.03850444
160	0xbd623ae5	-0.055231947
161	0xbd42230a	-0.047396697
162	0x3d23cbb7	0.0399892
163	0xbcb42efa	-0.021995056
164	0x3d262ae7	0.04056826
165	0x3cf319c9	0.029675381
166	0x3b8ae1bb	0.004238335
167	0xbd11ffe6	-0.035644434
168	0xbd73bff9	-0.05950925
169	0xbcc502e3	-0.024049228
170	0x3d8d525e	0.06900476
171	0xbd8fd2be	-0.07022618
172	0x3d348b52	0.04407818
173	0xbd6c2367	-0.05765095
174	0xbd984430	-0.07434881
175	0xbda6b11c	-0.0813925
176	0xbc8aa885	-0.01692606
177	0xbd8cbdc1	-0.0687213
178	0x3da13e39	0.07873196
179	0xbd4b2955	-0.049599964
180	0xbd12a4bb	-0.03580163
181	0xbc6ddef4	-0.014518488
182	0xbd67e480	-0.0566144
183	0xbd7331b4	-0.059373572
184	0xbd0d3c86	-0.034481548
185	0x3d891fd1	0.066955216
186	0x3af38892	0.001858013
187	0xbd9162e4	-0.0709894
188	0x3d4ead02	0.05045796
189	0xbd93d97b	-0.072192155
190	0x3db6fd9d	0.08935092
191	0x3d6fe92a	0.058571972
192	0x3d8889f3	0.06666937
193	0x3cc9ba82	0.024625067
194	0xbd8d8616	-0.069103405
195	0xbd4b7da7	-0.04968038
196	0x3d1ec351	0.038760487
197	0x3d5dab4d	0.054118443
198	0x3d895ee5	0.06707553
199	0x3d0cb164	0.03434886
200	0x3da81478	0.08207029
201	0xbc5fefb8	-0.013667993
202	0xbd7a0a60	-0.06104505
203	0x3b7be827	0.0038437934
204	0x3d9f8b25	0.077902116
205	0x3d38f2f7	0.045153584
206	0xbd9058e1	-0.07048202
207	0xbca07ba2	-0.019590203
208	0xbcb94d1b	-0.022619775
209	0x3d2d9fcb	0.04238872
210	0x3ca101f9	0.019654261
211	0x3d972473	0.07379999
212	0xbd3a93c8	-0.04555109
213	0x3a6a2f11	0.0008933405
214	0x3d95da52	0.07317032
215	0xbba78586	-0.005112353
216	0xbd4233f0	-0.047412813
217	0x3d7cd91f	0.0617305
218	0x3d99d1f2	0.07510747
219	0xbd6039ae	-0.054742508
220	0xbd005e31	-0.031339828
221	0x3d9fe89d	0.07808039
222	0x3bf522fc	0.007480977
223	0xbd29b3e1	-0.04143131
224	0xbda31607	-0.07963186
225	0xbd26204f	-0.040558156
226	0x3d335da6	0.043790482
227	0xbd4698a9	-0.04848543
228	0xbba1e0a7	-0.0049401107
229	0x3ddd91c7	0.108188204
230	0xbae6d49a	-0.0017610968
231	0xbc3359e7	-0.010946727
232	0xbd8c09b5	-0.06837789
233	0xbda83465	-0.082131185
234	0x3d73e07c	0.059540257
235	0xbd8f43e8	-0.06995374
236	0x3c3fbbb1	0.011702464
237	0xbda30ea0	-0.07961774
238	0x3c28534e	0.010273768
239	0xbcd1c76e	-0.02560779
240	0x3d682bff	0.056682583
241	0xbd98014a	-0.07422121
242	0x3da88d18	0.082300365
243	0x3d29f0ea	0.04148952
244	0x3d84e4d7	0.0648896
245	0xbd72d9d8	-0.059289783
246	0xbd1df489	-0.038563285
247	0x3ce03778	0.0273702
248	0x3da15427	0.07877379
249	0x3d9765e0	0.07392478
250	0xbce26724	-0.027637072
251	0xbd82af99	-0.06381149
252	0x3cf4a884	0.02986551
253	0x3d61c474	0.055118993
254	0x3da1e29c	0.079045504
255	0xbdc41fa9	-0.09576351

fc2.bias f4 [2]
0	0xbd9a5008	-0.07534796
1	0xbd9a4512	-0.07532705
