models/2024-05-10_12-08-54_Model.onnx (onnx, 448796 bytes, 10 tensors)

conv1.weight f4 [8, 1, 1, 1, 1]
000000 06 a0 3d bf 15 ab 31 3f f3 0e ec be f7 b6 ec 3d
       -0.740723 0.69401675 -0.46105155 0.11558335
000010 1e fd 3a bf c1 b5 13 3e c2 03 22 3f 26 eb 6f 3f
       -0.73042476 0.14424802 0.63286984 0.93718183

conv1.bias f4 [8]
000000 f4 08 53 bf 48 8a e3 3e 71 0e c0 be 51 2d 3f 3e
       -0.82435536 0.44441438 -0.37511018 0.1866963
000010 48 37 41 bf 36 3d fc 3e 6a 34 f8 be bb 1a 14 bf
       -0.7547498 0.4926545 -0.4847749 -0.5785329

conv2.weight f4 [16, 8, 1, 1, 1]
000000 8b 1a a3 be 32 62 a0 be 5e ef 67 be 2c 4a fe bd
       -0.31856188 -0.31324917 -0.22649905 -0.12416491
000010 f3 7e 82 3e 60 6f ce bd fe 91 19 3e 02 64 1a be
       0.2548748 -0.10079837 0.14997098 -0.15077212
000020 4d f3 a4 3e 4b fb a9 3d ee 06 28 3e 32 fd 78 be
       0.32216874 0.082998835 0.16408893 -0.24315336
000030 f4 de 9c 3d 47 a7 53 3e 38 90 2b be a4 dc be 3d
       0.076597124 0.2066928 -0.16754234 0.093194276
000040 ca 56 71 3e 10 ae 82 3e 44 9d 7e 3e cc 29 21 be
       0.23568264 0.25523424 0.2486468 -0.157386
000050 c4 0d db 3d 71 c6 94 3d 00 b1 b5 3d d9 c9 89 3d
       0.10695985 0.07264412 0.08871651 0.067279525
000060 8c 67 fd 3d 87 f2 a6 be f2 8b 6f 3e 36 e3 6d be
       0.123732656 -0.3260691 0.23393229 -0.23231205
000070 76 e4 26 be 79 37 92 3e 96 9e 70 3e ee 53 80 be
       -0.16298088 0.28557947 0.23497996 -0.25064033
000080 6b 88 8f 3e 9e ab 0d be 4c a1 76 be 43 4b 94 3e
       0.28033766 -0.13834998 -0.24084967 0.2896367
000090 7c 9c e1 bd 1d 7d 4a be e7 fe 91 be 37 d4 b0 be
       -0.11016175 -0.1977429 -0.28514788 -0.34536907
0000a0 12 c3 34 3e f3 9d 7d 3e e3 60 8f be 88 ce 8e bd
       0.17652538 0.24767284 -0.28003606 -0.069729865
0000b0 7c 18 95 be a7 d8 12 be 7e c7 c4 bd 13 fd 93 be
       -0.29120243 -0.14340459 -0.096083626 -0.28904018
0000c0 ea 6f 5c be 01 3c cd bd 54 d5 28 3e eb f1 41 3e
       -0.21527067 -0.100212105 0.16487628 0.1893994
0000d0 06 1a 7d 3e 17 58 53 be e6 10 1f be 07 4c 5d be
       0.24716958 -0.20639072 -0.1553379 -0.21611033
0000e0 12 5b 57 be 9b b9 2a be 16 96 8b be af b8 85 3e
       -0.21030834 -0.16672365 -0.27262944 0.26117465
0000f0 5a 47 9d be ae ae 43 3d 8c 39 6c be 80 9b 7b be
       -0.307185 0.04777401 -0.23068827 -0.24571037
000100 e2 d6 3c 3e 7b 93 b3 3d 01 04 a7 3d cb 72 00 3e
       0.18441346 0.08768364 0.081550606 0.1254379
000110 f7 d1 a7 3e 61 38 7b 3e 1d 0c a7 3e e8 c4 03 be
       0.32777378 0.24533226 0.3262643 -0.12868083
000120 2c aa 54 be d6 27 ae 3e e5 87 21 be 01 50 a3 3d
       -0.2076804 0.34014767 -0.15774496 0.07974244
000130 79 25 3c be ce 4d 1d 3d fd 2d 93 be d6 b0 b5 3d
       -0.1837367 0.03840428 -0.28746024 0.088716194
000140 10 97 32 bd 23 cb b3 be a7 13 ae 3e 38 9e 06 3d
       -0.043601096 -0.3511592 0.3399937 0.032865733
000150 60 c5 38 bd 87 15 0e be 0f 60 11 be d0 d2 ab 3c
       -0.045110106 -0.138754 -0.141968 0.020974547
000160 f0 37 85 be 1d 77 94 3e 03 75 91 3e 80 a5 75 3e
       -0.2601924 0.28997126 0.28409585 0.23988914
000170 2c 6c 68 be fb 91 a3 3e 90 af 9f be a5 a5 1b 3d
       -0.22697514 0.31947312 -0.3118863 0.037999768
000180 80 2f 90 be dc 35 cb bd 18 e1 8c 3d 25 82 8a 3e
       -0.2816124 -0.09922382 0.06878871 0.27052417
000190 a7 6d a7 3e 00 09 95 3d c0 c8 c1 3b 44 cc a0 bd
       0.32700846 0.07277107 0.005913824 -0.078514606
0001a0 c2 72 6f 3e f9 73 8b be 2f 0e 7e 3e 6f a9 51 bb
       0.2338362 -0.27236918 0.24810098 -0.003199186
0001b0 b6 7c 65 3e c5 3a b7 3e 22 27 ad 3d 4f c1 b6 bd
       0.22410855 0.35787025 0.084547296 -0.089235894
0001c0 a8 3b 86 be dc 3a 1f be 12 76 34 be aa db 40 bc
       -0.2621739 -0.15549797 -0.17623165 -0.011771122
0001d0 64 ad 8a be 4a d9 b5 be 73 a7 22 3d dd c3 84 3e
       -0.27085412 -0.3551734 0.039710473 0.25930682
0001e0 7a 7a 51 3e b0 c4 96 be 19 88 ad 3e d1 8b 9d 3e
       0.20456877 -0.29446936 0.33892897 0.30770734
0001f0 17 94 b2 3e 4f da 82 3e fb 4c 8b be b4 69 c8 bd
       0.3487861 0.2555718 -0.2720717 -0.09785786

conv2.bias f4 [16]
000000 4a 24 a7 be 8e 01 a1 3d 6e a8 4b be f0 69 fa 3d
       -0.32644874 0.07861625 -0.1988847 0.12227237
000010 98 35 92 be 25 62 c8 ba c1 b6 f8 3d cf 3b 68 3e
       -0.28556514 -0.0015288038 0.121442325 0.22679065
000020 c3 32 e8 bd d3 5e 07 be d6 d9 9a be 8e 5d 22 be
       -0.11337807 -0.13219766 -0.3024432 -0.15856001
000030 aa ef db bd 35 a5 83 3e fa 42 8e 3e a0 12 bb 3c
       -0.10739072 0.2571198 0.27785474 0.02283603

conv3.weight f4 [32, 16, 1, 1, 1]
000000 a6 f5 5e 3e 0c fa fd 3d 55 b9 64 3e 35 00 00 3e
       0.21773395 0.12401208 0.22336324 0.12500079
000010 42 3f 58 3e c1 aa c5 bb 1a 4a 38 3e 78 95 3e 3e
       0.21117881 -0.0060323183 0.17997018 0.18611705
000020 a0 cd 06 3e 4a 0f d1 bd 42 19 3e 3e 42 51 8a bd
       0.13164377 -0.10207994 0.18564323 -0.0675378
000030 fa 2e 27 be 9f 19 c9 bd 18 42 d0 bd 19 18 31 3e
       -0.16326514 -0.0981934 -0.101688564 0.17294349
000040 5c 1d 1f 3e 3c c8 ce bd ba 0a 29 be 34 99 f0 3d
       0.15538543 -0.100967854 -0.16507998 0.11747971
000050 be 47 17 3e 4c 65 84 bd b4 1c 18 3e 88 c3 75 3d
       0.14773461 -0.06464633 0.148547 0.060000926
000060 88 16 9b bd d0 d5 ee 3c a0 03 32 3e ec 66 be bd
       -0.07572657 0.029154688 0.17384195 -0.092969745
000070 82 6b 64 3e e6 c9 11 3e 2c 0a 7d 3e 1c 82 fe 3d
       0.22306636 0.14237174 0.24710912 0.1242716
000080 38 fd 2a 3e 9a a4 f3 bc c0 4d 04 bc 7c 12 8b 3d
       0.16698158 -0.029741574 -0.008075178 0.06790635
000090 b8 f5 3f be 7a ac 9e bd 81 9c 51 bd 69 b8 8a 3c
       -0.18746078 -0.07747741 -0.051174644 0.016933637
0000a0 7f 7f 87 be 0c 4f c9 bd ac 64 bc bd 85 a5 b9 bd
       -0.2646446 -0.0982953 -0.09198889 -0.090647735
0000b0 24 14 9c 3d 45 a5 81 bc ec 72 2a 3e 5c 7b 22 bd
       0.07621029 -0.015825877 0.16645402 -0.039668426
0000c0 2e f0 50 be bf 8b e1 3d 28 53 60 3e e5 58 4f 3d
       -0.20404121 0.110129826 0.21906722 0.050621886
0000d0 48 26 0e 3d 36 58 65 3d 45 c0 21 3e a8 b4 40 be
       0.034704477 0.055992328 0.15796001 -0.18818915
0000e0 58 09 69 3e 77 bf 21 be 50 08 6f 3d 67 c6 cc 3d
       0.2275747 -0.15795694 0.058357537 0.0999878
0000f0 b0 91 99 3c 18 71 96 3d d3 e7 44 3e f5 41 ef 3c
       0.018746227 0.0734579 0.19229059 0.029206255
000100 5c 27 9d 3d 6a 45 61 3e f6 d3 49 be 1a 93 36 be
       0.07673523 0.21999136 -0.19709763 -0.17829552
000110 4c 06 28 3e 74 fc ad bd 40 1d 59 bc a8 d3 d6 3d
       0.16408652 -0.08495417 -0.013251603 0.10489589
000120 1c 8a df bd 50 8a 38 3d dc f0 4a 3e 1e d7 5b 3e
       -0.10915014 0.04505378 0.19818443 0.2146878
000130 e0 86 63 3d f4 82 b2 bd fc 0a 20 3e de df 57 3e
       0.05554855 -0.087163836 0.1562919 0.21081492
000140 80 f0 7d bd a6 63 25 be f8 d0 1f 3d 44 88 cf bd
       -0.061996937 -0.16151294 0.039017648 -0.101334125
000150 58 6f 75 bd 3c 6b 77 3e ee c1 08 be e0 8c 42 bd
       -0.05992064 0.24162 -0.13355228 -0.04749763
000160 00 e3 27 bb 8a ef 19 3e 80 57 2b bd 60 f8 fc bc
       -0.002561748 0.15032783 -0.041831493 -0.030880153
000170 c0 f9 b2 bc 8e 86 4e 3e d4 82 61 be c8 b4 19 bd
       -0.021847606 0.20168516 -0.22022563 -0.037525922
000180 ca 55 3d be e7 23 12 be 39 9b 22 3e 07 4a 03 3e
       -0.18489757 -0.14271508 0.15879525 0.12821208
000190 46 9a 1b be f0 8b 71 3e 72 18 29 3e 4f 09 ac bd
       -0.1519557 0.23588538 0.16513231 -0.08400213
0001a0 70 f5 82 bd f7 6f a0 3d 80 dc 6a 3d f8 42 8e 3d
       -0.0639447 0.078338556 0.05733919 0.06946367
0001b0 b8 23 11 bd 3a 31 96 3c f2 e6 1e 3e 56 59 84 3e
       -0.035434455 0.01833402 0.15517786 0.25849408
0001c0 c0 04 78 3d 30 63 40 3e 80 f9 01 bc 40 28 46 be
       0.060551405 0.18787837 -0.007933021 -0.19351292
0001d0 d0 13 7d 3d b0 50 e1 3d fc 73 53 be 40 a4 ea bb
       0.061786473 0.11001718 -0.20649713 -0.0071606934
0001e0 76 8c 07 3e 94 f9 54 3e 64 25 fd 3d fe 0b 68 be
       0.13237175 0.20798331 0.12360647 -0.22660825
0001f0 ee b1 09 3e 40 bc fc bd 62 32 54 be b0 23 9a bc
       0.13446781 -0.12340593 -0.20722345 -0.018815845
000200 28 da 53 bd 00 1a 94 bd 12 86 1b be c8 55 d3 bd
       -0.051721722 -0.072315216 -0.15187863 -0.10319096
000210 90 ab 43 3d fc 72 5c be 70 2f 87 bc f2 ad 29 be
       0.047771037 -0.21528238 -0.016502112 -0.16570261
000220 30 90 d6 3c 12 e8 06 be de bf 0b 3e 24 4e a5 3d
       0.0261918 -0.13174465 0.1364741 0.08071545
000230 7a 29 57 3e e4 6f 13 be 90 81 5b 3d f0 7c 34 bd
       0.21011916 -0.14398152 0.053590357 -0.044064462
000240 d4 da 29 3e 78 2c 62 3d 3e ab 4a be f2 c4 25 3e
       0.16587383 0.05521819 -0.19791886 0.1618841
000250 b0 34 0b bd b8 27 51 3d b0 d8 9b 3d 88 be 0f be
       -0.033985794 0.05106327 0.07609689 -0.14037526
000260 b0 83 6b be 18 51 26 3e 4a 3e 4b be c4 f2 fc bd
       -0.22999454 0.16241872 -0.1984798 -0.12350991
000270 c8 83 5b bd 2c a3 26 be c8 a3 7d be 94 b4 18 be
       -0.053592473 -0.16273183 -0.24769509 -0.14912635
000280 ec 12 cc bd 75 55 48 3e af cc 2c 3d 1d 4b f2 3d
       -0.099645466 0.1956385 0.04218739 0.11830733
000290 b0 fe a6 3c 2a 9d 2d 3c a1 c9 fa 3d e4 3e 5b 3e
       0.020385116 0.010596553 0.12245489 0.2141071
0002a0 dd 69 61 3e 66 6f 7d bd 00 fc b6 b9 b2 19 01 be
       0.2201304 -0.061873816 -0.000349015 -0.12607458
0002b0 0c e6 96 3d 98 e9 24 be 4c 89 5f be 86 38 d0 3c
       0.07368097 -0.16104734 -0.21829718 0.025417577
0002c0 78 9e b9 3d bd 5e db 3b 4c a4 2a be 27 d7 93 3d
       0.09063429 0.0066946433 -0.16664237 0.072187714
0002d0 c6 77 17 3e 1a 1e 4d 3e 36 9b 4d 3d 6e b1 35 3e
       0.14791784 0.20031014 0.05019685 0.17743465
0002e0 71 e2 ed 3d 63 56 0c 3d 78 8a 15 be 1e fd 63 3e
       0.11615456 0.034262072 -0.14603603 0.22264525
0002f0 a8 ba 70 3d 73 0e 26 be 7e e6 b0 3d ce d6 b1 3c
       0.05877176 -0.1621645 0.08637713 0.021708872
000300 3e d2 6f 3e 85 29 42 3e b3 38 77 3e 9f 3b 04 3e
       0.23420045 0.18961151 0.24142723 0.12913369
000310 e0 49 50 be 54 13 23 be 61 a5 61 be 23 e6 00 be
       -0.20340681 -0.15925342 -0.22035743 -0.1258779
000320 0d c3 25 3e 1a 5d 7e be f0 88 c4 bc f4 a7 48 3e
       0.16187687 -0.24840203 -0.023991078 0.19595319
000330 02 8d 17 be 4b af 0b be 06 d5 7c 3d b7 12 a9 bd
       -0.14799884 -0.13641088 0.061726592 -0.08255523
000340 14 67 a8 bd d3 3e 26 3e 63 32 f4 bd 58 52 d8 3d
       -0.082227856 0.16234903 -0.11923673 0.10562581
000350 84 ed 02 be 75 8f 2f 3e 7a 27 01 3e b5 1c 71 bd
       -0.12785918 0.17144568 0.12612715 -0.058865268
000360 66 9a 9a bc 72 b7 0c be 70 11 7f 3e aa 72 dd 3d
       -0.018872451 -0.13741854 0.24908996 0.10812886
000370 bc 09 ba 3d 3e 75 62 3e db cc c7 3d ef bf 5b be
       0.09083888 0.22115037 0.0975587 -0.21459936
000380 86 e5 77 be 74 82 d7 3d 24 87 2d 3e 5a cf 21 be
       -0.2420865 0.10522929 0.16946083 -0.15801755
000390 a8 79 e4 bd 98 26 57 3e a8 0e 3d be 00 5c d0 3a
       -0.111560166 0.21010816 -0.18462622 0.0015896559
0003a0 44 19 76 be 10 00 32 bd 00 c2 2e ba b0 9b 79 bd
       -0.24033076 -0.04345709 -0.00066664815 -0.06093949
0003b0 c4 a2 36 be a0 06 16 3c 64 e5 95 3d 8c a1 9a bd
       -0.17835528 0.009156853 0.073191434 -0.07550344
0003c0 f0 d7 c0 3d 02 f8 51 3d c4 a0 95 bd af 4a d4 bc
       0.09416187 0.05126191 -0.07306054 -0.025914518
0003d0 dc 8b 7c 3e 7e 88 48 be c9 1b 91 bd 13 bb 71 be
       0.24662727 -0.19583318 -0.07085378 -0.2360652
0003e0 09 c3 01 3c 4f 0a 09 be 6c 5b 4d 3e 3c c0 e4 3d
       0.007920035 -0.13382839 0.20054406 0.11169478
0003f0 b0 21 61 bd 64 34 db bb 5e a7 8b 3d 95 2e 4a 3e
       -0.054963768 -0.006689595 0.06819032 0.19744332

conv3.bias f4 [32]
000000 7b f0 17 be 6e f4 7f be f4 bc 94 bc 7d ff 3e be
       -0.1483783 -0.24995586 -0.018156506 -0.18652149
000010 bc aa f7 bd f8 bf 50 be a7 3e 6d be 88 a6 39 be
       -0.12093112 -0.2038573 -0.23168431 -0.18129933
000020 a0 0e 53 be 34 84 b3 3d 94 26 93 3c 68 3b da bd
       -0.20611048 0.0876545 0.017962731 -0.10655862
000030 94 22 82 be 80 61 00 be 60 ec 1e bd 48 49 82 3d
       -0.25417006 -0.12537193 -0.038799644 0.063616335
000040 c0 b4 7f bd fc ba b1 3c fd 7f bf bd cb 5a b3 bc
       -0.062428236 0.021695606 -0.09350584 -0.02189388
000050 1b b9 78 3c 65 ee 3f 3d af 4d 74 be 12 5d a6 3d
       0.015180851 0.04685821 -0.23857759 0.081232205
000060 32 78 14 3d 72 9e 4c 3e a0 35 58 be 80 ef 1c be
       0.03624744 0.19982317 -0.21114206 -0.15325737
000070 08 33 54 3d 10 3a 22 be c0 93 e4 bd cb 42 68 3e
       0.05180648 -0.15842462 -0.111609936 0.2268173

fc1.weight f4 [128, 864]
000000 98 a3 bd bc ab f8 9b 3c f8 6b b1 3c 8a 37 4f bc
       -0.023149297 0.019039473 0.021657929 -0.012647519
000010 09 50 9e 3c be 7a 39 bc 6a dc 0b bc 58 a6 22 bd
       0.019325273 -0.011320768 -0.0085364375 -0.03970942
000020 1b dd 70 3b 3f b5 09 bd 97 fd c8 bc 31 b7 dc 3c
       0.0036752883 -0.033620115 -0.024534984 0.026942821
000030 cc 40 31 bd 3c 34 b4 3b 4d 54 43 3a 28 3c 19 bd
       -0.043274686 0.005499391 0.00074512215 -0.037410885
000040 14 8d 8c 3b 1a 19 72 3c c4 2c cc bb 64 13 e9 3c
       0.0042892788 0.0147764925 -0.0062309224 0.028451629
000050 fe 1b 8e bc a9 f4 1e bd 56 08 a8 3c 0b 5a 90 bc
       -0.017347332 -0.038807545 0.020511787 -0.01762106
000060 91 d0 2b bc 82 cb 19 bd fc 1c 93 3c ac d4 ea bb
       -0.010486738 -0.037547596 0.017958157 -0.0071664657
000070 d8 31 fd 3c f0 20 ab bc 38 0e 03 3d f1 aa 87 bc
       0.030907556 -0.02088973 0.031995982 -0.016561003
000080 ba d5 d4 bc 7c a5 04 bc a0 ee c9 ba 36 de 02 bd
       -0.025980819 -0.008096095 -0.0015406199 -0.031950198
000090 90 fc fc 3c be da 03 3d 06 2f d0 3c e7 27 09 bd
       0.03088215 0.03219103 0.025413048 -0.03348532
0000a0 fe 9d db 3c 8c d6 f8 bc 20 13 d3 bc c7 90 8e bc
       0.026808735 -0.030375741 -0.025765955 -0.01740302
0000b0 86 81 c8 3c 27 24 f4 bc 8c da e3 3c 12 71 00 3d
       0.024475824 -0.029802395 0.027814172 0.031357832
0000c0 e0 a1 ae bb 70 0e ae bb fc 28 c1 3c 84 4f cf 3c
       -0.0053293556 -0.0053117797 0.023579113 0.02530647
0000d0 15 9b 06 bd 0e 0c ce 3c ec ab 6d bc c9 5e 20 bd
       -0.03286274 0.025152232 -0.014506321 -0.039152894
0000e0 c3 5d b9 bc fe fc 10 bd 65 46 77 3c 83 4b b7 3c
       -0.022627717 -0.035397522 0.015092467 0.022374874
0000f0 c0 b2 03 bd 3f 1c cf bc 42 c6 b3 bc f0 99 89 bb
       -0.03215289 -0.025282023 -0.021945123 -0.004199259
000100 cb 90 80 3c 4b bc 37 3c ec 13 58 3c ec c7 47 3c
       0.015694043 0.011214326 0.0131883435 0.012193661
000110 98 81 97 3c e0 f4 cc 3c 44 f6 9d 3c c2 c7 2e bc
       0.018494412 0.02501911 0.019282468 -0.010667743
000120 73 4a 89 bc f8 8c 01 bd d7 54 a6 3c 28 6c da 3a
       -0.016759133 -0.03162858 0.020304127 0.0016664313
000130 f7 cb cc 3c 27 89 09 3c 68 bd 03 bd fc 8d 8d bc
       0.024999602 0.008394516 -0.032163054 -0.017279617
000140 81 ba 02 bc f0 79 eb bc 02 04 02 bd 60 a5 df 3a
       -0.007979036 -0.028744668 -0.031742103 0.0017062835
000150 9f cb 90 3c 5c 17 d7 bb 1f 4a 2b bd 43 e5 85 bc
       0.01767522 -0.006564064 -0.041818734 -0.016344672
000160 09 36 8d bb 41 93 cc bb da 84 d1 3b 1d 52 c1 3c
       -0.00430942 -0.00624314 0.006394011 0.023598725
000170 81 1a 9b bb 19 1e 7a 3b 39 d6 61 3b 72 a5 c3 bb
       -0.004733384 0.0038164912 0.0034459962 -0.0059706504
000180 7f 94 12 3c c8 b4 74 3b 29 0b ac 3c 03 e4 01 bd
       0.008946537 0.00373392 0.021001415 -0.03171159
000190 29 c2 c3 3a 03 74 3b 3c 82 94 22 bc 2c 97 ef bc
       0.0014935184 0.011441234 -0.009923102 -0.029246889
0001a0 20 b5 e4 bc 7c d9 d0 3c 22 04 b0 3c 26 02 b8 3b
       -0.027918398 0.02549433 0.021486346 0.0056154905
0001b0 e6 7a 8a bc 2c cc ec 3c a4 e9 21 bc 83 a9 e3 bc
       -0.016904306 0.02890595 -0.009882364 -0.02779079
0001c0 ac 65 1e bc 54 1f 98 3c c0 af bb ba c3 60 8d bc
       -0.009667795 0.018569626 -0.0014319345 -0.017258054
0001d0 8c 69 f1 3c 1c 72 b6 3c 00 e2 b9 3a b0 1d 3f 3b
       0.029469274 0.022271208 0.0014181733 0.0029161982
0001e0 d0 da ad 3c 30 8f 68 3c 87 55 80 bc 62 d6 c5 3c
       0.021222502 0.014194295 -0.015665783 0.024150077
0001f0 7e 2c e4 3c b0 a2 06 3d a8 00 5e 3c 30 49 6d bc
       0.027853247 0.032869995 0.013549961 -0.014482781
000200 0e 56 db bc 28 f8 df bb b6 30 43 bc c0 bb bd ba
       -0.026774433 -0.0068350025 -0.011913469 -0.001447551
000210 cc 3f e4 3c 00 65 9c 3a b2 e7 20 bc d8 1e d9 3c
       0.027862452 0.0011931956 -0.0098208655 0.026503965
000220 88 38 bd bb d6 b0 e3 3c 70 b5 b4 3b 00 bc 55 38
       -0.0057745613 0.027794283 0.005514793 5.0958246e-05
000230 40 7e e9 ba 94 1a 5f 3c 74 34 cb 3c e7 55 a1 bc
       -0.0017814115 0.013617177 0.024805285 -0.019694282
000240 30 d6 23 3c ac d0 a5 bc f4 d3 f9 3c 80 e8 c8 3a
       0.009999797 -0.020241104 0.030496575 0.001532808
000250 d6 2d e7 bc 50 42 8f 3c 00 76 5d 3b 20 ab 6c bc
       -0.028220098 0.017487675 0.0033792257 -0.014445096
000260 60 b6 4b bb 62 02 85 3c 0a 41 0a 3d 90 29 2d 3b
       -0.0031084046 0.016236488 0.033753432 0.0026422478
000270 05 a8 c3 bc 18 15 8c 3c 3c 21 10 3c f4 09 91 3c
       -0.023883829 0.017099902 0.008796986 0.017704941
000280 a0 62 13 3c e9 bd 06 bd 5c 83 d9 bc b0 59 9a 3c
       0.008995682 -0.032895956 -0.026551895 0.018841594
000290 e2 bc 24 bc 4c ac f6 bc 38 cd 07 3c 0e dd c7 3c
       -0.010054799 -0.030111454 0.008288674 0.0243974
0002a0 a8 69 b9 3b 78 43 34 bc b0 cc ea 3c c3 b7 01 bd
       0.005658347 -0.011002414 0.028662056 -0.03166939
0002b0 48 8e d7 3a 42 1f 5e bc 99 3f c5 3c bb 39 73 bc
       0.0016445601 -0.013557257 0.024078177 -0.014845307
0002c0 65 8f 97 bb ab fa de 3c 63 07 78 3c e0 89 82 bc
       -0.0046252483 0.027219137 0.01513848 -0.015934885
0002d0 c6 1d 93 3c 50 a2 20 3d 9b 48 eb bc 23 ec c0 3c
       0.017958533 0.039217293 -0.028721144 0.023550099
0002e0 f8 23 88 3c 11 5e 1a 3c 3f 76 ab bc 52 1d 7a bc
       0.016618714 0.009421841 -0.020930408 -0.01526578
0002f0 b6 0d 4e bc 40 10 f2 3c 4c d6 b3 bc 04 50 09 bc
       -0.012576511 0.029548764 -0.02195277 -0.008380894
000300 32 41 a4 3c 62 66 ab 3c a2 e0 f5 bc 68 e7 7f bb
       0.020050619 0.020922843 -0.03001434 -0.003904784
000310 a0 4e 91 3a e6 7a 05 3d 71 c1 06 bd 8e cc cc 3c
       0.0011086054 0.03258791 -0.032899324 0.024999883
000320 b0 d3 d3 3c 90 e2 08 3b a6 41 01 3d d8 d7 84 3c
       0.025857776 0.0020886995 0.031556748 0.016216204
000330 f6 46 fb bc c8 5c 63 bc 80 7f 9a bb b0 ea 2c bc
       -0.030673485 -0.013877101 -0.004714906 -0.010554001
000340 40 c8 d6 bc 90 93 db 3b 30 9e 7b 3b a7 ca c6 bc
       -0.026218534 0.0067009404 0.0038393848 -0.024266554
000350 9a ab 6c bc 96 a7 90 3c 40 74 08 bb 68 d6 e9 3c
       -0.01444521 0.017658036 -0.0020821244 0.02854462
000360 c4 60 3e 3c 08 29 13 3c 2c 4a 4f 3c 68 78 90 3b
       0.01161975 0.008981951 0.012651961 0.004408885
000370 80 79 f6 3a e8 ea 3b bc 98 87 a6 3b 86 f9 8a 3c
       0.001880452 -0.01146958 0.005082082 0.016964685
000380 3c c8 86 bb c0 d9 4a 3a 52 72 fc bc da 93 84 3c
       -0.0041132253 0.0007738136 -0.03081623 0.016183782
000390 3c c3 2f 3c d1 f2 f6 bc e4 83 5c 3c 18 9a 08 bd
       0.0107277 -0.03014508 0.01345918 -0.03335008
0003a0 7e 58 07 bd 92 08 81 bc a0 b2 13 bb 16 4b d7 3c
       -0.033043377 -0.015751157 -0.0022536889 0.026280921
0003b0 a2 8d a8 bc 70 a7 4b 3c 38 80 98 3b cc df fd bb
       -0.020575348 0.012430057 0.0046539567 -0.007747626
0003c0 70 bf 1b bb d0 96 c9 3c c0 e9 00 3c ae 35 08 3d
       -0.0023765229 0.024608046 0.00786823 0.033254318
0003d0 18 fd 58 3c 5c 00 10 bc 4e ac 7f bc e8 10 20 3c
       0.013243936 -0.008789148 -0.0156050455 0.009769656
0003e0 88 58 91 bb 44 73 df bc cc 3c 43 3c e0 54 14 bb
       -0.0044356026 -0.027276643 0.011916351 -0.0022633597
0003f0 21 9b 9a bc 72 f0 dd bc 00 cc 95 b8 62 f6 c7 bc
       -0.0188728 -0.027092192 -7.1428716e-05 -0.024409477

fc1.bias f4 [128]
000000 b8 ac f7 bc dd 3e d2 bc c5 a1 a7 bc a8 d3 3f bb
       -0.030233726 -0.025664741 -0.02046288 -0.0029270444
000010 8f cb de bb 2b 17 30 3c cf 8b ab bc d4 41 62 bb
       -0.0067991684 0.010747711 -0.02094069 -0.00345241
000020 6b c2 f7 bc a0 66 2f 3c 77 a9 b7 bc ca c6 cc 3c
       -0.030244073 0.01070562 -0.022419674 0.024997134
000030 38 97 e8 bc 33 4b a5 ba fa 00 e0 bc 82 2b e2 3c
       -0.02839242 -0.0012610912 -0.027344216 0.027608637
000040 02 73 53 bc f0 5d 43 3b 70 d7 3a 3b 15 76 e6 3c
       -0.012905838 0.002981063 0.0028509758 0.028132478
000050 a7 31 09 bd 6b 29 b7 3b 44 a8 e1 bc 74 8b 04 bc
       -0.033494618 0.005589654 -0.027546056 -0.008089889
000060 6c 10 d2 bc c8 b4 e7 bb aa aa 6e bc 3c 0f 21 bd
       -0.025642596 -0.0070711114 -0.014567057 -0.03932117
000070 8c 3a c5 bc b4 39 b3 bc 86 70 39 39 cf d4 4c bb
       -0.024075769 -0.021878101 0.00017684893 -0.0031254773
000080 9a eb 6d 3c a9 ea de 3c 0a 5e 37 bb b9 f4 48 bc
       0.014521504 0.027211504 -0.0027979636 -0.012265378
000090 b0 94 cd 3b db f7 76 bc f2 9e ef 3c 2c ca 53 bb
       0.0062738284 -0.015073742 0.029250596 -0.0032316549
0000a0 b6 a5 6b bc 68 2d 83 3b b4 d4 d2 3c 77 de 49 bb
       -0.01438277 0.0040032156 0.02573619 -0.0030802765
0000b0 b3 00 6a 3c fc 00 84 bc 8c e3 9c 3c c0 ac b2 3c
       0.014282393 -0.01611375 0.019151472 0.02181089
0000c0 50 a7 9f 3c 31 0a a5 bb 55 02 c9 3c e2 97 c7 bc
       0.01948896 -0.0050366153 0.024537245 -0.024364416
0000d0 6d bf 07 3c 31 bd 8f 3c cc 29 90 3b 42 c1 d7 bc
       0.008285386 0.017546268 0.004399514 -0.02633727
0000e0 66 b8 07 bd 18 00 9d bc 65 29 ea bc a8 cb 6b 3c
       -0.03313484 -0.019165084 -0.028584192 0.014391817
0000f0 77 93 b4 3c 8e c7 75 ba 7e 85 aa 3c fa d6 b2 bc
       0.022042973 -0.0009375744 0.020815607 -0.021831024
000100 2f dc 25 bc 98 62 88 3c 5d 84 c9 bc 81 04 17 bd
       -0.010123297 0.016648576 -0.024599249 -0.03686953
000110 37 d1 21 bd 93 c2 18 bb e2 6f 11 bd 63 82 c8 3c
       -0.039506163 -0.0023309335 -0.03550709 0.024476236
000120 4f 22 f0 bc 80 22 e6 3c 75 40 13 3c fe 86 0f 3c
       -0.029313235 0.028092623 0.008987536 0.008760212
000130 a0 e3 d5 3c 50 6a 4a bc 92 5c e7 bb d3 b8 cc bc
       0.026109517 -0.012354448 -0.007060596 -0.024990475
000140 a0 61 82 3c 4c 8c a0 bc b4 a6 ee 3c c7 11 5c 3c
       0.015915692 -0.019598149 0.029132225 0.013431973
000150 bf 94 d1 3c fc 78 05 3c 90 e0 c3 3b b9 bc e3 3c
       0.025583623 0.008146521 0.0059776977 0.02779995
000160 33 85 fd 3c b4 34 a1 3a e8 b3 e8 3b fc 83 b1 bb
       0.030947303 0.0012299032 0.0071015246 -0.005417345
000170 4a f0 fc bc 5c c6 91 bc 2d ff 4b 3b 12 f2 ce bc
       -0.030876298 -0.01779478 0.0031127438 -0.025261912
000180 13 67 a2 3c f7 af f9 bc 92 be b6 bc 5b e8 fc 3a
       0.01982454 -0.030479414 -0.022307668 0.0019295322
000190 b1 0a b7 bc 5c 1f 8e bc 14 0c 21 3c 7c ca 60 3a
       -0.022343965 -0.017348938 0.00982954 0.00085750944
0001a0 9f 50 fa bc f9 11 18 3c 7c 41 9d bc 2e 98 dd 3c
       -0.030556021 0.009281629 -0.019196264 0.027050104
0001b0 31 68 f4 3b 6c 36 1b bd 7a e9 87 3c 36 77 53 3b
       0.0074587096 -0.037893698 0.016590822 0.00322671
0001c0 5a 89 bf 3c 00 e2 e0 b8 2c 23 d1 3c 80 59 f8 bb
       0.023380924 -0.00010723248 0.025529467 -0.0075790286
0001d0 7a 6f b7 bc 72 32 a9 bc 45 a9 d4 bc ef 05 01 bd
       -0.022392023 -0.020653937 -0.02595962 -0.0314998
0001e0 56 35 a8 3c ee a5 70 3d 8a 01 5c 3c bf 6e 2f bb
       0.020533245 0.058751993 0.013428101 -0.002676889
0001f0 cc 71 29 3d ad 23 e9 3c 5f 08 20 bd 83 c2 18 bd
       0.04136829 0.028459394 -0.039070483 -0.037294876

fc2.weight f4 [2, 128]
000000 2b 37 20 3d fc 0b 3f bd 15 e9 81 3d b9 72 91 3d
       0.039115112 -0.04664229 0.06343285 0.0710196
000010 13 9c 41 3c b2 7e 6f bd 3b 71 ab 3b 1e e1 2d 3c
       0.011816996 -0.058470435 0.005232004 0.010612754
000020 5f 93 d9 bc 82 e1 0b 3b df c3 fb 3c f9 63 3e bd
       -0.02655953 0.002134413 0.030733047 -0.04648206
000030 44 c6 dc 3c 53 56 71 bd c6 00 6b 3d 53 be 9e 3d
       0.02695001 -0.058920216 0.057373784 0.07751145
000040 63 4a aa 3b 8c d1 b8 bc 5d 69 85 3d c0 5e 9c bd
       0.005196856 -0.022560857 0.06514237 -0.0763526
000050 f8 67 41 bd 75 2e 6a bd eb bb 5a 3d 6a 9e 11 3d
       -0.047218293 -0.05717321 0.05340187 0.035551466
000060 d6 3b ac bd 5a 13 51 bd 45 fd 88 bd 7e 3c 28 3d
       -0.0840985 -0.051043846 -0.06688932 0.041073315
000070 c6 7b a5 bb 70 39 84 3b 50 83 e1 3c 6c 75 4a 3d
       -0.0050501553 0.0040351674 0.027528435 0.04942839
000080 e8 83 d2 3b 68 56 f1 3c c5 1c f4 3c 3a c8 47 bd
       0.006424416 0.029460147 0.029798875 -0.048774935
000090 d2 d6 25 bd 77 b7 58 3c e9 bd 55 3d 5c d2 69 3d
       -0.04048807 0.013227335 0.052183066 0.05708538
0000a0 39 e9 fa bb 80 9b 38 3a 1b f9 64 3d 12 1f 74 bd
       -0.007657197 0.0007042214 0.055901628 -0.059599943
0000b0 c4 e1 e4 3c a4 d8 8a bc f0 53 30 bc 52 cb 9f 3b
       0.027939685 -0.016949005 -0.0107622 0.0048765326
0000c0 ec d2 90 3d bd d9 9d 3d 9a 10 95 bd a4 90 b2 3d
       0.0707148 0.07707546 -0.07278557 0.08718994
0000d0 16 e8 a1 3d b9 dc ff bb 50 0c d8 bb aa 36 42 3d
       0.07905595 -0.0078082946 -0.0065932646 0.047415413
0000e0 1c 02 45 3d cf be 39 3d 91 16 9d 3b 70 dc 80 3c
       0.048097715 0.045347985 0.00479395 0.015730113
0000f0 94 15 07 bd 36 8d 86 3d 74 6f 7e bc e3 f2 c6 3c
       -0.032979563 0.065699026 -0.015529502 0.02428574
000100 74 08 7b 3d 7e fd 8e 3d 34 ee 15 3d 1a 84 96 3d
       0.06128736 0.069819435 0.03660412 0.07349415
000110 09 61 c8 bc 10 2e 82 3d 07 69 c7 bb 26 e5 29 3d
       -0.024460332 0.06356442 -0.0060855183 0.0414783
000120 0b 4f dc bc 13 1f 26 3d f4 4d 99 bd 33 4f 43 bd
       -0.02689316 0.04055698 -0.074855715 -0.047682952
000130 5b 58 c3 bc 35 22 80 3d fd c6 f3 bb be bf 4f 3d
       -0.023845842 0.062565245 -0.0074394927 0.05071997
000140 88 29 8c bd d0 53 2a bc ac 72 9e bd 77 b3 8c bd
       -0.06843859 -0.010395959 -0.07736716 -0.06870168
000150 f4 62 51 3d 3d f8 f2 3c cb 88 a0 3d 49 71 ad bc
       0.05111976 0.029659385 0.07838591 -0.021172183
000160 67 e7 2a bd 4d 90 94 bc 03 7c ac bd 18 fd a3 3d
       -0.04172459 -0.018135214 -0.08422091 0.08007258
000170 70 28 eb bc 61 ec ca bb fd 93 a1 bd 91 fe 50 3d
       -0.028705806 -0.0061927293 -0.07889555 0.051024023
000180 db a0 87 bd 10 49 c9 3b 86 9d 34 3d de d2 9e bc
       -0.066224776 0.006142743 0.04409554 -0.019387659
000190 ee b9 6d 3d 60 05 6c b9 00 a7 c7 3b a3 f8 28 bd
       0.058038644 -0.00022508716 0.006092906 -0.041252743
0001a0 dd d6 60 bd d3 2f 7d bd 74 33 b6 bc c6 90 54 3d
       -0.05489241 -0.061813187 -0.022241332 0.05189588
0001b0 03 fb 9d 3d 05 25 21 bd c6 e7 4a 3d 2b 6b b9 3b
       0.07713892 -0.039341945 0.049537443 0.0056585274
0001c0 a4 9b 4b 3d db e8 98 bd 2b e6 88 bd a4 dd ab 3c
       0.049708977 -0.07466289 -0.06684526 0.02097971
0001d0 5c 1d 57 bc 8f a8 68 bd 0b 6c c9 3b 42 0d 27 bc
       -0.013129558 -0.056801375 0.006146913 -0.010196032
0001e0 04 8c 7d 3c 54 a4 c1 3d 6e d5 1b 3c 67 52 8d bd
       0.015475277 0.09455171 0.009511335 -0.069004826
0001f0 3c af a2 bc 0d 52 97 bd 6b 8b de 3c d9 65 24 bd
       -0.019858949 -0.07388697 0.027166089 -0.040136192
000200 24 ab 8b bd 4b a4 52 3d 44 46 ed 3c 36 76 79 3d
       -0.06819752 0.051426213 0.02896417 0.06090375
000210 52 20 7f bd 50 42 87 3d 55 4a d0 bc c2 8e 99 bd
       -0.062286682 0.06604445 -0.02542607 -0.07497932
000220 97 de db bc c7 4f 2a bd 87 b4 84 3d 77 21 00 3b
       -0.026839538 -0.041579988 0.06479745 0.0019551197
000230 10 1a fe bc 29 e3 99 3d d6 72 a3 3d 30 c3 41 bc
       -0.031018287 0.075140305 0.079808876 -0.0118263215
000240 53 6e 3b 3c dc 77 b9 3c d8 e6 3b 3c ce a6 6f ba
       0.011439878 0.022640161 0.011468612 -0.00091419823
000250 25 54 43 3d d8 80 01 3c ac 99 92 bd 7d c6 7a bd
       0.04768767 0.007904254 -0.07158217 -0.06122445
000260 e4 5e 7b bd 22 c7 7a 3d d6 ca 8d bd 4c ba 48 bd
       -0.06136979 0.061225064 -0.069234535 -0.04900579
000270 98 a4 2f bb 98 a5 57 bd 38 a8 c2 bc b4 f6 6c 3d
       -0.0026800986 -0.052648157 -0.023761854 0.057852462
000280 9d d9 93 3c 70 6a 71 3d f2 00 8d 3d 32 d0 be 3b
       0.018048102 0.058939397 0.06884946 0.0058231587
000290 ab 46 35 bd 40 97 c5 3a e9 2b a7 3c 49 a6 0a bc
       -0.044256847 0.0015074983 0.02040668 -0.008462497
0002a0 27 2b 61 3d a6 ac 70 3d 2d e5 4e 3d e1 e1 e6 3b
       0.054972794 0.0587584 0.050511528 0.00704597
0002b0 7b 9a 7b bd 3d 22 95 3d 34 d0 1b bd 7a 1d bd 3c
       -0.06142662 0.07281921 -0.038040355 0.023085345
0002c0 85 c0 99 bb df 7a 35 bc 5e 1a 9c bd 82 50 a5 3d
       -0.0046921396 -0.011076658 -0.07622217 0.08071996
0002d0 5c 56 95 bd 6e 89 35 3c 62 4b b8 bb 1d 94 2f bc
       -0.07291862 0.011080129 -0.0056242207 -0.010716465
0002e0 6c 6d 4f 3d e1 1b 32 3d 28 cf 2e 3c a5 96 40 3c
       0.050641462 0.04348362 0.010669507 0.011754666
0002f0 9f 2d 8d bd c3 8a 41 bd 87 82 71 3d 5b ba 64 bd
       -0.06893467 -0.047251474 0.05896237 -0.055841785
000300 17 ed 94 3d 2d ab 34 bd 9d bd 8a 3d 1d 62 95 bd
       0.07271784 -0.04410856 0.06774447 -0.07294104
000310 c9 b7 9a bd d7 8d 49 bd ee 98 44 bd f6 62 4f 3d
       -0.075545855 -0.049207535 -0.047997408 0.050631486
000320 b3 d9 16 3c d5 75 70 3d a9 4a 24 bd ff 4a 32 3d
       0.009207177 0.058706123 -0.040110264 0.043528553
000330 0a f3 12 3c f0 aa ce bb c9 07 2e 3c 0e b6 38 3d
       0.008969078 -0.0063069984 0.010621973 0.045095496
000340 81 45 2e 3d 9e 85 55 3d 2e 7b 26 3d 0e 52 8a bd
       0.042546753 0.05212938 0.040644817 -0.06753932
000350 45 f8 35 3d a0 62 b5 3c 83 f3 a3 3d 25 7e ea bc
       0.04442622 0.022141755 0.080054305 -0.028624604
000360 c4 f0 9d 3c d4 6d 59 3d a3 ca a9 bd 10 7a e0 b9
       0.019279845 0.053083256 -0.08290603 -0.00042815553
000370 bc e7 b9 bc f7 65 25 bc 1d d3 a0 bd 6b bf 08 3d
       -0.022693507 -0.010095111 -0.07852767 0.033385675
000380 dd 8d 23 3d 4d 02 80 bd 70 79 1f bd 6b a7 a0 bc
       0.039930213 -0.06250439 -0.03893417 -0.019611081
000390 bb fd 76 3d 46 a9 0d bc 4a 2f 91 bd a8 5a 23 3d
       0.06030057 -0.008646315 -0.07089098 0.03988138
0003a0 75 96 e8 3b 63 5f 84 bd 43 4b 28 3d 00 08 27 3b
       0.007098014 -0.06463506 0.0410874 0.0025486946
0003b0 b3 92 ad bc 66 9b b0 bc 83 5f bb 3c a2 25 4c bd
       -0.021188116 -0.021558475 0.022872692 -0.049840577
0003c0 81 b8 03 bc a4 af 7e bd c5 ea 8b bd 1a 37 7d 3d
       -0.008039595 -0.062179223 -0.06831888 0.061820127
0003d0 e5 b1 a1 3c af ef 5a bd 80 d3 d2 3c d0 30 58 bb
       0.019738147 -0.053451236 0.025735617 -0.003298808
0003e0 ef ec 7a 3d 5f 5c 2c 3d 8a 9d 60 3c 8b a0 9a 3c
       0.061261114 0.04208028 0.013709435 0.018875381
0003f0 9f b0 ad 3c ef 73 2a bd 47 b5 db 3c 69 ea 62 bc
       0.021202384 -0.04161447 0.026819838 -0.013849833

fc2.bias f4 [2]
000000 fe 3e 49 3d ed c2 4f bd
       0.04913234 -0.050723005
