models/2024-05-10_12-13-16_Model.onnx (onnx, 448796 bytes, 10 tensors)

conv1.weight f4 [8, 1, 1, 1, 1]
000000 4e 20 15 bf f9 d4 69 3f 2d f3 48 3e f8 b8 81 be
       -0.5825242 0.91340595 0.19624014 -0.25336432
000010 00 43 a0 bb f9 16 7d 3f 3e 21 58 bf f8 42 e8 be
       -0.0048907995 0.9886318 -0.84425724 -0.45363593

conv1.bias f4 [8]
000000 80 19 23 bf d5 cb c1 3e 31 2d 13 3f 08 eb 7d be
       -0.63710785 0.37850824 0.5749083 -0.24796689
000010 80 5a 89 be 39 a5 b1 be bf 8e f3 be 40 48 06 3e
       -0.2682686 -0.34696367 -0.47569844 0.13113499

conv2.weight f4 [16, 8, 1, 1, 1]
000000 4f c9 3f be 28 89 ae bd 07 fd ad be 6c e3 cb bd
       -0.18729137 -0.08522254 -0.33982107 -0.09955487
000010 0d 1e 03 be 4a 69 3f 3e 1d 41 5e be f0 e2 8b 3d
       -0.12804432 0.18692508 -0.21704526 0.06830394
000020 39 9c a4 be 16 0c 8d be aa 03 34 3e c0 db d3 3d
       -0.32150438 -0.27548283 0.17579523 0.10344648
000030 12 eb 82 be 90 85 c4 bd 40 42 45 3c 00 da 68 bc
       -0.2556997 -0.095957875 0.012039721 -0.0142121315
000040 98 58 69 bd 93 09 8e 3d 9a 9c 72 be 62 93 65 3e
       -0.056969255 0.0693542 -0.23692551 0.22419503
000050 43 55 82 3e 3e 58 4c 3e d7 d6 02 3e 15 51 49 be
       0.25455675 0.19955537 0.12777267 -0.19659837
000060 89 e2 a2 3e ac 16 d6 bd 4f 1d 53 3e e0 4f fa bc
       0.31813458 -0.10453543 0.20616649 -0.030555665
000070 f8 22 65 3d 58 75 e5 bc 00 03 98 be e5 90 8c be
       0.055941552 -0.028010055 -0.2968979 -0.27454296
000080 d8 6c ec 3d a5 e4 b3 bd ee 39 2e 3e 4d 51 85 3e
       0.11544198 -0.08783845 0.17014286 0.2603859
000090 10 b3 85 bc d5 46 a8 3e a5 21 ec bc 9c 29 b7 3d
       -0.016320735 0.3286654 -0.028824637 0.08943483
0000a0 5a c2 12 3e e9 1e 18 be 37 e4 22 be 3c 6a 67 be
       0.14331952 -0.14855541 -0.1590737 -0.22599119
0000b0 98 5f 13 be f2 16 b4 be dc 37 f2 bb 0d 95 9b bd
       -0.14391935 -0.35173756 -0.007391913 -0.075967886
0000c0 32 e8 31 3e 31 73 7d bd 3f a4 64 be d8 87 9e 3d
       0.17373732 -0.061877433 -0.2232828 0.07740754
0000d0 b0 e9 46 be 1e 20 99 be 56 49 7c bd 07 3b 4c be
       -0.19425082 -0.29907316 -0.061593376 -0.19944392
0000e0 30 a6 06 3e 74 52 21 3e d5 55 32 3e 73 67 78 be
       0.13149333 0.1575411 0.17415555 -0.24258213
0000f0 ee 06 20 3e 23 56 99 be a8 9c 83 3d 1c a2 8e 3e
       0.15627643 -0.2994853 0.06426364 0.27858055
000100 ea a3 a8 be 65 b7 73 be bf d9 4d be 44 9b a7 bd
       -0.32937557 -0.23800428 -0.20102595 -0.081839114
000110 63 fa 8b 3e 90 3f 62 bd ca 17 df bd 96 3d fd 3c
       0.27339467 -0.0552364 -0.10893209 0.030913156
000120 d0 4c 9a be 5f 42 6a 3e e1 ae 9b 3e ea a5 2e 3e
       -0.30136728 0.22876881 0.3040686 0.17055479
000130 51 0d 80 be b3 3d 90 be 57 b1 13 be e9 be 9a 3e
       -0.2501016 -0.28172073 -0.14423119 0.30223778
000140 5e 6c 37 3e 27 ea 18 3e 3e 48 a0 be 90 da c2 bc
       0.17912433 0.14933072 -0.31305116 -0.02378586
000150 6b 8d b0 be d6 fa a0 3e 61 de af 3e f9 35 02 be
       -0.34482893 0.31441373 0.3434935 -0.12715901
000160 c7 9a 82 3e 94 59 e4 bc ae 88 41 3d a8 7f 14 bd
       0.2550871 -0.027874745 0.04724949 -0.036254555
000170 50 2c 51 3d 48 de 96 bd db 1c 8e be 6e 5e b8 bd
       0.05106765 -0.073666155 -0.2775639 -0.09002386
000180 c0 02 8e bc ea c3 20 3e 88 b4 6b be 70 44 46 3d
       -0.017335296 0.15699735 -0.23018086 0.04840511
000190 04 5d ea 3d bb 8c 57 3e 69 ad 97 bd 21 b9 68 3e
       0.114435226 0.21049778 -0.07406122 0.22726871
0001a0 2c e1 c0 3d 3d c8 30 be 54 bc 84 bd 06 38 1a be
       0.09417948 -0.17263885 -0.06481233 -0.15060434
0001b0 a8 2e 3a 3d fa 4c 38 3e d9 b6 3c be d8 22 dc 3d
       0.04545465 0.17998114 -0.18429126 0.107488334
0001c0 00 74 d9 3a f3 52 68 be d2 2c d9 bd 2a c1 4f 3e
       0.0016590357 -0.22687893 -0.10604252 0.2028853
0001d0 d3 4a 9f 3e 90 34 1c 3d 2c 24 a4 bd c4 d8 99 bd
       0.31111774 0.038136065 -0.08014712 -0.07512048
0001e0 80 09 04 3c 48 d6 9b be 70 e1 af 3e aa 27 61 be
       0.008058906 -0.3043692 0.34351683 -0.21987787
0001f0 40 0c dc bb f8 b5 26 bd 5a 6a 4d bc ca 19 b0 3e
       -0.0067153275 -0.040700883 -0.012537563 0.34394675

conv2.bias f4 [16]
000000 c9 5f 5a be 17 63 a7 be c4 f7 74 3e e3 44 9e 3e
       -0.21325602 -0.32692787 0.2392264 0.3091193
000010 3e 49 17 3b 54 f4 af 3d 93 fa af 3e 71 eb 8a be
       0.0023084427 0.08591524 0.3437086 -0.27132753
000020 cb cf 64 3e 38 fc 77 3e 92 3e 23 3d 95 25 10 3d
       0.22344892 0.24217308 0.039854594 0.03519209
000030 ab 49 4f 3d d1 82 a6 be 7c 9e 4d be b4 a4 a0 be
       0.050607365 -0.3252168 -0.20079988 -0.3137566

conv3.weight f4 [32, 16, 1, 1, 1]
000000 b4 86 41 3e f8 bf 50 3e a2 82 5d 3e 53 3a ff 3d
       0.18899041 0.2038573 0.21631864 0.12462296
000010 97 ee 23 3e 6e 76 37 be 00 db b0 3a 6c a8 c4 3d
       0.16008984 -0.17916271 0.0013493001 0.096024364
000020 c0 09 eb bc 42 9c f2 bd 69 af 42 be 2d dd 2e be
       -0.028691173 -0.1184621 -0.19012226 -0.1707656
000030 b0 51 33 3d 34 5a e8 3d 40 83 01 3d ec 9e af 3d
       0.043779075 0.1134533 0.03161931 0.08575234
000040 3e 3c 0e 3e 80 d3 ea 3c b6 3e 81 3d 49 05 24 3e
       0.13890168 0.028665304 0.06310789 0.16017641
000050 26 42 f5 bc 12 ea 35 3e ef db 74 3e c0 01 05 3e
       -0.029938769 0.17765072 0.23912023 0.12988949
000060 f2 56 26 bd 62 56 5e be 6a 51 f0 bd 18 8a 50 3d
       -0.04061026 -0.2171264 -0.117342785 0.050912946
000070 db c7 06 3e fc 12 09 be 20 cf 61 3e f8 3b 1e 3e
       0.13162176 -0.13386148 0.22051668 0.15452564
000080 e4 d2 52 be 08 ee 4c bd 62 d0 99 bc 01 79 45 be
       -0.20588261 -0.05003169 -0.018776122 -0.1928444
000090 ad fa 76 be a8 b5 f1 bc 25 39 d3 3d 65 29 0e 3e
       -0.24119063 -0.029505566 0.10313634 0.13882978
0000a0 40 fc 02 3e a3 89 48 3e 4e e8 17 be d3 7c 30 3e
       0.12791538 0.19583754 -0.14834711 0.17235117
0000b0 8d 48 76 be 14 43 d4 bd 78 95 3b bd d9 2a f8 bc
       -0.24051113 -0.10364357 -0.04579684 -0.030293869
0000c0 70 d6 2e be 60 db 38 3d e4 9c a2 bd 78 af 18 bd
       -0.17073989 0.045131087 -0.07940081 -0.037276715
0000d0 86 86 59 3e 00 84 8c bb f8 49 8f 3d dc 99 7b 3e
       0.21242723 -0.0042881966 0.0699653 0.24570411
0000e0 04 7c 61 be 60 21 72 3c e4 9c f5 bd 64 9d 59 be
       -0.22019964 0.014778465 -0.11992815 -0.21251446
0000f0 7a 94 7a be f0 59 7e 3e 54 3b 03 be 98 1c 93 3d
       -0.24470702 0.24838996 -0.128156 0.07183188
000100 b0 3b 83 bd 48 f0 e7 3d e4 66 eb bd 90 fd 85 bc
       -0.06407869 0.11325127 -0.11494234 -0.01635626
000110 0c 59 3b be e8 68 6a be 86 86 53 be ca 7a 3c be
       -0.18295687 -0.22891581 -0.20656785 -0.18406215
000120 b0 e3 86 bd e8 e1 e4 bd 72 ed 55 be c6 87 3c be
       -0.06586397 -0.11175901 -0.2089136 -0.18411168
000130 50 8a e2 3d 98 eb 27 bd 36 73 29 be 20 f5 2b bc
       0.11061537 -0.040996164 -0.16547856 -0.010495454
000140 64 91 f6 bd 64 80 39 be b8 cf 09 bd ce 34 48 3e
       -0.1203945 -0.18115383 -0.03364536 0.19551393
000150 ca 42 31 3e b0 3d b3 3d 00 e1 a7 bc 6a 43 59 be
       0.17310634 0.08752 -0.02049303 -0.21217123
000160 70 1f 54 be 50 23 66 be f4 2d 10 be 10 b7 c8 bd
       -0.20715117 -0.22474408 -0.1408003 -0.098005414
000170 74 43 d0 3d bc 55 d2 3d d8 41 2c 3d 42 b9 67 3e
       0.10169116 0.10270259 0.04205498 0.22629264
000180 60 e7 21 3e c8 24 64 be cb 80 83 3e a2 0c 3d be
       0.15810919 -0.22279656 0.256842 -0.1846185
000190 08 15 01 be 8b 77 0b 3e 59 d4 19 be a5 f9 ff 3c
       -0.12605679 0.13619821 -0.1502241 0.03124697
0001a0 6e 0f 0e 3e 34 46 b1 bc 02 b2 dc 3b 01 e2 b4 3d
       0.13873073 -0.02163992 0.0067350874 0.08832169
0001b0 37 c7 e3 3c d4 ea 7e be 2c 6d 6a 3e 19 f7 50 3e
       0.027804954 -0.24894267 0.22893208 0.2040676
0001c0 26 65 76 3e 6c b9 44 be 80 27 08 bd 80 ae df 3d
       0.24062023 -0.19211358 -0.033240795 0.10921955
0001d0 98 bc f7 3d 72 66 6a be d0 0a 7a 3e f4 66 6a 3e
       0.12096518 -0.22890642 0.24418187 0.22890836
0001e0 00 81 ff bb 70 e8 ec bd a0 e2 14 be 00 14 5a bd
       -0.0077973604 -0.115677714 -0.14539576 -0.05324173
0001f0 80 43 75 3d de 03 45 be 36 e1 17 3e 80 60 6c be
       0.059878826 -0.19239756 0.14832005 -0.23083687
000200 d8 3f 7a bd f0 2c 6e 3d a2 29 0f bd 56 b0 8f 3d
       -0.061096042 0.058148324 -0.034951814 0.07016055
000210 e4 07 2b be 87 22 5e 3e fb 88 f9 3a 41 05 b8 bc
       -0.16702229 0.21692859 0.0019038016 -0.022463443
000220 e4 8b 7a 3e e2 90 f5 bd bb 20 c9 bc 13 fb 06 3e
       0.24467427 -0.11990525 -0.02455174 0.13181715
000230 69 7b 7a 3d 9c e1 75 3e e8 dd d4 3d be 70 1a be
       0.06115285 0.24011844 0.10393888 -0.1508207
000240 60 a1 70 3c 1c c6 36 3e 05 d2 63 be b3 2b 00 bc
       0.014686912 0.1784901 -0.22248085 -0.007822919
000250 d3 cd 22 3d d9 2b b4 3d 01 12 1b bd 73 6c 2c be
       0.03974707 0.08797426 -0.037858967 -0.16838245
000260 5b bf 72 3e fc ce 0d 3e 1e 0c da bd 1a 21 14 be
       0.23705809 0.1384849 -0.106468424 -0.14465752
000270 94 7e 1c be 40 87 a5 bc 48 ca a3 3d b7 32 65 3e
       -0.1528266 -0.020206094 0.079975665 0.22382627
000280 f4 57 a4 bd 90 c0 2e be 72 27 4b 3e d1 24 61 3e
       -0.08024588 -0.17065644 0.19839266 0.219867
000290 6c c6 07 3e aa 17 5c be bd f6 62 3e 8e 6e 17 3e
       0.13259286 -0.21493402 0.22164436 0.14788267
0002a0 e2 4a 48 be 5e 2f bd bd 7d 60 e8 3d df e5 45 bc
       -0.19559816 -0.0923755 0.11346529 -0.012078731
0002b0 c8 bb a0 bd 34 a7 2c 3e 3c 72 d4 bd 7d 0a 3f be
       -0.078483164 0.16860658 -0.10373351 -0.18656345
0002c0 b6 b3 0b be 1c cd 09 3e 20 2d 0f 3e 6e 70 12 be
       -0.13642773 0.1345715 0.13982058 -0.14300701
0002d0 f9 50 6a 3e 5d ea 1b be ec d4 3c 3e b4 c5 2d be
       0.22882451 -0.15226121 0.18440598 -0.16969949
0002e0 e2 c5 1a 3d 1e 1f 28 3e 4a 2a 30 3e 81 9e e0 bc
       0.037786372 0.1641812 0.17203632 -0.02741933
0002f0 1d 29 18 be 1a fa 0c 3e 60 8c 28 bc 25 96 8e bd
       -0.14859433 0.13767281 -0.010287374 -0.069622315
000300 08 b7 48 be 50 4c 36 be 38 60 df bd 20 94 7c bd
       -0.19601071 -0.17802548 -0.10907024 -0.0616647
000310 60 5b 68 be 40 ec 32 bc 30 58 a2 bc 18 a4 38 bd
       -0.22691107 -0.010920584 -0.019817442 -0.045078367
000320 f0 ab 50 3e d0 1e d3 bc ec c8 47 3e 32 be 48 3e
       0.20378089 -0.025771528 0.1951024 0.19603804
000330 34 f9 d3 bd e0 81 69 3d 24 5a 90 3d c8 e5 7a bd
       -0.10350266 0.057008624 0.07048443 -0.061254293
000340 2e 08 1a 3e 24 e7 37 be 40 aa c4 bc e4 bc 76 be
       0.15042183 -0.17959267 -0.024006963 -0.24095494
000350 10 ff 3c 3d 18 2e e9 bd 10 3f 70 3e 70 8d 4f be
       0.046141684 -0.11385745 0.23461556 -0.20268798
000360 12 1b 31 be b0 90 99 3c 80 91 85 3d 60 7d 2d 3e
       -0.17295483 0.01874575 0.065218925 0.16942358
000370 b8 b0 a2 bd 4a c1 1c be 34 f7 82 3d 98 df 60 bd
       -0.07943863 -0.15308109 0.063948065 -0.054900736
000380 20 24 23 bc 60 dd fe bc 56 71 8e 3d 4e 40 14 3e
       -0.009957343 -0.03111142 0.06955211 0.14477655
000390 fb fe 20 3e 30 44 31 bd 1d 0c 1f be ea ed 91 3d
       0.15722267 -0.04327792 -0.15531965 0.07125457
0003a0 87 76 73 3d 61 ac 14 be 74 4b 57 3e ed e8 3a 3e
       0.05943921 -0.14518882 0.21024877 0.18252917
0003b0 ff 0e d4 3d 00 4a c0 3b 8c 40 38 be 9c 47 35 be
       0.10354423 0.0058681965 -0.17993373 -0.17703098
0003c0 58 7d ea bd 70 02 e4 bd 02 94 45 3d 4a f9 dc 3d
       -0.11449689 -0.111332774 0.048236854 0.107897356
0003d0 04 61 36 3e 4d 34 cf bd ed cd 48 3e b3 86 23 be
       0.17810446 -0.101173975 0.19609804 -0.15969352
0003e0 77 dd 37 be a8 7d 6a 3d f9 11 2e be ff 76 48 be
       -0.17955576 0.05724874 -0.16999044 -0.19576643
0003f0 44 55 55 3e 92 29 0b 3e ee ef 64 be 41 dc 18 be
       0.20833308 0.13590077 -0.22357151 -0.1492777

conv3.bias f4 [32]
000000 b6 62 5e be 1c 4d 86 3d b1 fe 7f 3a e0 37 a5 bd
       -0.21717343 0.06557676 0.000976543 -0.08067298
000010 b8 29 ff bd dc 45 a2 bd c4 a8 73 3d 20 d9 71 bd
       -0.12459129 -0.07923481 0.05948712 -0.059044957
000020 92 09 97 3d 3f 24 76 3d 77 88 d5 bd d8 f3 48 be
       0.07374872 0.06009316 -0.10426419 -0.19624269
000030 a0 e8 44 be 76 29 5e be fa b4 e0 3d 3c fe 03 3e
       -0.19229364 -0.21695504 0.109720185 0.12889951
000040 2c c9 cc 3d a6 ac 3e 3d df 71 01 3e 80 57 15 be
       0.09999308 0.04655137 0.12641095 -0.1458416
000050 a0 5f bd bd 50 02 f0 bc fc ac 3d be 39 ed 45 bc
       -0.09246755 -0.029297978 -0.1852302 -0.012080484
000060 68 b0 b7 3c 60 a0 5c 3e 3d 3c aa bc d0 3b 04 be
       0.022422984 0.21545553 -0.020780677 -0.12913442
000070 98 60 da 3b 82 a3 3c 3d 86 cc c5 3d 67 5b d6 bd
       0.006664347 0.04605437 0.096581504 -0.10466652

fc1.weight f4 [128, 864]
000000 45 f7 f4 bc 30 a2 db 3c 1e 13 02 bd 20 25 00 3d
       -0.029903064 0.026810735 -0.031756513 0.031285405
000010 e0 25 a2 3a 68 61 fd 3c 6a ca 82 3c 2f cd c1 bc
       0.0012370907 0.030930236 0.01596566 -0.02365741
000020 74 cc 04 bc 00 4f 8d ba 04 42 02 3c 2c ca e5 bb
       -0.008105386 -0.001078099 0.00795031 -0.007012626
000030 10 a8 93 3b 44 18 1a 3c e4 cc 02 3c e0 8f 92 3c
       0.0045061186 0.009405199 0.00798342 0.01789087
000040 3c 62 19 bc d1 43 ac bc 50 0c 75 3c 08 3f 68 3c
       -0.0093618 -0.021028431 0.014956549 0.014175184
000050 32 da a7 bc 40 40 a1 3a 3e 60 8d 3c 7e fe c6 3c
       -0.020489786 0.0012302473 0.017257806 0.024291273
000060 c0 0d 1b 3b 04 f8 a3 bb b4 d9 3a bc c1 25 27 bc
       0.0023659319 -0.005003931 -0.0114044435 -0.010201872
000070 51 4b 8e bc a1 db 07 3d ad c8 a6 bc 34 84 ba bc
       -0.017369898 0.03316844 -0.020359362 -0.022768117
000080 48 12 6b bc 77 cc 72 bc fe 98 12 3d 64 42 6a bc
       -0.01434762 -0.014819256 0.035790436 -0.014298055
000090 bc a9 c0 bc 27 0d 49 bc d0 d6 9c bc 0f 51 dd 3c
       -0.023518436 -0.012271202 -0.0191454 0.02701619
0000a0 b5 9f a0 bb 9e 9b 0a bc 37 68 3d bc 14 1d 84 3c
       -0.004901851 -0.008459954 -0.011560491 0.016127147
0000b0 f5 d0 8c bb f5 02 ed bc e1 7b fa 3c 3a 5f ee bc
       -0.0042973706 -0.028932074 0.030576648 -0.029098142
0000c0 29 e2 3d 3c f1 2f b4 3c 3e 7e fc 3c 40 7e 58 3b
       0.011589565 0.021995516 0.030821916 0.0033034235
0000d0 36 54 b2 bc e1 31 b3 3c 17 b2 b4 3b 2f 0e 58 3c
       -0.02176867 0.02187437 0.005514394 0.013186975
0000e0 de da 99 bc fb 38 a8 3c 78 c1 d9 3c 31 73 aa 3c
       -0.018781122 0.020534983 0.02658151 0.02080688
0000f0 c6 d3 33 ba d1 8a b7 3c 88 8e 03 bd 05 03 c4 3b
       -0.0006859865 0.02240506 -0.03211835 0.0059818053
000100 9f 29 17 bc 70 34 59 bb 44 de 7b bc f4 4f 33 3d
       -0.009226232 -0.0033142827 -0.0153728165 0.04377742
000110 e5 a2 77 bb f1 20 86 bb 25 00 35 3b 08 52 06 bd
       -0.0037786302 -0.0040932824 0.0027618494 -0.032793075
000120 c2 ec 9e 3c 2e 0a 42 3c 6c 7a fc 3b d6 fa 2e bc
       0.019400004 0.011843247 0.0077050235 -0.010679921
000130 ef e8 38 3d 13 92 84 bc 29 cd be bc 4a 30 c2 3b
       0.045144018 -0.016182935 -0.023291187 0.0059261667
000140 3b 8c 05 3d 60 e0 48 3b 75 ef cb bc 30 ed cf 3b
       0.032604437 0.0030651316 -0.024894455 0.0063454136
000150 30 c1 1b bc 6e 10 06 bc a2 66 70 bc 7c 5c b7 3c
       -0.009506509 -0.008182628 -0.014672907 0.022382967
000160 80 1d ff 3c a0 c0 12 3c 36 99 ca bc e4 fe 45 3c
       0.031141996 0.008957058 -0.02473126 0.012084696
000170 20 b1 68 bc 02 d5 b1 bc c6 4e 89 3c 18 02 88 3b
       -0.014202386 -0.021708015 0.016761195 0.00415064
000180 58 70 99 bc 8c 91 9b 3c dc f2 59 3c 34 f1 fa bc
       -0.018730327 0.0189903 0.013302531 -0.030632593
000190 87 83 ac bc 70 19 0a 3b a0 fe 69 3b c8 2f e3 3c
       -0.02105881 0.002107229 0.0035704747 0.027732745
0001a0 28 42 0b 3d cf e5 eb bc a3 f6 af bc 28 3d 5a bc
       0.03399864 -0.028796105 -0.02147991 -0.013320245
0001b0 66 04 03 3d 9a 96 a0 3c d3 e0 83 bc 0c 91 56 bc
       0.031986617 0.019603062 -0.016098415 -0.013096105
0001c0 2c e7 78 bc 40 0d c8 ba 46 a5 6f bc d0 71 1a 3c
       -0.015191834 -0.0015262738 -0.014626807 0.009426549
0001d0 bc 75 99 bb bc 01 b0 bc 5e b2 09 3d a0 ea fa 3c
       -0.0046832245 -0.021485202 0.03361737 0.030629456
0001e0 5c 7a d4 bb 8e b0 04 3d 24 a0 7b bc 9c e4 9b 3c
       -0.006484313 0.03239494 -0.015358005 0.019029908
0001f0 00 b8 b6 bc 54 83 08 3c 9c 18 f6 3c aa 1d 20 bc
       -0.022304535 0.008332092 0.030041032 -0.009772697
000200 bc c8 a6 3c 12 d5 d5 bc 34 f5 99 bc dc 19 69 bc
       0.02035939 -0.026102576 -0.01879368 -0.014227357
000210 00 87 1f 3c 03 c5 80 bc bc 10 2c 3c 95 af 07 bd
       0.009736776 -0.015718943 0.010502037 -0.033126432
000220 cc 9d 22 bc e4 42 bb bb 5c aa b7 bb 80 70 f1 3c
       -0.009925317 -0.005714761 -0.005605025 0.02947259
000230 90 30 46 bb 23 4b 0a bd 98 77 04 3d b4 07 ed 3c
       -0.0030241348 -0.033763062 0.032340616 0.028934337
000240 86 6b d8 bc 14 14 a4 3c fe 2a 99 3c 68 02 07 3d
       -0.026418459 0.020029105 0.018697258 0.03296128
000250 b8 f6 da 3c e2 0b d2 bc 58 6c 04 3d 26 5c b3 bc
       0.026728973 -0.025640432 0.032329887 -0.021894526
000260 6c 10 84 bc d2 4d a5 bc 02 f1 04 bd ca e5 26 bc
       -0.016121112 -0.02017871 -0.032456405 -0.010186622
000270 14 45 b5 bb 44 76 e7 bc 6c aa eb bb 08 e9 da 3b
       -0.0055319164 -0.028254636 -0.0071919467 0.0066806115
000280 00 86 14 b9 c4 64 f2 3c 82 96 65 bc 21 d2 a9 bb
       -0.00014164299 0.029589064 -0.014012935 -0.00518252
000290 ec f8 0e 3c a4 a7 dd bb db 89 b4 bc 94 24 37 3c
       0.00872634 -0.006764369 -0.02203839 0.0111781545
0002a0 46 a7 df 3c 4b af fa 3c d6 d1 dd 3c 28 77 0f bd
       0.027301442 0.030601164 0.027077597 -0.035025746
0002b0 4f 1d f7 3b da d6 d9 b9 f6 fe e3 3c 28 39 8d bc
       0.0075413357 -0.00041549542 0.027831536 -0.017239168
0002c0 6c 50 9d 3b 0d 63 2f 3c 8e 60 ea 3c 97 2d 0e 3c
       0.004800847 0.010704768 0.028610494 0.008677862
0002d0 fd 33 43 bc 17 52 4d bc 8d b4 19 bd d2 f2 b6 bc
       -0.01191425 -0.012531779 -0.037525702 -0.022332583
0002e0 89 a5 8a ba fd e2 95 3c 92 d2 20 3c 02 67 9e bc
       -0.0010577898 0.018296713 0.009815829 -0.019336227
0002f0 9a f5 2d bc 82 37 d2 3c c8 46 45 3c 34 f1 b1 bb
       -0.010617638 0.025661234 0.012040801 -0.005430365
000300 10 c9 00 3d 90 35 4c 3c 28 96 12 3c ec d3 ff 3c
       0.03144175 0.012463942 0.008946933 0.031228982
000310 66 0c d5 bc aa 20 4c bc 20 27 cb bb 8c eb 61 3c
       -0.026006889 -0.01245896 -0.0061997324 0.013789069
000320 f6 20 2c bc 15 d1 8c bc 60 e7 f8 3c 80 33 db 3b
       -0.010505905 -0.017189542 0.030383766 0.006689489
000330 1c 6c bc bb 0e 0c a6 bc 70 81 2c bb 82 9d e0 bc
       -0.0057501923 -0.02026942 -0.0026322268 -0.027418856
000340 28 2f e3 bb 6a 2f 69 bc b6 5c f2 bc 58 c9 d9 3b
       -0.0069331117 -0.014232496 -0.029585224 0.0066463165
000350 d2 65 bf 3c 0a 87 de 3c 6a 7d bc 3c 14 ba ef 3c
       0.023363981 0.027164001 0.02300902 0.029263534
000360 3c 5d 9f 3b 85 77 06 3d 15 dd 0c 3b 21 e3 5d 3c
       0.0048634093 0.032828826 0.002149408 0.013542921
000370 e3 dc 9d bc db b7 0c 3d 67 f2 ea 3c 33 65 a3 3c
       -0.019270366 0.034355026 0.02868004 0.019945716
000380 bb fc 59 bb ff d7 a2 3c e7 a5 ca bc f2 13 e4 bb
       -0.0033262211 0.019878386 -0.024737312 -0.0069603855
000390 7f 75 92 3b a3 28 3f 39 71 6c 1a 3d 87 7c 8a 3c
       0.004469573 0.00018230318 0.037701074 0.016905082
0003a0 0b 97 bb bc 75 ee ed bc 13 4f 3c bc 50 3f 96 3a
       -0.022899171 -0.02904437 -0.011493462 0.001146296
0003b0 91 2c 60 bc b2 59 20 3d 22 a4 c4 3c d7 1a 12 bc
       -0.0136825 0.03914804 0.024004046 -0.008917532
0003c0 65 f3 12 bc 07 58 e6 3c 14 bd 03 3d 4d cc a4 3c
       -0.008969163 0.028118147 0.03216274 0.02011695
0003d0 de d6 07 3c ad a0 37 3c 1c 03 b6 3c dd 9c e8 bb
       0.008290974 0.011207742 0.02221828 -0.0070987777
0003e0 b0 0e fc bc 30 c8 cf 3c e1 0d 05 3b 44 6a 5a 3b
       -0.030768722 0.025364012 0.0020302462 0.00333275
0003f0 2b 99 07 3d 98 cf ba bc 73 3d 5d bc e9 23 a1 3c
       0.033105057 -0.022804067 -0.01350342 0.019670444

fc1.bias f4 [128]
000000 97 e7 11 bc 7d 1e 7d bb 3e dc 37 3c c4 12 97 ba
       -0.008905313 -0.0038622909 0.011221943 -0.0011525978
000010 be 4b 84 3c 06 d0 eb 3c fc e8 16 bc 57 11 24 bd
       0.016149398 0.028785717 -0.009210821 -0.0400556
000020 52 57 b1 3c c1 ea 91 bc c0 57 de bc 8f ed 7d 3c
       0.021648083 -0.017812135 -0.027141452 0.015498533
000030 e0 3a 5f 3c 68 40 cb 3b 31 1e bf 3c 32 de 9f 3c
       0.013624877 0.006202746 0.023329826 0.01951513
000040 e6 6d ad bc db 85 4c 3c 5c 1b 86 bc 6a fc 5f bc
       -0.021170568 0.0124830855 -0.016370468 -0.01367102
000050 8c 97 ed 3b 3c d2 eb bb 78 44 09 bd 56 38 80 bc
       0.007250732 -0.0071966927 -0.033512563 -0.015651863
000060 70 4f 64 3b 2b 52 ae 3c bb 36 75 3a d9 6f f7 3b
       0.0034837388 0.021279415 0.0009354164 0.007551175
000070 6c 69 d7 bc 4d 1a 85 bb 6c c0 d9 3c 7c c0 ed 3c
       -0.026295386 -0.004061973 0.026581012 0.029022448
000080 13 e7 ca bc 92 68 9b 3b e2 9e 9a 39 36 6a 32 3c
       -0.024768388 0.0047426904 0.00029491546 0.0108895805
000090 f9 46 e1 3a fb fe d4 3c 8b 76 c8 3c ee 32 da 3b
       0.0017187289 0.02600049 0.024470588 0.0066589033
0000a0 81 80 0c 3c a1 c3 d6 bc d8 4a a5 bc 2d 64 9c 3c
       0.00857556 -0.02621633 -0.02017729 0.019090736
0000b0 61 b1 59 bc 2a 28 01 bd 1b a1 55 bc 79 35 c5 3c
       -0.013286919 -0.031532444 -0.013038899 0.02407335
0000c0 a6 c4 e4 3c 3e 50 e2 bc 36 57 de bb 4e 71 02 bd
       0.0279258 -0.027626153 -0.0067852987 -0.031846337
0000d0 9f 78 c2 bc 30 c1 58 3c 09 e7 12 bc df 3b 1a 3c
       -0.023739157 0.013229653 -0.008966216 0.009413688
0000e0 cd 3c 86 3c 61 56 d0 bc 54 ce bc bc c1 3d 1c bd
       0.016386414 -0.025431814 -0.023047604 -0.03814483
0000f0 db ad f9 3b d3 61 52 3a 6a 86 c9 bc 99 7d cd 3c
       0.007619602 0.0008025441 -0.024600226 0.025084304
000100 d1 93 53 3c 44 2a f1 bb d5 77 07 bb a5 fa 04 3c
       0.01291366 -0.007359775 -0.002067079 0.008116399
000110 34 ce 31 3c ae 4a b0 bc 8d a8 35 3c 47 7c 94 3a
       0.010852385 -0.021519985 0.011087549 0.0011328541
000120 3e 57 3d 3c 3d 24 c1 3c 7a 77 d0 3b c9 23 ce bb
       0.011556445 0.02357685 0.006361899 -0.006290887
000130 59 15 ef 3c e0 3f cf 3c a9 9b d2 bc 70 f7 0a bd
       0.029184984 0.025299013 -0.02570899 -0.03392738
000140 70 70 16 bc 20 c4 08 bc d4 0c 0f bd 5b e9 c9 bc
       -0.009182081 -0.008347541 -0.034924343 -0.024647405
000150 3c 82 50 bc 39 1b a6 bb e3 87 02 bc fb 58 3c 3c
       -0.012726363 -0.005069163 -0.007966968 0.011495824
000160 1d eb 02 bc 9d 63 bb bb cc 8f 46 ba ea 12 3b bc
       -0.007990626 -0.005718662 -0.0007574528 -0.011418084
000170 93 84 01 bd cc 9c 97 3c ad 2d 83 3c da c5 7b ba
       -0.031620573 0.018507384 0.01601299 -0.00096043723
000180 6e 12 8d 3c 5c 32 64 bc 5e 5e 97 3c 9b 8b 02 bd
       0.017220702 -0.013928022 0.018477615 -0.03187142
000190 c8 d7 7c 3c 5d 16 db 3c a7 22 f0 bc 38 b8 a5 3c
       0.015432306 0.026744062 -0.029313399 0.020229444
0001a0 9e ec 04 bd c0 5a f6 3c 34 26 99 bb a3 86 d3 bc
       -0.03245222 0.03007257 -0.0046737436 -0.025821036
0001b0 45 0d 87 3c 1a 15 14 3c c0 58 99 3c 20 d2 83 bc
       0.01648582 0.009038234 0.018719077 -0.016091406
0001c0 70 a1 3a 3b 6b 3d 2c 3c 21 c4 20 3c 0e f9 b4 3c
       0.0028477572 0.01051269 0.009812386 0.022091415
0001d0 82 4b 7d bc c0 25 ad bc 5c fb a8 3c de 05 28 3c
       -0.015459897 -0.021136165 0.02062767 0.010255305
0001e0 06 6f 03 bc f0 9e df 3c c7 fb cb bb a6 c1 ba 3a
       -0.0080220755 0.027297467 -0.0062250826 0.0014248386
0001f0 99 ed af 3c 08 ff e5 bc a4 28 d1 bc 64 82 a1 bc
       0.0214756 -0.02807571 -0.025532074 -0.019715495

fc2.weight f4 [2, 128]
000000 89 1e 82 3d 51 34 6b 3c 80 1a 8c bd 97 4c 97 3c
       0.0635348 0.014355735 -0.06840992 0.018469138
000010 10 34 30 bd 11 20 cf bc b1 31 27 bd 7d b6 5f bc
       -0.0430184 -0.025283845 -0.040818874 -0.013654348
000020 93 d6 b0 ba 4f 84 ae bd 4f 4d 88 3d a8 b6 03 3d
       -0.0013491682 -0.085213296 0.066553704 0.032156616
000030 7a 65 d4 3c 9f fe 9a bd 7b e9 96 3d d8 c1 ab 3c
       0.025927294 -0.07568096 0.073687516 0.020966455
000040 a1 97 13 3d 66 a7 64 bd 0a 23 9f bd 42 f1 57 3d
       0.036033276 -0.055823706 -0.07770355 0.052720316
000050 aa 07 f4 bc 90 08 99 bc e3 27 87 3d 67 48 30 3d
       -0.02978881 -0.01868084 0.06599405 0.0430378
000060 80 ea 65 bb 2f c6 3e 3d 33 1f 8c 3d 95 8e a5 bd
       -0.00350824 0.04657572 0.06841888 -0.08083836
000070 4e 2a d6 3c 39 e8 84 3d c4 14 1a bb 25 28 8e 3d
       0.02614322 0.064896055 -0.0023510912 0.06941251
000080 61 95 5c bd ca 35 43 bd 0b 75 54 3d 6b 09 34 bd
       -0.053853396 -0.04765872 0.051869433 -0.043954294
000090 a3 3c b4 3d a3 ed a4 3d 15 79 60 bc 46 7a ad bc
       0.08800628 0.08053138 -0.013700743 -0.021176469
0000a0 f7 85 6d 3d f4 96 45 bd 1a 37 6e 3d 24 0e c6 bc
       0.057989087 -0.048239663 0.058158018 -0.024176665
0000b0 13 20 e3 bc 1b 9d 48 3d 28 7b 7e bd b8 2a 10 3d
       -0.027725255 0.048977952 -0.06212917 0.03519699
0000c0 a9 a1 35 3d 8e 82 89 bd ec 8a 15 bd db 44 b2 3d
       0.044343624 -0.067143545 -0.03650944 0.087045394
0000d0 36 a3 ba 3d e3 7b 61 bd bf 77 1f 3d 32 b8 bf 3d
       0.09113161 -0.05504979 0.03893256 0.09361304
0000e0 b7 80 b2 3d 24 84 96 3d 18 d1 cc bc 8b 0c ad bb
       0.08715957 0.073494226 -0.025002047 -0.0052810363
0000f0 97 40 1d bc 45 fe 9b bd 30 e3 19 3c 57 ec 7a bd
       -0.009597919 -0.076168574 0.009392545 -0.061260547
000100 ce 4c c0 bd c9 54 a5 3d 18 78 26 bd 21 26 53 bd
       -0.09389649 0.08072812 -0.040641874 -0.051550034
000110 b0 6b d1 bc d7 c2 57 3d 95 48 5f 3c 34 5e 42 bb
       -0.025564045 0.052676048 0.013628145 -0.00296582
000120 c5 98 9d 3d e7 08 f7 bc 48 8d 2e bd eb f3 70 bd
       0.07695154 -0.030155612 -0.042615205 -0.05882637
000130 80 5c 57 3d 06 2d 78 bd 49 e9 8e 3d 60 e1 04 bb
       0.05257845 -0.060589813 0.06978089 -0.0020275936
000140 0e f4 bc 3d 0f b8 1d bc 27 78 71 bd 4a d4 15 bd
       0.09226237 -0.0096264025 -0.058952477 -0.036579408
000150 c7 7c 44 3d f8 ba 6e 3c 6f 9e 54 bc 8b fb 6e bd
       0.04797056 0.014570944 -0.012977227 -0.05834536
000160 c8 ed 48 bc 45 20 30 bd 3f 91 64 bd e8 f0 e8 3c
       -0.012263723 -0.042999525 -0.05580258 0.028435186
000170 6f bc c5 3c c0 e8 04 3c 50 c5 91 bd a3 2a 81 bc
       0.024137704 0.008112133 -0.071177125 -0.015767401
000180 e0 17 bc bb 60 e2 13 bc 01 0c 89 3d c1 4f bc 3c
       -0.005740151 -0.00902614 0.06691743 0.022987248
000190 e7 91 14 3d 5a 94 18 bd fd cf 9f bc e4 8b ba 3c
       0.036271956 -0.037250854 -0.019508356 0.022771783
0001a0 cf 5a 9e 3d 62 dc 81 3d f1 02 18 bd 9b 48 5d bd
       0.07732164 0.06340863 -0.03711218 -0.05402432
0001b0 bb aa 26 3d 81 07 81 3d d6 09 9f 3d b4 e2 f3 bc
       0.040690165 0.063002594 0.07765548 -0.029771186
0001c0 f0 b9 e8 3c 23 d8 80 bd 6c af 08 bd f4 2b 11 bd
       0.028408974 -0.06291225 -0.03337042 -0.035442308
0001d0 f7 2e 8b 3d c6 e4 fb 3c c3 09 84 bd 56 b8 c2 bc
       0.06796067 0.030748736 -0.064471744 -0.023769539
0001e0 df e0 85 3d 19 6a a3 3d bd e0 51 3c f1 1d 8b 3d
       0.065370314 0.07979221 0.012809929 0.0679282
0001f0 80 a5 b5 3a 00 e8 43 38 66 58 c4 3a 70 fe e9 bc
       0.0013858527 4.670769e-05 0.0014979958 -0.028563708
000200 88 3f b4 bc de 80 01 3d 5b 87 7c 3d 6d 34 8e 3d
       -0.02200295 0.031617038 0.061652523 0.06943593
000210 24 92 78 3d 19 00 ac 3d 30 56 b1 bd 75 89 4b 3d
       0.060686246 0.08398456 -0.08659017 0.049691636
000220 df 31 4a 3d b5 19 85 bd f0 ea d2 3b 61 f8 ce 3c
       0.049363967 -0.06499044 0.006436698 0.02526492
000230 15 38 65 bc fa 79 7c bd 0c 39 8b bd cf 29 47 bd
       -0.013990422 -0.061639763 -0.0679799 -0.048623856
000240 3e 4c 05 bd f6 1a 6c bd 15 ce 7e bd 82 1b 4e 3d
       -0.032543413 -0.0576429 -0.062208254 0.050319202
000250 81 e4 2b bd 50 fa 97 bd bb 37 54 bd 75 ee 32 bd
       -0.041965965 -0.0742079 -0.05181096 -0.04368444
000260 7a 31 5e 3d 9a dd 9a 3d 3f 83 03 3c 0e 3c 54 3d
       0.054246403 0.075617984 0.008026897 0.051815085
000270 52 32 8b 3c 0d 00 af bc 12 bf dd 3b 8a 8c 27 3d
       0.016991768 -0.021362329 0.006767162 0.040905513
000280 72 17 61 bd 77 16 b5 3d 45 b1 a5 3c 1d e0 8a 3c
       -0.054954 0.088421755 0.02022613 0.016952569
000290 eb 0b 1b bd fa 3f a8 bd 68 ef 8a bd e1 79 4d 3b
       -0.037853163 -0.082153276 -0.06783944 0.0031353163
0002a0 67 95 51 bc 5a 58 91 3d 45 4e 84 bd 21 14 1c 3d
       -0.012791968 0.0709693 -0.06460241 0.038105134
0002b0 26 ef 8d 3d e0 34 40 bd 74 13 84 bd 23 b3 f5 bc
       0.069303796 -0.046925426 -0.06449023 -0.029992646
0002c0 a7 c2 6b bd 00 b3 77 ba 3f 70 50 3d 34 cf 5b 3d
       -0.05755868 -0.00094489753 0.050888296 0.0536644
0002d0 e4 6b 8b 3d b8 8e 34 bd f6 9a 99 3d d8 13 d1 3c
       0.06807688 -0.04408142 0.075002596 0.025522158
0002e0 2b c7 d3 bb d0 b0 3a bd f6 ac 65 3d dd 29 48 3d
       -0.0064629517 -0.045578778 0.05607315 0.04886805
0002f0 de 1a 65 bd 37 7a 83 3d 84 46 02 3d 9f aa a8 bd
       -0.055933826 0.06419795 0.03180553 -0.082356684
000300 38 be a6 3d f6 d6 5a 3d ed 03 30 bd 7a 61 82 3d
       0.0814175 0.05342766 -0.042972494 0.063662484
000310 5d 14 bf bc 9a 8f b1 3a af a9 f1 bc e3 1f 1c bc
       -0.02332514 0.0013546825 -0.029499857 -0.009529087
000320 8f 6d 92 3d c7 f0 54 3c 19 2c 23 bd 4b 99 92 bd
       0.07149803 0.012996859 -0.039836977 -0.071581446
000330 ee 19 1e 3d 80 42 91 bd b7 63 19 3c 80 c5 63 3b
       0.038598947 -0.07092762 0.009362153 0.003475517
000340 1b 95 52 3d 99 9a 4d bc 8d 8e 48 bd ee 58 6f 3d
       0.05141173 -0.012549066 -0.048964072 0.05843442
000350 55 ba 52 3d 4c 03 20 bc 64 8e 98 3d 7c 0c 0d 3b
       0.05144723 -0.009766411 0.07449034 0.0021522334
000360 f1 4f 1f 3c b7 3b 8f bd 5b 3e 3f 3d 4a 45 32 3d
       0.009723649 -0.069938116 0.046690326 0.04352311
000370 52 17 49 bc b0 76 f4 3c 70 38 73 bd 82 a9 a0 bd
       -0.012273626 0.02984175 -0.059379995 -0.07844831
000380 d6 8e 60 3d 81 00 82 3d 56 8c d2 bc 17 72 57 3d
       0.05482372 0.06347752 -0.025701683 0.05259904
000390 63 3b 51 3d 30 1d 14 3d 10 61 62 bd d6 46 f0 b8
       0.051082026 0.036160648 -0.055268347 -0.00011457286
0003a0 be 6d d5 bc 25 ef a6 3c ee ba fc 3c 62 9d d9 ba
       -0.026053306 0.020377705 0.030850854 -0.001660269
0003b0 66 20 7a 3d a9 e7 ab bc f1 b4 97 3d d6 34 67 3c
       0.061066054 -0.020984488 0.07407559 0.014111718
0003c0 e7 fc 92 bd 71 17 81 bd 1f 67 76 3d 61 16 69 3c
       -0.071771435 -0.06303299 0.060156938 0.014226527
0003d0 24 b9 a2 bc ba 1e 52 3c 64 d9 80 bc ea cf 57 3d
       -0.019863673 0.012824709 -0.01572866 0.052688517
0003e0 c6 21 49 b9 b6 64 6c bd 88 cb 2e bd a7 43 88 3d
       -0.00019181435 -0.057713233 -0.04267457 0.06653529
0003f0 1e 17 9e 3d 2a b9 32 3d 8f 3a 98 3c 14 99 4e bd
       0.07719253 0.043633617 0.01858261 -0.050438955

fc2.bias f4 [2]
000000 42 38 4b bd f0 bd 9f 3d
       -0.0496142 0.077998996
