models/2024-05-10_12-07-45_Model.onnx (onnx, 448796 bytes, 10 tensors)

conv1.weight f4 [8, 1, 1, 1, 1]
000000 59 45 66 3f 50 e0 41 bf 71 57 b9 3e e9 8f 31 bf
       0.89949566 -0.757329 0.36199525 -0.69360214
000010 fc bf 44 bf f8 38 17 3f d7 f7 41 3f 57 50 8f 3e
       -0.76855445 0.590713 0.757688 0.27990982

conv1.bias f4 [8]
000000 c2 78 f0 be 78 ba 06 3f 07 03 6e 3e 08 e8 db be
       -0.4696713 0.5262828 0.23243342 -0.42950463
000010 a8 06 3c bf 64 dc 6d 3f 6e 76 26 be cd 45 ee be
       -0.73447657 0.92914414 -0.16256115 -0.4653763

conv2.weight f4 [16, 8, 1, 1, 1]
000000 af 12 55 bd fe 3c 81 3e 9b 92 7e be 79 99 b4 be
       -0.05201977 0.25241846 -0.24860613 -0.3527334
000010 cb 23 98 3e fa b8 7d 3d 4b 9e 7b bd 91 cd 00 3e
       0.29714808 0.061943986 -0.061430257 0.12578417
000020 1d ff 84 3e 62 1e a1 be b9 ae a3 be c2 3f 1c be
       0.25975886 -0.31468493 -0.3196924 -0.15258697
000030 74 2d 26 be ee 5e a4 be 33 b0 18 be bd 7e 86 3e
       -0.16228276 -0.32103676 -0.14910965 0.2626857
000040 39 3f ad 3d d1 a9 3e 3e 84 95 07 bd d1 83 46 be
       0.084593244 0.18619467 -0.033101574 -0.19386221
000050 aa bd 90 be 26 e1 6b 3e d8 bc 62 3e 78 e2 4a be
       -0.28269702 0.23035106 0.2214235 -0.19812953
000060 76 f4 0a 3e 08 3f 1e bc 3d 62 68 3e 6e 81 25 be
       0.13569817 -0.0096585825 0.22693725 -0.16162655
000070 7b 42 91 3e ac a0 a2 3e 43 e0 ba bd 8b 53 02 bc
       0.28371033 0.31763208 -0.09124806 -0.0079544885
000080 d9 27 b6 3d 49 20 90 3e 6f 72 a1 be 10 98 ac be
       0.08894319 0.28149632 -0.31532618 -0.33709764
000090 80 5f dc bd ca 86 ad bd 70 54 8c 3e b4 cb b2 be
       -0.10760403 -0.084729746 0.2740817 -0.34921038
0000a0 d8 3b 6d be 91 98 b2 be c8 9d 3e bd a0 cc 6b bc
       -0.2316736 -0.34882024 -0.04653719 -0.014392048
0000b0 33 c2 44 be 68 bf 97 be bf 09 99 3e a6 57 3d 3e
       -0.19214706 -0.2963822 0.29890248 0.18490466
0000c0 04 64 81 3e 5b 1e bd 3d 26 e8 97 bd 45 8f 02 be
       0.25271618 0.092343055 -0.07417326 -0.12749965
0000d0 bf 8a 31 be a3 fb 9b bd 75 49 3d 3e 4d fe 99 be
       -0.17338084 -0.07616355 0.18485053 -0.3007683
0000e0 77 88 bf 3e 5b af af bd 2e 9b 68 3e d1 cd 3c bd
       0.37408802 -0.08578368 0.22715446 -0.04609472
0000f0 f5 a7 16 be 1d c7 3a be 14 2a 33 be 9a 16 9f 3e
       -0.14712508 -0.18240018 -0.1749652 0.3107193
000100 b9 15 56 be 1d 4c dd 3c 58 ed 93 3e f9 61 79 3e
       -0.20906724 0.027013833 0.28892016 0.2435378
000110 49 b7 97 3e 42 71 72 bd b1 f4 87 bd 43 c0 34 3e
       0.29632023 -0.059190042 -0.06638468 0.17651467
000120 62 80 82 bd 55 ab b3 3e 65 84 d1 bc 98 6b b5 bc
       -0.06372143 0.35091653 -0.025575826 -0.022146031
000130 1a 2c 54 3e a8 99 02 3e 54 d6 23 be 7e 92 1c 3e
       0.20719948 0.12753928 -0.15999728 0.15290257
000140 2f 1f 9c be 5a 35 5a 3e f4 23 17 be 27 6e 8a be
       -0.3049254 0.21309415 -0.14759809 -0.27037165
000150 5b d1 82 be 26 8b 86 be 58 2a b5 3d b1 20 8c be
       -0.2555035 -0.26278037 0.08845967 -0.27368692
000160 7f bb 9c 3e 2d 0f 5b 3e e5 4e 54 bd 73 bd a3 3e
       0.30611798 0.21392508 -0.051833052 0.31980476
000170 c0 3e 2a bd fc 83 9f 3e d9 bd 10 3d 63 34 69 3d
       -0.04156375 0.31155384 0.035337303 0.056934725
000180 c6 cf 23 3e d9 8f 81 3e fd 5b 98 3c e2 3b cf bd
       0.15997228 0.2530506 0.01859855 -0.101188436
000190 ce 16 4e be ea f7 61 3e f5 5e 73 3e ac f6 95 bd
       -0.20125887 0.22067228 0.23766692 -0.073224396
0001a0 d4 16 52 3e 38 64 80 be 72 31 1b 3e e5 8e 17 3e
       0.2051652 -0.2507646 0.1515558 0.14800604
0001b0 a8 7a 12 bd 48 7a 1b 3e 0d f9 c1 bd ad 53 d2 bd
       -0.035761505 0.15183365 -0.09471331 -0.10269866
0001c0 22 d1 28 3e b0 d2 1e bd 90 71 e9 3d 70 e4 96 be
       0.16486028 -0.038775146 0.113986135 -0.2947116
0001d0 16 d5 63 3e 64 4e 85 be 01 2d c3 bd 28 3d 8c be
       0.22249255 -0.2603637 -0.09530068 -0.2739041
0001e0 60 d1 8f 3e 40 57 97 3d 55 28 55 3e ce 21 52 3e
       0.28089428 0.073896885 0.20816167 0.20520708
0001f0 f5 42 52 be 27 b7 a8 be 2b 6f a3 be d2 cd 3e 3e
       -0.20533355 -0.32952234 -0.31920752 0.18633202

conv2.bias f4 [16]
000000 4a 95 97 3e 99 67 84 3e 5b 1d 4a 3e 34 bc 78 3e
       0.29606086 0.2586029 0.1973776 0.24290544
000010 a0 ca a3 3e f6 04 77 3e a8 6e 0f 3e 08 43 01 be
       0.31990528 0.24122986 0.14007056 -0.12623227
000020 6a af 2e 3e 3a 1d a3 be b9 a4 35 be 75 35 af 3d
       0.17059103 -0.31858236 -0.17738618 0.08555118
000030 60 23 db 3d 4c 0a 09 3e c8 3c a5 3e ac 45 74 3e
       0.107001066 0.13382834 0.32272935 0.23854703

conv3.weight f4 [32, 16, 1, 1, 1]
000000 4d 4a 39 3c 78 3c 0b bd 21 fc 8b 3d f9 f6 27 3e
       0.011309219 -0.033993214 0.06835199 0.16402806
000010 ab 5f 98 be 8c 76 b6 bd cc 99 aa bc 9d da a2 3d
       -0.2976049 -0.0890933 -0.02082529 0.079518534
000020 67 09 b5 bd e3 b3 a2 be 04 f1 16 be b8 df 50 3e
       -0.08839684 -0.31777868 -0.14740378 0.20397842
000030 0d 31 4f bb de 09 89 be 48 78 0f be 04 27 aa 3d
       -0.003161493 -0.2676534 -0.14010727 0.08308223
000040 24 68 23 3e c8 89 09 be 48 77 af bd 00 14 bf bc
       0.15957695 -0.13431466 -0.08567673 -0.023324966
000050 98 64 e1 bd bc 3b 9f bd 7c 0a 3b be d0 d5 58 be
       -0.11005515 -0.07775065 -0.18265718 -0.21175313
000060 40 04 cb 3d 06 a1 32 be c8 65 ed 3d f6 0d 0d be
       0.0991292 -0.17444238 0.11591679 -0.13774857
000070 80 64 5c 3d 26 e5 3f be 8c 43 9b 3d c2 e8 0e be
       0.05380678 -0.18739757 0.07581243 -0.13955978
000080 c5 15 50 3d 56 e3 57 be 9f 36 cc 3d f0 0e ba bc
       0.05080201 -0.21082816 0.09971356 -0.0227122
000090 b6 7d cf 3b d8 f1 bb 3d 73 3c de bc 34 21 cd bd
       0.0063321246 0.091769874 -0.027128434 -0.100160986
0000a0 cb 5e e9 bd ef bd 83 be bc 1b 9b bd c1 1e 24 3e
       -0.113950334 -0.25730845 -0.07573649 0.16027357
0000b0 61 b4 66 be d6 70 73 be 02 52 fc bd 9b cc 8a be
       -0.22529747 -0.23773512 -0.12320329 -0.27109227
0000c0 80 53 42 3c 88 1e 5b 3e 72 9a af bc 6e de 11 be
       0.011860728 0.21398365 -0.02143595 -0.14245006
0000d0 60 b4 c4 3d 5a 93 0f be c3 3e 09 3e 5a cb 4a 3e
       0.09604716 -0.14021054 0.13402848 0.19804135
0000e0 ad 20 08 be b0 88 eb 3b 30 38 6e be 6b b3 58 3e
       -0.13293715 0.0071879253 -0.23263621 0.21162193
0000f0 f3 bb cd bd 18 e9 91 3d 2c 6a 2d be 2d db 55 3e
       -0.10045614 0.07124537 -0.16935033 0.2088439
000100 97 76 4d be 62 d0 4b be 7c 84 1a bd de f8 de bc
       -0.2006477 -0.1990371 -0.037724003 -0.027218278
000110 c6 f1 18 bc b8 fd fe 3d 20 cc 97 3d 7f 55 57 3b
       -0.009334987 0.12450737 0.07411981 0.0032857356
000120 0f 2a 3d bd cd 94 1c be 14 88 04 be b8 86 2b 3e
       -0.04618269 -0.15291138 -0.12942535 0.1675061
000130 ff 75 10 3e ce 68 e1 3d 51 d6 39 3e 94 48 b5 bd
       0.14107512 0.11006318 0.18148161 -0.08851734
000140 3c 20 11 be 68 e8 18 bd 80 3c 15 bb 78 e9 5f be
       -0.14172453 -0.037331015 -0.0022771657 -0.21866405
000150 c0 6e 6f be 08 2e 27 bd 00 fd bc 3c 9c 07 06 3e
       -0.23382092 -0.040815383 0.023069859 0.1308884
000160 fc c1 5f be dc c0 a2 bd c4 8d 45 3e 00 9c 1b 3e
       -0.21851343 -0.07946941 0.1929236 0.15196228
000170 ac 68 52 be 00 3e 61 bb ee 60 70 be 70 fc 97 bc
       -0.20547742 -0.003436923 -0.23474476 -0.018552989
000180 2e 48 ac bd b8 fd af bd 3d ad 28 3e 54 88 46 3d
       -0.08412205 -0.08593315 0.16472335 0.048469856
000190 02 c6 ca 3d 98 02 3e be 5b 6f 68 be ba 62 cb 3c
       0.09901048 -0.18555677 -0.22698729 0.02482735
0001a0 a2 95 04 3e 51 db 15 3d 8a a9 73 3e 3e 16 c1 3d
       0.12947705 0.03658611 0.23795143 0.094280705
0001b0 0a d0 2c 3e 0d 2e 8a bd c6 16 47 be 32 04 3c 3d
       0.16876236 -0.06747065 -0.19442281 0.04590244
0001c0 a0 4c 8c be 68 94 bd bd e3 fb 8d 3d dc 3c 97 3d
       -0.2740221 -0.09256822 0.06932809 0.07384655
0001d0 69 86 31 3e 20 b6 46 bc c3 fc 23 3d 04 ff 6f bb
       0.1733643 -0.012128383 0.040035974 -0.0036620507
0001e0 3b 42 bb 3d 4f bc 22 be 5c 9b 04 3e 5e db 35 3e
       0.09143492 -0.15892147 0.1294989 0.17759463
0001f0 78 81 84 be 5d 6c 04 3e a5 0a 91 3d b9 d7 ad 3d
       -0.25880027 0.12931962 0.070821084 0.084884115
000200 70 f7 1e 3d ea 0b 1d be e0 2f 7e 3c 18 8c 67 3d
       0.038810194 -0.15336576 0.015514344 0.05653009
000210 48 14 67 bd 5c 0e a6 bd ba 8d 4a 3e 38 41 54 be
       -0.056415826 -0.081082076 0.19780627 -0.20728004
000220 d6 a4 60 be 6c 03 0e 3e b4 01 18 3e d6 b9 0e be
       -0.2193788 0.13868493 0.148444 -0.13938078
000230 08 7e f4 bd 34 39 8b 3d 00 b3 9d bb 0e fa 19 be
       -0.11938101 0.0679802 -0.004812598 -0.15036795
000240 f4 fb c6 3d a0 96 8a 3c 20 e4 bf 3c 86 2a 23 3e
       0.09716025 0.016917527 0.023424208 0.1593419
000250 d0 a2 a5 bd 3e e4 62 be 00 90 21 be d0 b5 2f bd
       -0.08087695 -0.2215738 -0.15777588 -0.042898
000260 00 17 0d bd 70 cf 50 3d 40 18 4e be 5e 58 78 be
       -0.034445763 0.050979078 -0.20126438 -0.2425246
000270 8c d2 36 be 10 c1 a0 bc 32 53 1d 3e c4 32 42 3e
       -0.17853755 -0.01962331 0.15363768 0.18964678
000280 f5 df cb bb f2 6c 55 3e 12 8b 45 3e 3f dc 6e be
       -0.006221766 0.2084234 0.19291332 -0.23326205
000290 74 13 1f bc d8 0d 19 bd 57 eb 75 3e 88 1c 80 3e
       -0.009709228 -0.037366718 0.24015556 0.25021768
0002a0 87 ca 2b be 8b 6c 8b be ee 78 5a be cd 42 4c 3e
       -0.16776477 -0.2723125 -0.21335194 0.19947357
0002b0 5e 44 09 be c8 ef 0f be 2a 45 41 be 45 15 67 bd
       -0.13404986 -0.14056313 -0.1887404 -0.05641677
0002c0 21 3b 30 3e 44 97 75 be 68 db d4 3d 96 e7 cb bd
       0.17210056 -0.23983485 0.10393411 -0.09956281
0002d0 f7 04 26 3e ac b2 01 3e 60 9a b0 bd 2f eb 63 be
       0.16212831 0.12665814 -0.08623195 -0.22257684
0002e0 b1 8f 1d be 29 f4 34 3e 70 1c a9 bc 64 84 e5 3d
       -0.15386845 0.17671265 -0.020643443 0.11206892
0002f0 16 c0 83 bd 62 06 2a bd 92 94 15 3d 66 63 ae 3d
       -0.06433122 -0.041509993 0.03651864 0.085150525
000300 f6 17 c6 3d 6a 77 75 be da 28 0b be 3b 43 69 3e
       0.09672539 -0.23971334 -0.13589802 0.22779553
000310 09 c5 f1 3b e8 94 27 3d e8 44 41 3d 4c ed b6 bd
       0.0073782247 0.040913492 0.047184855 -0.089319795
000320 69 dc 83 3d 09 60 4b be a8 52 75 3e 4e 6c e2 bd
       0.06438524 -0.19860853 0.23957312 -0.11055814
000330 0b 3c 78 be a9 10 2c bd 64 f4 82 be dd b1 86 bd
       -0.24241655 -0.042008076 -0.2557708 -0.065768935
000340 a8 04 63 3e 36 ed 1f be 0e 30 49 be 08 e5 dc bd
       0.22169745 -0.15617833 -0.19647238 -0.10785872
000350 7c 2f 91 bd c0 6a 43 3c 00 04 7f ba 30 ba e6 bd
       -0.07089135 0.011927307 -0.0009728074 -0.11265981
000360 08 1d 1d bd b0 bd ba 3c 06 c0 0e 3e 18 11 31 bd
       -0.038357764 0.022795528 0.13940439 -0.043229192
000370 ae 3b 68 be 20 a6 09 3c e0 d3 e2 bd ba 67 17 3e
       -0.22679016 0.008401424 -0.11075568 0.14785662
000380 90 86 03 3e 18 10 8e bd 24 f4 3a be d0 e7 fe 3d
       0.128443 -0.069366634 -0.18257195 0.124465585
000390 55 ec 61 be b8 c5 f8 bd 61 50 45 3e e9 8c 82 be
       -0.2206281 -0.12147087 0.19268943 -0.2549813
0003a0 a6 16 7c bd 3d 67 a5 3d 2c a0 56 3e f0 df 05 3e
       -0.061545037 0.08076332 0.20959538 0.13073707
0003b0 48 a9 f8 bc c3 d7 25 3e a7 f7 e1 3c 2b a4 8a bd
       -0.030354157 0.16195588 0.02758391 -0.06769594
0003c0 f4 d4 47 3c 70 be 0b bd 5d 45 3b 3e 22 89 83 be
       0.012196768 -0.034117162 0.18288179 -0.25690562
0003d0 f7 41 d5 bd 40 8b 4e bd 23 df 2a be 16 f6 1f bd
       -0.104129724 -0.050425768 -0.16686682 -0.039053045
0003e0 2b 8c 1f 3e 10 8b 2c be 2e 11 2b 3e 62 88 1e be
       0.15580814 -0.16849923 0.16705772 -0.15481713
0003f0 ac 96 2a 3e 62 78 34 3e d0 1e 0e be dd c0 71 be
       0.1665904 0.17624047 -0.13878942 -0.23608728

conv3.bias f4 [32]
000000 da d0 1b 3e 98 5e d6 bd 9b 46 8c 3d c9 2d 05 3d
       0.1521639 -0.10467261 0.068494044 0.032514367
000010 a4 62 29 bd 76 7e 26 3e 5a 24 5a bd 46 91 40 3d
       -0.041353837 0.16259179 -0.053257324 0.047013544
000020 80 7c 47 3c 88 0c 5b bd 01 1f 5f bd da f1 67 be
       0.012175679 -0.053478748 -0.054472927 -0.22650853
000030 ed 61 3f 3e e0 1b 74 bc 17 ba 1f 3e e6 73 fa 3d
       0.186897 -0.014899224 0.15598331 0.12229137
000040 31 06 82 be 67 85 16 3e db e1 27 be 3a f3 6b 3d
       -0.2539535 0.14699326 -0.16394751 0.057605006
000050 aa 29 dd bd f0 9a 8a bd 90 f0 2e bd d3 cd 48 be
       -0.107989624 -0.06767833 -0.042709887 -0.19609766
000060 47 73 ed bd 5b e1 34 3e fe 4e aa bd 60 47 a4 3d
       -0.11594253 0.17664091 -0.08315848 0.08021426
000070 78 7e 53 3d 80 24 f6 3c 71 fc 7e be 64 9f f5 3d
       0.051634282 0.030046701 -0.24900986 0.11993292

fc1.weight f4 [128, 864]
000000 80 5d 24 3b 40 36 91 bc f4 d5 f5 bb 00 af 2d b9
       0.0025080144 -0.017726064 -0.007502312 -0.00016563758
000010 dc 4a d5 3c 1c 62 d0 bb 30 bd c9 3b 98 07 85 3b
       0.026036672 -0.006359352 0.006156586 0.004059743
000020 c2 13 82 bc 2f 20 ad bc fc 93 a3 bc 8a e1 8e 3c
       -0.015878562 -0.02113351 -0.019968025 0.01744153
000030 0d e0 d5 bc cc 70 2a 3c d0 0e 21 bb 2c c3 c0 3c
       -0.026107812 0.010402869 -0.002457548 0.023530565
000040 06 c9 01 3d 12 f6 05 bd fd 2b e1 bc 90 11 0c bb
       0.03168585 -0.032705374 -0.027486796 -0.0021372773
000050 74 1d 1f 3c d8 f6 b6 3c c0 9c 47 3c b0 01 fb 3c
       0.009711612 0.022334501 0.012183368 0.030640453
000060 30 14 07 3b 24 12 f1 bb e8 f9 cc 3c 80 20 1a ba
       0.0020611398 -0.007356899 0.025021508 -0.00058794767
000070 4e 31 49 bc 80 ea ee bc d4 b5 e3 bc 69 73 88 bc
       -0.012279822 -0.029164553 -0.027796663 -0.016656594
000080 30 c9 d9 bc 00 ec 4c 38 00 74 7c 39 a2 78 04 3d
       -0.026585191 4.8857182e-05 0.00024075806 0.032341607
000090 20 97 5d bc fb 80 08 bd 5a 62 03 3d 58 11 63 3c
       -0.013524801 -0.03332613 0.032076217 0.013859116
0000a0 96 31 03 bd 96 51 e2 bc 60 f0 a3 3b c4 67 37 3c
       -0.03202971 -0.027626794 0.00500302 0.011194173
0000b0 c0 9f c0 ba 90 65 fc bb 26 c9 d4 3c a8 c7 b8 3b
       -0.0014696047 -0.007702537 0.025974821 0.0056390353
0000c0 c4 01 ee bc a6 83 f5 bc 10 af 38 3b 58 99 5c bc
       -0.029053576 -0.029970001 0.0028180517 -0.013464294
0000d0 66 83 f8 bc 00 b4 09 39 10 48 fb 3b 07 78 ef bc
       -0.030336093 0.00013132393 0.0076685026 -0.029232038
0000e0 f8 10 93 3c f5 9a ff bc 24 18 00 3d 9b 1b ee bc
       0.017952427 -0.031201819 0.031273022 -0.029065898
0000f0 53 c8 dd bc 58 68 7c 3c cc 6d fc 3c c8 50 17 3c
       -0.027073061 0.015405737 0.030814074 0.009235568
000100 ac f5 ce 3c 3e 5a e6 3c 3c 53 e6 3c 4c 06 9a 3c
       0.02526363 0.028119203 0.028115861 0.01880183
000110 5e ce 77 bc 5c d0 01 3d 3e e0 64 bc 38 e2 2a bc
       -0.015124885 0.031692848 -0.013969479 -0.010429911
000120 a8 af 96 bb ee e0 6f bc 80 9d 04 3d 40 42 67 3b
       -0.0045985766 -0.01464103 0.032376766 0.003528729
000130 80 f2 84 b9 ae 38 4e bc 14 fa 61 bc 14 2d d0 bb
       -0.00025357679 -0.012586756 -0.013792533 -0.00635303
000140 4c 4c 66 3c 58 01 f6 bc 68 82 83 3b f8 3b 6f bc
       0.0140562765 -0.030029938 0.0040133484 -0.0146017
000150 d8 74 50 bb 98 22 7d 3c 3a 01 05 bd 20 38 f8 3a
       -0.0031807926 0.015450142 -0.032471873 0.0018937625
000160 36 b5 00 3d c2 6d e7 bc 24 7a 40 3c f0 4b 4c bb
       0.031422816 -0.028250579 0.011747871 -0.0031173192
000170 90 bf ea bc b4 1c f5 3c c0 6d 1a bb dc ab 2e 3c
       -0.028655797 0.029920913 -0.0023563951 0.010661092
000180 1a 4c 99 bc 42 da db bc 00 75 7b 3b 1c fb a1 bb
       -0.018713046 -0.026837472 0.0038369298 -0.0049432646
000190 3e 8a a8 bc 5c 3a c7 bb 40 f8 d2 bc 54 a7 88 3c
       -0.020573732 -0.006079955 -0.02575314 0.01668135
0001a0 09 67 02 bd 3e 04 e2 3c ee 4f c9 bc 16 76 fd bc
       -0.031836543 0.027589913 -0.024574246 -0.030940097
0001b0 d4 48 f2 3c f0 d6 2a bb c6 63 06 bd 44 99 c5 3c
       0.029575743 -0.0026068054 -0.032809995 0.024120934
0001c0 fc c1 f7 bc bb f2 f6 bc 96 7b aa 3c d6 55 98 bc
       -0.030243866 -0.03014504 0.020810883 -0.018595617
0001d0 c6 fb d4 bc 80 79 86 3b 13 19 01 bd 47 00 e8 bc
       -0.025998961 0.0041038394 -0.031518053 -0.028320445
0001e0 38 83 a5 3b 78 57 b8 3c 20 75 fd bc 7a 81 c7 3c
       0.005051043 0.022502646 -0.030939639 0.024353731
0001f0 1e 22 d8 3c 42 12 0a bc a4 98 75 3c cd 1e d7 bc
       0.026383456 -0.008427205 0.014990006 -0.026259804
000200 24 7b f2 3c c0 59 f8 bc 0b 88 e3 bc a8 d0 f6 3b
       0.029599734 -0.030316234 -0.027774831 0.007532198
000210 18 5c bf 3c e4 ce f5 3c a8 00 58 bc 3e a3 95 3c
       0.023359343 0.03000588 -0.01318375 0.018266317
000220 98 b0 85 3c c3 4c 91 bc cd ae 04 bd 80 d0 f3 3b
       0.016319558 -0.017736798 -0.032393266 0.0074406266
000230 94 d9 2d 3c 2c 65 7f 3c e4 f1 40 bc e7 8a be bc
       0.010610957 0.015588086 -0.011776421 -0.023259593
000240 02 03 e9 bc 84 37 16 3c e0 2c 19 bb e1 6c b8 bc
       -0.028443817 0.009168509 -0.0023372695 -0.022512855
000250 40 ef 9f bb 00 b0 7d 39 18 51 83 3c 80 4a 09 bd
       -0.0048808157 0.00024193525 0.01602988 -0.033518314
000260 9c d0 fe 3c 44 49 07 bd 2a 08 80 3c 90 e5 32 3c
       0.031105332 -0.033028856 0.015628893 0.01091899
000270 20 d7 03 bb 99 72 e1 bc 58 2f e8 bc 1c 24 f2 bb
       -0.0020117238 -0.027520465 -0.028342888 -0.0073895585
000280 64 be d2 bc 7c c0 3b bc 26 b1 c7 3c 16 46 a0 bc
       -0.025725551 -0.011459466 0.024376463 -0.01956467
000290 44 9a 61 3c a8 18 35 3c 7a 04 9a 3c ea a7 d3 3c
       0.01376969 0.011053242 0.018800963 0.025836904
0002a0 69 16 86 bc 78 41 1d bc e8 db fa 3c ac 9a 35 3c
       -0.016368108 -0.0095981285 0.030622438 0.01108424
0002b0 52 40 ad 3c 10 8f 21 3b 96 b5 af 3c 80 bc 49 3a
       0.021148834 0.0024651922 0.021448892 0.000769563
0002c0 08 fb cd 3c c8 dc c7 bc 20 8b ca ba ac fa 73 bc
       0.025144115 -0.024397269 -0.001545284 -0.014891308
0002d0 9a c9 ca bc 34 73 be 3c 9c 8e 4c 3c 9c 98 81 bb
       -0.024754334 0.023248293 0.012485173 -0.00395496
0002e0 cc 24 bd bb 23 35 f5 bc c0 f2 4d 3b bf 41 d8 bc
       -0.005772209 -0.029932564 0.0031425208 -0.026398538
0002f0 c6 29 35 bc 5a af 79 bc cc 2c e7 bb f8 33 be bc
       -0.011057323 -0.015239561 -0.0070549008 -0.02321814
000300 20 2e 23 3c 72 e9 bf 3c 49 10 0a bd f4 66 b7 bc
       0.0099597275 0.023426745 -0.033706937 -0.022387959
000310 a2 5f 21 bc da 85 56 bc 78 fa c5 3b b8 d2 e7 3b
       -0.009849461 -0.013093436 0.006041821 0.00707468
000320 d0 89 5c bc be 56 b5 3c ca de ef bc c8 84 d3 3c
       -0.013460591 0.022136088 -0.029281039 0.025820151
000330 14 38 b5 3c e8 48 5c 3c 3a 3d c9 3c 70 d7 c2 bb
       0.022121467 0.013445117 0.024565328 -0.0059460923
000340 ec 51 1c 3c a8 1f c4 3c 56 5b 8f bc e0 57 30 bb
       0.009541016 0.023940876 -0.017499607 -0.0026907846
000350 2a 99 a4 3c f4 01 eb 3c 40 7c 94 3a b4 26 94 bc
       0.020092566 0.028687455 0.0011328533 -0.018084861
000360 c8 5d b7 bb 76 f0 8b bc 22 0e b4 3c 1c a3 14 3c
       -0.0055958964 -0.017082434 0.021979395 0.009072091
000370 74 f4 60 3c 24 2e 07 bd 00 f3 24 3b c0 58 5a ba
       0.013730157 -0.033002988 0.0025169253 -0.0008329265
000380 a4 f3 c1 3c 60 a9 ca ba dc 7a cd bb b0 b0 7a 3c
       0.023675747 -0.0015461855 -0.0062707495 0.015300915
000390 46 dd 08 3d b7 c7 00 bd aa 88 a8 3c a0 c8 00 3b
       0.033414148 -0.031440463 0.020572979 0.0019650832
0003a0 f1 d9 fe bc 1a 16 5b bc 00 73 a4 3b a0 fd e5 3b
       -0.031109782 -0.013371969 0.005018592 0.00701876
0003b0 4a 61 c6 3c ac 7b 58 3c 2c 9f d6 3c 6c 8b 40 3c
       0.024216313 0.013213079 0.026198946 0.011751991
0003c0 d3 f6 f2 bc f0 79 49 3b cc ed bd 3c d0 ff ca bc
       -0.02965871 0.0030742846 0.02318468 -0.024780184
0003d0 32 88 e7 3c f4 04 24 3c 46 6a 97 3c 20 8f b5 3a
       0.028263185 0.010010947 0.018483292 0.0013851859
0003e0 c8 2e 65 3c 1c d3 2e 3c 94 78 07 3c ce 7c 08 3d
       0.013988204 0.01067045 0.008268494 0.033322148
0003f0 06 f6 06 bc b8 5b bb 3b 02 b9 c7 3c 20 c7 53 3c
       -0.0082373675 0.005717721 0.02438021 0.012925893

fc1.bias f4 [128]
000000 65 fb c3 bc d9 f9 5f 3b 00 8c 08 3d 53 64 2f 3c
       -0.023923585 0.003417602 0.03333664 0.0107050715
000010 2a a9 9a bc cb 68 89 3c 78 ac 63 3c 51 ec 68 bc
       -0.018879492 0.016773602 0.0138961 -0.0142164985
000020 66 b4 cd bc 71 36 06 3b 3f 3c 97 3c 65 06 f3 bc
       -0.025110435 0.0020479227 0.018461345 -0.029666135
000030 80 10 af 3c 4d 59 16 bd 69 f9 d1 bc f7 f7 14 bc
       0.021370173 -0.036706258 -0.025631623 -0.009092323
000040 f0 4d 8e 3c fb 57 7a 3c fd 97 b9 39 a0 5d a6 3c
       0.017371148 0.015279765 0.0003539919 0.020308316
000050 fc fc 07 bd 62 59 f8 bc fb 1a 26 bd a5 4f a7 3c
       -0.03320025 -0.030316059 -0.040553074 0.02042372
000060 4e c6 2d bc b3 50 0d bd 62 1b 12 bc 40 62 e8 3c
       -0.010606362 -0.03450079 -0.008917661 0.028367162
000070 4a 09 b6 bc 03 e2 a3 3c 11 8c e9 3b ac 14 ea 3c
       -0.022221226 0.020005232 0.007127293 0.02857431
000080 be be ee bc de b7 b5 bc 92 95 b9 3c 95 1f 28 bb
       -0.029143687 -0.022182401 0.022654328 -0.002565359
000090 5e 26 cf 3c 94 18 f8 bc 42 af 3c bc 4c 3c a8 bc
       0.02528685 -0.030285157 -0.011516394 -0.020536564
0000a0 9a 9f 09 bd 94 08 92 bc 9a ef 30 bc ea 51 19 3c
       -0.033599474 -0.017826356 -0.010799313 0.009357909
0000b0 b4 a2 2f bc f2 fe e1 3c b8 3c ac 3b e8 f0 32 3c
       -0.010719944 0.027587388 0.0052562617 0.010921694
0000c0 9a b7 9b bc f1 ef 58 bc cc 7b a0 bb 90 67 80 3c
       -0.019008446 -0.0132408 -0.0048975702 0.015674382
0000d0 40 18 ba 3c 3b 07 92 bc db 11 52 3c b8 55 0b bb
       0.022716641 -0.017825713 0.01282164 -0.002126081
0000e0 68 ca 80 bb ab e7 dd bc f0 2e fe bb 65 56 8f bc
       -0.0039303787 -0.027088007 -0.00775706 -0.01749725
0000f0 67 3f f1 bc 82 ca a3 bc 13 3f df bc 08 68 a9 bb
       -0.029449178 -0.019994024 -0.027251756 -0.005169872
000100 44 22 a0 bc 5e 1f 43 3c c1 7b 68 bb 44 89 5d 3c
       -0.01954759 0.011909334 -0.0035474154 0.013521496
000110 3b 9c 96 3c 4c e9 55 3b a9 55 ef 3b 2c c0 65 3c
       0.018385043 0.0032640276 0.0073039127 0.014022868
000120 a8 e1 03 3c 2d 96 ed bc 36 2f 2d 3b 4b b0 d8 bc
       0.008049406 -0.029002273 0.0026425845 -0.02645125
000130 eb b4 c1 bb f0 79 04 bb 0e 3c 70 3c c2 7b 1c bc
       -0.0059114597 -0.0020214282 0.014662756 -0.009550991
000140 d3 2b b0 3c be ca 1f 3c e4 5c 02 3d 48 bc fa 3b
       0.021505272 0.009752927 0.03182687 0.0076518394
000150 80 a9 a2 bc 90 8b 39 bb 01 20 7d 3c 78 f6 45 3c
       -0.019856215 -0.0028311945 0.015449525 0.0120826885
000160 79 ea 32 3c 66 30 36 3c e2 b3 91 b9 99 5a a5 3c
       0.01092016 0.0111199375 -0.00027790578 0.020184802
000170 39 ff 00 bd e2 7a ac 3b e2 81 9e bc fe fd b0 bc
       -0.0314934 0.005263672 -0.019349042 -0.021605488
000180 dc 93 88 3c cc 51 e2 3c 20 a6 90 bb 15 91 ec bc
       0.016672067 0.027626894 -0.004414335 -0.028877774
000190 8a 2f b0 3c 79 ae 86 bc a0 be 71 3c a8 23 57 bc
       0.021507043 -0.016440617 0.014754921 -0.01313106
0001a0 b3 e9 6a bc 0d 34 97 bc cc 78 01 bc 42 55 8e bb
       -0.014337945 -0.018457437 -0.007902335 -0.0043436596
0001b0 08 10 11 bd 10 a7 9c 3b 9e 56 dd bb 8a 2b 80 3c
       -0.03541568 0.0047806576 -0.0067547103 0.015645761
0001c0 c4 5c e0 3b 76 55 92 bc d0 14 5a 3c 1c f1 b3 3c
       0.006846996 -0.017863017 0.013310626 0.021965556
0001d0 f3 42 8b 3c 9f 45 53 3c 2a 9d b1 3c 06 e5 98 bc
       0.016999697 0.012895017 0.021681387 -0.018663894
0001e0 7f ce 69 3c c2 e8 ec bc 28 71 ba 3b 84 05 df bc
       0.014270424 -0.028919581 0.005689759 -0.02722431
0001f0 15 2d 18 39 b9 fc 8b bb b3 6f 3e 3b b0 eb 06 bc
       0.00014512644 -0.0042720702 0.0029058277 -0.008234903

fc2.weight f4 [2, 128]
000000 16 6b ad bd b8 ae 5e bd c2 6f 8e bd 1a 9e 0b bd
       -0.08467691 -0.054365844 -0.0695491 -0.034086324
000010 81 72 ae bd af fe df 3c b4 28 a3 3d a7 19 25 3d
       -0.08517934 0.027343122 0.07966748 0.040307667
000020 88 1e bb bc 90 b0 83 bd 2a 45 ff bb 57 3e 98 bc
       -0.022841707 -0.06430161 -0.0077902274 -0.018584413
000030 00 3e 02 bd c9 a6 9e bd 96 54 95 3c 1c 90 a4 bd
       -0.03179741 -0.077466555 0.01822881 -0.08035299
000040 7d 98 ac bd c7 dc 96 bd 78 32 de 3c 4e 4d 33 bd
       -0.08427522 -0.07366329 0.027123675 -0.043774895
000050 00 9c bd b9 40 f5 a6 3c eb 10 9e 3d 44 fe 20 bb
       -0.00036165118 0.020380616 0.077180706 -0.0024565617
000060 53 a1 31 b8 e4 01 b8 bb 11 a7 a4 3d 60 5d 4f bc
       -4.2350333e-05 -0.0056154598 0.08039678 -0.01265654
000070 e0 50 41 3c 1d 2a 8f bd 83 b2 70 3b 37 d1 83 3d
       0.011799067 -0.06990454 0.0036727495 0.06436389
000080 2d 0d 64 3d 3a cf 2d 3d 08 e4 1f 3c 46 eb 50 bb
       0.055676628 0.042433955 0.009758957 -0.0031878515
000090 08 c2 fd bc 49 06 75 3d 3e 1b 68 bd 2e 2e 69 3d
       -0.03097631 0.059820447 -0.056666605 0.056928806
0000a0 30 01 1f 3d 2b fb 22 3d 4e 90 82 3d b8 6d 35 3d
       0.038819492 0.039790314 0.0637518 0.04429409
0000b0 00 f9 4e 3c 99 b6 18 bd 81 84 0b bd 6e 21 ef bc
       0.012632608 -0.037283514 -0.034061912 -0.029190745
0000c0 cc 94 34 bd 21 da e5 bb f7 f9 1b bd de 2a 52 3d
       -0.044087216 -0.0070145284 -0.038080182 0.051310413
0000d0 d5 b7 9e bd be 83 a7 bd 43 e9 96 3d 6a 79 48 3d
       -0.07749907 -0.08179425 0.0736871 0.048943914
0000e0 4f b4 14 bd 30 18 92 bd e8 3e 7f bd b1 07 65 bd
       -0.03630477 -0.0713352 -0.06231585 -0.05591554
0000f0 46 c1 e4 3c c8 2b 3b 3d c7 70 32 bd f3 34 6e bd
       0.027924191 0.04569605 -0.043564584 -0.058155965
000100 74 7a ab 3c 87 91 b8 bc b6 f8 f4 3c 9d 45 12 bd
       0.020932414 -0.02253033 0.02990375 -0.03571092
000110 ec e8 1d bd a9 96 af 3d f0 04 92 3d 98 91 84 bc
       -0.03855221 0.08573658 0.07129848 -0.016182706
000120 be 49 9a bd 55 59 24 3d 18 eb 26 3c aa b8 8c bc
       -0.075335965 0.040124256 0.010187887 -0.017177898
000130 4a c9 1b 3d 65 c1 b0 3d a0 3f 59 3b 52 55 0a bd
       0.03803376 0.08630637 0.0033149496 -0.033772774
000140 83 8f 91 3c 9f 30 2a 3d fa 06 06 3d 12 ec 74 3d
       0.017768627 0.041550275 0.032721497 0.059795447
000150 5e 14 8d bd fc c4 22 bd d6 f0 04 bd 49 c2 50 3c
       -0.0688865 -0.03973864 -0.03245624 0.012741634
000160 8e e0 80 3d 42 c7 91 3d 05 9d 95 bd a6 78 b9 bc
       0.062928304 0.071180835 -0.0730534 -0.022640537
000170 a0 43 83 bd e5 15 51 3b 0b 52 a7 3d 00 c6 d5 bc
       -0.06409383 0.003190392 0.08169945 -0.02609539
000180 00 27 d7 bc b6 7d 4b 3d 76 43 7e 3d 2c 5d ec 3a
       -0.026263714 0.049680434 0.062076055 0.0018033138
000190 ee 4e 84 bc 36 15 1a bd 8d 2b 8d bd c7 21 92 3d
       -0.016150918 -0.037617885 -0.06893072 0.07135349
0001a0 be 03 22 bd 74 e1 43 3d 18 33 cf 3b b4 c0 8e 3d
       -0.03955435 0.04782243 0.0063232295 0.06970349
0001b0 f7 cb 43 bd c5 8b e3 bb 54 b8 f7 bc 86 f2 97 bd
       -0.047801938 -0.006944152 -0.030239262 -0.074193045
0001c0 d6 3f 3e 3c 58 a9 69 bd 60 e6 64 3c e4 df 0a 3d
       0.011611899 -0.057046264 0.013970941 0.033904925
0001d0 5e a4 8a bd c9 88 66 3d a0 25 95 3c 4f d2 0f 3d
       -0.06769632 0.056282792 0.018206418 0.035112675
0001e0 f2 b6 93 bd e3 88 97 3d 8e 89 fc bc 9f 20 7c 3d
       -0.072126284 0.07399156 -0.03082731 0.061554547
0001f0 29 6e 8d 3d bf 59 71 bd 66 91 d6 bb 15 4b 32 bd
       0.06905777 -0.05892348 -0.0065480946 -0.043528635
000200 00 b7 ab b9 80 bc 85 3b 8b e6 b3 3d c3 ce 3c bd
       -0.00032752007 0.004081309 0.08784207 -0.04609562
000210 00 e0 af ba 36 59 00 bd b5 b3 e9 3c a1 b6 0e 3d
       -0.0013418198 -0.03133508 0.028528074 0.034842137
000220 c0 01 ff 3a 66 85 7e 3c ce a0 96 3c 4e ce b6 3b
       0.0019455478 0.015534734 0.018387225 0.0055787927
000230 16 1f d1 3c 9f 54 7d 3d 9c 5f 8d 3d e4 a1 a0 bd
       0.025527518 0.06184828 0.06903002 -0.07843378
000240 a8 b1 42 3c bf 47 8b bd 3b e0 74 3c e2 8a 11 bd
       0.011883177 -0.06800794 0.014946039 -0.03553284
000250 fa fe 7f 3d 2d eb b3 bc 6c 61 a9 3b cb db 84 bc
       0.062499024 -0.021962726 0.0051690843 -0.016218087
000260 f9 43 7b bd c6 83 95 bd 44 d1 bc 3c 48 ad 94 3c
       -0.06134412 -0.073005244 0.023049004 0.018149033
000270 d2 f3 ae 3c f0 e2 4c bd 15 40 3d bd 40 42 38 bc
       0.021356497 -0.050021112 -0.04620369 -0.011246264
000280 66 75 a3 3d 1f 4b 13 bd 25 f4 75 bd c9 83 be bc
       0.07981376 -0.035960313 -0.060047287 -0.0232562
000290 a4 ff 4b 3d 65 9e 92 3d 18 c3 ad bc e0 94 91 3c
       0.049804345 0.071591176 -0.021211192 0.017771184
0002a0 d0 4a cc 3c 49 7a 9d bd 3f 7c 50 39 6e b9 06 bd
       0.024938017 -0.0768934 0.00019882711 -0.032891683
0002b0 7c 50 bf bc ae 26 96 bd fb b3 8b bd a1 2d 96 3d
       -0.023353808 -0.07331596 -0.06821438 0.07332922
0002c0 46 8d 10 bd 78 ef 87 3d f4 fa 85 bd 28 e7 fd bb
       -0.03529098 0.06637472 -0.06542006 -0.0077485032
0002d0 af 5d 31 bc f0 80 f3 bb 86 6a a0 bd 32 23 28 3d
       -0.010825559 -0.007431142 -0.07832818 0.04104919
0002e0 1f 33 2c 3c 48 ff b6 3c 06 2e 33 3d 70 ff 71 bd
       0.010510235 0.022338524 0.043745063 -0.059081495
0002f0 1b 5f 20 bd fe dd f5 bc 6a 59 53 bd cd 03 41 bc
       -0.0391532 -0.03001308 -0.051598944 -0.011780691
000300 71 ff 4e bd 15 87 92 bc 55 80 72 3c c2 85 6b bd
       -0.050536577 -0.017886678 0.014801105 -0.05750061
000310 be 90 0a bd ef 8d 99 3d 4f f7 2f 3d 70 09 0d bd
       -0.033829443 0.07497775 0.04296046 -0.03443283
000320 fe 94 43 bd 6b c3 a4 bc 0e 87 1e bd d6 02 3e bd
       -0.047749512 -0.020112714 -0.038703017 -0.046389423
000330 ac 83 31 bd 81 c1 ac 3d 28 19 a9 bc df 35 ab 3d
       -0.043338463 0.084353454 -0.020641878 0.083598845
000340 47 7e a6 bd ca f0 3c bd 37 66 8e 3d 07 30 8c bd
       -0.08129554 -0.04612807 0.0695309 -0.06845098
000350 c5 ce 82 3d 40 14 b3 bc 97 9d 9f 3d 65 6e 94 3b
       0.063870944 -0.021860242 0.0779373 0.0045297616
000360 27 51 21 bd ec 9a 24 3d d4 66 da bc 2b 3c 97 3d
       -0.039384034 0.040186808 -0.02666036 0.07384523
000370 f2 27 ed bc 54 3f ac 3c e8 4d 4c 3c 58 94 6b bd
       -0.028949711 0.021026291 0.012469746 -0.05751452
000380 4a 7d 1e bd 9a 8c 7f bd 10 de fb bb 08 dc 29 bc
       -0.038693704 -0.062389947 -0.007686384 -0.010367401
000390 c6 4d a9 bc e1 ff 93 3d 78 6e 15 bd 82 07 38 3d
       -0.020666968 0.072265394 -0.036482304 0.044929035
0003a0 f2 0e ea bc 05 f6 74 bd 0d 9f 96 bd 56 67 95 3b
       -0.02857158 -0.059804935 -0.07354555 0.0045594377
0003b0 ff 63 d8 3c ef 70 72 bc 14 d8 bd 3c 62 7c 86 3d
       0.02641487 -0.014797433 0.023174323 0.06566693
0003c0 88 b2 49 bc 31 7b 63 3d 36 74 84 bd 58 6e 74 3c
       -0.012310632 0.055537406 -0.06467478 0.014918886
0003d0 8b 1e d0 bb 3f f3 7b 3d 88 da 23 bc 15 8c 5a bd
       -0.0063512973 0.061511274 -0.010000832 -0.05335625
0003e0 bd 14 07 3d 6d 5c f2 bc 40 48 9a 3a 51 01 6f bd
       0.032978762 -0.029585088 0.00117708 -0.058350865
0003f0 9c 1d 2a 3d 5a e6 90 3d 51 37 2e bc 07 2b 91 3d
       0.041532144 0.07075186 -0.010633306 0.07088285

fc2.bias f4 [2]
000000 23 42 69 bb dc 82 52 3d
       -0.00355924 0.05139433
