models/2024-05-10_12-11-52_Model.onnx (onnx, 448796 bytes, 10 tensors)

conv1.weight f4 [8, 1, 1, 1, 1]
-0.25960043 0.27920035 -0.8008402 0.10618339 -0.40597868 0.15289065 -0.53888625 -0.6374788
00000000: 59ea 84be 59f3 8e3e dd03 4dbf ad76 d93d
00000010: 70dc cfbe 5e8f 1c3e 73f4 09bf d031 23bf

conv1.bias f4 [8]
0.8013989 0.38293776 0.5730264 0.21013477 -0.7961874 0.7891874 -0.1340976 0.9381727
00000000: 7a28 4d3f 6b10 c43e dcb1 123f 922d 573e
00000010: f0d2 4bbf 2f08 4a3f e250 09be 162c 703f

conv2.weight f4 [16, 8, 1, 1, 1]
-0.25179648 -0.053585686 -0.17408603 0.32348898 -0.14968091 0.025276007 0.28151342 0.115474015
0.3266568 -0.06261665 0.3172827 0.24657041 0.1278418 -0.34778512 -0.2063194 -0.028967762
-0.20110229 -0.31497377 -0.16797711 -0.2829892 0.23437527 0.1985263 -0.042942405 -0.10017976
-0.22082998 -0.27178082 0.20824443 -0.19092204 0.25725278 -0.29633814 0.31232536 0.31698653
0.05406068 0.17936185 -0.2726357 0.20895459 0.33636603 -0.17526369 -0.067588195 -0.12547585
-0.16228843 -0.3090317 0.120409444 0.28375632 -0.17826465 0.1761538 0.24286054 0.0038406444
0.029218942 -0.10744277 0.31408265 0.027018398 -0.085576296 0.19682762 -0.28236246 -0.2148747
0.27612543 -0.025923023 -0.32958147 0.21034552 -0.04235792 0.23461352 -0.15828721 0.12244749
-0.121807955 0.2893267 -0.29858327 -0.11798168 -0.32144558 0.07927077 -0.20818865 -0.06570403
-0.151913 -0.15500864 -0.054876924 -0.30923724 0.18685785 -0.1894411 0.35194108 -0.16252406
-0.053874586 0.3437018 -0.2589372 -0.045662813 0.24586466 0.19482636 -0.07158256 0.25012225
0.25135806 0.0728322 -0.003109455 0.21810731 -0.099491894 -0.31766045 0.033489347 -0.124806255
0.03757262 -0.3196041 -0.25755042 -0.3085765 0.29123613 0.23309259 -0.092923254 0.039920717
0.059253167 0.16973536 -0.331499 0.08759518 0.24218318 0.15558104 -0.33047143 0.098931275
0.27202007 0.3021018 -0.10857273 -0.27148995 -0.23829179 -0.13976872 -0.09048538 -0.0005652224
-0.22032008 -0.02389766 0.30274773 0.124807276 -0.3157931 -0.18528181 -0.0969355 0.1816881
00000000: 78eb 80be aa7c 5bbd 9c43 32be 59a0 a53e
00000010: f445 19be a10f cf3c 8722 903e a47d ec3d
00000020: 8f3f a73e 283d 80bd e172 a23e f47c 7c3e
00000030: f6e8 023e e410 b2be 6545 53be cd4d edbc
00000040: c2ed 4dbe 3e44 a1be 3102 2cbe f6e3 90be
00000050: 1200 703e 7a4a 4b3e 60e4 2fbd 0c2b cdbd
00000060: 4121 62be db26 8bbe 073e 553e 1181 43be
00000070: a3b6 833e a2b9 97be 1ce9 9f3e 0f4c a23e
00000080: bb6e 5d3d a2aa 373e e896 8bbe 31f8 553e
00000090: 2b38 ac3e 5378 33be ae6b 8abd be7c 00be
000000a0: f02e 26be 6739 9ebe 3a99 f63d 8248 913e
000000b0: 028b 36be a961 343e 6fb0 783e 52b3 7b3b
000000c0: 905c ef3c f40a dcbd 71cf a03e b055 dd3c
000000d0: a042 afbd 2e8d 493e d091 90be 1d08 5cbe
000000e0: 5060 8d3e 855c d4bc e7be a8be d164 573e
000000f0: 807f 2dbd 873e 703e 0b16 22be c0c5 fa3d
00000100: 7376 f9bd a122 943e e8df 98be 61a0 f1bd
00000110: 8494 a4be b758 a23d 682f 55be d68f 86bd
00000120: 158f 1bbe 96ba 1ebe a0c6 60bd 5854 9ebe
00000130: aa57 3f3e d9fc 41be 9f31 b43e b56c 26be
00000140: 99ab 5cbd aff9 af3e 6b93 84be ee08 3bbd
00000150: f2c3 7b3e 9080 473e e199 92bd 0610 803e
00000160: 01b2 803e 0c29 953d 00c8 4bbb 8657 5f3e
00000170: 68c2 cbbd 64a4 a2be 202c 093d 6c9a ffbd
00000180: bfe5 193d 26a3 a3be a6dd 83be bdfd 9dbe
00000190: e71c 953e d3af 6e3e 8c4e bebd e883 233d
000001a0: 73b3 723d 1bcf 2d3e 3dba a9be 1a65 b33d
000001b0: defe 773e a350 1f3e 8d33 a9be 7b9c ca3d
000001c0: 3746 8b3e 16ad 9a3e 615b debd bb00 8bbe
000001d0: c302 74be 881f 0fbe 6650 b9bd 6f2b 14ba
000001e0: 969b 61be 07c5 c3bc c001 9b3e f59a ff3d
000001f0: a2af a1be 84ba 3dbe 1f86 c6bd 720c 3a3e

conv2.bias f4 [16]
-0.14485197 -0.20874709 -0.15683208 0.21848205 0.32591206 -0.040831227 -0.26969552 0.08675211
-0.28724375 0.29602042 -0.0631362 -0.2195324 0.114967726 -0.24125512 0.23811756 -0.01260195
00000000: 1354 14be ccc1 55be 9798 20be c2b9 5f3e
00000010: f2dd a63e a53e 27bd 8815 8abe 17ab b13d
00000020: 9d11 93be fd8f 973e 8d4d 81bd 1acd 60be
00000030: 3374 eb3d 950b 77be 17d5 733e 6978 4ebc

conv3.weight f4 [32, 16, 1, 1, 1]
0.18906441 0.11741373 -0.20049188 -0.22627455 -0.21267372 0.18560678 -0.018984914 -0.12724161
-0.12228465 -0.0450899 -0.054852545 0.0009301007 0.24022993 -0.21909773 0.16944125 -0.15557247
0.07769686 -0.1389619 0.20747101 0.03850173 -0.10085215 -0.23616877 -0.022566766 0.21774705
-0.041288707 -0.16420236 -0.053555343 0.15991452 -0.14926332 -0.21615525 0.10445129 0.05755592
-0.12183352 -0.06863094 0.20859584 -0.1698294 -0.22256227 0.16818823 0.23939338 -0.24580045
0.10220398 0.11576086 0.23740405 -0.01431182 -0.05083566 -0.12354244 -0.24291375 0.09059239
-0.20363057 0.17833474 -0.062051296 -0.15108863 -0.14054853 0.12655726 -0.17959616 -0.21436906
-0.22873268 0.025188267 0.04286012 -0.23431161 -0.036341697 0.10995582 0.01137954 -0.16010109
0.21357714 -0.035386823 0.14522028 0.11583631 0.049324736 0.045747556 -0.18090197 -0.23680958
-0.037440192 0.070254445 -0.029060027 -0.23566896 0.15112212 0.1452554 0.1311158 -0.08920001
0.10051744 -0.074865974 -0.07825631 -0.08801392 -0.0152498195 0.13374585 -0.18358976 0.01866863
-0.014957729 -0.2033225 0.03318879 -0.067669004 -0.13429357 0.1544384 -0.22584036 0.022158064
0.15781836 -0.032088112 0.058366746 0.14428565 0.21659678 -0.025895115 -0.08401105 0.12184567
-0.09039902 0.18399176 0.13009106 -0.104544014 -0.023232745 -0.13687238 0.08698923 -0.2221646
-0.2067729 -0.12145868 -0.13970649 0.12611464 -0.22205848 0.19394535 -0.016542286 -0.035009116
0.23880011 -0.24755082 -0.19979078 0.09900436 -0.08579123 0.08892587 -0.19170567 -0.02569884
-0.052068032 -0.033197097 -0.15095669 0.23046662 0.21778445 -0.06316018 0.2403683 -0.056828294
-0.1427259 -0.13488343 0.06418413 -0.032328844 0.13048618 -0.046583798 0.24663721 0.112967245
0.19005916 -0.08519441 0.19082731 0.13961568 0.051956605 -0.16462803 0.24590346 -0.22128335
-0.21990761 -0.0074717402 0.06213616 -0.05556035 0.09977661 0.010813578 0.059170254 0.22213075
-0.060758334 0.21508157 0.18729609 -0.056010544 0.21198903 -0.11033875 0.16509268 -0.012797274
-0.20035788 0.0581851 0.030195829 0.058526784 0.059163544 0.10094252 0.20196322 -0.06687411
0.23850353 0.021873187 -0.003284514 0.02696544 0.047447465 0.0940889 0.24149111 -0.258991
0.19090816 0.06693253 0.01640467 -0.22556359 -0.1345758 -0.010970341 0.23858678 0.0020281451
-0.029522663 0.018445294 -0.12196219 -0.22715974 -0.25061837 0.22264364 -0.23797852 0.10225505
-0.11571559 -0.035862416 0.20572598 -0.03393823 0.16252562 -0.10693486 0.09297283 -0.092819884
0.18338336 0.22778659 -0.12824374 -0.010904262 0.10665891 0.07064857 0.17982182 0.07758632
-0.15855482 0.21473739 0.036829926 -0.013623357 0.089680396 -0.26276013 0.13900489 -0.11457747
0.11197782 0.1316312 0.13709271 -0.2420835 -0.025050078 0.020481499 0.100830734 0.22238003
0.075082965 -0.027629256 -0.0035441078 -0.1040642 -0.22953556 0.18150236 0.16693906 -0.09276119
-0.17618623 0.089633554 -0.067328036 -0.22852096 0.0756928 -0.1654711 0.23814195 0.093565285
0.08062577 0.031090856 -0.0383946 0.11457339 -0.057165742 0.05133754 -0.17167777 -0.2348975
00000000: 1a9a 413e 9c76 f03d be4d 4dbe 84b4 67be
00000010: 24c7 59be b40f 3e3e 4086 9bbc a04b 02be
00000020: 6070 fabd 30b0 38bd 10ad 60bd 00d2 733a
00000030: d6fe 753e 285b 60be 0282 2d3e 644e 1fbe
00000040: 881f 9f3d 074c 0ebe 4873 543e fdb3 1d3d
00000050: 928b cebd 3ad6 71be f0dd b8bc 15f9 5e3e
00000060: 591e 29bd aa24 28be d95c 5bbd a2c0 233e
00000070: 7cd8 18be cd57 5dbe 8fea d53d c2bf 6b3d
00000080: da83 f9bd 618e 8cbd 269a 553e c2e7 2dbe
00000090: 5de7 63be 8939 2c3e 8a23 753e 1db3 7bbe
000000a0: 5250 d13d 0814 ed3d 0c1a 733e 207c 6abc
000000b0: 0e39 50bd d203 fdbd 62be 78be 8188 b93d
000000c0: 8884 50be 629d 363e 8029 7ebd fab6 1abe
000000d0: f4eb 0fbe 3a98 013e 0ee8 37be 9083 5bbe
000000e0: e638 6abe a057 ce3c 188e 2f3d 62ef 6fbe
000000f0: 08db 14bd 8430 e13d 4071 3a3c 8af1 23be
00000100: f7b3 5a3e c6f1 10bd a0b4 143e 963b ed3d
00000110: bc08 4a3d ca61 3b3d 5e3e 39be 367e 72be
00000120: e35a 19bd 90e1 8f3d 4b0f eebc 3453 71be
00000130: c2bf 1a3e d5bd 143e 3843 063e 7fae b6bd
00000140: 16dc cd3d 5553 99bd d844 a0bd a440 b4bd
00000150: 61da 79bc acf4 083e f4fe 3bbe f4ee 983c
00000160: 4311 75bc c633 50be f8f0 073d 0c96 8abd
00000170: 4184 09be 1a25 1e3e b242 67be d484 b53c
00000180: 239b 213e d36e 03bd f811 6f3d 9ebf 133e
00000190: 8ccb 5d3e fe21 d4bc fc0d acbd 398a f93d
000001a0: 1f23 b9bd 5668 3c3e 9736 053e 2c1b d6bd
000001b0: 9952 bebc 4628 0cbe 6927 b23d 1e7f 63be
000001c0: 46bc 53be 54bf f8bd 380f 0fbe 3224 013e
000001d0: 4c63 63be 9c99 463e b083 87bc b865 0fbd
000001e0: 0488 743e f67d 7dbe f495 4cbe ccc2 ca3d
000001f0: 50b3 afbd c41e b63d 7e4e 44be 6086 d2bc
00000200: 4a45 55bd aef9 07bd 6494 1abe 71ff 6b3e
00000210: e302 5f3e 205a 81bd 1c23 763e c9c4 68bd
00000220: bd26 12be e21e 0abe f872 833d 406b 04bd
00000230: 2b9e 053e a7ce 3ebd 778e 7c3e 5f5b e73d
00000240: de9e 423e 687a aebd 3c68 433e 6af7 0e3e
00000250: 73d0 543d 4094 28be 1ece 7b3e 1a98 62be
00000260: 762f 61be 80d5 f4bb 7c82 7e3d 4093 63bd
00000270: ae57 cc3d 6f2b 313c 825c 723d 3e76 633e
00000280: bbdd 78bd 583e 5c3e 8cca 3f3e 506b 65bd
00000290: a713 593e 48f9 e1bd 0e0e 293e a8ab 51bc
000002a0: 9e2a 4dbe 8053 6e3d 3e5d f73c c8b9 6f3d
000002b0: 7955 723d f4ba ce3d 72cf 4e3e 4bf5 88bd
000002c0: 453a 743e 662f b33c 0041 57bb a0e6 dc3c
000002d0: 4658 423d aeb1 c03d 7249 773e 789a 84be
000002e0: 6e7d 433e ec13 893d 1663 863c 24fa 66be
000002f0: 3dce 09be f2bc 33bc 1850 743e a1ea 043b
00000300: 83d9 f1bc 961a 973c 50c7 f9bd 909c 68be
00000310: 0d51 80be b2fc 633e a4b0 73be 186b d13d
00000320: 4cfc ecbd 78e4 12bd d5a9 523e d002 0bbd
00000330: 1e6d 263e aa00 dbbd 8a68 be3d 5a18 bebd
00000340: d9c8 3b3e e340 693e 5452 03be caa7 32bc
00000350: fd6f da3d 33b0 903d 3623 383e 94e5 9e3d
00000360: 325c 22be 1ee4 5b3e fada 163d 8034 5fbc
00000370: 5baa b73d 7f88 86be 4c57 0e3e 98a7 eabd
00000380: a154 e53d 54ca 063e 0862 0c3e bde4 77be
00000390: d235 cdbc d1c8 a73c 5880 ce3d 97b7 633e
000003a0: 19c5 993d c056 e2bc 4344 68bb 9c1f d5bd
000003b0: 5f0b 6bbe c1db 393e 13f2 2a3e 94f9 bdbd
000003c0: 2a6a 34be cc91 b73d 48e3 89bd 6601 6abe
000003d0: d404 9b3d 4271 29be 7cdb 733e 289f bf3d
000003e0: 201f a53d 40b2 fe3c a843 1dbd 74a5 ea3d
000003f0: a026 6abd 5047 523d 4ccc 2fbe f888 70be

conv3.bias f4 [32]
-0.11982712 0.22786975 0.21474408 -0.21446216 0.022303378 0.111180894 -0.16336784 -0.049752653
-0.19578964 -0.058258064 -0.17421347 0.11773079 0.16277479 0.19364733 0.10987766 -0.15019515
-0.21488184 0.16222389 0.0053264312 0.12963209 -0.109032735 -0.07546662 0.1663337 -0.022730917
0.051404223 -0.07483065 0.13116251 0.060370624 0.08830711 0.22709851 -0.24664876 0.052831013
00000000: ec67 f5bd b056 693e dfe5 5b3e f89b 5bbe
00000010: 93b5 b63c cfb2 e33d e649 27be 70c9 4bbd
00000020: 147d 48be 02a0 6ebd 0465 32be d71c f13d
00000030: 6fae 263e 7c4b 463e 8a07 e13d c2cc 19be
00000040: fc09 5cbe 051e 263e 5889 ae3b 46be 043e
00000050: 8e4c dfbd 3e8e 9abd 6253 2a3e 3036 babc
00000060: 3c8d 523d d040 99bd 774f 063e 3047 773d
00000070: 5cda b43d 838c 683e 7e91 7cbe 5565 583d

fc1.weight f4 [128, 864]
0.03328242 -0.033700224 -0.008811766 -0.0060496554 -0.009331685 0.031813882 -0.03214484 -0.003308123
0.0045146346 -0.01912738 0.020464763 -0.012239756 0.022056714 -0.024190519 -0.017171722 -0.0030593984
-0.025869742 -0.011227632 -0.02445127 0.019119281 0.0030595623 -0.022834726 -0.017555416 0.015134454
0.014685646 -0.0050569996 0.007850297 -0.0058133453 -0.0019790456 0.02428319 -0.024458066 0.00028323755
0.022368006 -0.008060178 -0.03012415 -0.021318384 -0.030393614 -0.0070297886 0.018036686 -0.028187146
-0.029090593 0.032289468 0.01588802 -0.023011755 0.003041491 -0.0062551964 0.026788343 -0.002991544
-0.026112724 0.0048838817 -0.026153445 0.015067898 0.005362276 0.023239821 -0.03340405 -0.0133280475
0.0035986565 0.027122237 0.02047798 0.03330072 0.002196081 -0.023587385 0.024603266 0.031951062
-0.01744757 0.029470399 -0.013663618 0.027935464 -0.01886852 -0.00025941432 0.019542363 0.03255128
-0.029240353 -0.02184692 -0.02665038 0.00073879585 -0.006227387 -0.018591898 0.030291438 -0.017139448
-0.0039610304 -0.032216236 2.5544316e-05 0.012315188 0.033097714 0.015164815 -0.0085925665 0.014886856
-0.009487642 0.02038106 -0.020082753 -0.010390317 0.0022434816 -0.014042804 -0.02212109 -0.026716646
0.013508435 0.007948656 -0.00744527 0.01580362 0.027285889 -0.02025665 0.0027431324 -0.0023258403
-0.008098869 0.014756471 0.0012548715 -0.02677745 -0.004529409 0.0011248998 0.018856034 0.005210489
-0.009027876 0.0021976233 -0.016501447 0.0015728399 0.023139961 -0.022841956 0.02855508 -0.010095488
-0.015971428 0.009752404 -0.032500353 -0.008356808 0.023219354 -0.02504952 -0.016218932 -0.0039954837
-0.002546288 -0.02667666 -0.028893236 0.0132709 -0.033575792 -0.024947185 -0.0098539535 0.021301575
0.023461204 -0.027800556 0.0025415048 0.013960596 -0.022230173 -0.002999233 0.027149819 0.022891164
0.005720485 0.029952817 0.011555046 0.021161977 -0.02907033 0.006771881 -0.026995592 -0.030344388
-0.018186076 -0.020433672 -0.01283877 -0.017570073 -0.02473946 0.018175468 0.03256289 -0.014243936
-0.007886186 -0.021822242 0.0073105693 -0.023783118 0.004550554 -0.022996694 0.02298493 -0.0134073105
0.008830372 0.0043238625 0.022166241 0.009172693 0.010575332 -0.031450912 0.0051057003 0.017114561
-0.01208397 0.033148475 0.006782718 0.017640166 0.0023809075 -0.031983644 0.022510357 0.019726418
-0.01652254 -0.03182157 -0.016811606 -0.016658098 0.011310019 0.032281466 -0.0016857572 -0.03064725
-0.0033401456 -0.031576313 0.01570668 0.032374866 0.032900043 -0.0036666598 0.033692345 -0.0028840266
0.0011969917 -0.02791094 -0.014716418 -0.027746256 -0.009478603 -0.015477028 -0.026170027 0.028369322
0.021035109 0.01836481 -0.0047553983 0.0064828023 -0.0062223375 0.026184555 -0.020702483 -0.025480317
0.0280108 0.017444525 0.0031057447 0.016647883 -0.030874578 -0.022719285 -0.030493125 0.0067323
-0.030006671 0.0020216666 0.025894962 -0.0056816563 -0.007787468 -0.030851409 0.007152114 -0.027691565
-0.0045817774 0.017087832 -0.012889655 -0.031213555 -0.0073162466 0.031735823 0.0021567047 -0.006913474
-0.013582174 0.025808524 0.029321954 0.026075695 -0.011720909 -0.017596273 0.02371743 0.0051099025
0.009632252 -0.011022067 0.009808991 0.0065069534 0.007978376 0.027782112 0.029482014 0.023204189
00000000: 2653 083d 3f09 0abd 3a5f 10bc 303c c6bb
00000010: ece3 18bc 464f 023d 4faa 03bd 18cd 58bb
00000020: 80ef 933b 06b1 9cbc b8a5 a73c 4289 48bc
00000030: 48b0 b43c 322b c6bc b6ab 8cbc 3080 48bb
00000040: c8ec d3bc 1af4 37bc 084e c8bc 0aa0 9c3c
00000050: f082 483b e40f bbbc 60d0 8fbc 80f6 773c
00000060: 109c 703c 30b5 a5bb 889e 003c e07d bebb
00000070: e0b2 01bb 8aed c63c 485c c8bc 807f 9439
00000080: 1c3d b73c d60e 04bc ecc6 f6bc e4a3 aebc
00000090: 07fc f8bc 245a e6bb acc1 933c bbe8 e6bc
000000a0: 654f eebc f641 043d 9827 823c 2683 bcbc
000000b0: c053 473b 64f8 ccbb 3a73 db3c c80d 44bb
000000c0: 5aea d5bc f808 a03b c03f d6bc 58df 763c
000000d0: 08b6 af3b 7061 be3c afd2 08bd e25d 5abc
000000e0: 70d7 6b3b 742f de3c 70c1 a73c 5666 083d
000000f0: 20ec 0f3b 553a c1bc ca8c c93c 1edf 023d
00000100: 35ee 8ebc e86b f13c 5edd 5fbc ead8 e43c
00000110: 2892 9abc 0002 88b9 4e17 a03c 7e54 053d
00000120: 7789 efbc 50f8 b2bc e651 dabc c0ab 413a
00000130: 1c0f ccbb 094e 98bc c025 f83c 0768 8cbc
00000140: 88cb 81bb 2cf5 03bd 0048 d637 a4c5 493c
00000150: 7891 073d d875 783c d6c7 0cbc 00e8 733c
00000160: 0e72 1bbc 2ef6 a63c 9684 a4bc 263c 2abc
00000170: 6007 133b ca13 66bc 4a37 b5bc dedc dabc
00000180: 7c52 5d3c 143b 023c 74f7 f3bb 9876 813c
00000190: a886 df3c 46f1 a5bc 20c6 333b 206d 18bb
000001a0: 1eb1 04bc 20c5 713c 807a a43a 625c dbbc
000001b0: 706b 94bb 6071 933a f877 9a3c c0bc aa3b
000001c0: a8e9 13bc 0006 103b 0b2e 87bc c027 ce3a
000001d0: 0490 bd3c 0e1f bbbc 58ec e93c 8c67 25bc
000001e0: 83d6 82bc 8cc8 1f3c 171f 05bd feea 08bc
000001f0: 8436 be3c a734 cdbc 91dd 84bc 8cec 82bb
00000200: a0df 26bb 0389 dabc 82b1 ecbc 306e 593c
00000210: c586 09bd 0a5e ccbc 7a72 21bc a480 ae3c
00000220: b631 c03c febd e3bc 608f 263b fcba 643c
00000230: 0d1c b6bc c88e 44bb 4c69 de3c 4086 bb3c
00000240: e872 bb3b 9c5f f53c 6051 3d3c e25b ad3c
00000250: e724 eebc a8e6 dd3b dc25 ddbc cb94 f8bc
00000260: f7fa 94bc 8464 a7bc b459 52bc 1def 8fbc
00000270: 68aa cabc b8e4 943c aa60 053d 665f 69bc
00000280: 1035 01bc 8fc4 b2bc 808d ef3b d0d4 c2bc
00000290: d01c 953b 9063 bcbc e44a bc3c 56aa 5bbc
000002a0: 44ad 103c 30af 8d3b fa95 b53c 1049 163c
000002b0: 2844 2d3c acd2 00bd b84d a73b d633 8c3c
000002c0: d8fb 45bc b2c6 073d 9041 de3b 1c82 903c
000002d0: 0009 1c3b 4801 03bd a467 b83c 4c99 a13c
000002e0: 475a 87bc 5657 02bd 7eb8 89bc 9076 88bc
000002f0: a84d 393c 9239 043d a0f4 dcba f10f fbbc
00000300: 58e6 5abb 2a56 01bd 4cab 803c 829b 043d
00000310: 32c2 063d 584c 70bb fc00 0a3d f001 3dbb
00000320: 60e4 9c3a 7ca5 e4bc 221d 71bc 1e4c e3bc
00000330: 244c 1bbc 5c93 7dbc 8662 d6bc c866 e83c
00000340: d251 ac3c cc71 963c 2cd3 9bbb b06d d43b
00000350: c0e4 cbbb fe80 d63c 4198 a9bc 19bc d0bc
00000360: e876 e53c d2e7 8e3c c089 4b3b 2461 883c
00000370: afec fcbc cb1d babc b8cc f9bc a09a dc3b
00000380: 8dd0 f5bc f07d 043b ac21 d43c 302d babb
00000390: 042e ffbb 18bc fcbc 485c ea3b 6cd9 e2bc
000003a0: bc22 96bb c8fb 8b3c 222f 53bc 92b3 ffbc
000003b0: 20bd efbb 6cfd 013d 8057 0d3b 6c8a e2bb
000003c0: c487 5ebc 666c d33c 9834 f03c b29c d53c
000003d0: 0e09 40bc 0f26 90bc 0e4b c23c f870 a73b
000003e0: 98d0 1d3c e695 34bc e4b5 203c 4838 d53b
000003f0: bcb7 023c 5097 e33c 4484 f13c b616 be3c

fc1.bias f4 [128]
0.02757578 -0.02172166 -0.026278919 -0.024931215 0.01683116 -0.029295051 -0.033290476 0.029260423
0.012781941 0.003747832 0.025491236 0.0007343046 -0.0100203715 -0.029364156 0.0066419 -0.0023505907
0.0155203715 0.02605121 -0.018933289 -0.029000068 0.008078817 0.02344742 -0.023451742 -0.015506199
0.0009722486 0.013830747 -0.030759042 -0.00092547794 0.025217697 0.005788108 0.002925064 0.0013351694
0.013979789 -0.027291799 0.009119835 0.007937246 -0.0049161166 -0.03161459 0.025400022 0.018100366
-0.030250022 -0.01174118 0.012469646 0.0051640496 -0.019309131 -0.020590577 0.012830894 0.024505554
0.02030855 0.027852267 0.013328458 0.027663488 -0.034157842 0.027580265 0.014378808 0.003927809
-0.030310111 -0.017445128 0.0006324947 -0.006745294 -0.023555903 0.0065866853 -0.018374221 0.012160963
-0.0033736932 -0.03728595 0.026683548 -0.028144887 0.01391276 -0.025079183 0.009935285 -0.029980427
-0.026086941 0.010593481 -0.03276394 0.0069192736 0.024052825 0.010028366 -0.018133689 -0.0014386104
-0.017916031 0.015461146 -0.01283159 -0.014681601 0.0031864448 0.0028139895 -0.014006551 0.038427122
0.014607894 -0.03197121 0.0020304583 0.030104041 0.012479268 0.008580726 -0.022100374 0.011539791
-0.03202994 -0.03462543 -0.012854816 -0.0012982695 0.010704727 -0.006883179 -0.010351901 0.010543469
0.014730228 -0.019491052 -0.024527559 -0.02663308 0.030961053 -0.009786078 0.0019312968 0.0055373274
0.0013584532 -0.024589816 -0.023696784 -0.017741036 0.01590113 -0.01901768 -0.025706587 0.00775492
-0.0077821077 -0.014354641 0.011514551 -0.00048435852 0.006143896 0.007908499 0.017990522 -0.0262237
00000000: 9ae6 e13c 9ff1 b1bc e346 d7bc 8c3c ccbc
00000010: 80e1 893c 2dfc efbc 985b 08bd 8eb3 ef3c
00000020: 596b 513c 309e 753b ffd2 d03c 597e 403a
00000030: 7c2c 24bc 198d f0bc 4ca4 d93b 5e0c 1abb
00000040: 2849 7e3c 5969 d53c fc19 9bbc 8d91 edbc
00000050: 045d 043c ce14 c03c de1d c0bc b60d 7ebc
00000060: 80de 7e3a 5c9a 623c 63fa fbbc c69b 72ba
00000070: 5895 ce3c 2baa bd3b 6eb2 3f3b da00 af3a
00000080: 7c0b 653c 0d93 dfbc 5c6b 153c 390b 023c
00000090: 6017 a1bb 4d7e 01bd b513 d03c 3847 943c
000000a0: e5ce f7bc 145e 40bc 7c4d 4c3c 3037 a93b
000000b0: 2f2e 9ebc 92ad a8bc ac38 523c dfbf c83c
000000c0: 1e5e a63c 702a e43c 9b5f 5a3c 8a9e e23c
000000d0: 18e9 0bbd 02f0 e13c 1895 6b3c dab4 803b
000000e0: e94c f8bc 16e9 8ebc 00ce 253a a107 ddbb
000000f0: 4ff8 c0bc 1fd5 d73b 8985 96bc c73e 473c
00000100: 2e19 5dbb 27b9 18bd 7597 da3c 1b90 e6bc
00000110: 58f2 633c dc72 cdbc 9bc7 223c 8399 f5bc
00000120: 48b4 d5bc 4890 2d3c 7b33 06bd 13bb e23b
00000130: 6e0a c53c 044e 243c 1a8d 94bc c18f bcba
00000140: a4c4 92bc bf50 7d3c 973b 52bc 198b 70bc
00000150: acd3 503b e96a 383b bc7b 65bc c265 1d3d
00000160: f355 6f3c 3ef4 02bd 7011 053b c09c f63c
00000170: d875 4c3c 2c96 0c3c d80b b5bc 6411 3d3c
00000180: d431 03bd 65d3 0dbd 029d 52bc b22a aaba
00000190: e162 2f3c 4a8c e1bb 059b 29bc 84be 2c3c
000001a0: 0e57 713c b3ab 9fbc 05ee c8bc 9e2d dabc
000001b0: 09a2 fd3c c955 20bc 9123 fd3a 7872 b53b
000001c0: 200e b23a 9570 c9bc c21f c2bc a655 91bc
000001d0: 1643 823c f7ca 9bbc 9f96 d2bc fc1c fe3b
000001e0: 0d01 ffbb ba2f 6bbc 87a7 3c3c 80f1 fdb9
000001f0: bc52 c93b a692 013c dc60 933c 16d3 d6bc

fc2.weight f4 [2, 128]
0.087358944 -0.007677003 0.0013172647 0.017779946 -0.027370736 0.008323784 0.014631449 0.05295383
0.036083374 0.0103973225 0.03843514 -0.018215368 -0.0017762968 -0.03818807 0.07537312 0.0231148
0.046660315 0.052630424 0.08641244 0.0693865 -0.07091412 -0.008225672 -0.06548461 0.023464665
0.014895149 0.022908656 0.011356644 0.046466038 -0.08496146 -0.066010825 0.06578231 -0.0649708
-0.03178672 0.043667354 -0.08828578 -0.053960662 0.025371984 0.038801186 -0.037327632 -0.074552745
0.017289504 0.03307537 -0.035790157 -0.066559084 0.01825594 0.083293684 -0.03435636 -0.06374393
0.08174625 0.014859453 0.046483558 -0.061538097 -0.020069165 0.047696218 -0.044397827 0.079415195
0.002928381 0.02827809 0.013746478 0.07041332 -0.029858468 -0.055714805 0.04003291 0.030550241
0.05896322 0.07220075 -0.020312043 0.059047945 0.018981762 0.026424482 0.04905768 -0.024373729
-0.029228605 0.019761514 -0.06706449 0.08337951 0.0051759374 -0.06785113 0.013736696 -0.046529334
-0.04663574 -0.025115153 -0.07727602 0.07411795 0.067539915 -0.07556979 -0.03149336 -0.016459677
-0.07600238 0.08416598 0.06773778 0.07853427 -0.08771732 -0.061048046 0.0790494 -0.084464826
0.01311116 -0.06439258 -0.021744363 -0.06794707 0.038683135 0.022209238 0.062496748 -0.07310058
0.017120397 -0.00995326 -0.050561987 -0.061604057 -0.013684841 -0.04722831 -0.0486613 0.031888135
0.069504194 -0.013459533 0.070253976 0.005287366 -0.050216187 0.014220063 -0.07284267 0.038575254
-0.06391719 0.034528285 0.0035989552 -0.033290803 -0.025053008 -0.016857235 -0.04842172 0.027789637
0.0287003 -0.06139533 -0.03251971 -0.06051915 0.064141646 -0.042710613 -0.0812804 -0.01951535
0.03369766 0.03533501 0.040420294 0.034099534 0.010886469 0.06619893 -0.018016899 0.055402983
0.04550742 -0.039398476 0.06112147 0.05018328 -0.061106652 0.078954704 0.021431416 -0.087760136
-0.06006366 0.022181647 -0.03059505 0.06467559 -0.041798674 0.06967556 0.07280886 -0.044432867
-0.06359425 0.0518552 0.022363156 0.010000712 0.048133217 0.055626966 -0.03140148 0.040526994
-0.014616273 -0.027460653 0.06832098 0.06371314 0.015336169 -0.063032925 -0.063416235 0.029164128
-0.0008804167 0.05237358 0.062038764 0.007946663 0.06335251 0.018642697 -0.0010944679 0.08126458
-0.02933575 -0.071600676 0.035672016 0.058761332 0.07208025 0.031117529 -0.013215935 0.03935591
0.029066212 0.010655986 -0.009693976 0.0868142 -0.054248914 0.044073988 -0.07843368 -0.06335438
0.00916297 0.048273467 -0.04039996 0.07378097 0.05678471 0.012891017 0.0023191483 -0.007932738
-0.02641562 -0.044241898 0.04020073 0.05773238 0.017711682 -0.028689131 0.0062957928 0.05776062
0.043152064 -0.06611637 0.026820801 -0.070709944 0.048698224 -0.06932603 -0.0178236 -0.076906875
0.06652046 -0.05097016 -0.01230174 0.052483376 -0.052299406 -0.045174137 -0.06343723 -0.0136639625
0.028906088 -0.074840896 -0.04840096 -0.052816693 -0.014598073 -0.06527021 -0.007943546 -0.041668598
-0.06362942 0.04643538 -0.048936833 0.007601558 0.02409111 0.00352474 0.02749484 -0.034220967
0.060598657 0.039685868 -0.05765432 -0.08194552 -0.0473831 -0.026425447 -0.041983817 0.08068078
00000000: 3fe9 b23d 5e8f fbbb 12a8 ac3a 40a7 913c
00000010: 9838 e0bc 7b60 083c bfb8 6f3c 1ee6 583d
00000020: 29cc 133d 8859 2a3c 2a6e 1d3d 6538 95bc
00000030: a1d2 e8ba 186b 1cbd 395d 9a3d 405b bd3c
00000040: e31e 3f3d 0093 573d 01f9 b03d 821a 8e3d
00000050: 6c3b 91bd f8c4 06bc cc1c 86bd f838 c03c
00000060: c80a 743c efaa bb3c 3811 3a3c 2c53 3e3d
00000070: 4600 aebd af30 87bd e0b8 863d 690f 85bd
00000080: cb32 02bd 8adc 323d 2dcf b4bd db05 5dbd
00000090: e8d8 cf3c feed 1e3d dce4 18bd 1caf 98bd
000000a0: b8a2 8d3c 0a7a 073d b398 12bd 2150 88bd
000000b0: 7b8d 953c e195 aa3d 41b9 0cbd 2d8c 82bd
000000c0: 946a a73d 1075 733c 8b65 3e3d 5f0f 7cbd
000000d0: 1768 a4bc 1c5d 433d 7fda 35bd 6fa4 a23d
000000e0: 15ea 3f3b 74a7 e73c e838 613c dc34 903d
000000f0: bf99 f4bc 3535 64bd 8cf9 233d 8044 fa3c
00000100: 6b83 713d fddd 933d 7165 a6bc 42dc 713d
00000110: a47f 9b3c 2878 d83c b5f0 483d 6aab c7bc
00000120: d470 efbc e6e2 a13c 1b59 89bd e0c2 aa3d
00000130: e99a a93b 89f5 8abd e10f 613c 8b95 3ebd
00000140: 1e05 3fbd 4bbe cdbc e442 9ebd 27cb 973d
00000150: 5e52 8a3d 56c4 9abd 2eff 00bd 72d6 86bc
00000160: 23a7 9bbd 375f ac3d 1bba 8a3d 93d6 a03d
00000170: 23a5 b3bd 840d 7abd a7e4 a13d e5fb acbd
00000180: 31d0 563c 42e0 83bd 3c21 b2bc d527 8bbd
00000190: 3572 1e3d 26f0 b53c 97fc 7f3d c2b5 95bd
000001a0: 1340 8c3c 0013 23bc 161a 4fbd 8954 7cbd
000001b0: 6236 60bc 7972 41bd 1251 47bd 229d 023d
000001c0: 3758 8e3d 6085 5cbc 51e1 8f3d a441 ad3b
000001d0: 7daf 4dbd 44fb 683c 8a2e 95bd 1601 1e3d
000001e0: 04e7 82bd 886d 0d3d 73dc 6b3b f05b 08bd
000001f0: f73b cdbc 2f18 8abc da55 46bd 18a7 e33c
00000200: e41c eb3c ab79 7bbd 6333 05bd eee2 77bd
00000210: b25c 833d 53f1 2ebd 5776 a6bd a8de 9fbc
00000220: 8f06 0a3d 72bb 103d c08f 253d f4ab 0b3d
00000230: 295d 323c 4e93 873d 2d98 93bc 3dee 623d
00000240: fd65 3a3d 4c60 21bd 825a 7a3d fc8c 4d3d
00000250: f84a 7abd 01b3 a13d f090 af3c 96bb b3bd
00000260: 5005 76bd 49b6 b53c 78a2 fabc a374 843d
00000270: 1635 2bbd 0fb2 8e3d d01c 953d 3dff 35bd
00000280: b43d 82bd 1e66 543d f032 b73c 07da 233c
00000290: 5627 453d 1ad9 633d d79e 00bd a2ff 253d
000002a0: 1879 6fbc 2af5 e0bc dfeb 8b3d 097c 823d
000002b0: 8e44 7b3c 6817 81bd 5fe0 81bd 9ce9 ee3c
000002c0: c4cb 66ba ae85 563d 5c1c 7e3d b832 023c
000002d0: f6be 813d 92b8 983c 4074 8fba 0b6e a63d
000002e0: 8751 f0bc 60a3 92bd d21c 123d b9af 703d
000002f0: cf9e 933d 30ea fe3c a687 58bc aa33 213d
00000300: 441c ee3c 7296 2e3c 7bd3 1ebc a5cb b13d
00000310: 1c34 5ebd ed86 343d d6a1 a0bd f1bf 81bd
00000320: 4820 163c 66ba 453d 6e7a 25bd 7a1a 973d
00000330: 1697 683d d834 533c dafc 173b 51f8 01bc
00000340: 9265 d8bc fe36 35bd 85a9 243d ca78 6c3d
00000350: 1718 913c 7805 ebbc f04c ce3b 6696 6c3d
00000360: 38c0 303d 0568 87bd 4cb7 db3c 60d0 90bd
00000370: ca77 473d cefa 8dbd cc02 92bc 5a81 9dbd
00000380: e13b 883d 16c6 50bd 3d8d 49bc cff8 563d
00000390: e737 56bd 8408 39bd 61eb 81bd d0de 5fbc
000003a0: 76cc ec3c 2f46 99bd 1640 46bd 5156 58bd
000003b0: c22c 6fbc 63ac 85bd a625 02bc b1ac 2abd
000003c0: 2450 82bd 0633 3e3d fd71 48bd 7e16 f93b
000003d0: b85a c53c 53ff 663b dc3c e13c 492b 0cbd
000003e0: 4c36 783d a68d 223d f026 6cbd 0ed3 a7bd
000003f0: c814 42bd 2e7a d8bc 39f7 2bbd f73b a53d

fc2.bias f4 [2]
-0.049117893 -0.0838244
00000000: d82f 49bd 21ac abbd
