models/2024-05-10_12-41-31_Model.onnx (onnx, 516192 bytes, 10 tensors)

conv1.weight f4 [8, 1, 3, 3, 3]
0	0x3c0f5f0a	0.008750686
1	0xbe15fa57	-0.14646278
2	0x3d3f606e	0.046722822
3	0x3d1243c0	0.035709143
4	0xbd710cad	-0.05884998
5	0xbe2617f3	-0.16220073
6	0x3dfb656f	0.12275206
7	0xbe3a956e	-0.18221065
8	0x3e08cc02	0.13359073
9	0xbda2cbc8	-0.079490244
10	0xbd855e56	-0.06512134
11	0xbe0f3de1	-0.13988449
12	0x3d4e25d3	0.05032904
13	0x3e35195f	0.1768546
14	0xbe364884	-0.178011
15	0xbd781de6	-0.06057539
16	0xbe0c7a13	-0.13718443
17	0xbe06e244	-0.13172251
18	0xbe06a54b	-0.13148992
19	0xbcbfd0c3	-0.023414975
20	0x3b29b739	0.0025896563
21	0x3cb73760	0.022365272
22	0x3d934ee9	0.07192785
23	0xbd853f6e	-0.06506239
24	0x3e0e40ba	0.13891879
25	0x3dbbfefd	0.091794945
26	0x3e44a6de	0.1920428
27	0xbe00f251	-0.12592436
28	0x3d3e51bc	0.046464667
29	0x3dad2b18	0.08455485
30	0x3c8054fc	0.015665524
31	0x3d009c81	0.031399254
32	0xbe20ea5e	-0.15714404
33	0xbe38c44b	-0.1804363
34	0xbdb1f67a	-0.0868959
35	0xbe2dea62	-0.16983941
36	0xbe387715	-0.18014176
37	0x3ddf287d	0.108963944
38	0xbe01d089	-0.12677206
39	0x3dfbc391	0.12293161
40	0x3e405998	0.18784177
41	0x3def00c7	0.1167007
42	0x3b345a8e	0.0027519795
43	0xbdf9b976	-0.12193577
44	0xbd1bc822	-0.03803266
45	0xbcc86c58	-0.024465725
46	0x3e3a3970	0.18185973
47	0xbe071581	-0.13191797
48	0xbe095acf	-0.13413547
49	0xbe20fc74	-0.15721303
50	0x3dbe0f42	0.09280254
51	0x3e47e17a	0.19519606
52	0x3e004807	0.12527476
53	0x3c7cb62b	0.015424292
54	0x3cf9b7b7	0.03048311
55	0xbc825fec	-0.01591488
56	0x3e300103	0.17187886
57	0xbd09d36d	-0.033648897
58	0x3e0cf4ec	0.13765305
59	0x3e1f3f8e	0.15551588
60	0xbe387b99	-0.18015899
61	0x3dfcc15f	0.1234157
62	0xbc0a3988	-0.008436568
63	0x3de26295	0.11053959
64	0xbd92dcd3	-0.07171025
65	0xbdb193c7	-0.086707644
66	0x3dc4d5b3	0.096110724
67	0x3c77e707	0.015130765
68	0x3d964d20	0.07338929
69	0x3dd15fab	0.10223325
70	0x3df72914	0.12068382
71	0x3d936641	0.07197238
72	0x3d3c4003	0.045959484
73	0xbe3f5ea9	-0.18688454
74	0xbdb0c58a	-0.086314276
75	0x3d5c84be	0.05383753
76	0xbd137b36	-0.036006175
77	0x3daa831b	0.08325788
78	0x3dcf8ba9	0.1013406
79	0x3dab93c4	0.083777934
80	0x3e21bc6d	0.15794535
81	0xbe06c077	-0.13159357
82	0xbdd9bc87	-0.10631662
83	0xbdf95a73	-0.12175455
84	0xbe3ef881	-0.18649484
85	0xbde942b6	-0.11389677
86	0xbdafccb5	-0.08583967
87	0xbdb9eb66	-0.09078102
88	0xbc13ed34	-0.009028722
89	0xbdb33035	-0.08749429
90	0x3ddb7a53	0.10716691
91	0xbe11c065	-0.14233549
92	0xbe0ec262	-0.13941339
93	0x3e150ea6	0.14556369
94	0xbdaeab63	-0.08528783
95	0x3d1cacc8	0.038250715
96	0xbd828f35	-0.06374971
97	0x3e2d42b1	0.16919972
98	0xbdb16a5e	-0.08662866
99	0x3ce34351	0.02774206
100	0xbde02cfd	-0.10946081
101	0xbe34228c	-0.17591304
102	0x3e1749d1	0.14774252
103	0xbdcb0466	-0.09912948
104	0x3dcecd10	0.10097706
105	0x3e197d1a	0.14989129
106	0xbd37b4b5	-0.04485007
107	0x3ca576c4	0.020198233
108	0x3d84eb7f	0.0649023
109	0x3d7c472f	0.061591323
110	0xbe2061a1	-0.15662242
111	0x3e3970b3	0.18109398
112	0xbcc96847	-0.024585856
113	0xbdfee30b	-0.12445649
114	0xbdb698f4	-0.08915892
115	0x3d91908a	0.07107647
116	0x3deeda34	0.11662713
117	0xbbbb89eb	-0.005723228
118	0x3ddef1ef	0.10885989
119	0x3e1de9d1	0.15421225
120	0xbe0e9ba9	-0.13926567
121	0xbd5111ce	-0.05104237
122	0xbd5c498f	-0.05378109
123	0xbda15964	-0.07878378
124	0x3e29d3f9	0.16584767
125	0x3e3e4fef	0.1858518
126	0xbe360978	-0.1777705
127	0xbddd3b49	-0.10802323
128	0x3de4ab00	0.11165428
129	0x3d052217	0.032503214
130	0x3d07f532	0.03319282
131	0x3d8ca5e6	0.0686758
132	0xbde4a4b0	-0.11164224
133	0x3e0f85e2	0.14015916
134	0x3d308bf9	0.04310224
135	0xbcaf7635	-0.02141867
136	0xbdd74d1f	-0.105127566
137	0xbe0a130c	-0.13483828
138	0xbd6a409d	-0.057190526
139	0xbdc322b5	-0.09528104
140	0x3d8b7f3a	0.06811376
141	0x3d4225b0	0.047399223
142	0xbcb11c4f	-0.021619944
143	0xbe3f2161	-0.18665077
144	0x3e2b5c74	0.16734487
145	0x3e267b81	0.1625805
146	0x3c303e7d	0.010757086
147	0xbe0df8d8	-0.13864458
148	0xbe17dd9a	-0.14830628
149	0x3bfa8ec4	0.0076464135
150	0xbd2169c8	-0.03940752
151	0x3e0a20d3	0.13489084
152	0xbd49bd25	-0.049252648
153	0xbe0fc9f6	-0.14041886
154	0x3e28347b	0.1642627
155	0xbdb35f70	-0.08758438
156	0x3e3b876b	0.18313377
157	0x3ddcbca8	0.10778171
158	0x3dec717b	0.11545082
159	0xbe0f98d6	-0.14023146
160	0xbe180cb4	-0.14848596
161	0x3e27d9a1	0.16391613
162	0xbd8d41f9	-0.06897349
163	0x3d6ba524	0.057530537
164	0xbdb4726d	-0.088108875
165	0xbbabd081	-0.0052433615
166	0x3e237f28	0.15966475
167	0x3df8e6e2	0.121534124
168	0xbd564837	-0.052314963
169	0xbe245681	-0.16048624
170	0xbd63f715	-0.055655558
171	0xbe3ca96e	-0.18424007
172	0x3df56397	0.11981886
173	0xbe44cfee	-0.19219944
174	0xbe0b0ae3	-0.13578372
175	0x3d579c80	0.052639484
176	0xbd94fe4e	-0.07275067
177	0x3d9c300d	0.076263525
178	0x3e0c834f	0.13721965
179	0x3e093783	0.13400082
180	0x3dbdcdae	0.09267746
181	0x3d844ca1	0.06459928
182	0xbe0aa6be	-0.1354017
183	0xbe26907e	-0.16266057
184	0x3dc36974	0.09541598
185	0xbca22b73	-0.019796109
186	0xbe19e5de	-0.15029094
187	0x3c983ca6	0.018583607
188	0xbe26ad39	-0.16277017
189	0xbd4fcf7d	-0.050734986
190	0x3cee445e	0.029085334
191	0x3c006d34	0.007838536
192	0x3e428e76	0.18999657
193	0xbd21091c	-0.039315328
194	0x3e3fb60c	0.18721789
195	0x3e42d5a0	0.19026804
196	0xbc7455ee	-0.014913065
197	0x3d0996be	0.033591025
198	0xbd912336	-0.07086794
199	0x3e3496e8	0.17635691
200	0x3d3fbf54	0.046813324
201	0xbcd39f24	-0.02583272
202	0x3d152e4f	0.036421116
203	0xbdca85d8	-0.0988881
204	0xbe382136	-0.17981419
205	0xbd8a6e4b	-0.06759318
206	0x3c2029c3	0.009775582
207	0x3de29a26	0.11064558
208	0x3e3f90c8	0.18707573
209	0xbe1702f3	-0.14747219
210	0xbc80d6d3	-0.015727436
211	0xbccda6b2	-0.0251039
212	0x3dd4e875	0.103959
213	0x3d0ab5ae	0.03386467
214	0xbdccfb00	-0.10008812
215	0x3dff3236	0.12460749

conv1.bias f4 [8]
0	0xbcf9c930	-0.030491441
1	0xbda8405c	-0.082154006
2	0xbe0726f5	-0.13198455
3	0x3dd8ef6f	0.10592543
4	0x3e110579	0.14162244
5	0xbddc578e	-0.10758887
6	0xbe231612	-0.15926388
7	0xbe460c71	-0.19340684

conv2.weight f4 [16, 8, 3, 3, 3]
0	0x3d18f00f	0.037338313
1	0x3cd1e031	0.025619598
2	0xbcbffb59	-0.023435282
3	0x3d8f37ef	0.0699309
4	0x3d8fc7a1	0.07020498
5	0xbd713c19	-0.058895204
6	0x3cebb633	0.028773403
7	0xbc522080	-0.012825131
8	0x3d49318a	0.04911951
9	0xbd38597c	-0.045007214
10	0x3d757388	0.059924632
11	0x3d258ff8	0.040420502
12	0x3d21ebe9	0.039531622
13	0xbcabe0e0	-0.020981252
14	0xbc3e86ab	-0.011628787
15	0xbc073538	-0.008252434
16	0x3c4dde3a	0.01256519
17	0x3c90e095	0.017685214
18	0xbcef1476	-0.029184561
19	0x3cc3937f	0.023874043
20	0xbcd35263	-0.025796121
21	0x3b6aac2a	0.0035808184
22	0xbb81c708	-0.003960494
23	0x3d08123d	0.03322052
24	0xbd0025ef	-0.031286176
25	0x3c66b943	0.014082256
26	0x3cdce612	0.026965175
27	0x3d2a6ae2	0.041605838
28	0xbca2f20a	-0.019890804
29	0x3d56ec8f	0.052471694
30	0xbce9599b	-0.02848511
31	0x3c36eef3	0.011165368
32	0x3c89f886	0.016842138
33	0x3cc00e22	0.023444239
34	0x3d0b7cd6	0.0340546
35	0xbd11e985	-0.035623092
36	0x3d3149e9	0.043283377
37	0x3c024ba8	0.007952608
38	0x3d092f57	0.033492412
39	0x3d72f2fc	0.05931376
40	0x3ca4b8e4	0.020107694
41	0x3ce2c891	0.027683528
42	0x3d3f3073	0.046677064
43	0x39b1647d	0.0003383494
44	0xbcef6a1e	-0.029225405
45	0xbc8655a2	-0.016398255
46	0xbd82a23f	-0.06378602
47	0x3c484d88	0.012225516
48	0x3ce60d7d	0.028082604
49	0x3cc5a1d6	0.024125021
50	0xbba864df	-0.005138978
51	0x3d830cb6	0.06398909
52	0xbc423209	-0.01185275
53	0x3bd8c2c5	0.006615015
54	0xbd117b61	-0.035518054
55	0x3b9d60cd	0.0048027993
56	0xbc5932a7	-0.013256705
57	0x3d208256	0.039186798
58	0xbc0e8f41	-0.008701147
59	0xbd2a0a18	-0.041513532
60	0xbd85b65a	-0.065289214
61	0xbd16ce2a	-0.036817707
62	0x3d393019	0.045211885
63	0x3d4f3f1f	0.050597306
64	0x3d546ae7	0.051859763
65	0xbd43a185	-0.04776146
66	0x3d3b97a7	0.045798924
67	0x3d110e1b	0.035413843
68	0x3c6ca9ab	0.014444749
69	0xbd6e6f55	-0.058211643
70	0x3d494a9a	0.04914341
71	0x3d35dfac	0.044402763
72	0x3d39656d	0.045262743
73	0xbd02b978	-0.031915158
74	0x3d181fa5	0.037139554
75	0x3c959d77	0.018263562
76	0xbd41cdec	-0.047315523
77	0xbd2b78fd	-0.04186343
78	0xbc710f92	-0.014713185
79	0x3d22ac69	0.039715204
80	0x3d663000	0.05619812
81	0xbc8068d4	-0.015674986
82	0xbd2a8e41	-0.04163957
83	0xbcdca022	-0.026931826
84	0xbd2037d7	-0.039115753
85	0x3cf6d816	0.030132335
86	0x3982d97d	0.00024957574
87	0x3d23f652	0.04002983
88	0xbcba883d	-0.022770042
89	0xbd3004e6	-0.04297342
90	0x3cae12b9	0.021249162
91	0xbc44fbd6	-0.012022933
92	0xbce64c5a	-0.02811258
93	0x3d3aa881	0.045570854
94	0xbcb70bd0	-0.0223445
95	0x3cee029e	0.029053982
96	0x3d1faf95	0.038985807
97	0x3d35b5b8	0.044362754
98	0x3c7cd3b8	0.015431337
99	0x3d0358b8	0.03206703
100	0x3a8142be	0.000986181
101	0x3d32aada	0.043619968
102	0x3acaf092	0.0015483072
103	0xbd890cb6	-0.066918775
104	0xbd99c146	-0.07507567
105	0xbd8ec905	-0.06971935
106	0xbd27582f	-0.040855583
107	0xbd4e1973	-0.05031724
108	0xbd58b7e9	-0.052909765
109	0x3cd454b8	0.025919303
110	0xbc260874	-0.010133851
111	0x3ce1765a	0.027522255
112	0x3cfb1d9e	0.030653771
113	0xbcfb535e	-0.030679401
114	0xbd661eba	-0.056181647
115	0x3c1004a0	0.008790165
116	0x3a6feaa8	0.0009152093
117	0x3cea4e64	0.028601833
118	0x3d203164	0.039109603
119	0x3d7d1e11	0.06179625
120	0xbc25c782	-0.010118367
121	0xbd176e8d	-0.036970664
122	0xbd0b54ed	-0.03401654
123	0x3cda254d	0.026629115
124	0xbd820f9f	-0.06350636
125	0x3d14ae50	0.03629905
126	0xbd07fb6c	-0.03319876
127	0x3d27fcb4	0.04101248
128	0xbd38fe74	-0.04516454
129	0x3d13abff	0.0360527
130	0xbcd8c94e	-0.026463177
131	0x3d16c778	0.036811322
132	0xbc708918	-0.014681123
133	0x3cb392ea	0.02192064
134	0x3ce1c8cb	0.027561566
135	0x3cba907e	0.022773977
136	0x3d37aa38	0.044840068
137	0xbce803c5	-0.02832211
138	0x3d1dd78b	0.038535636
139	0x3cfb5dfd	0.030684466
140	0x3d25f0ce	0.040512852
141	0x3d7f5167	0.06233349
142	0xbd2547c7	-0.040351655
143	0xbd47d15c	-0.048783645
144	0xbbe4158e	-0.0069605773
145	0xbc28362c	-0.010266822
146	0xbd82cc4e	-0.06386624
147	0xbac145e2	-0.0014745558
148	0xbb8fa142	-0.004383237
149	0xbc84ae6f	-0.016196458
150	0xbcdab3fa	-0.026697148
151	0x3cfec7d9	0.031101154
152	0xbd2d1a30	-0.042261302
153	0x3ae41324	0.0017400724
154	0xbd8d5b34	-0.06902161
155	0x3d373821	0.044731263
156	0xbca259cb	-0.019818207
157	0xbcfed0a9	-0.031105356
158	0xbd93b4e4	-0.072122365
159	0xbd7f4f22	-0.062331326
160	0xbd626f5d	-0.055281986
161	0xbd8724e9	-0.06598837
162	0x3d3d37ee	0.046195917
163	0xbd42bb62	-0.047541983
164	0xbd661419	-0.05617151
165	0xbd6a1b64	-0.057155028
166	0xbd0ce0b0	-0.034393966
167	0x39fa8b02	0.00047787285
168	0xbc47cda7	-0.012195027
169	0xbc965135	-0.01834927
170	0xbcf5120d	-0.029915834
171	0x3d38947c	0.04506348
172	0x3d12d623	0.035848748
173	0x3cabbf76	0.02096532
174	0xbd814f77	-0.06313985
175	0x3c8b06ce	0.016971018
176	0xbd675735	-0.05647965
177	0x3d3708de	0.04468619
178	0xbda96816	-0.08271806
179	0x3bd426d5	0.0064743557
180	0xbbf1b76a	-0.007376601
181	0xbc687b61	-0.014189572
182	0xbd550381	-0.052005295
183	0xbd03d66e	-0.032186918
184	0xbd0ae3cd	-0.033908654
185	0xbd7d32d9	-0.06181607
186	0xbd829cc8	-0.0637756
187	0xbc3493a9	-0.011021533
188	0xbcfafd72	-0.03063843
189	0xbd925431	-0.071449645
190	0x3d38ce2b	0.045118492
191	0x3cb7a9ee	0.022419896
192	0x3d7fd14b	0.062455457
193	0xbd6085bf	-0.05481505
194	0xba5e9065	-0.00084901444
195	0x3c985dc9	0.018599408
196	0xbd194c4a	-0.03742627
197	0x3d4d7540	0.050160646
198	0xbaa012e2	-0.0012212659
199	0xbd294873	-0.04132886
200	0xbd82df46	-0.06390242
201	0x3d162931	0.036660377
202	0xbd3d6582	-0.046239384
203	0x3d5a1475	0.053242166
204	0xbb6d724e	-0.003623146
205	0xbd612ca5	-0.054974217
206	0x3c85ffc2	0.016357306
207	0xbd3ff9ae	-0.046868972
208	0x3d047d37	0.032345977
209	0x3cb33cf4	0.02187965
210	0x3d223bdd	0.03960787
211	0x3d5d80cb	0.054077905
212	0xbc6bd6fa	-0.014394516
213	0x3d3eaf92	0.046554156
214	0xbc922b63	-0.017842954
215	0xbd086ccd	-0.033306886
216	0x3d0ef6eb	0.034903448
217	0x3d0ffac4	0.035151258
218	0xbcfbf1e5	-0.030754993
219	0xbd1d9620	-0.03847325
220	0x3d3ee5b3	0.046605777
221	0xbd0228ef	-0.03177732
222	0xbcba0170	-0.022705764
223	0x3d1c77f3	0.03820033
224	0x3cb224b7	0.021746023
225	0xbb23daaf	-0.0025002172
226	0xbc06205c	-0.008186426
227	0xbca7a8b8	-0.020466194
228	0x3d563f76	0.052306615
229	0xbb61098e	-0.003433797
230	0x3d432e2a	0.047651447
231	0xbd268038	-0.040649623
232	0x372471b0	9.801632e-06
233	0x3c01e53a	0.007928187
234	0x3c6a81a6	0.014313137
235	0xbcc60874	-0.024173953
236	0x3c55ce4b	0.013049672
237	0x3d2c6979	0.042092774
238	0x3d03b75c	0.032157287
239	0x3cc05193	0.023476398
240	0x3c340511	0.010987536
241	0x3cb29d19	0.021803426
242	0x3d1d70c8	0.038437635
243	0xbc19ae68	-0.009379961
244	0xbcd14433	-0.025545215
245	0x3c8d3eb9	0.017241823
246	0x3d1340dc	0.035950527
247	0x3d2c2289	0.042025123
248	0xbd7c1e2d	-0.061552215
249	0x3d079455	0.033100445
250	0xbced5b3a	-0.028974164
251	0x3d5e7247	0.054308202
252	0xbd33c9d2	-0.043893643
253	0x3ab26473	0.0013610258
254	0xbcd11d5c	-0.025526695
255	0xbccda73d	-0.02510416

conv2.bias f4 [16]
0	0xbbe8b891	-0.00710208
1	0x3d607a10	0.054803908
2	0xbc56bcde	-0.013106553
3	0x3cd7ab3f	0.026326774
4	0x3a931e5c	0.0011224258
5	0xbd5799d1	-0.052636925
6	0xbd0c0987	-0.034188773
7	0x3d58893e	0.05286526
8	0x3c69d776	0.014272561
9	0xbd8eabe7	-0.069663815
10	0xbc2e0013	-0.010620135
11	0x3d328c08	0.043590575
12	0xbcb576b2	-0.022151325
13	0x3d245d16	0.040127836
14	0x3d5958f1	0.053063337
15	0xbd36bc5c	-0.044613227

conv3.weight f4 [32, 16, 3, 3, 3]
0	0x3d25a445	0.040439863
1	0x3c23c476	0.00999557
2	0x3cd43309	0.025903242
3	0x3ca03c19	0.019559907
4	0xbd3d0318	-0.04614553
5	0xbcc0d2b8	-0.023537979
6	0xbcfe29b8	-0.031025752
7	0xbc91c05b	-0.017791918
8	0xbc464b84	-0.012102965
9	0x3c98e3d9	0.018663334
10	0xbd16d8ef	-0.036827978
11	0xbd400c87	-0.046886947
12	0xbc90affe	-0.017662045
13	0xbccc2831	-0.024921509
14	0xbd23ebc4	-0.040019765
15	0xbb8cf1f7	-0.0043013054
16	0xbc9856a4	-0.018596001
17	0xbc9f6837	-0.019458873
18	0x3cafb6b8	0.021449432
19	0xbc49fb9d	-0.012328056
20	0x3d142402	0.036167152
21	0xbd302569	-0.043004427
22	0x3ce0daf3	0.027448153
23	0x3cdf7a01	0.027279856
24	0x3c75bff8	0.014999382
25	0x3cc97bae	0.024595108
26	0x3d3f6e21	0.046735886
27	0xbc154c01	-0.009112359
28	0xbd4f0b78	-0.050548047
29	0xbc9b96dd	-0.018992836
30	0xbb4c72b9	-0.003119631
31	0x3cbb5d86	0.022871744
32	0xbd404a98	-0.04694614
33	0x3c9d0d81	0.019171478
34	0x3ba5e855	0.0050630965
35	0xbd0233ab	-0.031787556
36	0x38c264ad	9.269393e-05
37	0x3bf6fb4e	0.007537282
38	0x3cf9c4a5	0.030489275
39	0xbd112777	-0.035438027
40	0xbd2bfe83	-0.04199077
41	0xbd127b6c	-0.035762236
42	0x3aa2974c	0.0012404709
43	0xbace0414	-0.0015717768
44	0xbd461d8e	-0.04836803
45	0x3ca06c4c	0.01958289
46	0x3c979404	0.018503197
47	0x3d17cb0c	0.037058875
48	0x3c1d8189	0.009613403
49	0xbcbc3953	-0.022976553
50	0x3bb1957a	0.0054194303
51	0x3a9c08c7	0.0011904471
52	0xbd3f3958	-0.046685547
53	0x3d21ef2f	0.039534744
54	0x3d5b9bd7	0.053615417
55	0xbd01e26b	-0.03171007
56	0xbd48df19	-0.049040888
57	0xbcbe973f	-0.02326548
58	0xbd2e77bd	-0.04259466
59	0x3d03ae3f	0.032148596
60	0x3d6353bd	0.05549978
61	0x3c63634c	0.013878655
62	0x3c3c95df	0.011510341
63	0x3ce81a7b	0.02833294
64	0xb8fb0856	-0.00011970165
65	0xbd2b1087	-0.04176381
66	0x3cb8fea0	0.022582352
67	0xbcccdee3	-0.025008624
68	0xbccc24bc	-0.02491986
69	0x3c9cc925	0.019138882
70	0xbd29474c	-0.04132776
71	0x3ce33017	0.027732892
72	0xbb177e76	-0.0023116148
73	0x3c87466c	0.016513072
74	0xbc22c79d	-0.009935287
75	0xbd33a9a5	-0.043862958
76	0x3bd7c5d2	0.0065848613
77	0x3d33212f	0.04373282
78	0xbd18b668	-0.03728333
79	0xbc27cc47	-0.010241575
80	0xbd32a506	-0.04361441
81	0xbd4092c8	-0.04701498
82	0x3d328eb0	0.04359311
83	0x3c2e2dee	0.010631068
84	0x3d0be44d	0.03415327
85	0x3c1ea959	0.00968393
86	0x3d28c54e	0.04120379
87	0xbc83de5d	-0.016097242
88	0xbd327451	-0.04356796
89	0x3bc51630	0.006014608
90	0xb9ae9af5	-0.00033303318
91	0xbd48ad6d	-0.048993517
92	0xbc1566d0	-0.009118751
93	0x3cf7ec5d	0.030264074
94	0xbc7371e3	-0.014858696
95	0xbd567a41	-0.052362684
96	0xbd3accd4	-0.045605496
97	0xba9298c5	-0.0011184445
98	0xbc4f753f	-0.012662231
99	0xbc3dddf2	-0.01158856
100	0xbbd4b2d0	-0.0064910427
101	0x3d1cc93f	0.03827786
102	0xbb8e0a91	-0.0043347557
103	0x3b80baf9	0.003928539
104	0xbcf3412c	-0.029694162
105	0x3cb340e2	0.021881524
106	0xbcfe1792	-0.031017099
107	0x3c9fd405	0.019510278
108	0xbcdbf36f	-0.026849477
109	0x3c207a4e	0.009794785
110	0xbcdc34a3	-0.026880568
111	0xbc6bb450	-0.014386252
112	0xbccbb21f	-0.024865208
113	0x3d221fc0	0.03958106
114	0xbc7e1b8f	-0.0155095
115	0xbd47934c	-0.048724458
116	0xbb6ab074	-0.003581074
117	0xbcace6a5	-0.021106074
118	0x3c841a72	0.016125891
119	0xbc7b7cef	-0.015349611
120	0xbd554f9d	-0.05207788
121	0xbb840a32	-0.0040295357
122	0x3d20ddd8	0.039274067
123	0xbc8611bb	-0.016365876
124	0xbc4198e3	-0.011816236
125	0x3c2b9445	0.010472362
126	0x3bfc2b23	0.007695572
127	0xbc9eb824	-0.019374914
128	0xbc4e1197	-0.012577436
129	0xbd0b5d06	-0.03402426
130	0xbd02854e	-0.03186541
131	0xbd1f1dd9	-0.038846824
132	0xbc171cec	-0.009223204
133	0xbcc095e7	-0.023508979
134	0xbbad5592	-0.005289742
135	0xbc852ef9	-0.01625775
136	0xbcf675ae	-0.03008541
137	0xbcebcb8a	-0.028783578
138	0xbcea5dea	-0.028609235
139	0x3c95d31a	0.018289138
140	0xbd742199	-0.059602354
141	0x3d053f04	0.0325308
142	0x3cf61768	0.030040458
143	0xba627089	-0.0008637985
144	0x3c7efcf0	0.015563235
145	0xbd7880cb	-0.0606697
146	0x3cb9404f	0.022613673
147	0x3c766f8c	0.015041243
148	0xbcdc29ca	-0.026875395
149	0xbc83ebf6	-0.016103726
150	0x3c695cc0	0.014243305
151	0xbd6b44af	-0.05743855
152	0x3d32bb3a	0.043635584
153	0x3c556bde	0.013026206
154	0xbb24a871	-0.0025124813
155	0x3d31ffbe	0.043456785
156	0x3c8be3b0	0.017076343
157	0x3cafc549	0.021456378
158	0x3d535a7d	0.05159997
159	0x3cdea783	0.027179485
160	0x3c87d4ac	0.016580902
161	0xbd164e31	-0.036695663
162	0x3a2d3dc2	0.0006608629
163	0xbcfc0422	-0.03076369
164	0xbc05fe41	-0.008178295
165	0xbc8c0211	-0.01709083
166	0x3c5a8d12	0.013339298
167	0xbd572533	-0.05252571
168	0xbb97e568	-0.0046355017
169	0x3c9c9a3f	0.019116519
170	0xbcbf091e	-0.023319777
171	0x3cc1e4a1	0.02366859
172	0xb8880ef1	-6.4877684e-05
173	0x3c8d9ba1	0.017286124
174	0xbd2aaafb	-0.041666966
175	0xbd31aa8d	-0.04337554
176	0x3cce5468	0.025186732
177	0x3d4997eb	0.049217146
178	0x3d1b6207	0.037935283
179	0x3bce4fbd	0.0062961266
180	0x3c941ae1	0.018079223
181	0xbcc2e545	-0.023790965
182	0xbd32ecf7	-0.04368302
183	0xbc14d048	-0.009082861
184	0xbc3c5893	-0.011495727
185	0x3c9f5c84	0.019453295
186	0xbabd935c	-0.0014463472
187	0xba99d4fc	-0.0011736448
188	0xbaf2d33f	-0.0018526091
189	0xbd19be35	-0.03753491
190	0x3ca22440	0.019792676
191	0xbd34e01f	-0.04415905
192	0xbca53c82	-0.020170454
193	0xbd3f12ef	-0.046648916
194	0x3d1cd02b	0.038284462
195	0x3c756346	0.014977282
196	0xbd38ede3	-0.04514874
197	0xbc096c5d	-0.008387652
198	0x3d23c5ec	0.039983675
199	0xbc8c39ff	-0.017117498
200	0xbcefe98f	-0.029286174
201	0x3c3b4b55	0.011431535
202	0xbd3598fa	-0.044335343
203	0x3cd640a2	0.026153866
204	0xbd2169bc	-0.039407477
205	0xbb615754	-0.0034384327
206	0xbca153cb	-0.019693276
207	0x3d210bcc	0.03931789
208	0xbd2c2142	-0.042023905
209	0x3cc5f62b	0.024165234
210	0xbb517251	-0.0031959007
211	0xbc6d24fc	-0.01447415
212	0x3d1ac359	0.037783954
213	0xbd38b387	-0.045093086
214	0xbd6badf9	-0.05753896
215	0xbbb3cf11	-0.0054873307
216	0x3ca243a8	0.019807652
217	0x3d16399d	0.036676038
218	0x3d1f5265	0.038896937
219	0x3c82de9f	0.015975295
220	0x3cd06aeb	0.025441607
221	0x3d3a3b47	0.045466688
222	0x3ce28e52	0.027655754
223	0xbc61ce56	-0.0137821045
224	0x3cdd6f98	0.027030751
225	0xbc72efcd	-0.014827681
226	0x3cdae4e2	0.026720468
227	0x3d01985a	0.031639434
228	0x3d1478e6	0.03624811
229	0xbb262614	-0.0025352286
230	0xbcf6cf11	-0.030128034
231	0xbd15e078	-0.036591023
232	0xbd3e854c	-0.04651384
233	0x3c967851	0.018367918
234	0x3c10c541	0.0088360915
235	0x3cb7d7e4	0.022441812
236	0xbb007ea4	-0.0019606734
237	0xbd39b921	-0.04534257
238	0xbd2d5bd3	-0.0423239
239	0x3c86dd30	0.016462892
240	0xbc21d1c8	-0.009876676
241	0x3d0b5878	0.034019917
242	0xbd06f397	-0.03294715
243	0x3b0753d2	0.0020649326
244	0xbca6439b	-0.020295909
245	0x3ccb35a2	0.024805848
246	0xbcb8f450	-0.022577435
247	0xbcbdebb3	-0.02318368
248	0x3d3edb8c	0.046596095
249	0x3d470b50	0.048594773
250	0x3c103ac2	0.008803071
251	0xbcc1f99b	-0.023678591
252	0xbc158b5e	-0.009127466
253	0x3ca2f7c2	0.01989353
254	0xbd30e436	-0.04318639
255	0xbb9c4772	-0.004769259

conv3.bias f4 [32]
0	0x3ca727a2	0.02040464
1	0xbd29310b	-0.041306537
2	0xbd465690	-0.048422396
3	0xbc8bc118	-0.017059848
4	0xbcf49196	-0.029854577
5	0xbcb77441	-0.022394301
6	0x3cce76b1	0.02520308
7	0xbd304616	-0.04303559
8	0x3cb57e47	0.02215494
9	0x3d1c0a0f	0.03809553
10	0xbd110765	-0.035407443
11	0x3b675cd8	0.0035303142
12	0xbd3354d7	-0.04378208
13	0xbd1541cd	-0.036439706
14	0x3d29a236	0.041414462
15	0xbd17b4e2	-0.037037738
16	0x3c178fba	0.009250576
17	0x3c80e870	0.015735835
18	0xbc3ebd52	-0.011641817
19	0xbbf985de	-0.007614835
20	0x3c9f1f9a	0.019424248
21	0x3d0c93ce	0.034320645
22	0xbcc8b048	-0.02449812
23	0x3cf8c75b	0.030368498
24	0xbca9dada	-0.02073424
25	0x3cce4d36	0.025183301
26	0xbd244a5a	-0.04010997
27	0x3cd3eead	0.025870645
28	0x3cb8b7cb	0.022548577
29	0xbc90b484	-0.017664202
30	0xbce6c8d3	-0.028171932
31	0xbd2adbfa	-0.041713692

fc1.weight f4 [128, 864]
0	0x3ceb9a7c	0.028760187
1	0xbcdba5e7	-0.026812507
2	0xbc87a601	-0.016558649
3	0x3b91a2c9	0.0044444543
4	0xbd046c68	-0.032329947
5	0x3cd933c9	0.02651395
6	0x3c7e87a5	0.01553527
7	0x3cdbe8d7	0.026844425
8	0xbd0d2e70	-0.034468114
9	0xba185180	-0.0005810484
10	0x3d051a62	0.032495864
11	0xbcd570db	-0.02605479
12	0xba108680	-0.0005513206
13	0xbcc6c1c4	-0.024262317
14	0x3c5d45dd	0.013505426
15	0xbcfde9c6	-0.03099526
16	0xbc96ee1c	-0.018424086
17	0xbc9e4c58	-0.019323513
18	0xbc8141d7	-0.015778465
19	0xbc6cbab1	-0.014448808
20	0xbbfbd444	-0.007685216
21	0x3a8b84c0	0.0010644421
22	0xbbe38de9	-0.0069444072
23	0x3bb9bb55	0.0056680837
24	0x3bacc73f	0.0052727754
25	0x3c4ae228	0.012383021
26	0x3cbee06e	0.023300376
27	0x3cc65dbe	0.024214622
28	0x3c81b4f0	0.015833348
29	0x3ca390b1	0.019966455
30	0xbc924284	-0.017853983
31	0x3ca31bf8	0.019910797
32	0x39688a5d	0.00022176788
33	0x3cd40566	0.02588148
34	0x3ced2d3c	0.028952233
35	0x3bb7a1de	0.005604013
36	0xbcce9876	-0.025219183
37	0x3c377124	0.011196408
38	0xbc8a0828	-0.016849592
39	0x3cd2a8ee	0.025715318
40	0xbcf8d91e	-0.030376967
41	0xbc15ecd9	-0.009150707
42	0xbc7e289b	-0.015512611
43	0xbcd08455	-0.025453726
44	0xbce6de05	-0.028182039
45	0xbcf6ef52	-0.030143414
46	0x3c8387a5	0.016055891
47	0xbbc0ecf6	-0.005887623
48	0xbbbdf4e8	-0.0057970174
49	0x3cb995fe	0.02265453
50	0x3ca2fe00	0.019896507
51	0xbc44e993	-0.012018579
52	0x3babaae9	0.00523888
53	0x3cb2b4f8	0.021814808
54	0x3cc2ad1a	0.023764182
55	0xbc2a1fd0	-0.010383561
56	0x3ca1dea4	0.019759484
57	0xbcf39e14	-0.029738463
58	0x3cbfc2b6	0.023408275
59	0xbadd15a0	-0.0016867407
60	0xbc0ca848	-0.008585043
61	0xbce0514e	-0.02738252
62	0xbc1466ce	-0.009057714
63	0xbbf4eda0	-0.007474616
64	0x3ba92188	0.005161468
65	0x3cc63500	0.024195194
66	0xbd09ce74	-0.033644155
67	0x39fbf800	0.00048059225
68	0xbc515ee8	-0.012778975
69	0x3cdbcdca	0.026831526
70	0xbc892547	-0.016741408
71	0x3b528080	0.003212005
72	0x3c6d6070	0.0144883245
73	0x3cae2b5c	0.02126091
74	0xbce7543a	-0.028238405
75	0xbbd740f4	-0.0065690223
76	0x3beb0b00	0.007172942
77	0x3d033bc0	0.032039404
78	0x3c491fd4	0.012275655
79	0x3d043c94	0.032284334
80	0x3c0f1978	0.0087341
81	0xbc786dfe	-0.015162943
82	0xbd07ade3	-0.033124816
83	0x3ceb2e20	0.028708518
84	0x3c99c528	0.01877077
85	0xbb3e1400	-0.002900362
86	0xbcdac89d	-0.026706988
87	0x3c71fc8f	0.014769687
88	0x3cdc70b8	0.026909217
89	0x3cb3d912	0.021954093
90	0xbcb4001e	-0.021972712
91	0xbcee987a	-0.02912544
92	0xbcd8e122	-0.02647454
93	0xbd01dba8	-0.03170362
94	0xbc141318	-0.009037755
95	0xbb8ea73c	-0.004353432
96	0xbce305ce	-0.027712729
97	0x3cd0ae68	0.025473788
98	0x3ca1bf80	0.019744635
99	0x3c1f0f2c	0.009708207
100	0x3ca145ce	0.019686606
101	0x3caecbc8	0.021337405
102	0xbc220006	-0.009887701
103	0xbce899f5	-0.028393725
104	0xbce64f55	-0.028114
105	0x3d07c0ea	0.03314296
106	0xbcac3075	-0.0210192
107	0xbcd17186	-0.025566828
108	0xbd0927c4	-0.03348519
109	0x3c8a4c7b	0.016882172
110	0x3b3013ed	0.0026867345
111	0xbceb8de2	-0.028754178
112	0xbc900c4c	-0.017583989
113	0x3cad143d	0.021127814
114	0x3c983bac	0.018583141
115	0xbc701e08	-0.0146555975
116	0xbd0887d6	-0.03333267
117	0x3b98ae82	0.004659475
118	0xbd368d89	-0.044568572
119	0xbd13e220	-0.03610432
120	0x3cce0f4f	0.025153784
121	0x39b702a5	0.0003490645
122	0x3d06b9bd	0.032891978
123	0xbb4c92ea	-0.0031215497
124	0xbc70f3f2	-0.014706599
125	0xbc89f2c1	-0.016839387
126	0x3bfb2a66	0.0076649664
127	0xbcf37293	-0.02971772
128	0xbceed43b	-0.029153934
129	0x3ce5a0d0	0.028030783
130	0x3d132add	0.03592955
131	0x3c276d38	0.010218911
132	0x3cdc4888	0.026890054
133	0x3c452b9a	0.012034321
134	0xbcc53ef5	-0.024077872
135	0xbc9cc4a0	-0.019136727
136	0xbca93c5e	-0.020658668
137	0x3c38de9c	0.011283543
138	0xbbf58004	-0.0074920673
139	0xbd01c44d	-0.031681348
140	0xbcebe920	-0.028797686
141	0xbd1ff9d5	-0.039056618
142	0x3c8782a5	0.016541788
143	0x3c0d9c77	0.008643261
144	0xbbe67419	-0.007032883
145	0xbb9070fc	-0.004408
146	0xbcf66048	-0.030075207
147	0xbd005abf	-0.031336542
148	0x3b616e90	0.0034398176
149	0xbc19d506	-0.009389168
150	0x3c3f1f1c	0.011665132
151	0x3c45080c	0.012025844
152	0x3c363805	0.011121755
153	0xbd07f9b5	-0.033197124
154	0xbc936852	-0.01799408
155	0x3cdaef34	0.026725389
156	0x3c94d87c	0.018169634
157	0x3cb4cbb6	0.022069793
158	0x3cbead02	0.023275856
159	0x3c98649a	0.018602658
160	0xbd08010a	-0.033204116
161	0x3c9f38fc	0.019436352
162	0xbd186fa7	-0.037215855
163	0x3c811c88	0.015760675
164	0x3c609f7c	0.013709899
165	0x3c50d25b	0.012745465
166	0x3bbd6adc	0.005780561
167	0xbca90b45	-0.020635257
168	0x3c31efdf	0.010860412
169	0xbbcd6fc8	-0.006269429
170	0xbc2a3a60	-0.010389894
171	0x3cdfb350	0.027307183
172	0xbbbfd7bf	-0.0058545764
173	0x3b972e34	0.004613662
174	0x3cf2777b	0.029597988
175	0xbc35de29	-0.01110033
176	0x3d31bac4	0.043391004
177	0x3bcfdd46	0.0063435165
178	0xbc48fd92	-0.012267487
179	0xba05e714	-0.00051079807
180	0xbcb1e9a1	-0.021717848
181	0xbc683afe	-0.014174221
182	0xbd054008	-0.032531768
183	0x3b90f805	0.0044240975
184	0xbbc6bf9b	-0.0060653216
185	0x3caac60a	0.020846386
186	0xbcca8917	-0.024723573
187	0xbcbcfc1d	-0.023069436
188	0xbc01f508	-0.007931955
189	0x3c10eb14	0.0088451095
190	0xbc17965e	-0.009252159
191	0xbbd50320	-0.0065006167
192	0x3ca79e18	0.020461127
193	0xbc15291e	-0.009104041
194	0x3c0d26e8	0.008615233
195	0x3c5d3078	0.013500325
196	0xbc188dd0	-0.0093111545
197	0x3c617310	0.013760343
198	0xbbb09d30	-0.005389832
199	0xbd055d1e	-0.032559507
200	0x3c20f3a8	0.009823717
201	0xbce0373c	-0.027370088
202	0xbc979ebc	-0.018508308
203	0x3cb7b3bc	0.022424571
204	0x3ce2ff42	0.027709607
205	0xbce6f2f4	-0.028192021
206	0x3c450924	0.012026105
207	0xbc8d5bc0	-0.017255664
208	0xbce60f86	-0.028083574
209	0x3ca19d36	0.019728284
210	0x3ce1186c	0.027477466
211	0xbc183f14	-0.009292383
212	0x3be253e8	0.006906975
213	0x3b2be9c0	0.0026231855
214	0xbb5481c0	-0.003242597
215	0x3ca665b0	0.02031216
216	0x3cc003c2	0.023439292
217	0xbc065c8b	-0.008200775
218	0xbaf4dc2e	-0.0018681341
219	0x3c2b3ec4	0.010451976
220	0xbbf688d1	-0.007523634
221	0xbc4da091	-0.012550489
222	0x3c887ae4	0.016660161
223	0x3bfe74ac	0.007765373
224	0xbc6eae31	-0.014567898
225	0xbc77d799	-0.015127086
226	0xbc824cd0	-0.015905768
227	0xbc72df0e	-0.014823688
228	0x3c6db600	0.014508724
229	0x3d0887f8	0.033332795
230	0x3ca3df63	0.02000398
231	0x3c72e95d	0.014826146
232	0x3b83f4c8	0.004026983
233	0xbc09087c	-0.008363839
234	0x3c7a84c1	0.01529044
235	0xbba47ede	-0.0050200066
236	0x3c38b78c	0.01127423
237	0xbc8f007f	-0.017456291
238	0x3b8f9970	0.004382305
239	0xbc9255c4	-0.017863162
240	0xbc038326	-0.008026874
241	0x3cdfdba4	0.027326412
242	0x3c713682	0.014722468
243	0xbceef97d	-0.0291717
244	0xbbe2aa6f	-0.00691729
245	0x3c98815b	0.018616369
246	0x3d015830	0.031578243
247	0xbab71ee0	-0.0013970993
248	0x3c9a5d4c	0.018843316
249	0x3c9c4864	0.019077487
250	0x3c9c1068	0.019050792
251	0xbce8b7da	-0.02840798
252	0x3bf6927f	0.007524788
253	0xbc54b7fe	-0.01298332
254	0xbc8674cc	-0.016413115
255	0x3a49820c	0.000768692

fc1.bias f4 [128]
0	0x3cc98486	0.024599325
1	0x3c0185b4	0.007905412
2	0x3c932534	0.017962076
3	0xbc2aefda	-0.010433162
4	0xbd10e6cc	-0.035376355
5	0xbcbeaed2	-0.02327672
6	0x3a17cc7c	0.00057906634
7	0x3c8e9077	0.01740287
8	0x3cb3a84f	0.021930842
9	0xbc47e441	-0.012200416
10	0x3bd54ab0	0.0065091476
11	0xbcfab5fa	-0.030604351
12	0xbcb063c5	-0.021531949
13	0xbc53f249	-0.012936183
14	0xbd2387cc	-0.039924428
15	0xbd1c4511	-0.038151804
16	0x3cb14947	0.021641387
17	0x3ae2f600	0.0017315745
18	0x3d172481	0.036900047
19	0x3bb9254a	0.005650197
20	0xbcc13b00	-0.023587704
21	0xbb63dc2a	-0.003476868
22	0x3ca9987f	0.020702599
23	0x3cb93e25	0.02261264
24	0xbc9b59fa	-0.018963803
25	0xb9cd915d	-0.0003920895
26	0xbbeed4e9	-0.0072885645
27	0xbccae5a9	-0.024767714
28	0xba6f74a4	-0.0009134507
29	0xbcea2441	-0.02858174
30	0x3c6a47c9	0.0142993415
31	0xbd195728	-0.037436634
32	0xbc991dd9	-0.01869099
33	0xbb56b9d4	-0.003276457
34	0x3a38c425	0.0007048271
35	0xbb4cfcdf	-0.0031278653
36	0xbd003c8d	-0.031307746
37	0xbcd09a49	-0.025464194
38	0x3cd58f04	0.026069172
39	0xbcaef9a6	-0.021359276
40	0xbcf5fe47	-0.030028475
41	0x3cb3781e	0.021907862
42	0xb8df69f7	-0.00010653206
43	0xbcb4232f	-0.021989433
44	0xbc67dc31	-0.014151619
45	0xbc7b00fb	-0.015320058
46	0x3b1a9401	0.0023586752
47	0x3ce3894c	0.02777543
48	0x3c37acac	0.011210602
49	0xbc9a197c	-0.01881098
50	0x3cc00664	0.023440547
51	0xbc56ab35	-0.013102342
52	0x3ca9b03b	0.020713916
53	0x3cae95da	0.02131169
54	0x3b8d1a96	0.004306148
55	0x3cddf978	0.027096495
56	0xbcb19192	-0.021675859
57	0xbcd59b33	-0.026074981
58	0xbd006092	-0.031342097
59	0xbc3440e6	-0.011001801
60	0xbc73df99	-0.014884853
61	0x3c9a03f7	0.018800719
62	0x3cb13f5b	0.021636656
63	0x3cc3d030	0.023902982
64	0x3d0c2b08	0.034220725
65	0x386803b4	5.531656e-05
66	0x3c20a88d	0.009805811
67	0x3ca1ca3e	0.019749757
68	0xbbe23ea5	-0.0069044405
69	0x399f55fa	0.000303909
70	0xbccab044	-0.024742253
71	0x3c53ef80	0.012935519
72	0xbcd3a7d4	-0.025836863
73	0x3cfec4a1	0.03109962
74	0x3c8c2edd	0.01711219
75	0xbc19181f	-0.00934413
76	0x3bf77e20	0.007552877
77	0xbc50336a	-0.012707571
78	0xbc6ab55a	-0.014325464
79	0x3cf1dce6	0.029524278
80	0xbcf2d012	-0.029640231
81	0x3d0b17ca	0.033958234
82	0x3bdbce27	0.006707925
83	0xbc910f87	-0.0177076
84	0x3cb0dc8a	0.021589536
85	0x3cd0162a	0.025401194
86	0x3d119a5b	0.035547595
87	0xbc496cf5	-0.012294044
88	0x3c891aff	0.016736506
89	0xbb092b13	-0.0020930215
90	0x3b5ae239	0.0033399
91	0xbcaf41ca	-0.021393675
92	0x3ba52498	0.0050397627
93	0xbb8c6ff3	-0.0042858063
94	0xbc2ebf6c	-0.010665756
95	0xbcc1066e	-0.023562636
96	0x3c6ebfac	0.014572065
97	0xbd04acf3	-0.0323915
98	0xbcdaecd1	-0.026724251
99	0xbc042a40	-0.008066714
100	0x3cbe4dcf	0.023230461
101	0x3cddb757	0.027064962
102	0x3c856a0f	0.016285924
103	0xbc7798e5	-0.0151121365
104	0x3b874360	0.004127905
105	0x3aa7f557	0.0012814206
106	0xbcc74d5e	-0.024328884
107	0x3bf0cebf	0.007348865
108	0xbd00b520	-0.031422734
109	0xbd0067a8	-0.031348854
110	0x3c900dee	0.017584767
111	0x3c92e183	0.017929798
112	0x3cd4e13a	0.025986303
113	0xbc0aab95	-0.00846376
114	0x3c5653da	0.013081515
115	0x3aad6c26	0.0013231083
116	0xbc639a00	-0.013891697
117	0xbc7f18a2	-0.015569838
118	0x3c92f727	0.017940117
119	0x3c8573f4	0.016290642
120	0xbc51a4e3	-0.01279566
121	0xbc4d78d6	-0.012541017
122	0x3c93a5b7	0.018023355
123	0xbc9f299b	-0.019429019
124	0xbb97c8f2	-0.004632109
125	0xbc8e740e	-0.017389324
126	0xbb7e45d2	-0.003879894
127	0x3c8eea7c	0.017445795

fc2.weight f4 [2, 128]
0	0xbdae80c9	-0.085206576
1	0x3d3710b0	0.04469365
2	0x3c86d3da	0.01645844
3	0x3cb8966b	0.022532662
4	0x3d61fef5	0.055174787
5	0xbc8a6f97	-0.016898913
6	0x3c077d08	0.008269556
7	0x3d3d18e2	0.04616631
8	0xbd1e1b20	-0.038600087
9	0x3cca778d	0.02471521
10	0x3ce71f76	0.028213244
11	0xbd66433a	-0.056216456
12	0xbd4250f0	-0.04744047
13	0xbbeec119	-0.0072862026
14	0x3c8d0e0c	0.017218612
15	0x3aa3e467	0.0012503982
16	0xbda9fceb	-0.083001934
17	0xbda89c48	-0.08232933
18	0x3d39bc57	0.04534563
19	0x3d019020	0.03163159
20	0x3d8a0b87	0.0674048
21	0x3da2bfee	0.07946764
22	0xbd8f2010	-0.06988537
23	0x3b25b5e6	0.0025285422
24	0x3d09031c	0.03345023
25	0xbd02a729	-0.031897698
26	0xbd879bbb	-0.066215
27	0x3d519884	0.05117084
28	0x3d6a898c	0.05726008
29	0xbcf8bb89	-0.030362861
30	0xbce7d38a	-0.028299112
31	0xbd98c067	-0.07458573
32	0x3dab3cd8	0.083612144
33	0x3ba2c8fc	0.004967807
34	0x3c3b678b	0.011438261
35	0x3d9a5923	0.07536533
36	0x3d076831	0.03305835
37	0x3ca1105d	0.019661123
38	0x3d7694ec	0.060200617
39	0xbd5e1f4e	-0.054229073
40	0xbd7d23f2	-0.06180186
41	0x3d27264c	0.040808007
42	0x3c8d707c	0.01726555
43	0x3d7fe2aa	0.062472023
44	0x3dac0a90	0.08400452
45	0xbd0a1110	-0.03370768
46	0x3d05ffbd	0.032714594
47	0xbd3b7e6e	-0.04577487
48	0x3cab8bb4	0.02094064
49	0xbcb35ebf	-0.021895764
50	0xbd2ea6a0	-0.042639375
51	0x3d97e5fb	0.07416912
52	0x3da7e56c	0.081980556
53	0xbd71884f	-0.058967885
54	0x3d946a4b	0.07246836
55	0x3da5f62b	0.081035934
56	0x3da10f7d	0.07864282
57	0x3d856420	0.06513238
58	0xbdb0c98c	-0.08632192
59	0xbd9b031a	-0.07568951
60	0x3d98f1f5	0.07468025
61	0xbc1b7324	-0.009487901
62	0xbbeb377d	-0.0071782456
63	0xbcf48443	-0.029848224
64	0x3cc49cba	0.024000514
65	0xbdc58f5d	-0.09646485
66	0x3d10482b	0.035225075
67	0x3cbaabe2	0.022787038
68	0x3d4237fa	0.047416665
69	0xbcc20776	-0.023685198
70	0xbcd22fe8	-0.02565761
71	0x3c3c2d67	0.011485434
72	0xbcf00760	-0.029300392
73	0xbc7c8786	-0.015413171
74	0xbcb99c60	-0.022657573
75	0x3cbdbad9	0.023160385
76	0x3d43728a	0.047716655
77	0x3d517520	0.05113709
78	0x3b92c056	0.0044784946
79	0xbd48c158	-0.049012512
80	0x3d66f068	0.056381613
81	0xbda8f5b0	-0.08249986
82	0x3d96ea4e	0.07368909
83	0x3c89dc10	0.016828567
84	0x3d67581b	0.05648051
85	0x3db4e200	0.088321686
86	0xbda1186c	-0.07865986
87	0xbd802465	-0.06256942
88	0x3d9f950e	0.07792102
89	0x3c517704	0.012784723
90	0xbcd3f70c	-0.025874637
91	0x3c525aaa	0.012838999
92	0xbc8b8342	-0.017030362
93	0x3d4208b8	0.047371596
94	0xbbe9951a	-0.00712837
95	0x3ace4d40	0.0015739575
96	0xbcf6c848	-0.030124798
97	0xbd69d5bd	-0.057088602
98	0xbbfcc044	-0.0077133495
99	0xbd39a020	-0.045318723
100	0x3d788f14	0.060683325
101	0x3d0e81f1	0.03479189
102	0x3d8eca29	0.06972153
103	0xbc5023b6	-0.012703827
104	0x3d8a7a53	0.06761613
105	0xbd2ccc26	-0.04218688
106	0xbd587a9c	-0.052851304
107	0x3ce00a7a	0.027348746
108	0xbc9bdc53	-0.019025957
109	0x3d9c62b3	0.07636013
110	0x3c3a69ee	0.011377795
111	0x3db0e6df	0.08637785
112	0x3d8dc82c	0.069229454
113	0xbd1aff8f	-0.037841376
114	0xbcf643ba	-0.030061591
115	0xbbae0ce0	-0.0053115934
116	0x3d1324f3	0.03592391
117	0x3c3d41bb	0.011551316
118	0xbdc00bd8	-0.09377259
119	0xbd8f45ae	-0.06995712
120	0xbcd573a2	-0.026056115
121	0xbd8f350c	-0.0699254
122	0x3cab5295	0.020913402
123	0xbdaafee0	-0.08349395
124	0x3b96845b	0.0045934147
125	0xbd3e6bb7	-0.046489444
126	0xbd8f22e5	-0.069890775
127	0x3d783b65	0.060603518
128	0xbd25a1f3	-0.04043765
129	0x3c9c7cfb	0.019102564
130	0x3c8852ef	0.016641108
131	0x3c64e22a	0.013969937
132	0xbd2a68e6	-0.041603945
133	0x3cc3e9cf	0.0239152
134	0x3d8fefa3	0.07028129
135	0xbd7f5fa8	-0.062347084
136	0x3d2fef60	0.042952895
137	0x3d9e1e9b	0.07720681
138	0xbd7694e5	-0.06020059
139	0x3d7a87c6	0.06116464
140	0x3d905c84	0.07048896
141	0x3d1ad29f	0.03779852
142	0xbca4468c	-0.02005317
143	0xbd5119c1	-0.05104995
144	0xbbbb03a0	-0.0057072192
145	0x3d004070	0.031311452
146	0xbb3fb451	-0.0029251764
147	0x3d6ef4ee	0.058339052
148	0x3d6f28a5	0.05838837
149	0x3db1c6c1	0.086804874
150	0xbd412b70	-0.047160566
151	0xbc7f3056	-0.015575489
152	0x3d839ec3	0.06426766
153	0x3d27b269	0.04094163
154	0xbc158783	-0.009126547
155	0xbd7ee43b	-0.062229376
156	0x3d5a4328	0.0532867
157	0xbd51df58	-0.051238388
158	0x3dabc7cf	0.0838772
159	0x3d3f1125	0.04664721
160	0xbd9acaaf	-0.0755819
161	0x3ba68b73	0.0050825416
162	0x3b924520	0.0044638067
163	0x3d9b62d9	0.07587213
164	0x3b9ec109	0.004844789
165	0x3d1cd5c9	0.03828982
166	0x3d8f39b8	0.06993431
167	0xbdad7a4a	-0.084705904
168	0xbd406855	-0.0469745
169	0x3d790220	0.060793042
170	0x3d73f3ff	0.059558865
171	0xbc054058	-0.0081330165
172	0xbc67d0fe	-0.014148949
173	0xbced5184	-0.028969534
174	0xbdb32c9c	-0.08748743
175	0x3d8cb401	0.068702705
176	0xbcc6bdfc	-0.024260513
177	0x3c94efff	0.018180845
178	0xbd0c0691	-0.03418595
179	0x3d9c1131	0.076204665
180	0x3d83f989	0.064440794
181	0xbd1b3446	-0.03789165
182	0xbd05674e	-0.032569222
183	0x3b04da4e	0.0020271721
184	0xbd194051	-0.037414853
185	0x3d70c550	0.058781922
186	0x3d89dbc8	0.06731373
187	0x3d1282bd	0.035769213
188	0x3d3501ac	0.044191048
189	0x3d76c7f1	0.060249273
190	0xbc673452	-0.014111595
191	0x3d24d33a	0.040240504
192	0x3d9c3953	0.07628121
193	0x3c971e19	0.018446969
194	0xbdbe8114	-0.093019634
195	0xbce4c4ad	-0.027925814
196	0xbbe0d594	-0.006861398
197	0xbc0c427c	-0.008560773
198	0xbce8003b	-0.028320422
199	0x3d40da9f	0.047083493
200	0x3c902b64	0.017598815
201	0x3ca2e7bf	0.019885896
202	0xbd2db18f	-0.04240566
203	0x3da25a2a	0.07927354
204	0xbc0fda98	-0.008780144
205	0x3d5bdfa8	0.053680092
206	0x3d19782a	0.037468113
207	0x3d71bb2e	0.0590164
208	0x3d6b41d1	0.057435814
209	0x3d71a9ca	0.058999814
210	0x3d8dc468	0.06922227
211	0x3d8016e5	0.06254367
212	0xbc0807c1	-0.00830263
213	0xbd2b5945	-0.04183318
214	0x3db79527	0.089639954
215	0xbcb72615	-0.022357026
216	0xbd2aeb67	-0.041728403
217	0x3d655e0b	0.05599789
218	0xbbe1d31d	-0.0068916217
219	0xbd886b28	-0.066610634
220	0xbd6506bf	-0.055914637
221	0xbd8ca2be	-0.06866978
222	0x3d26de30	0.04073924
223	0x3d2601dc	0.040529117
224	0x39ad0800	0.00033003092
225	0x3ca2831c	0.019837908
226	0xbd12320b	-0.035692256
227	0x3cb67fed	0.022277797
228	0xbd9b5ddb	-0.07586261
229	0x3d58cb9b	0.05292855
230	0xbb5e54ef	-0.0033925136
231	0x3da4cb0a	0.08046539
232	0x3d35ba3d	0.044367064
233	0xbd871ad1	-0.06596912
234	0xbcadad48	-0.021200791
235	0x3d3b7e4f	0.045774754
236	0x3ce6a067	0.028152658
237	0x3c8bf9ce	0.01708689
238	0x3da12f59	0.07870359
239	0x3c3c9cf7	0.011512033
240	0x3d9bc340	0.076056
241	0x3db97669	0.09055788
242	0x3d56d0f8	0.052445382
243	0xbdbb746f	-0.09153067
244	0xbd6ed17b	-0.058305245
245	0x3d275746	0.040854715
246	0xbd4f18a4	-0.05056061
247	0x3b9cc2eb	0.004783978
248	0x3d670a14	0.056406096
249	0x3d614eeb	0.055006903
250	0x3d9620b7	0.073304586
251	0xbdbb8a3d	-0.09157226
252	0x3daafb92	0.083487645
253	0xbd59ebb0	-0.053203285
254	0x3d2d9605	0.042379398
255	0xbd8c629a	-0.06854744

fc2.bias f4 [2]
0	0xbd8dc0a8	-0.06921512
1	0xbcc645a8	-0.024203137
