models/2024-05-10_12-38-07_Model.onnx (onnx, 516192 bytes, 10 tensors)

conv1.weight f4 [8, 1, 3, 3, 3]
00000000: 8055 b9bc 3fb2 6cbc b4cb f63d ebc2 1dbe
00000010: a191 0cbb 39be 5f3c efb6 bc3d 356e 7d3d
00000020: 6416 f93d a0ec a43d f562 bb3d 6e26 3dbc
00000030: ee28 cdbc 1f54 ca3d 0aa0 113e 41d0 993c
00000040: edb9 443d 6320 00bb c86d 9dbd a122 48be
00000050: b3aa edbc 96b8 86bc d8d1 173e 4ac3 fb3d
00000060: ae8b 7ebd 2fdb ff3d 6cc6 0abe d991 10be
00000070: 9130 73bd 66c4 1f3d dfdb 123e 50b5 39be
00000080: c63c 3b3e def1 9ebd c5a5 ffbc 6f1e 54bd
00000090: 30f5 293e 6212 aabd f931 32be b29e 043b
000000a0: 4389 11be 30e9 a1bd 0f28 b5bc 2c44 e6bc
000000b0: a856 0a3e 6099 dbbc fa17 68bd 6f19 59bd
000000c0: 3f7e 3abe ac57 2e3e df99 a23d 0a2f 083e
000000d0: 1f08 3c3e 6e26 523c 4db4 3b3e 8e32 3fbe
000000e0: 2590 223e 96d5 adbc 115e eebc a425 4cbd
000000f0: 30a8 1cbd dc12 c6bc a52f c73c a277 cebd
00000100: 9cdc 2dbe f98e c4bd 8fb3 24be 434e 2abe
00000110: ccec 3ebd a0db 043d 414e 333e d943 2dbd
00000120: a780 3ebe b041 1cbd cea9 0c3e f7b6 edbd
00000130: 2ee4 023e 0265 3d3d 6886 3c3e e5fd c63d
00000140: fa8a 7abc 2b2d b6bd b69f 26be b646 40be
00000150: 2d73 72bd c5da df3d 1003 e5bc e9cd d43d
00000160: 9f6c 3d3d c4c7 ba3c 6e4c d93d ff69 023e
00000170: cc12 21bd 53ff 32be 27ea 91bd 1ea3 0a3d
00000180: bea8 a23d 7222 8e3d c5cd 06be 7c3c b5bd
00000190: 091d 59bd 7b30 993d 2c93 3dbe a5da c03d
000001a0: a32a ab3d d695 c9bd 6c66 0b3e f671 003d
000001b0: 56d8 40be 6654 b3bd 5882 24be feb8 7bbc
000001c0: 665b b7bc b8b0 0dbe 0e44 25be 3632 b23d
000001d0: 810d de3d a184 3dbe 0f27 01bd 2a83 2b3e
000001e0: 0c40 b93d 7fd4 233e b1f6 973d 69a4 34be
000001f0: 89fb 973b 2490 993d a86d 09be e1d2 01be
00000200: 0596 7d3d e653 8d3c 7404 bf3d a4c0 1b3d
00000210: 6316 003d 8bcd 45be 3f6b 3d3e d3a1 d03d
00000220: b6eb 14be b7e5 fe3c 5b58 d13d df95 0f3e
00000230: 3594 193d 5b1d 21be 8d7a 1ebd 5776 2b3a
00000240: 0575 c7bd 47ab 143d 27b3 fbbc 11cc 0e3e
00000250: 186c 273e b976 45be ffb3 963d d046 ba3d
00000260: e68e 4f3d f016 a23d e2fd 9abb 55b3 a7bc
00000270: 0e32 213e 2c96 213e dfcd b1bd cd90 153e
00000280: 6aa4 0c3e 527d c9bd ae54 2b3e 5b14 7b3d
00000290: aa82 00be a6a3 cabd 4567 70bd e626 1dbe
000002a0: 04ba 8bbd 9228 d43d 5e21 763d de9b 33be
000002b0: 19d8 ad3c fc11 ee3c a7d7 12be e510 213e
000002c0: 919c 1d3e 7259 153c d114 b0bd ebf5 263c
000002d0: 4636 0c3e ecde b43d 3b62 be3d 09c8 d33d
000002e0: c21f 3dbe 00f8 46be 3032 74bd 86a3 f0bd
000002f0: df41 2f3e 05ab 7a3c 2fc7 373e c142 3cbd
00000300: bedc 11be fbbe d0bc e0c1 aebd 23b6 113e
00000310: a1f4 24be a353 27be 6b11 18be 851f c5bd
00000320: 1181 1e3e 9e6d cabd 4070 113e fb8d 20bd
00000330: c2e7 b7bd 39be fa3d 4116 1abd d72f 07be
00000340: 5e47 6abc 23c7 c3bd 02db af3d a038 3f3e
00000350: 4bd9 ec3d 8a40 143e 6af4 2bbe f480 7abd
-0.022623777 -0.014446794 0.12050572 -0.15406387 -0.0021449106 0.013656192 0.09214579 0.06187268
0.12162474 0.08052945 0.09149734 -0.011544807 -0.02504393 0.09879326 0.14221206 0.018776061
0.048028875 -0.0019550554 -0.07686955 -0.1954446 -0.02901206 -0.01644544 0.14826143 0.12293108
-0.062144928 0.12492978 -0.13552254 -0.14118136 -0.05937249 0.03900566 0.14341687 -0.18135571
0.18284902 -0.07760976 -0.031206975 -0.051786836 0.16597438 -0.083042875 -0.17401876 0.0020236191
-0.14212517 -0.07905805 -0.022113828 -0.028108679 0.13509619 -0.026806533 -0.05666349 -0.05300277
-0.18212222 0.17025632 0.07939505 0.13299194 0.18362473 0.012826545 0.18330498 -0.18671629
0.158753 -0.02122001 -0.029097589 -0.049840584 -0.038246334 -0.024178915 0.02431471 -0.10081412
-0.16978687 -0.09597582 -0.16084121 -0.16631417 -0.046612546 0.032436013 0.1751032 -0.042301033
-0.18603764 -0.038148582 0.1373665 -0.116071634 0.12782356 0.046238907 0.18410647 0.09716395
-0.015291924 -0.08895334 -0.16271862 -0.18776974 -0.05919187 0.10930399 -0.027955562 0.10390837
0.046246167 0.022800334 0.10610281 0.12735747 -0.039324567 -0.17480211 -0.07124739 0.033846967
0.07942341 0.06940164 -0.13164432 -0.08849427 -0.053006206 0.0747995 -0.18513173 0.09416703
0.08357742 -0.09843032 0.1361329 0.03135868 -0.18832526 -0.08756332 -0.16065347 -0.01536393
-0.02238245 -0.13836944 -0.16139242 0.08700983 0.108424194 -0.18507625 -0.03153139 0.16749254
0.09045419 0.1599903 0.074200995 -0.17640842 0.0046381396 0.07498196 -0.13420737 -0.126781
0.061910648 0.01725192 0.09327021 0.038025513 0.03127135 -0.1931669 0.18497942 0.101871155
-0.14543042 0.031115396 0.102219306 0.14022015 0.037494857 -0.15733854 -0.038691092 0.00065407663
-0.097391166 0.036296155 -0.030725075 0.13945033 0.16349828 -0.1928357 0.0735855 0.09095538
0.050673388 0.07914531 -0.004729972 -0.020471254 0.1574175 0.15779942 -0.08681845 0.14606018
0.13734594 -0.09838356 0.16731521 0.06129871 -0.12549844 -0.09894495 -0.058692235 -0.1534687
-0.06822589 0.10359301 0.060090415 -0.17539927 0.021221207 0.02906131 -0.14340077 0.15729101
0.15391757 0.009115564 -0.085977204 0.010190467 0.13692579 0.088315815 0.0929608 0.10340888
-0.18469146 -0.19430542 -0.059618175 -0.117499396 0.17114972 0.015299563 0.17947076 -0.0459621
-0.14244363 -0.025481692 -0.085330725 0.14229636 -0.16108944 -0.16340499 -0.14850394 -0.096251525
0.15478922 -0.09884189 0.14202976 -0.039197903 -0.08979751 0.12243313 -0.03761888 -0.13201843
-0.014299242 -0.09559467 0.08586694 0.18673944 0.11564883 0.14477745 -0.16792455 -0.061158136

conv1.bias f4 [8]
00000000: 10f9 0d3d 0047 143e d751 063e a1bd a0bc
00000010: 91ec b33d d9ee 43be e0a7 26be 46a6 293d
0.034661353 0.1448021 0.13117157 -0.019621672 0.08785356 -0.19134082 -0.16274977 0.041418336

conv2.weight f4 [16, 8, 3, 3, 3]
00000000: 7363 b83c 6c76 203c 86ff f3bc b062 33bd
00000010: 8f5c 63bc 3f7f 4f3d 2d76 b23c 58f3 adbb
00000020: b73d 703d 9efb 363d 6d3b abbc 17b2 123d
00000030: 7549 d4bc 7f1d 733d 57a1 2dbc efb1 1cbd
00000040: 260f 033d 0dd9 13bd 2df9 0b3d e522 afb8
00000050: 277b a6bc e243 f8bc 2082 0d3d ffc4 81bd
00000060: 4c33 7cbd cb2b 043d 3de1 e23c a3a8 5dbc
00000070: a548 863c bf7e 27bd fb11 95bd 18d8 f43c
00000080: 6438 82bc c310 053c bef7 3bbd 5bc5 01bd
00000090: aa6a 60bd 9034 403b ac1b 6b3d 8c5e 6d3d
000000a0: 2be0 753d aa2b 8ebd b379 a63c 7e0a 113d
000000b0: b065 a03c 1999 3c3d 9e26 57bd 4e6c 67bd
000000c0: 6bce 94bd f8f8 0cbd e028 2abd bf4e 87bd
000000d0: 5b6b 603d 1261 c0bb 06dd 10bd 21b7 49bd
000000e0: 0b3e b2bc ee5e 133d 0075 8dbb d0fc 0a3d
000000f0: a968 563d 40e5 59bd 0164 a9bc 8d39 1ebd
00000100: 569c 203d 697c 47bd 5d38 763c 351a 80bd
00000110: bdbb 8f3c 731f 5d3b b5e5 9abd 4aa0 033d
00000120: 82f5 3dbd 7799 97bd 2353 c63a f2ba 39bc
00000130: df16 96bd e176 20bd 418c 5f3d d8f2 b83c
00000140: 50d4 303c e92e 14bd 9ee9 01bd 3987 b63c
00000150: 623c 7fbd baa1 bbbc 1562 7c3c 7244 55bd
00000160: 8505 5b3d 9655 9cbd 0990 783d 4028 613c
00000170: 125d 09bd 95c9 9dbc 1efe 2d3d d6fe 5bbc
00000180: 3505 e7bc 587d b63b 86fb 6ebd beec 693d
00000190: 61df e83b 2134 ba3b 3527 0e3d 5cb3 a9bc
000001a0: ec6f 8dbd 3fc8 0abd a56b 733d 6bef d13b
000001b0: 2da3 983c cd3b 05bd 9da5 84bb 0625 71bd
000001c0: 543e 2abd 43f2 9bbd ed56 dfbc e3e9 4b3d
000001d0: f707 1e3d 313a fbbc 65ef 8ebd b34d 55bd
000001e0: d28a 1ebc 513c 163d ce95 693d 40a1 6d3d
000001f0: 7d13 80bd 9615 97ba a92e f5bc 9e00 1a3d
00000200: b5d9 90bc b012 87bc f30d 553d c776 473d
00000210: 95c3 2fbd f962 69bc 5e10 4ebd b80a a8bc
00000220: 534e 85bd bc36 41bd e593 93bd e7d4 ec3a
00000230: ab17 febc 663b 583d bb65 61bd d4bb 6fbd
00000240: 6465 06bd 2c03 4dbd f97e 7b3d c500 6d3d
00000250: 49a6 74bd 2f1f 8a3c a5a3 8ebd ba1e 24bd
00000260: 2fa7 443d 6b1a 57bd 2aac bfbb 5987 79bd
00000270: d35f 453d 861c 72ba ec46 7ebc f506 68bc
00000280: fbea 0d3c 6e8f 5bbd 05c5 3cbd 645d e83b
00000290: 1d14 5d3d f948 2e3d a824 63bd 715c f4bc
000002a0: 96c0 293d d004 6cbd 7227 41bd fbe5 4bbd
000002b0: b9cc a1bc 5068 ff3c 35f5 083d a636 82bd
000002c0: dde6 1f3d fd46 293d 3f73 01bd ec62 4fbd
000002d0: 854a 25bd 8a90 3ebc f2c3 0f3d f5cc d73c
000002e0: 9c01 573d ad1d 723c e6c7 03bd e4e9 83bd
000002f0: 17fe 263d d062 1d3d 7c40 06bd f8da 79bc
00000300: e47c 54bd bdaf 113d defa f33c fd94 e8bc
00000310: 55eb 22bd fc18 9d3a 0c9c e83a 54c2 2abd
00000320: b0bd 8ebd dad4 0cbd 961c 6a3c 6993 543d
00000330: 0e24 1a3d 8676 e3bc b759 53bd 6e3b 1c3b
00000340: 7512 2e3d 7178 af3c c624 023d 3007 493d
00000350: ec8f ad3c d79c 603d eb92 7c3d 5fed 823c
00000360: 536f 88bd 4d8e 62bc 9f8c 82bd 1c0b 60bb
00000370: 766b 713d 00a1 b93c ef45 b73c a36a 5abc
00000380: 333d b73a bc91 e8bb 8150 69bd e414 d13c
00000390: c930 88bd 1739 293d 9dbc 36bd 64e4 87bd
000003a0: ba81 403d 3558 863d ec90 af3b 05cc 873d
000003b0: 3757 32bd 6248 233d da7d 223d aab5 88bd
000003c0: 5ea3 5bbd 8a8c bb3c e814 5b3d df64 d23c
000003d0: 3afe 8abd aace a4bc 405a 46bd 2f28 2cbc
000003e0: 82de 1e3d 26b6 22bd 644a 2c3d 3c8d c43c
000003f0: e3b2 573d 8eb9 9abd 7759 f3bc 9d0e 95bd
0.022508359 0.009793859 -0.029784929 -0.043795288 -0.013877048 0.05065846 0.021784866 -0.00530855
0.058652606 0.044673555 -0.02090236 0.03581437 -0.025913933 0.0593543 -0.010597548 -0.03825563
0.03199687 -0.036095668 0.03417318 -8.35115e-05 -0.020322395 -0.030305807 0.034547925 -0.06336402
-0.061572358 0.032268327 0.027695293 -0.013528976 0.016392061 -0.04089236 -0.0727882 0.029888198
-0.01589603 0.008121672 -0.045890562 -0.031682353 -0.054789223 0.0029328205 0.057399437 0.057951495
0.060028236 -0.06941922 0.020321703 0.035410397 0.019579738 0.046044443 -0.052527063 -0.05649977
-0.072659336 -0.034417123 -0.041542888 -0.066068165 0.054789882 -0.0058709467 -0.035367034 -0.04924691
-0.0217581 0.035979204 -0.004316926 0.033932507 0.052345905 -0.053197145 -0.020677568 -0.038629103
0.039211594 -0.04870263 0.0150280865 -0.062549986 0.017545575 0.003374067 -0.075633444 0.032135285
-0.046376713 -0.07402318 0.0015130978 -0.011336075 -0.07328581 -0.03917587 0.054577116 0.022576734
0.010792807 -0.03617755 -0.031716935 0.022281276 -0.062313445 -0.022904266 0.015404244 -0.052067228
0.05347206 -0.07633512 0.060684238 0.0137425065 -0.033536024 -0.01926116 0.042478673 -0.013427457
-0.028200725 0.0055691414 -0.05834534 0.05711054 0.007106707 0.005682484 0.03470536 -0.020715408
-0.06906113 -0.033882376 0.05942883 0.0064067147 0.018632496 -0.032527734 -0.004048063 -0.0588732
-0.041563347 -0.07614567 -0.02726313 0.0497836 0.038581815 -0.030667396 -0.06979255 -0.052076053
-0.009676652 0.036678616 0.05702763 0.058015108 -0.06253717 -0.0011526819 -0.029929476 0.037598245
-0.017681936 -0.016488403 0.052015256 0.04869726 -0.04291113 -0.014244788 -0.050308578 -0.020512924
-0.0650908 -0.04717134 -0.07205943 0.0018068821 -0.031017145 0.05279102 -0.05502866 -0.058528736
-0.032811537 -0.050051853 0.061400387 0.057862062 -0.059728894 0.016860573 -0.069648065 -0.040068366
0.048011 -0.05251543 -0.005849381 -0.060920093 0.04818709 -0.00092358177 -0.015519839 -0.014161815
0.008661981 -0.053603582 -0.04608633 0.007091211 0.05397426 0.04255006 -0.05545488 -0.029829236
0.04144343 -0.057621777 -0.04715676 -0.049779873 -0.01975094 0.03117767 0.033436973 -0.063580796
0.039038528 0.041327465 -0.031604048 -0.05063145 -0.04035427 -0.0116311405 0.035098977 0.026342848
0.05249177 0.014777583 -0.03217306 -0.064410955 0.040769663 0.038424313 -0.03277634 -0.01524996
-0.051876917 0.035567988 0.029782709 -0.028391356 -0.03977521 0.0011985595 0.0017746701 -0.041689232
-0.06969774 -0.03438268 0.014289042 0.051898394 0.03763204 -0.027766477 -0.05159923 0.0023839134
0.04249807 0.021419736 0.03177335 0.04907912 0.021186791 0.054837074 0.06166355 0.015982328
-0.066618584 -0.013827872 -0.063744776 -0.003418631 0.058940373 0.022659779 0.022372214 -0.013331088
0.0013980031 -0.007097451 -0.05696154 0.025522657 -0.0664993 0.04131421 -0.04461347 -0.06635359
0.046998717 0.06559793 0.005357852 0.066307105 -0.043540206 0.03986395 0.039670803 -0.06675275
-0.053622596 0.022894163 0.053486735 0.025682865 -0.06786771 -0.020118076 -0.048425913 -0.010507627
0.03878642 -0.03972449 0.042063132 0.023993127 0.052660834 -0.07554923 -0.029705746 -0.07278178

conv2.bias f4 [16]
00000000: 001d 88bd 192f 1d3c a6fb 39bd 032a 6abd
00000010: 2e9b 3d3b d844 2b3c 973f d43c b1b8 a03c
00000020: e0e9 91bd f979 b53c bafe 633d c733 4cbd
00000030: 3d1b 98bd e104 6d3d ec48 523c f9c4 43bd
-0.06646156 0.0095937485 -0.045406006 -0.05716897 0.0028931606 0.010453425 0.025909228 0.019619318
-0.07124686 0.022152888 0.055662848 -0.049854066 -0.0742707 0.05786598 0.012834769 -0.04779527

conv3.weight f4 [32, 16, 3, 3, 3]
00000000: f082 c73b bdfc 363d 85d0 00bd 7fce 6cbb
00000010: c415 02bd c419 3d3d 1ce3 0abd 3f77 943b
00000020: 2c57 a03c ea3d 4abd 0bfe 4dbd cecd 2fbc
00000030: 4832 39bd 404b 0dbd 6edd 29bc e835 ffbc
00000040: c4da 023d b74a 7e3c 91ab 553d b1f6 dc3c
00000050: 3fc6 47bd 0a11 10bc 3935 11bd 4705 f5bb
00000060: 119d 13bd 340a 153d a9d1 0dbd 02a0 c13c
00000070: 6d4e f9bb 1698 433d 1039 273d ee79 c4ba
00000080: add1 e2bb 7370 18bd bbcb e2bc 5a2e 15bd
00000090: e00c e83a b091 3cbc 598e aebb f369 d73b
000000a0: 1cc8 2bbd 73dc ffbc 502d 7239 f084 ff3c
000000b0: 5c0a 22bd 6c8c 293d f3c1 aa3c 406f e63c
000000c0: f490 233d 9544 9e3b 19ad 0d3b de9c 4f3b
000000d0: 603c ffbb 82a1 6c3b 4499 b6bc a823 cebc
000000e0: 9dce 843d 5cf3 fd3c e4d9 30bd 4832 00bd
000000f0: 0310 f3bc 1ac8 0ebd 4964 593d 1c49 da3c
00000100: 2835 0e3a 14cf 13bd 3beb 153c b9a3 f4bc
00000110: 993e 203d cc35 34bc 54cf e1bc 6417 7bbc
00000120: 25cf 22bc 4993 64bd 8e3c ce3c d8b7 343b
00000130: baa2 6bbd 31c6 2f3c bba9 b1bc 76da 16bd
00000140: aa16 55bd b877 6abd 1bcc a33c d8af 20bd
00000150: 088c 763b 2728 fb3c 6bc2 c93b eeb0 1b3d
00000160: 3449 d83b dc8b afbc b137 363d b201 3abd
00000170: d2ae 593d 7681 e0bc ada6 633c 3426 f23c
00000180: 8079 71bb 7bb4 5f3d 0e09 1c3d e8a9 24bd
00000190: e73a 9fbc 9d5a 3c3d 879e babc 9d9c 3ebb
000001a0: d8c7 19bb d0d2 10bd f751 bfbb 7541 82bc
000001b0: d947 38bd f6a8 62bc e2fb 3f3d 3bee 203d
000001c0: 04cf 623c 7493 10bd dd8f e5bc d72b 7bbc
000001d0: 6f25 033c 55db e7bc 9311 803c a508 a53c
000001e0: 1957 dabc 0cff b8bc 2d8d 333d 6141 e33c
000001f0: 4c1a 15bd d1e7 173d 85ce 963c 794c 01bd
00000200: 12ef 95bc 9eb9 cebc a65c 563d 89cb fc3c
00000210: e858 f0bb 8081 c5bc 761b 3d3d 410c a83c
00000220: aef7 efbc 2bca 1b3d aee0 d63b d4b6 a3bc
00000230: 0f37 d4bb 78e7 a23c 2f01 bd3c ad1a 11bd
00000240: 2655 683d 93ba 163d af9e 9dbc 30ac 193d
00000250: 6969 66bd b2b9 913b a28f dfbc 0530 f43c
00000260: e49d 0c3d f623 28bd e5c5 0ebd 5e2e 383d
00000270: ae98 70bc 7636 6e3c 0d3a c53c 51be 053d
00000280: a348 29bb 34b7 00bc ad6a 26bd e10a 973c
00000290: 01f3 36bd b591 213d 3d14 cabb f488 08bc
000002a0: 91a2 6abc d2ea 35bd 6df9 36bd 57de 72bc
000002b0: c123 c03c 15cd 00bd 6610 fa3c 071f 1fbd
000002c0: 215b 4a3c 58d4 42bd 78d3 a03c 8420 dabc
000002d0: 6cd7 8cba c151 d03c 4ca5 833b fa54 0cbd
000002e0: 62b8 10bd 8e92 443d a82a 29bd 2df4 06bd
000002f0: 5866 8b3c 1781 3abd 145a 50bd 8e1b 243d
00000300: 06a9 ddba f6e4 03bd 0d70 013d 5d9a 12bc
00000310: c2fd e1bc 3866 a0bc 9739 7b3d 422e 213d
00000320: 473e 573d 1628 4c3c 4f56 14bb 85e6 f7bc
00000330: 95f1 42bc 0e78 33bd f101 c23c b5c3 3dbd
00000340: 23f5 d73c 82f6 393c 5eb0 ef3c e635 a63c
00000350: 1452 aebc 7651 17bc 73f2 f9bc 57f0 3dbd
00000360: ecc1 e33c 6314 3fbd c0e2 123d e8e7 b4bc
00000370: 3c84 b4bc 2f7a 1a3d 97df ef3c 1ee7 973c
00000380: ac3a dbbc 2385 23bd 14d0 25bd f870 09bd
00000390: c197 b839 431f b33c 7502 8e3c c85d 103d
000003a0: 79fb ccbc 2ede e5bc 2d00 80bc 8732 163d
000003b0: 1db4 b1bc de15 0cbd 99ac b83c 3078 db3b
000003c0: 4eb1 f2bb a4c6 ca3c b07b b5bc 9847 1f3d
000003d0: f844 233d ff6e 363c 2295 e1bc 17db 0cbc
000003e0: c3d4 3f3d f74d cbba 7346 4e3c 4aab 6a3c
000003f0: 88af 9c3c c58e 75bb 4bd6 07bd e33c 163c
0.006088607 0.044674624 -0.03144886 -0.0036133823 -0.03175904 0.04616715 -0.033907995 0.004530817
0.019572817 -0.049375452 -0.050291102 -0.01073022 -0.045213968 -0.034495592 -0.010367734 -0.031153634
0.031946912 0.015520743 0.05216557 0.0269731 -0.048773047 -0.008793125 -0.035451148 -0.0074774357
-0.036038462 0.036386684 -0.034623776 0.023635868 -0.007608226 0.047752462 0.040825903 -0.0014989951
-0.006921968 -0.037216615 -0.027685037 -0.036421157 0.0017704032 -0.011509344 -0.0053270278 0.0065739094
-0.041938886 -0.031233048 0.00023095799 0.03119132 -0.03956066 0.041393682 0.020844435 0.02812922
0.03993316 0.004829953 0.0021618067 0.0031679193 -0.0077891797 0.0036107008 -0.02228988 -0.025163487
0.06484721 0.030999832 -0.043176547 -0.031297952 -0.02967072 -0.0348588 0.053074155 0.02664619
0.0005424791 -0.036086157 0.009150322 -0.029863225 0.039122198 -0.010999154 -0.027564682 -0.015325401
-0.009937082 -0.055804525 0.02517536 0.00275754 -0.057528235 0.010728405 -0.02168738 -0.036829434
-0.052023567 -0.05724308 0.019994786 -0.039230198 0.0037620086 0.030658795 0.0061572096 0.03801053
0.0066005234 -0.021428995 0.044486705 -0.045411773 0.053145237 -0.027405482 0.013894719 0.029559232
-0.0036846101 0.05461548 0.038094573 -0.040201098 -0.019437267 0.045984853 -0.02278067 -0.0029085048
-0.0023465063 -0.035357296 -0.0058386284 -0.015900353 -0.044990394 -0.013834229 0.046871074 0.039289694
0.013843302 -0.035296872 -0.0280227 -0.015330276 0.00800453 -0.028302828 0.01563338 0.020145724
-0.02665286 -0.022582553 0.043835808 0.027741136 -0.03640203 0.03708631 0.018409023 -0.03156707
-0.018302474 -0.025234994 0.05233445 0.030858772 -0.007334817 -0.024109602 0.046168767 0.020513656
-0.029292908 0.0380346 0.0065575456 -0.01998464 -0.00647629 0.019885764 0.023071853 -0.03542583
0.05672183 0.036799025 -0.019240705 0.037517726 -0.05625287 0.0044471854 -0.02729017 0.029808054
0.034330264 -0.04104992 -0.034856696 0.044966094 -0.014684839 0.014539352 0.024075532 0.032652203
-0.0025830648 -0.007856179 -0.040629078 0.018437805 -0.04466534 0.039445598 -0.0061669634 -0.008333433
-0.014320985 -0.044413395 -0.044671465 -0.014823518 0.023454549 -0.03144558 0.030525398 -0.03884795
0.012350828 -0.047565788 0.019632086 -0.026626833 -0.0010745353 0.025429608 0.0040175077 -0.034260727
-0.03533209 0.047991328 -0.041300446 -0.032947708 0.017016575 -0.045533266 -0.050867155 0.04006534
-0.0016911335 -0.032200776 0.031601 -0.008947936 -0.027586821 -0.019579992 0.06133422 0.039350756
0.052549627 0.012460729 -0.0022634452 -0.030261287 -0.011898418 -0.043815665 0.023682566 -0.04632922
0.026362007 0.011350276 0.029258903 0.020289373 -0.021279372 -0.00923573 -0.030511117 -0.046371784
0.02780243 -0.0466503 0.035860777 -0.022083238 -0.02203571 0.03771418 0.02928142 0.018542822
-0.026761375 -0.03992189 -0.040481642 -0.033555 0.0003520828 0.021865493 0.017335156 0.035245687
-0.025022255 -0.028060045 -0.015625084 0.03666928 -0.02169233 -0.03420054 0.022543238 0.006697677
-0.0074063903 0.024752922 -0.022153705 0.038886636 0.039860696 0.011134862 -0.027536932 -0.008597157
0.046833765 -0.0015510906 0.012590039 0.014323065 0.019126669 -0.003746913 -0.03316335 0.00916979

conv3.bias f4 [32]
00000000: 0d2a 553c 674f 213b 2821 d3bc bcd0 5cbd
00000010: 2959 50bd a061 c6bc 1c5a 6cbc 3aa2 113c
00000020: ef6a 4b3c eb07 12bc b4c9 fdbc cc08 173c
00000030: 625b af3c 353f d73b 98d1 293c b976 26bc
00000040: 96de ee3b 1c83 86bc 13d6 9a3b 0612 7c3b
00000050: 7305 ae3b ed18 42bd d1de fabc a3f5 2dbd
00000060: ced0 1dbd 7be1 dcba 5b5f e63c a230 9abc
00000070: 346a 03bd 28fa 843c cada e9bc da71 11bd
0.013010514 0.0024613978 -0.025772646 -0.053910002 -0.05086628 -0.024216473 -0.014425781 0.0088887755
0.012415632 -0.008913021 -0.030979969 0.009218406 0.02140588 0.006568814 0.010364912 -0.010160142
0.007289718 -0.01641994 0.0047252267 0.0038462891 0.005310708 -0.047387052 -0.030623825 -0.042470586
-0.03852921 -0.0016851866 0.02812164 -0.018822018 -0.032083705 0.016232565 -0.02854671 -0.035508968

fc1.weight f4 [128, 864]
00000000: 3e78 cfb8 3980 d63c de85 05bd ef20 c8bc
00000010: 8ebe 9d3b bd4a d33c a42d e7bc 8992 ea3c
00000020: 127e ebba 1ed4 cb3c 8482 55bc 2c49 18bd
00000030: 5449 17bc 00e2 993c 425a b5bb e597 92bc
00000040: 97e4 18bd 0c33 05bb 307b be3c 887e ffbb
00000050: c1e6 9e3c b62a 9bbc cde7 9d3b d253 88b9
00000060: 669a ab3c 33e3 c1bc 5d87 bdbc d1d3 e4bc
00000070: 4264 193c 7901 1dbc bad8 683c c371 213c
00000080: dbc7 823c 48c8 57bb d7c4 e1bb d83e edbc
00000090: 5d74 cabc 565d 9e3c d1bc 3bbc bb0b f7bc
000000a0: 0343 80bc 5239 c33b 9e67 453a e1ed 02bd
000000b0: 7987 0cbd 40d9 96bc bafe 383c 2bc7 88ba
000000c0: 64fa 05bd 4194 abbc 0979 1cbc fed4 043c
000000d0: ad74 bc3a b927 843c e88e dbbc e349 f5bc
000000e0: 6e16 fdbc b5c7 23bc cbf5 033d 9441 963a
000000f0: a0c2 db3c 9095 953b d128 61bb d72a 0a3c
00000100: 29b4 d73b 4298 e5bc b531 4e3a c4cd 16bc
00000110: d842 003d 5195 d83b 8694 2d3c ce3a 94bc
00000120: 0ed5 e43b 89aa 8fbc c7f3 05bd bb70 3cba
00000130: d358 c4bb 03e7 013d 3472 173d fa90 0f3c
00000140: eca2 ed3c 45ff 03bc a33f 833c 773a bc3c
00000150: bb3f 88bc e321 e3bc 3045 d2bc a181 a5bb
00000160: a112 6bbc 044f 9a3c 2dab 503b dd98 553c
00000170: 3d04 45bc a9c5 1a3c 196c f13b df2a f9bc
00000180: ec32 c6bc 3951 64bc fb3c 5bbc f1fe e43c
00000190: 03b1 aa3c 5929 85bc 6c9c 0dbd b8e8 20bc
000001a0: e382 0fbc b962 05bd be46 263b e978 9b3c
000001b0: 4130 993c ddb0 acbc 82b6 6fbc bd30 fb3c
000001c0: 510a efbb d90a d6bc 93a0 c03c 9656 cdbc
000001d0: 62f2 133b f418 e63b dd52 b0bc 7602 b4bc
000001e0: 0628 053d b231 1f3d 628c 1d3d 1c79 86bb
000001f0: 7f57 d23c 6701 4fba 2787 be3c 7ffd 013d
00000200: 7c05 893c f103 0e3c 5b6e 72bc ff51 0d3d
00000210: 938f 503c a8e5 e43c 64c0 00bc 3e79 18bd
00000220: 3fbd 843b a9b5 16bd 3d83 7dbc 444d d3bb
00000230: f08b bf3c 0c84 b0bb 3293 22bc f8b1 0abd
00000240: d09a 7d3c 3faa 953c b0bb f63c 0591 3abc
00000250: 752e 973a 3123 e4bb 51bd 803c c2b4 823c
00000260: b7db efbc 7a69 c33c b1de fd3c 6423 07bc
00000270: 23a3 ef3c 3fd0 f1bc 55bb e73c 8f81 fa3c
00000280: 57c4 15bc 511d 45bc 132f dabc 9778 01bd
00000290: b77a 8a3c c88f 063d ed02 0cbd bbc7 13bd
000002a0: dd1f 01bd 685c 2e3c 77f5 7dbb fe0b bb3c
000002b0: 4066 70bc 7ee8 bbbc 9d04 8aba 7b60 9f3c
000002c0: 5ae4 2bbc 8df8 e1bb b965 183c 0b7d bebc
000002d0: 6c1e 56bc 80ec 9dbc 1494 82bb 327e d83c
000002e0: 8f58 153c 000a 983a 3b71 a4bc 9ab6 c5bb
000002f0: 11d2 98bc 6b7a f93c edd9 903a f2d1 aebc
00000300: 88c9 20bb 7e73 883c 397d af3c 1f06 e7bc
00000310: 538f 7f3c 5723 933c 3556 98bc 64a5 cabc
00000320: 829d 06bd d2a0 d23b babd 39bc f4d9 5bbc
00000330: 7248 0fbd 7462 febc dcf9 c23c 9ae2 9e3c
00000340: 5a60 efbc b066 66bc cc01 81bc 26fa 883c
00000350: 248f 2f3c b167 d83c 5d3e 763b ee93 3a3c
00000360: d35e 043d 2bf3 9a3c 184c 9c3c 603a aa3c
00000370: 7826 a0bc 1ab8 71bc 57b3 48bb 56cd c4bc
00000380: 93b1 6a3c affb ef3c 83d3 aa3c 67b3 0b3d
00000390: 2775 593c 4144 163d 3c33 d3bc 5bfa 083d
000003a0: be30 dabc 8b49 093d 05c9 613c fe68 a2bc
000003b0: 3542 5abb b35e a63c 53db 643c 27de 773c
000003c0: cd42 31bc 81c1 d5bc 5cb6 e3bc dbc2 ccbc
000003d0: 231a efbc aac5 99ba f139 d6bb ceb5 bbba
000003e0: 8d12 2d3b a5db 663c e929 043b a137 c93b
000003f0: f306 dc3c 5f00 ef3b 8b35 fa3c 4d9b d23c
-9.892926e-05 0.026184188 -0.03259837 -0.024429766 0.0048139757 0.025792474 -0.028220005 0.028634327
-0.0017966649 0.024881419 -0.013031606 -0.037179157 -0.009233791 0.018784523 -0.005534441 -0.017894695
-0.037327375 -0.0020324616 0.0232521 -0.007797066 0.019397141 -0.018941265 0.0048188926 -0.00026002392
0.020947646 -0.023667907 -0.023135835 -0.027933033 0.009362282 -0.009582871 0.014211828 0.009853783
0.01596444 -0.0032925773 -0.00688992 -0.02896063 -0.02471369 0.019331615 -0.011458592 -0.03015696
-0.015656954 0.005957761 0.0007530394 -0.03196514 -0.034308884 -0.01841414 0.0112912 -0.0010435333
-0.032709494 -0.020944716 -0.009550341 0.008107422 0.0014378034 0.016132222 -0.026801541 -0.029942458
-0.030894484 -0.009996344 0.03221683 0.0011463636 0.026826203 0.0045649484 -0.0034356604 0.008433065
0.006582756 -0.028026704 0.00078656833 -0.009204332 0.031313747 0.006609597 0.010594493 -0.018094447
0.006983406 -0.017537372 -0.032703187 -0.0007188429 -0.005992034 0.03171445 0.036974147 0.008762592
0.029008351 -0.0080564665 0.016021555 0.022977097 -0.016631952 -0.02772612 -0.025667757 -0.0050508534
-0.014347703 0.018836506 0.003184031 0.013036934 -0.012024936 0.00944654 0.0073676226 -0.03041595
-0.024194203 -0.013935381 -0.013381238 0.027953597 0.020836359 -0.016255068 -0.034573004 -0.0098211095
-0.008759233 -0.032564852 0.0025371755 0.018978553 0.018699767 -0.021080429 -0.014630916 0.030662889
-0.007294931 -0.02612822 0.023514068 -0.025065701 0.0022574891 0.0070220176 -0.021523887 -0.02197383
0.032508872 0.038865753 0.038463958 -0.004103793 0.025676487 -0.00078966323 0.023257805 0.031735893
0.016726248 0.008667932 -0.014796819 0.034502026 0.012729543 0.02794154 -0.0078583695 -0.037225
0.00405088 -0.03679434 -0.015473184 -0.0064484198 0.023382157 -0.005386835 -0.009922789 -0.03386113
0.015478805 0.018269656 0.030118793 -0.011387114 0.0011534231 -0.006962203 0.015715273 0.015955333
-0.029279573 0.023854006 0.030989977 -0.008248184 0.029252594 -0.029518245 0.028287569 0.030579356
-0.009141049 -0.012030915 -0.026633775 -0.031609144 0.016904218 0.032851964 -0.034182478 -0.03607915
-0.031524528 0.010642149 -0.0038751045 0.022832867 -0.014672816 -0.02293801 -0.0010529939 0.019455185
-0.010491455 -0.0068960846 0.009301596 -0.023252985 -0.013068777 -0.019277811 -0.0039849374 0.026427362
0.009115352 0.001159966 -0.020073524 -0.0060337307 -0.018654855 0.030453881 0.0011051275 -0.021340344
-0.0024534184 0.016656633 0.021422016 -0.028201161 0.015598136 0.017961187 -0.018595794 -0.024737068
-0.032865055 0.0064278627 -0.011336738 -0.013418663 -0.0349812 -0.031052805 0.023800783 0.019395161
-0.029220749 -0.014062569 -0.015747927 0.016720843 0.01071528 0.026416631 0.0037573793 0.011387808
0.032316994 0.01891478 0.019079253 0.020779788 -0.019549593 -0.014753366 -0.0030624473 -0.024023693
0.014324564 0.029294817 0.02085281 0.03410664 0.01327256 0.036686186 -0.025781266 0.033441883
-0.02663457 0.0335174 0.013780837 -0.019825455 -0.0033303623 0.020308828 0.013968307 0.015128649
-0.010819149 -0.026093246 -0.027796917 -0.024995258 -0.029187268 -0.0011731882 -0.006537669 -0.001432115
0.0026408762 0.014090453 0.0020166582 0.0061406647 0.026858782 0.0072937454 0.03054311 0.025708819

fc1.bias f4 [128]
00000000: f6bd 08bc 0592 23bd 0170 663c 0826 cbbc
00000010: 8c12 3f3b 42d6 9d3c d7d3 e9bc 021d 023b
00000020: 0c76 9e3b 3665 a0bb 3a18 f4ba 67e8 0cbd
00000030: cd92 b83c 2ca1 0c3c a021 adbc 4c63 013c
00000040: d6cc c3bc b60e 84bb 7c51 3c3c 05dd f0bc
00000050: 69bb dbb6 f963 f7bb 1403 e13c 09c3 d43c
00000060: 2e0f 2e3c eceb 9c3c 6b7b 2bbd be53 8b3c
00000070: 1e76 50bc a101 9a3b 39b6 b93c e674 9e3a
00000080: ddaf 633c 166f 133c 0983 333d 8f1f a63c
00000090: 4678 973c 2c18 c7bc 5f82 c2bc c55f 9a3c
000000a0: a730 8d3c 73e1 37bc 1128 5a3c 6c79 693c
000000b0: eb78 993c 4e8d 063b cb86 11bd 99cc 4ebc
000000c0: b24a be3c fce3 c3bc cf6a 943c 278d 23bd
000000d0: c330 09bd 2835 7e3c 0ab1 afbb c6b7 8e3b
000000e0: 924c 0d3d 2a57 3abb 0cf0 9bbc 6f8a 20bc
000000f0: 4696 643c 0b51 173c ed37 04bd 914d 83bc
00000100: 7b18 2cbd 1780 b4bb 16df e0bc d885 41bc
00000110: 5943 cdbc c31c 55bc 38fc 5bbc ff3b febc
00000120: 121d 253c e9b5 c4bb 69bb e23c 95dd 37bc
00000130: 682d 81bc 7a48 95bc edb8 02bd 473d bd3c
00000140: e617 fcb9 e865 d43b fe21 b8bc 291d b33c
00000150: d80d 373c f54b 0abd ed5e efbc 3558 e73c
00000160: 193f ee3c c56e a9bc 95cf f03b 88fa e5bc
00000170: bc07 01bd 149e 53bc 2e41 f4ba 0b93 843c
00000180: 73fd 1fbc eaf2 29bb 44bf 8e3b aa9b 0c3c
00000190: 237f a2bc 5f06 ddbb 9b76 91bc 7d79 2c3d
000001a0: 8892 20bd 0b7f 5ebc 2e62 68bc 62d7 8bbc
000001b0: f4e4 15bd f16e 8c3c f90a 27bc e595 ffbc
000001c0: 1f4e 89bc 55af e8bc 7444 1e3b 5477 183c
000001d0: 3c4b 51ba 80b0 52bc f786 523c 1204 c73c
000001e0: 6658 493b b19b 0cbb 070e 753c 4747 13bd
000001f0: 5d0b 99bc a8de d6bb ed38 6dbc 29b6 11bd
-0.0083460715 -0.039934177 0.01406479 -0.024798408 0.0029155342 0.019267205 -0.028543396 0.0019853716
0.0048358496 -0.004894878 -0.0018622943 -0.034401324 0.022530938 0.008583348 -0.021134198 0.007897209
-0.023901384 -0.004030074 0.011494037 -0.029402265 -6.548526e-06 -0.0075497595 0.027467288 0.025971906
0.010623736 0.019155465 -0.041865747 0.017007705 -0.012723474 0.004699901 0.022669898 0.0012089282
0.01389691 0.008998653 0.043826137 0.02027872 0.018489968 -0.024303518 -0.023743806 0.018844495
0.017235113 -0.011223185 0.013315217 0.014250141 0.018734416 0.0020531002 -0.03552894 -0.012622022
0.023228977 -0.023912422 0.018117337 -0.039929535 -0.03349377 0.015515603 -0.005361681 0.0043554036
0.03449685 -0.0028433301 -0.019035362 -0.00979863 0.013951844 0.009235631 -0.032279897 -0.016028197
-0.042015534 -0.0055084336 -0.027450126 -0.011811696 -0.025056528 -0.013007346 -0.013426833 -0.031034468
0.010077732 -0.0060031307 0.027677255 -0.011222263 -0.015768722 -0.018223036 -0.03191464 0.023100508
-0.0004808299 0.0064818747 -0.022477146 0.02186449 0.011172734 -0.033763845 -0.029220069 0.028240303
0.029082822 -0.020682702 0.0073489645 -0.028073564 -0.031501517 -0.012916107 -0.0018635148 0.016183397
-0.009765017 -0.0025932142 0.0043562967 0.008582035 -0.019836014 -0.0067451443 -0.01775675 0.042108048
-0.039202243 -0.013580094 -0.014183564 -0.017070476 -0.0365953 0.017142745 -0.010195487 -0.031199405
-0.016760884 -0.028403917 0.0024149688 0.009305794 -0.0007983928 -0.012859464 0.012849561 0.024293933
0.0030722856 -0.0021455104 0.014956958 -0.035956647 -0.018682176 -0.0065573044 -0.014478904 -0.035574112

fc2.weight f4 [2, 128]
00000000: 2e1c 363d 8541 a3bd d14b 863d 9a8a 55bd
00000010: d4bb 94bd c401 0ebd 9a53 6c3d 07f3 ac3d
00000020: 36d5 d13a 7f8b 303d bee3 803d ead3 753d
00000030: 6a89 983b fe81 8dbd 24b0 f6b7 c3f4 1b3d
00000040: dd4b 72bc de5a 673d 4752 e03b 2fe4 42bd
00000050: c206 08bd 8a39 603d 8835 5fbd 7de4 5cbd
00000060: 458e 153d 3c37 1a3d 6201 50bd cb8e 35bd
00000070: 2cb8 a43c 8b2a a63b cd47 de3c 3827 f73c
00000080: 2561 cabc a8d6 86bc 374d 4bbd 51fa 0abd
00000090: 8b46 f73b dbdb de3b 58d9 99bd 6c8a 42bd
000000a0: d51e 823c 1a87 acbc 3b1c 3d3d b3d3 003c
000000b0: 41ea 1f3d 9197 1ebd 9fcf 033d ea87 3f3d
000000c0: 0fb5 a2bd 77be ee3c fdef 5cbc a24c 96bd
000000d0: 0dad 86bd e110 8a3c 0a68 8b3d c8d8 a2bd
000000e0: 83c0 d8bc 1816 bc3c b849 323d 1489 7d3d
000000f0: 581e 44bb 9435 1c3d df27 0bbd f2a5 41bd
00000100: 60a3 323d f5a1 9d3c f2a5 71bd 16d9 4cbd
00000110: 2b7c 04bd e2e1 71bd b22d 97bc 2331 a73d
00000120: 1c82 ca3c 75fe 0b3d 6398 60bd 8235 86bd
00000130: dfea 8ebd de35 10bb 0339 943c 663e e4bc
00000140: 22d0 123b 3ce3 363d aa9e 01bd 70db 5c3d
00000150: 18fa 193d 48f9 13bc d314 1abd 3f39 9dba
00000160: eb06 9abd 9640 063d dc51 cf3c 83cd 97bd
00000170: 61c8 913d b100 f03c 6af8 4939 6af0 123d
00000180: 64a8 513d 0691 dc3c b749 fc3c 4f8f c2bb
00000190: dd91 a63d e9b3 73bd b0d5 18bd f4f6 aabd
000001a0: b403 56bd ff72 5abd 8bd9 0dbd fb65 6139
000001b0: 8adf 68bd e559 883c 5763 c33b 7522 983d
000001c0: 759e 0dbc 1d10 e93c 9efa 023d af4d ebbc
000001d0: 6996 6fbc 819f 90bc 231b bd3c d775 603d
000001e0: 6b37 023d b1ee 5c3d 41ba 3bbd c0d8 96bd
000001f0: 1e15 3a3d 234b 87bd 71b4 83bd 8347 13bd
00000200: f61c 453d 3c93 913d fff0 8cbd 6579 c73c
00000210: 4803 86bd 52e8 32bd a22b 67bd 293c ab3d
00000220: 386a b53b d83d 0fbc e258 f2bc 79ff da3c
00000230: 8bb2 cebc 2fa7 563d 89fb 9dbc ac9b b2bc
00000240: 2fe8 933d 8b19 3f3b c056 24bd 80c9 983d
00000250: 4707 5fbc 18bd b03c 5873 7d3a 5b94 39bc
00000260: c04c 3fbc 8caf fc3c b03e 37bc 2b23 24bd
00000270: a986 a9bd 6ec5 3abc 9a0c 973d d1b9 503c
00000280: ea28 5c3d 7de8 d13c 9317 b83a b48c 0fbd
00000290: 8394 f2bc a572 a0bd 3369 20bd 023f 673d
000002a0: 7c3e acbd 7aa1 2fbd 8618 7e3d 7887 36bd
000002b0: 41bc 79bd e7e4 103d b6d3 43bd 9baf 773c
000002c0: 80ad 16bd 66b0 063c 5b26 b03d ef19 383b
000002d0: 7ea2 67bc 321f 89bd 6bca 9f3d 5643 11bd
000002e0: cccf 003d 2273 ae3d 959f 1fbd 33a3 ce3c
000002f0: 6cbc 5f3d 9d86 52bd fca3 bdbc b1bf 853d
00000300: 9d08 93bd b52d 28bd 6b18 a0bd 7988 49bd
00000310: 9ea2 6cbd 3eb2 883c db79 1fbc d12b 8d3d
00000320: 1d20 96bc 1bc9 28bb 08de 8d3b 73a4 3dbd
00000330: bede 74bc 8f8b a53b 4128 4a3c 439a 813c
00000340: b30e 70bd 7e1f 08bd 4af4 563d f998 1fba
00000350: 69ff 0ebd 8ab5 0fbd 990e 8a3d 067d 4b3d
00000360: eaac 1a3d 20e9 05bd 68bf 6abd ce34 2ebc
00000370: e140 a43d 1fda 193d 03e8 8b3d 363d 04bd
00000380: fb96 98bc cece 403c e8c3 b13b dc69 a33c
00000390: a310 81bc 4e40 7abd da60 6e3d a514 b2ba
000003a0: 15e8 57bd 8b47 1c3c b424 973d dce0 80bd
000003b0: 85b0 54bd ba3a 153d 1a3b d2b9 9399 6a3d
000003c0: 48da d5bc fe92 cbbc 5002 683d 7b48 abbd
000003d0: 5928 1f3d 53c8 103d 58db 163d f1ff 883d
000003e0: 12bd 4dbd cf96 5abd 3c12 85bd 39fe 67bc
000003f0: 491e 87bc 9bab 17bd 7c8d 533d ef31 ff3c
0.044460468 -0.07971481 0.065574296 -0.052134134 -0.07262388 -0.034669653 0.057696916 0.08444791
0.0016008976 0.043101784 0.062934384 0.06001655 0.004655053 -0.0690956 -2.9407507e-05 0.03807522
-0.014788595 0.056483142 0.0068457457 -0.047580894 -0.03320957 0.054742374 -0.05449441 -0.05392884
0.036512632 0.03765033 -0.05078257 -0.04432563 0.020107351 0.0050709895 0.027133847 0.030170068
-0.024704525 -0.016459778 -0.049634185 -0.033930127 0.007546251 0.006801111 -0.07512158 -0.04749529
0.015883842 -0.021060515 0.0461695 0.007862973 0.03904176 -0.038718764 0.032180425 0.046760477
-0.079446904 0.029143555 -0.013484952 -0.07338835 -0.065759756 0.016853752 0.06806953 -0.07951504
-0.026458984 0.022959754 0.043527335 0.061898306 -0.0029925313 0.038137034 -0.03397357 -0.0472774
0.043612838 0.019242266 -0.05899615 -0.050011717 -0.03234498 -0.05905331 -0.018454406 0.08163669
0.024720244 0.034178216 -0.054832827 -0.065531746 -0.06978392 -0.0022004764 0.018093592 -0.027861785
0.002240189 0.0446503 -0.031645454 0.05392021 0.037592024 -0.009031601 -0.037617516 -0.001199521
-0.07520851 0.032776438 0.025307588 -0.07412245 0.07118297 0.029297205 0.00019261395 0.035873808
0.05118598 0.026924621 0.030796869 -0.005937494 0.0813329 -0.059497748 -0.037313163 -0.08347884
-0.052249625 -0.053332325 -0.034631293 0.00021495663 -0.05685381 0.016644428 0.00596277 0.07428447
-0.008643736 0.028450066 0.03197729 -0.028723566 -0.014623263 -0.017654182 0.023084229 0.05479988
0.031791132 0.05393857 -0.045831922 -0.073655605 0.045430295 -0.06606128 -0.06430901 -0.03595687
0.048123322 0.07108161 -0.06881904 0.024349878 -0.065435946 -0.04367859 -0.056438096 0.08361084
0.005536344 -0.008742772 -0.029583398 0.026733147 -0.02523162 0.052405532 -0.01928498 -0.021802746
0.0722202 0.0029159512 -0.040121794 0.07460308 -0.013612575 0.021574542 0.00096683716 -0.011326875
-0.0116760135 0.030845426 -0.011184379 -0.0400726 -0.082776375 -0.01139961 0.073754504 0.012739615
0.053749956 0.025623554 0.0014045112 -0.035046294 -0.029611832 -0.07834367 -0.039162826 0.056456573
-0.084103554 -0.042878605 0.062035106 -0.044562787 -0.06097055 0.03537455 -0.047809325 0.015117551
-0.036786556 0.008220768 0.08601066 0.002809163 -0.014137862 -0.06695403 0.0780228 -0.035464607
0.03144817 0.085180536 -0.03897055 0.025224304 0.054623052 -0.05139791 -0.023149483 0.06530703
-0.07179377 -0.041059215 -0.07817157 -0.049202416 -0.05777227 0.016686555 -0.009733642 0.06893123
-0.01832586 -0.0025754634 0.0043294467 -0.04629941 -0.014945684 0.005052037 0.012338699 0.015820628
-0.05860777 -0.03323316 0.052479066 -0.00060881634 -0.034911547 -0.03508524 0.067410655 0.04967978
0.03776256 -0.03269303 -0.057311445 -0.010632707 0.08020187 0.037561532 0.06831362 -0.032284938
-0.01862668 0.011768056 0.005424965 0.019947939 -0.015755003 -0.061096482 0.058197834 -0.0013586475
-0.052711565 0.009538542 0.073800474 -0.062928885 -0.051926155 0.03643296 -0.00040098355 0.057275366
-0.026105061 -0.024850365 0.05664283 -0.08363434 0.038856838 0.035347294 0.036830276 0.06689442
-0.05022914 -0.05336648 -0.064976186 -0.0141597325 -0.016493933 -0.03702889 0.051648602 0.03115174

fc2.bias f4 [2]
00000000: e34d 263d 79ee 34bd
0.040601622 -0.044172738
