models/2024-05-10_12-36-52_Model.onnx (onnx, 516192 bytes, 10 tensors)

conv1.weight f4 [8, 1, 3, 3, 3]
00000000: 80c9 853d abca 06be 2bbc 123e d484 3abe
00000010: 832a 4bbe 0f3d debd 9391 f73d bf10 d3bd
00000020: 123b 2b3e c5e1 f83d 0651 093d dad3 b6bd
00000030: b505 173e 69aa 6ebd b6ab ba3d eb15 de3c
00000040: 5947 c8bc 6fe4 39be a4d9 043e fb7f 86bd
00000050: c1f5 2a3d eeaa 3a3e 1223 7dbd 7422 3a3e
00000060: 9778 46be dbaf c9bd 2017 2cbe 4cd4 f1bd
00000070: 6c0c e9bd 3c43 27be 239a f43a b233 503e
00000080: 6c60 3a3d 6b16 2cbe a19b ebbd df8e 68bd
00000090: 9842 a4bd 113d cc3d 08b9 15bc 8cbd e0bc
000000a0: 419a 30be 7022 293e dcce 70bd 3fb0 863d
000000b0: 71ef c5bd 8ed9 f1bd 2319 ca3d a3b4 f0bd
000000c0: 50fe 3b3e cca0 96bd 3575 343e d0a1 423e
000000d0: a98a 2abe 9a00 033e 153a 5e3d 6267 24be
000000e0: 4cfd 163e 8370 663b b20d 0d3e 68e9 003e
000000f0: cc3c 42bd ef1c b9bd d6fd 223e e3ea d8bc
00000100: 6794 15be 9073 5dbc 8d09 f6bd 1835 023e
00000110: 416c 0bbe e098 2fbe 289c 073e a8ec e1bd
00000120: 17bc 0bbe c5a2 0dbe 648b 02be 2219 363a
00000130: fa04 5c3d 0f01 88bd 0964 b13d 3b0a dc3d
00000140: d339 033c 88ff b73d 91bb fe3d 8586 403e
00000150: 762b ff3d 7cec 8fbd 0d3c 49be ce72 86bc
00000160: 548e 023e 0e40 8dbd b253 6e3d ea7c c3bd
00000170: b7b7 f7bd 19a2 abbd 43b6 91bd bde7 4bbd
00000180: d06d eebd 996d f83d acc6 ae3b c086 d2bb
00000190: b0a8 38bd a589 35be 53d7 913b 7d30 493d
000001a0: fa3d 0dbe 3992 1c3e 3d50 673d 8347 fbbd
000001b0: db55 543d 7110 973d 6163 743c cccc c43c
000001c0: 518d 4e3c 4639 053e 0250 cfbb 7fa5 b33d
000001d0: bc51 c13d 3e86 f2bd ac43 703d 5adc f53c
000001e0: e68b 21be fa79 2d3e 711f dc3d 392d 993c
000001f0: 7ad2 b7bd baa7 0fbe ea3a b93d 5114 1cbe
00000200: d7b9 a33b f596 3ebe 864f 9a3d 3126 1d3d
00000210: d110 c9bd 7a62 aabd 87ee f23c e6dd 13bd
00000220: 1aa7 d4bd 6795 a2bd 1149 2bbe c4f6 ddbd
00000230: 816b 89bd 7453 0b3d e51f acbc 479b 14be
00000240: 317b cebd 71b4 343d 9075 70bd 7024 f63c
00000250: faa5 1a3d 9bd9 23be fc63 b73d fc2e bbbd
00000260: 711d 243d 6064 e23d 827f fa3d 579a 493e
00000270: 3144 2c3e d326 893c 96c9 783c 338e afbd
00000280: b4d3 f23c 2577 ec3d 3cbb b73d c47e c83d
00000290: 6e6b 4e3c c1cc 32bc be5b d2bd 7be8 05be
000002a0: 9a08 19be b48b 253e dcd3 333e d918 463c
000002b0: b810 11be 39f6 173e 3538 4f3d 364f 5dbd
000002c0: 6d04 11bc fc16 37be 818e 103e ab05 5abd
000002d0: 196f da3d 77df 223e 7bfb 0ebe caa8 45be
000002e0: 70dd 07bd 26ca a4bd e1df bbbd d652 d43c
000002f0: 820c aabd 790a 2b3e bdad cf3c 4da0 d7bd
00000300: b1ab f23d c7be 913c 0bdc 1abe b07d c3bd
00000310: 673d f63a e310 a1bd 955e 533d 23dd 2f3e
00000320: 02f4 01be cab6 cbbd a617 c6bc 5a31 303e
00000330: c92f cf3c 87a4 8b3c 3a47 b33d 027b e2bd
00000340: 4177 273e 360d 92bd 9b13 303e f86e ed3c
00000350: 2f80 f83d 04a7 143e d617 3a3d 8c3a 823c
0.06532574 -0.13163249 0.14329593 -0.18214732 -0.19840436 -0.1085149 0.12088313 -0.103059284
0.16721752 0.12152437 0.033524536 -0.08927126 0.14748271 -0.058267985 0.091147825 0.02711006
-0.024448084 -0.18153547 0.12973648 -0.06567379 0.041738275 0.18229267 -0.061801024 0.18177205
-0.19381939 -0.09847995 -0.16805696 -0.118080705 -0.113793224 -0.16334242 0.0018661659 0.2033222
0.04550211 -0.16805427 -0.11504293 -0.056776877 -0.08020514 0.09972585 -0.009138353 -0.027434133
-0.17246343 0.16517043 -0.058791026 0.06576585 -0.096648104 -0.118090734 0.09868076 -0.11753204
0.18358731 -0.07354888 0.17622836 0.19007039 -0.16654457 0.12793198 0.05425461 -0.16055062
0.14745063 0.0035162277 0.13774756 0.12589037 -0.04742126 -0.09038722 0.15917143 -0.02647919
-0.14607392 -0.013516322 -0.120135404 0.12715566 -0.13615514 -0.17148161 0.13243163 -0.11031467
-0.1364597 -0.13831623 -0.12748486 0.0006946494 0.053715684 -0.06640827 0.08661658 0.10744139
0.008009392 0.089842856 0.12438119 0.18801315 0.124594614 -0.07027528 -0.19651814 -0.016412165
0.12749606 -0.06896983 0.058185287 -0.0954531 -0.12095588 -0.08380527 -0.07114842 -0.04978155
-0.11642039 0.12130279 0.005333742 -0.006424755 -0.045082748 -0.17728288 0.0044507175 0.049118508
-0.13793173 0.15290155 0.056473006 -0.12269499 0.05183969 0.07376183 0.014916272 0.024023436
0.012606935 0.1301013 -0.0063266763 0.087718 0.09439418 -0.11842011 0.058658287 0.030012298
-0.15776023 0.16941062 0.107481845 0.018698322 -0.08975692 -0.14028826 0.0904444 -0.15242125
0.004996519 -0.18612273 0.07534699 0.0383665 -0.098176606 -0.08319564 0.029654754 -0.03610029
-0.103834346 -0.079386525 -0.16727091 -0.108380824 -0.06709958 0.034015134 -0.021011302 -0.14512359
-0.10082091 0.044117395 -0.058705866 0.030046672 0.037755944 -0.16000979 0.089546174 -0.09139821
0.04006714 0.11054301 0.122313514 0.19687782 0.16822888 0.016742146 0.015184781 -0.08572044
0.029641964 0.115461625 0.08971259 0.097898036 0.012598855 -0.010913075 -0.10271405 -0.13076966
-0.14944687 0.16166574 0.17561287 0.012090885 -0.14166534 0.1484002 0.050590713 -0.05403062
-0.008851153 -0.17879862 0.14116861 -0.05322806 0.106657214 0.15905558 -0.1396312 -0.19302669
-0.033170164 -0.08046369 -0.09173561 0.025918406 -0.08303167 0.16703214 0.0253514 -0.10528622
0.11849154 0.017791165 -0.15123002 -0.09545457 0.001878661 -0.07864549 0.051603872 0.171742
-0.12690738 -0.099469736 -0.024181198 0.17206326 0.02529134 0.017046226 0.0875382 -0.11058618
0.16354086 -0.07131426 0.17194979 0.028983578 0.12133824 0.14516836 0.045432888 0.015897058

conv1.bias f4 [8]
00000000: 7be1 1d3d 8ec3 a239 bc2f 48be 4d67 dd3d
00000010: 6ccf fc3d 389e 65bd 2905 0bbe 93c0 0cbe
0.038545113 0.00031044747 -0.19549459 0.10810719 0.1234425 -0.056059092 -0.13576187 -0.13745336

conv2.weight f4 [16, 8, 3, 3, 3]
00000000: 64f3 4c3d ea84 af3c 25ce 153d b49a 86bc
00000010: 72d1 96bd 8ed0 2fbd bf34 163c b5d8 afbc
00000020: 34ca c3bc 8051 303d 8593 b6bc 27fb a03c
00000030: 0c6f 6e3c c639 793c 7a9f 28bd 4b72 083d
00000040: dbd9 fcbc dcdc 36bd 8551 4d3d ac73 73bd
00000050: 9b24 08bd 5278 fd3c 9c4a 0c3d 73ad 563c
00000060: d9bb 7cbd ffdd 8abc 2701 d93c d063 4b3d
00000070: 0af4 f1bb c6ba d63c 1691 1e3d 7edd a43c
00000080: 5a79 e53c 1816 4cbd c5cc af3b 11aa 24bd
00000090: 42d0 973b 90a8 5c3a bc91 99bd 2b2f c13c
000000a0: 908e 2e3d 7a8b 8dbd f6eb 36bd 0876 47bd
000000b0: d281 843c 7812 5b3c bb74 cc3c 49f4 923b
000000c0: 6baa 02bd 2dcb 2739 f46f 22bd 2c0f 52bd
000000d0: d2db 41bd 2e74 0dbc 268f bf3c 1f7a b53c
000000e0: f29a 7fbb adc4 693d 057a 8c3c ab7c 13bd
000000f0: 9afb 93bd 4c93 6abd 66fc a83c 75f0 54bb
00000100: 483e cc3c 7019 903b ccc7 5a3c 773d 3a3d
00000110: 1653 2bbd 9cfd 4e3d 3913 b9bc dbae 5c3d
00000120: b774 df3c 6d82 53bd 24b2 e23c dc68 f8bc
00000130: c542 043d 236f 1abd 956a 713d d598 7fbd
00000140: 46b7 4d3d 4f07 5a3c ae51 1ebc c56f eb3c
00000150: b07e 2fbc 2ac3 9bbd de6d 20bd 824d 213d
00000160: 51d8 263d a187 9cbd 7343 d53c 4da9 633d
00000170: 46b2 00bb 2c7b 0fbd 565a 2bbd ba2e 4b3d
00000180: eeee 133d 18dc 513d 31b3 2d3d f01b d8bc
00000190: 4ca1 363c a25e f43c e34c 81bd 8dfe 6abd
000001a0: 970b 3a3d 7b83 53bd 0a28 0b3c 1168 9fbc
000001b0: ab3c fa3c 9bf6 94bd 876e 8e3c ff39 68bd
000001c0: 3974 e13c de42 61bc 548a 043d deca bdba
000001d0: ee34 72bd ad56 46bc 1518 2c3d 3b6c 8abd
000001e0: 8934 13bc e54a 593c e6bd 44bd b4d3 77bd
000001f0: 96d7 6dbd 5d1f 61bd 7352 96bd a5ad cdbc
00000200: 93f0 b3ba 2f0a 493d 5032 da3c 5da8 04bd
00000210: 2028 84bb d9c6 c6bc c523 86bd 4667 a6bb
00000220: cbed 513d e0fd 98bd faa5 fabc 42d3 17bd
00000230: 4105 603d c5a7 74bd d1c4 883c 7eb5 8cbd
00000240: fe74 f53c 85dc cdbb d45b 333d 21fd adbb
00000250: ee80 45bd 1d93 42bd 0866 b43b 2863 093d
00000260: b5a3 6abc c66b 02bd 1b28 f73c f453 63bd
00000270: 2ecb 4c3b 017c 61bd d900 35bd 5b22 ec3c
00000280: ae86 97bd ae6f 693d a053 ce3c 3c03 b4bc
00000290: 310e 403d b532 8bbd 3843 af3c 5f0a 373d
000002a0: 5ca7 ffbb 1c52 15bc 5f24 94bd 8d95 92bd
000002b0: 1ce7 76bd e8e1 96bd 66e8 1cbd 09e1 263d
000002c0: cf6c c0bc fff4 6ebd 5500 183d a132 0bbd
000002d0: 8ddb 3bbd 3e98 7e3d dceb df3b 0fcd 63bb
000002e0: dba7 39bd 3e11 82bc 4110 99bd 8d26 56bd
000002f0: cf21 7d3d b3f4 82bd 23d9 07bd 38e3 d33c
00000300: d0d0 91bd c76f 09bd 44d6 c6bc 7fb1 df3c
00000310: 0a6f 91bd 90f6 b3bc 5166 8ebd 5642 d3bc
00000320: 46c3 533d b4f8 803b ca4d c1bb a3d6 c2bc
00000330: 5750 2dbd 935c 28bd 69c8 88bd 15cc 11bc
00000340: 6703 6b3d 2c28 81bd 4d4c 013c d8df 46bd
00000350: 2032 a23c b131 12bd 4b49 ef3c cebe c03c
00000360: 4ffd 9abc a539 82bc ee1f 473d b4d1 0dbd
00000370: 985b 8a3c ef28 8ebd d7c4 68bd 2725 3f3d
00000380: f7e6 82bc 1f01 633d a830 003d b7f6 433d
00000390: 231c 04bc af97 49bc 80fa 5fbd f923 723d
000003a0: 97ec 67bd a451 3fbc edb6 96bc e244 963c
000003b0: 8861 f33c 8daa 123d 7499 7b3d cc59 733d
000003c0: 599d 1e3a a04c 79bd 6765 e13c 39dd 16bd
000003d0: 4c31 62bd d7f0 8fbb 5a95 493d 59de 443d
000003e0: 2c0f 633c 51f1 ccbc 2808 90bd 0415 343d
000003f0: 01a7 40bd 8dfd d73c 834b 2e3d 0ac7 4f3d
0.050036803 0.021425683 0.036573548 -0.01643119 -0.07364167 -0.042923503 0.009167849 -0.021465639
-0.023900129 0.043046474 -0.02228714 0.019651009 0.014552843 0.015211528 -0.041167714 0.033312123
-0.0308656 -0.04464422 0.05012657 -0.059436485 -0.033238035 0.030941162 0.03425084 0.013102877
-0.061702583 -0.01695156 0.026489807 0.049655735 -0.007383828 0.026212107 0.038712583 0.020125147
0.028011966 -0.049825758 0.0053649866 -0.04020125 0.0046329806 0.0008417452 -0.074985 0.023582062
0.042616427 -0.06911369 -0.044658624 -0.048696548 0.016175184 0.0133711025 0.024958005 0.0044846875
-0.031900804 0.0001600205 -0.039657548 -0.051284 -0.047328778 -0.008633656 0.023383688 0.022152958
-0.0039002267 0.05707233 0.017148027 -0.036007565 -0.072257236 -0.05726938 0.020628165 -0.0032491956
0.024932042 0.0043975636 0.013353299 0.045468774 -0.041827284 0.05053483 -0.022592174 0.053877693
0.027277334 -0.051638056 0.027672835 -0.030323438 0.03229024 -0.037703644 0.058939535 -0.06240161
0.05022361 0.013307407 -0.009663029 0.02873982 -0.010711357 -0.07605584 -0.039167278 0.039380558
0.04073364 -0.07643057 0.026033139 0.05558138 -0.001963751 -0.035029575 -0.041834198 0.04960511
0.036116533 0.05123529 0.04240722 -0.02638051 0.011146855 0.02983028 -0.06313493 -0.057371665
0.04542121 -0.05163906 0.008493433 -0.019458802 0.030546507 -0.07273599 0.017386688 -0.056695934
0.02752124 -0.013748853 0.032358482 -0.0014480015 -0.05913251 -0.012105626 0.042015154 -0.067589246
-0.008984693 0.013262485 -0.048032664 -0.06050463 -0.058066927 -0.05496155 -0.07339945 -0.025107214
-0.0013728313 0.049081977 0.026635319 -0.032387126 -0.0040331036 -0.02426474 -0.06549791 -0.005078229
0.051252168 -0.07470298 -0.030596722 -0.037066706 0.05469251 -0.05973031 0.016695412 -0.068705544
0.029963013 -0.0062823915 0.043788746 -0.0053097163 -0.04821866 -0.04750358 0.005505327 0.03354183
-0.014321257 -0.031841062 0.030170491 -0.055499986 0.0031249034 -0.0550499 -0.04419026 0.028824976
-0.07398735 0.05699127 0.02518636 -0.021974199 0.046888534 -0.06796781 0.021394357 0.044687625
-0.007801933 -0.009113815 -0.072335 -0.07157431 -0.060278997 -0.07367307 -0.03830757 0.040741954
-0.023489384 -0.058339115 0.03710969 -0.03398383 -0.045863677 0.06215691 0.0068335366 -0.0034759676
-0.045326095 -0.015877362 -0.07473803 -0.05228286 0.06179982 -0.06394329 -0.033166062 0.025865182
-0.07119906 -0.033553865 -0.024272092 0.027306316 -0.07101257 -0.021968156 -0.06953109 -0.025788467
0.0516999 0.0039358977 -0.0058991658 -0.023783987 -0.042312946 -0.04110391 -0.0667885 -0.008898755
0.05737629 -0.0630649 0.007891727 -0.048553318 0.019799292 -0.03569192 0.029209753 0.023528483
-0.018919615 -0.015896628 0.048614435 -0.034623817 0.016889378 -0.06941401 -0.056828346 0.04666629
-0.015979273 0.05542099 0.031296402 0.047842707 -0.008063349 -0.012304231 -0.054682255 0.059116337
-0.056622114 -0.0116771795 -0.018397773 0.018343393 0.029709592 0.03580718 0.06142564 0.05941181
0.00060506683 -0.06086409 0.027514173 -0.036832068 -0.055222794 -0.004392724 0.0492147 0.04806361
0.013858598 -0.025017412 -0.07032806 0.043965355 -0.047034267 0.02636602 0.042552482 0.050726928

conv2.bias f4 [16]
00000000: fb83 383d 9e1f cd3c d648 9c3c 1b59 e4bc
00000010: 6621 89bc d515 3bbd 2500 5a3c 79b3 1a3d
00000020: fe9d e83c 84ad 183d 379c 943c b56f 8c3b
00000030: 676a 16bd a5c6 2a3d bd0d 1d3b 91b4 7fbc
0.04504774 0.02503949 0.0190777 -0.02787452 -0.016739558 -0.045675118 0.0133056985 0.037768815
0.028395649 0.037274852 0.018140895 0.0042857775 -0.036722567 0.04169335 0.0023964487 -0.015607015

conv3.weight f4 [32, 16, 3, 3, 3]
00000000: 7ebe be3c 2ca4 fdbc 0e12 e43c 23fc d93c
00000010: 5442 05bd 1c0e 1d3d 924a 443c dcc4 21bd
00000020: f6d4 c1bb 8f21 fabc d15f c4bb 796f 47bd
00000030: 79bb 193c ae33 353d 396d 493b ee38 2e3a
00000040: 3a93 163c ab19 9cbc ecb2 d83c 2a63 b0bb
00000050: 5011 413b 31e4 e63c 5bfd 3ebd d409 743c
00000060: 2431 a23c 79f2 8c3c 2bc5 963b 29ab 03bc
00000070: dce1 d43b d14e cf3b ee10 2abd a476 48bd
00000080: e1da 07bd 4d3f 9dbc 8309 e93c 94ba 013c
00000090: 2b8d d1bc 0e3d 803b daf0 c33b 8748 15bd
000000a0: 8d67 f4bc e967 cabc d4c8 963c d826 deba
000000b0: 9721 023d 0616 043d 03e4 adbc 4a24 563c
000000c0: 30b0 003d 1bb5 39bd be4b 39bc b323 263d
000000d0: 98a1 51bc 7906 e23c 9c3d 4e3d 7452 443c
000000e0: ee43 103d ebe1 c83b 2e80 eebc 570a 0f3c
000000f0: 01ee 803c 3570 ff3c cf11 31bd 3c0b b23c
00000100: 0761 acba 04ed 65bc 3a80 43bd a0b5 f1bc
00000110: 7561 f8bb 81ec dfbc 0702 2b3b 99a9 dfba
00000120: 053b ff3c c8d6 183d 6c7c 2ebc ddf3 89bc
00000130: ba26 a1bc 82c3 13bd 7d0c d8bc 6c23 ad3b
00000140: 8d81 bb3c 0e88 12bd 5440 a93c 5346 1f3d
00000150: a76f d1bc a77e 00bd 88a3 acbc a183 9e3b
00000160: 884c 543c f728 8c3a b637 6b3c e66a 59bd
00000170: a771 3f3d 1d07 283d 22dc 303b bda2 ccbc
00000180: ad92 b9bc 6e58 de3b 60b2 24bc 9545 053c
00000190: 414d 22bd 760c 01bd de03 733c c88e 003d
000001a0: 576e 07bd 54d8 40bd 83b0 223d d3d6 e2bc
000001b0: fa5f 0f3d c846 cd3b 8fd3 dfbc a79d 00bd
000001c0: 544c 193d fc10 4e3d 4a7b e2bb 0f16 9b3b
000001d0: c73b efbc e485 603c fb73 e2bc 2d92 393d
000001e0: 0ee6 aa3c bf38 fe3c cc40 27bd 05bf 5cbd
000001f0: 8027 223c 89cd 5f3c 0ec7 c73c 697e 8a3c
00000200: 47b4 9ebc e0e8 23bc dcd5 123d 153d ef3b
00000210: 32e5 15bd 018d 8fbc 1b32 bbbc 173e 033d
00000220: e337 2bbc 4400 b7bc c98c ccbc d2c0 0b3d
00000230: cea7 a73c 25c3 51bd fbbf 4bbd bad9 a8bb
00000240: 1f04 a5bc b87e f03c 3e51 00bd 3d2e 1c3c
00000250: 616e 4abd 23af 383d 8dc9 d13a ae33 183d
00000260: e9ac 2dbd 34b6 163d 5c53 adbc 2726 24bd
00000270: 9e0c 383d 809e f13c 3e6a cabc c892 efbc
00000280: 29c6 943c d5b9 1936 39e1 01bd 5f89 bebb
00000290: 28bd 35bd 5022 f33c 0cea f73c 9e45 b73b
000002a0: 63cc f8bc 1bcb 02bd a5d0 be3c 93f9 153d
000002b0: 5ffe 083c fdf4 f33c e441 2dbd 6bfd b8bc
000002c0: 232d 933c 5e45 803b 1686 8dbc 5bce 803c
000002d0: 57c2 2bbc b7da 01bd 02b4 383d c048 3cbd
000002e0: 5244 a03b e827 c53b 8e8f 65bd 140e 39bd
000002f0: 9728 d8bc ed1c 95bb 20fa d93c 65e0 01bd
00000300: 8e19 a8bc bdf8 2f3c dcae 18bc 5d09 aebb
00000310: bf3a 1a3c 1199 0ab8 6f80 ffbc 26cd 6ebc
00000320: 77cb f43b 5163 c53b 31ef 453c d720 f8bc
00000330: 5d68 83bb 1b92 033d 5c22 1d3d b3ce 12bc
00000340: 5ff4 a6bc 529d f5bb 0c00 1dbc 38cf 25bd
00000350: 4293 3abd df09 c83c c7bb f8bc bede 823c
00000360: 2de5 bc3c fc89 0e3d 0d9a a3bc c12e 093d
00000370: 533c 8c3c 1ab7 283c 76e4 04bd 0ac3 2b3d
00000380: bb89 e3bc 5432 b03c 58c6 bfbb 3c89 6bbc
00000390: 61bf 32bd 2e3e ffbc 619c 1c3d 596d ab3c
000003a0: 55f9 0fbd fe62 0c3d 5d94 15bd 7f29 073d
000003b0: e590 a6bc 4133 9dbb 2bbe e23c 9bb8 143d
000003c0: 0697 adbc b1b3 29bc c37c 1abc 9f94 713c
000003d0: b9ee 00bd c48d 293d c6fd 6abd 2659 97bc
000003e0: 3cda c33b ce20 023c f03c ce3b 425d a8bc
000003f0: 4c3f 28bc 7f8b 09bc da87 e93c 9903 f13c
0.023284193 -0.030962072 0.02784064 0.026609486 -0.03253396 0.038343534 0.01198067 -0.03949438
-0.0059152795 -0.03053358 -0.0059928675 -0.048690293 0.009383076 0.04423874 0.0030735268 0.00066460564
0.009190375 -0.019055208 0.026452504 -0.005382915 0.0029459782 0.028184982 -0.046628337 0.014894921
0.019798823 0.017205464 0.004601141 -0.008036413 0.006496651 0.0063265343 -0.04152005 -0.04894127
-0.033167724 -0.019195223 0.028446918 0.007918019 -0.02558001 0.0039135283 0.0059796395 -0.03644612
-0.029834533 -0.024707751 0.01840631 -0.0016948832 0.031770315 0.032247566 -0.021226889 0.013070175
0.031418025 -0.04533873 -0.011309562 0.04056139 -0.012794875 0.027590977 0.050351724 0.011982549
0.035221033 0.006130447 -0.029113855 0.008730493 0.01573849 0.031181434 -0.043229874 0.021733873
-0.0013151475 -0.01403356 -0.04772971 -0.02950555 -0.007579977 -0.027334454 0.0026093738 -0.0017064094
0.031156072 0.037314206 -0.010649782 -0.016839916 -0.019671787 -0.036075123 -0.026373142 0.0052837636
0.022888923 -0.035774283 0.020660557 0.038885426 -0.025565935 -0.031370785 -0.021074072 0.0048374687
0.0129577 0.0010693361 0.014356544 -0.053080462 0.046739247 0.04102241 0.0026986678 -0.024979943
-0.022652948 0.006785444 -0.010052294 0.008134265 -0.039624456 -0.031506024 0.014832465 0.031386167
-0.033064213 -0.047081307 0.039719116 -0.027690327 0.03500364 0.0062645413 -0.027322559 -0.03140035
0.037426308 0.050309166 -0.00691167 0.004732854 -0.029203309 0.013703797 -0.027643194 0.04530542
0.020861652 0.031032918 -0.04083328 -0.053893108 0.009897113 0.013659843 0.024386909 0.01690598
-0.019373072 -0.010004252 0.035848483 0.0073009827 -0.03659553 -0.01752329 -0.02285104 0.032041635
-0.010450336 -0.022338994 -0.024969475 0.034119435 0.020465758 -0.051211495 -0.049743634 -0.005152908
-0.020143567 0.0293573 -0.03132748 0.009532508 -0.04942167 0.0450889 0.0016005501 0.03715866
-0.042401228 0.036794856 -0.021157913 -0.040075447 0.044933908 0.029494524 -0.024708863 -0.029244795
0.018160896 2.2906945e-06 -0.03170893 -0.0058147158 -0.044369847 0.029679447 0.03026297 0.005593016
-0.030370897 -0.031931978 0.023292849 0.036614966 0.008361428 0.029779905 -0.042299166 -0.022581777
0.017965859 0.003914519 -0.017275851 0.015723398 -0.010483346 -0.031702723 0.045093544 -0.045967817
0.004890957 0.00601672 -0.056045108 -0.04517944 -0.026386542 -0.0045505674 0.026608527 -0.03170814
-0.020519998 0.010740456 -0.0093190335 -0.005311175 0.00941342 -3.3044318e-05 -0.031189172 -0.014575278
0.007470544 0.0060238023 0.012080953 -0.030289097 -0.004010244 0.03212176 0.038362846 -0.008960414
-0.020380197 -0.0074955607 -0.009582531 -0.040480822 -0.045550592 0.02441877 -0.030362977 0.015975352
0.023058498 0.03479956 -0.019970918 0.033491854 0.017118609 0.010297561 -0.03244444 0.04193405
-0.027775636 0.021508373 -0.005852502 -0.014375981 -0.043639544 -0.03115758 0.038235072 0.020926164
-0.03514989 0.034274094 -0.036518443 0.032998558 -0.020332763 -0.0047973697 0.02767857 0.036308866
-0.021190178 -0.010357783 -0.00942916 0.014744907 -0.031477664 0.041394964 -0.057370923 -0.018475126
0.0059769433 0.007942392 0.0062938854 -0.020552281 -0.010268997 -0.008395075 0.028507162 0.02942066

conv3.bias f4 [32]
00000000: ef40 163c bea8 0fba d139 2fbd fe42 2ebd
00000010: f0a4 e1bc 8237 873c b2cb 61bd ad37 7fbc
00000020: 127c b4bc ac90 1dbd fe6d 88bc 6311 7c3c
00000030: 59e9 9f3c cb00 36bd b364 ad3b a962 5ebc
00000040: 03f6 36bd 19f7 753c 0082 adbc 108d 883c
00000050: 2d88 d23c 13cc a8bc 9070 053b 1f66 39bc
00000060: 2dfe b43c a13d 8fbb 5991 b23a caf0 8f3c
00000070: 93b8 4c3c 318a f0bb 01b8 23bb 09a8 c23c
0.009170755 -0.00054801616 -0.042779747 -0.042544357 -0.027544469 0.01650596 -0.0551259 -0.015577239
-0.022031818 -0.038468048 -0.01665401 0.015385005 0.019520449 -0.04443435 0.0052915453 -0.013573327
-0.04466821 0.015012526 -0.021180153 0.016668826 0.0256997 -0.020605123 0.0020361282 -0.0113158515
0.022093857 -0.0043713604 0.0013623639 0.017570872 0.012495178 -0.0073406924 -0.00249815 0.023761766

fc1.weight f4 [128, 864]
00000000: 244d 0abd 2fdd cabc b5de 32bd 8a3d 873c
00000010: a21b 903c d57a 5dbd e083 1cbc 6750 04bc
00000020: ad1e 12bd 4838 9f3c ae89 51bc b6ef 66bc
00000030: 856e a5bc 007c 5b3d 9d7e e0bb 07b8 d93c
00000040: 3fb8 f43c b637 7fbc 12b2 58bc c845 73bd
00000050: bd52 83bc 584e 163d bbd2 6a3c 2ea1 f2bc
00000060: 5953 1bbd 2af5 4cbc b301 53bd 14b2 29bd
00000070: abc5 dfbc 90dd 22bd a25a 703c 2e62 81bb
00000080: b651 cabc e54d 5dbc 6bac eb3b f0dc 33bd
00000090: de8a e63c de7f b53a 558e 933b 679f a1bc
000000a0: 5612 8cbc 903b 6bbb a2de 073c a2f5 3f3c
000000b0: cdb6 3a3b 4cce ca3b 8659 06bd 037c eabc
000000c0: 7707 9dbc 10f0 3e3b 2056 23bd 6fd4 c63b
000000d0: 6c68 b73c 389f 10bd ba1e 1bbd 882e b7bb
000000e0: ee34 40bc ad48 b3bb e9f8 993c 4d82 3b3c
000000f0: 57e5 e43b 63e6 ecbc bc6a bb3a 0834 78bc
00000100: 4d1e 19bd a204 563b 4071 f7bc 6aa5 0abd
00000110: 21dd a6bc a534 acbb 6e6d fe39 880d e2bc
00000120: c48c 1abd e41f ce3c 8ac5 e33c 4eb5 25bc
00000130: 7746 a73c a588 bb3b 3cea d4bc bcdd cfbc
00000140: ea53 00bc a50e fabc fa0d b83c c6f2 b43c
00000150: d9f8 0ebd 9baa 983c bb20 06bd 2940 8b3c
00000160: 689d 26bc c0ce 483c 5d10 8cbc 0002 87ba
00000170: 6c7b 653c 9486 7fbc e1bc ecbc b6ed d03c
00000180: 015f dbbc acf7 713c e8c9 8ebc 8ebc 71bc
00000190: 0686 043d dc9c c0bc 7828 d2bc 0a75 4fbc
000001a0: 8677 0abd 09b3 05bd c03a 8b3a 6835 a23b
000001b0: 0489 003d dc60 bebc 34d6 e4bc 5f48 1fbd
000001c0: c5fe 543c aeb7 8b3c e885 d8ba 84c6 96bc
000001d0: 76ce 79bc 8646 033c 8184 b3bc 96c4 a9bc
000001e0: 4753 3a3c 808d a8bc 3733 0cbb 189a 43bb
000001f0: 7b24 a23c 089e 0cbd 2a11 5fbc 08e1 283c
00000200: 18b9 c73c 1f92 a83c 690d 713c e4c6 0a3d
00000210: b698 903c 9256 babc 6822 8c3a a727 213c
00000220: f223 72bc be63 c0bc 8ab9 e5bc 8d21 17bd
00000230: 71d1 00bd fdb6 463c b8d5 e33b c71d 66bd
00000240: c29c 4bbc bf0a dbbc d25b 913b d8b7 e33c
00000250: 5844 b63b 2fb3 ae3c 9676 353c 6153 1ebd
00000260: 6a8e 553c 7522 86bc 72f5 6ebc 6783 42bc
00000270: 56a0 c8bc 02c5 db3c 421a 273c 69d7 8abc
00000280: b33f 0abd 4ec1 a73b 290f 93bc 6f72 98bc
00000290: 7403 053d a0f8 363c f481 853c 36e3 e5bc
000002a0: 8f8b b8bc e8b7 babc 44b2 90bc cc37 f0bb
000002b0: 4e38 0a3d 541b ad3c 2c07 943c bcaa 033c
000002c0: 986b 073c a40d 8ebb c0b2 553c f6da 43bc
000002d0: 45fa 8dbc 549a 013d 109f cc3c 2f22 b6bc
000002e0: e456 75bc d4ee d6bb c8f8 b7bc d46b abbb
000002f0: 5a89 8e3c f640 fdbc 4239 0ebd 1893 9a3c
00000300: 260d b33c 3dc4 bdbc 907d 99bb 4f51 a03c
00000310: 881b b4bc d799 63bb a6b1 5fbc 8e77 82bc
00000320: 7cde c93c 9719 aebb 54f7 d4bc 6b1b 803c
00000330: b13c 22bd 14bb a23c 1360 30bd 76c0 423c
00000340: 1cbc 12bd a450 ad3c 7b54 f7bc d342 c03a
00000350: 0798 1dbd 9d82 c8bb 1ac8 d93c 746d 13bc
00000360: c767 5b3c 75ef bdbc 838f fe3c 180d 01bd
00000370: c0f1 e1bc f38d 1d3c 4065 183c 95a8 153c
00000380: 4ad3 05bc d9c4 9fbc 722b 0bbd 5727 3c3c
00000390: 531d 913c 202b 9f39 675b bdbc 50c5 09bd
000003a0: 1940 0bbb c4e0 d1bc 8324 14bc 6fe8 7ebb
000003b0: 1c5d ddbb ccb0 d03c 8c29 a4bb 2899 26bd
000003c0: f265 81bc 4b5a e3bc 586d 7c3c bf08 02bc
000003d0: 25f6 3fbb 421f c2bc d034 ac3c b4c1 0339
000003e0: f67e dbbb 256a 77bc a03e 9a3c 5236 15bd
000003f0: 9b9e de3c 741d 1c3c 63f2 70bc 0521 9dbb
-0.033764973 -0.024763672 -0.04366942 0.016508836 0.017591301 -0.05407222 -0.009552926 -0.00807581
-0.035673786 0.019436017 -0.012789173 -0.0140952375 -0.020194301 0.053585052 -0.006851031 0.026577009
0.029873012 -0.015577247 -0.013226049 -0.05939272 -0.016030664 0.03669581 0.014332469 -0.029617872
-0.037921283 -0.012509624 -0.051515292 -0.041429594 -0.027315935 -0.03976208 0.014670046 -0.0039484715
-0.024697166 -0.013507341 0.0071921847 -0.043911874 0.028142389 0.0013847311 0.0045030513 -0.01972933
-0.017098587 -0.0035893656 0.008292826 0.011716278 0.0028490305 0.0061891433 -0.03280022 -0.028623587
-0.019168599 0.0029134788 -0.039877057 0.0060678045 0.02238866 -0.035308093 -0.0378711 -0.0055902638
-0.011731369 -0.00547131 0.018795447 0.01144464 0.0069853473 -0.02891845 0.0014298777 -0.015149124
-0.037382413 0.003265657 -0.030205369 -0.033849157 -0.020369114 -0.005255299 0.00048528187 -0.027594343
-0.0377319 0.025161691 0.027804155 -0.010114027 0.020419342 0.0057230764 -0.025990598 -0.025374286
-0.007832507 -0.030524561 0.022467602 0.02208842 -0.03490529 0.018636039 -0.032746058 0.016998367
-0.0101693645 0.012256324 -0.017097646 -0.0010300279 0.014006477 -0.015596051 -0.028898658 0.025503974
-0.0267787 0.014768522 -0.01743026 -0.014754428 0.032354377 -0.023512296 -0.025654063 -0.012662182
-0.033805393 -0.032641444 0.0010622367 0.004950214 0.03138067 -0.023239546 -0.027934171 -0.038887378
0.013000195 0.017055359 -0.0016519399 -0.018405207 -0.015246978 0.00801242 -0.021913769 -0.020723622
0.011372394 -0.020575285 -0.002139283 -0.0029846486 0.019792786 -0.034330398 -0.013614932 0.010307558
0.024380252 0.020577488 0.01471267 0.033881083 0.017650943 -0.022746358 0.0010691406 0.009836114
-0.014779078 -0.02348506 -0.028042573 -0.03689723 -0.03144974 0.012128589 0.0069529675 -0.05618074
-0.012427511 -0.026738523 0.0044359947 0.027797624 0.0055623464 0.021325676 0.011075636 -0.038653735
0.013034442 -0.016373852 -0.014584886 -0.011872149 -0.024490517 0.02682734 0.010199131 -0.016948419
-0.033752155 0.0051194793 -0.017951565 -0.018609254 0.032473996 0.011167675 0.016297318 -0.028062444
-0.022527484 -0.022792771 -0.017663129 -0.0073308703 0.033745103 0.021131195 0.018069826 0.008036312
0.008265398 -0.004335122 0.013043106 -0.01195406 -0.017331252 0.03164132 0.02497819 -0.022233097
-0.01497433 -0.0065592322 -0.022457495 -0.00523136 0.017399479 -0.030914765 -0.034722574 0.018868968
0.021856856 -0.023164863 -0.0046841577 0.019570021 -0.021985784 -0.0034729147 -0.0136531945 -0.015926149
0.024642222 -0.005313109 -0.025996841 0.015638074 -0.03960866 0.019864596 -0.043060374 0.011886707
-0.035823926 0.021156617 -0.03019165 0.0014668353 -0.038475063 -0.006119086 0.026584674 -0.008998264
0.013391442 -0.023185471 0.031074291 -0.031506628 -0.027581096 0.009616363 0.009301484 0.009134431
-0.008168051 -0.019503044 -0.03397698 0.011483989 0.017714178 0.00030358974 -0.023114873 -0.033635437
-0.0021247922 -0.025619872 -0.009041908 -0.0038895865 -0.0067554843 0.025474928 -0.0050098356 -0.040673405
-0.015795682 -0.027753016 0.015406929 -0.007936656 -0.0029291 -0.023696546 0.021021277 0.00012565294
-0.0066984845 -0.01510099 0.01882869 -0.036428757 0.027175238 0.009528507 -0.014706227 -0.004795196

fc1.bias f4 [128]
00000000: 5001 f73c 38f7 a03c 3972 82bb d743 1fbd
00000010: a12c f33c 3ecc a5bc a4a4 623c 5cfa 273c
00000020: 56ba d5b9 32a2 06bd 55b8 b0bc a9d7 9f3c
00000030: 4f2c 98bc 4e96 9a3c 98a3 5dbc d9e4 f6bc
00000040: e3bd f23c 7884 a5bb 2465 c43c 51d4 fdbc
00000050: 2cd5 08bd 0455 19bc 7b1e 10bc 220d d63c
00000060: 6c34 f2bc 4fb7 7e3c beba 763c 5198 b03b
00000070: 6364 07bd 27c6 173d 712d 04bd 01e4 633c
00000080: f504 8bbb 1ebd f13c bb9e 273c bb85 02bd
00000090: 2f74 f8bc c884 fdbc a559 903c 27fa 893b
000000a0: 9bf3 6f3c cbbd 503b 2e26 e4bc d110 7f3c
000000b0: d31a 983c b9fc b4bc 1e99 bebb 8646 06bc
000000c0: e9a0 e33c 3383 ef3b 5074 bf38 65aa 93bc
000000d0: 2feb d13a 2ed8 72bc e15d fc39 c35b 38bc
000000e0: 829b 633c 9e3f bfbc f835 38bc 2816 e43c
000000f0: e436 0abd 433f fb3b bc81 4abc 6d2e ef3c
00000100: 5d63 d2bc a706 de3b 6145 a33c dfa6 85bc
00000110: 55b2 34bc 965d 9fbc d8b7 c3bc 2241 d63c
00000120: d771 1d3c e72f 99bc 0e35 f5bc ec46 a0bc
00000130: 21ba cb3c 0f1a 0fbc 8380 b7bb 40dc cabb
00000140: c729 af3b b3ac 5cbb d409 103c f951 93bc
00000150: 0bfd 11bc 1c0c 3c3c bf78 0bbd 26ae cbbb
00000160: 03c8 0abd b34d 893c 9134 fd3b d250 4fbc
00000170: 4591 d53c 8e18 bcbb abbc 0eba ad27 c93c
00000180: 6fba b7bc ec4b 0fbb b13e 4e3c 41f5 51bc
00000190: d83a 893b 7cdb 053c 02ab 553c 9426 b43c
000001a0: 8901 873c 061d e1bc 94c5 5cbc 0df9 92bc
000001b0: 323c afbc ea34 993b d5b1 403b d044 ceba
000001c0: 426d c6bc 9568 54bc eb39 28bc 2474 bfbc
000001d0: e2e1 37bc 1cd2 68bc 1171 1bbd 5ab5 9abc
000001e0: 7242 083c 9ba8 d1bb a7bc 8b3c 5d44 5dbb
000001f0: d244 3dbc 0619 0cbd 0369 c6bc 9eaf b6bc
0.030151993 0.019649133 -0.0039809016 -0.038883056 0.029684367 -0.020238992 0.013833199 0.010252561
-0.00040765357 -0.032869525 -0.021572271 0.019512014 -0.018575815 0.018870499 -0.013527773 -0.03013842
0.02963156 -0.005051192 0.023974009 -0.03098503 -0.03340642 -0.009358648 -0.00879633 0.02612931
-0.029566012 0.015546634 0.015059171 0.0053892513 -0.03305472 0.037054207 -0.0322699 0.013909341
-0.0042425343 0.029509123 0.010230715 -0.031865817 -0.030328838 -0.030947104 0.01762087 0.0042107287
0.014645482 0.0031851407 -0.027850237 0.015567974 0.018567478 -0.022093164 -0.005816593 -0.008195525
0.027786689 0.0073093413 9.1292546e-05 -0.018025586 0.0016015525 -0.014822049 0.0004813513 -0.011252346
0.013892056 -0.023345765 -0.011243336 0.027842596 -0.033743754 0.0076674535 -0.012360033 0.029196942
-0.025682146 0.0067756954 0.019930543 -0.016314922 -0.011028846 -0.019453805 -0.023891374 0.026154105
0.009609661 -0.0186996 -0.029932525 -0.019565068 0.024869027 -0.00873424 -0.0056000366 -0.0061908066
0.0053455564 -0.0033672273 0.008791406 -0.017983424 -0.008910428 0.0114774965 -0.0340507 -0.0062158285
-0.033882152 0.016760683 0.0077272137 -0.012653546 0.026070246 -0.005740232 -0.0005444984 0.024555052
-0.022427766 -0.0021865321 0.012588189 -0.012814821 0.004187923 0.008170005 0.01304126 0.021991052
0.016480224 -0.02747966 -0.013474841 -0.017941022 -0.021391008 0.0046754973 0.002940287 -0.001573706
-0.02422202 -0.012964387 -0.010267715 -0.02337081 -0.011223288 -0.01421025 -0.037949625 -0.018885303
0.008316623 -0.006398273 0.01705773 -0.0033762672 -0.011552053 -0.03420355 -0.024219995 -0.022300538

fc2.weight f4 [2, 128]
00000000: ae71 e6bc 06a8 74ba 3e67 a2bc 33b2 d63c
00000010: 9131 bc3a 91e4 fc3c e332 2d3c 0838 83bc
00000020: dbf4 e73b 134b 813d 11fe a73d 3921 393d
00000030: 1df2 0abd 5b2f 94bc 2122 093d ac0f 84bd
00000040: d331 32bd dee5 903d 1d5f 383d bc48 1dbd
00000050: da75 59bd c75c c5bc e223 3d3c f8cc 153d
00000060: 40d2 eebb 6441 e13c 278a 823d 1b3a 83bd
00000070: d26c 0fbd 0fc0 5bbd 2a06 5dbd 3cd5 093d
00000080: bcf3 8a3d 6eb9 9dbd fa15 f8bc 1adb 473d
00000090: 0681 693d e0eb 6ebb ba34 acbd 2f02 d2bc
000000a0: 966f 90bd cbe0 9f3c f669 263d c9a0 10bd
000000b0: 25f9 963b b59b 85bc 3515 4c3d 5c2d 523d
000000c0: acec d83c 4499 39bc 8598 afba 4393 883d
000000d0: a7ca 76bd de24 853c ee19 1dbd b652 4bbd
000000e0: fb4e 38bd 9fd8 dabc 88b3 35bd e6c0 9d3d
000000f0: fcbe aebd 6b76 8bbd 9c6c 62bd 591b 333d
00000100: 798c 1fbd ec32 08bd 8075 86bd 8226 94bd
00000110: 7f40 c53c 8e96 6fbc 477d be3a ac49 dcbc
00000120: 26c4 debc 92da 0d3b 3bb5 00bd 48ef a6bd
00000130: d95b 36bd 57ea 843d 21a5 c8bc e1b4 a0bd
00000140: f424 52bd 05d6 6b3c 96fb 3e3d 7934 9a3b
00000150: 2d50 26bd f713 80bd d8c1 183b 2569 8e3c
00000160: 36f6 a43d b406 10bd c5fb 653d 5a4e c4bc
00000170: 3597 0fbd af99 b9bc d35f 63bd ad8d 88bc
00000180: 1270 f03b 83c9 8f3d 265a f83c 2ace 863d
00000190: f1c4 2abd 9900 09bd 91aa a63d 1ba6 2b3d
000001a0: c0c7 373d 0e3b bc3c c29c 833d c021 b8bc
000001b0: e7bf 65bd 8e5d 8a3c 307f 483d 522a 0b3d
000001c0: 465e 103d fcb6 79bd 809b 65bd 747f fcbb
000001d0: fa79 08bc 1469 12bd ab9b f9bc 0f5a b83a
000001e0: ca37 a3bd e7f1 fbbc 5831 023d 84c6 173d
000001f0: efad 9c3d bc12 453d f0c8 1ebd 266c b0bd
00000200: d30a 0d3d 58b5 693c 9ddb 453d 2116 13bd
00000210: a1a8 e73c 1002 943d 3fa6 c23b 9ee8 9ebd
00000220: 5da6 56ba 618c 803d cd86 603d 33ae 643d
00000230: 343d fcbc 39fc 3dbc ce6e a43d 29e6 86bb
00000240: 2efb c63b 763b 4f3b ea8f 0bbd 48dd e1bc
00000250: 3b1a f83c b8da 333d f988 10bd 2f97 293d
00000260: 74ee 8a3c 2ac4 3dbc 6a9a 56bd de0f 6fbd
00000270: 1633 303b 7eab b93c 629d 0ebd 0355 373d
00000280: 6e04 213d ec09 11bd a583 febc e819 7dbc
00000290: 3ae6 80bd 74f6 8ebd c077 a1bd e5e2 a33b
000002a0: a500 96bd 7cc8 59bd 68e1 71bd e818 09bd
000002b0: 5ca4 583c 1177 b6bd 594e 483b f572 ecbc
000002c0: e4b2 8f3c 5520 233a 8d8b 1bbd 9431 a43d
000002d0: 1af3 88bc 2b52 943b 9867 8ebd 01b6 64bd
000002e0: 5459 733c 6db5 9f3c 39b3 3ebd 2e4d 993d
000002f0: 8282 40bd 11c5 72bd 6c7a 97bd b5c6 923d
00000300: 2d9b 1e3d 1941 ec3c 7609 2e3c 1571 a6bd
00000310: 0e54 95bd b8da 803d d9fa 80bd 1b8b 8c3d
00000320: 78fc e13b ea13 0b3c 454e ffbc 4546 9f3d
00000330: d31b 1abd 7fb0 2c3c f633 abbd 0c67 943d
00000340: e224 833d 3d89 433d d9c8 223b 2f10 5ebd
00000350: 648c 143d 1341 8bbd 2e3f 473d 6249 873d
00000360: 50b9 93bd 7701 64bd cead fc3c 185e 243d
00000370: b704 fdbc 3120 753d ebe3 dabc a602 c9bc
00000380: b997 f63a f986 2cbb ac7f 33bd 6fb2 a4b9
00000390: 3d0a a9bc 809f 86bb 839a 37bd b5f6 55bd
000003a0: f8e1 69bc 4c29 88ba f841 163d 4a23 2fbd
000003b0: 74d4 31bc f1c2 fb3a 7f76 583d b3e7 d33c
000003c0: acc2 b5bc fec5 b739 168c 4ebd dfd2 dcbc
000003d0: 1b8e 8a3d a870 aabc d777 88ba 5543 83bb
000003e0: 7fbe 82bc ebae f5bb 595e 68bc 7c8c 9bbd
000003f0: 0121 a13d 547b 673d 8c7d 7dbc 2042 90bb
-0.028130379 -0.0009332899 -0.01982462 0.026208019 0.0014358034 0.030870708 0.010571214 -0.016017929
0.0070787496 0.063131474 0.08202756 0.0451977 -0.033922303 -0.018088987 0.033479813 -0.06448302
-0.043504547 0.07075094 0.045012582 -0.038399443 -0.053090908 -0.024092091 0.0115442 0.036572427
-0.0072882473 0.027497001 0.06374007 -0.06407567 -0.03501589 -0.05364996 -0.053960957 0.03365062
0.0678477 -0.077013835 -0.030283917 0.048792936 0.057007812 -0.003645651 -0.08408494 -0.025635807
-0.07052533 0.01951637 0.040628396 -0.035309587 0.004607337 -0.016309598 0.049824912 0.05131279
0.026480041 -0.011328045 -0.0013396895 0.06668713 -0.060251858 0.016252931 -0.038354807 -0.049639426
-0.044997197 -0.026714621 -0.044360667 0.07702808 -0.08532521 -0.06809696 -0.05527936 0.043727253
-0.038952325 -0.033251688 -0.0656538 -0.07233907 0.024078606 -0.014623297 0.0014533185 -0.026890598
-0.02719314 0.002164517 -0.031422835 -0.08151108 -0.044521187 0.06490009 -0.024492802 -0.07847
-0.051304772 0.014394288 0.04662665 0.0047059623 -0.040603805 -0.06253808 0.00233089 0.017384121
0.080547735 -0.035162643 0.05614831 -0.023963142 -0.03505631 -0.02265629 -0.055511307 -0.016669119
0.0073375786 0.07020857 0.030316424 0.065822914 -0.041691724 -0.033447836 0.08138002 0.041906457
0.04486823 0.022977378 0.064263836 -0.02247703 -0.056091215 0.016890313 0.04894942 0.033975907
0.035246156 -0.060965523 -0.0560565 -0.0077056233 -0.008329863 -0.03574474 -0.030469736 0.0014064925
-0.07969625 -0.030754996 0.03178534 0.037054554 0.07650363 0.04811357 -0.038765848 -0.08614378
0.03443415 0.014264427 0.048305143 -0.035909776 0.02827865 0.07226956 0.0059402282 -0.07759212
-0.0008188242 0.06276775 0.054816056 0.05583019 -0.030790903 -0.011595779 0.08028947 -0.0041167927
0.0060724234 0.0031621135 -0.034072794 -0.027571335 0.030285945 0.04390976 -0.035286877 0.041403946
0.016959406 -0.011582414 -0.052393354 -0.05836474 0.0026885918 0.022664782 -0.03481806 0.044758808
0.039310865 -0.035409853 -0.031068632 -0.015448071 -0.06293912 -0.06980601 -0.078841686 0.005001413
-0.07324342 -0.053169712 -0.059052855 -0.033471018 0.01322278 -0.08909429 0.0030564277 -0.02886341
0.017541356 0.00062227744 -0.037974883 0.08017269 -0.016717482 0.0045263967 -0.06953353 -0.055837635
0.01485284 0.01949569 -0.04655764 0.07485424 -0.046999462 -0.05926997 -0.07396397 0.071668066
0.038722206 0.028839635 0.010622373 -0.081270374 -0.07291423 0.06291717 -0.062978454 0.0686247
0.0068965517 0.008488635 -0.031165252 0.07777075 -0.03762419 0.010540127 -0.0835952 0.07246217
0.06403519 0.047738302 0.0024838953 -0.054214653 0.0362667 -0.06799521 0.048644237 0.066057935
-0.0721308 -0.05566546 0.030844595 0.040128797 -0.030886037 0.059845153 -0.026720008 -0.024537396
0.0018813527 -0.0026325567 -0.04382293 -0.0003141346 -0.020634765 -0.0041083694 -0.04482509 -0.05223723
-0.014275067 -0.0010388284 0.036684006 -0.042758264 -0.010853875 0.0019207877 0.05284738 0.025867319
-0.022187553 0.00035051996 -0.050426565 -0.02695602 0.06765386 -0.020805672 -0.0010411692 -0.0040058293
-0.015959976 -0.0074976585 -0.0141826505 -0.07595155 0.07867623 0.0565141 -0.015471827 -0.004402414

fc2.bias f4 [2]
00000000: dba4 d53c 76b9 1c3d
0.026079586 0.038262807
