models/2024-05-10_11-20-04_Model.onnx (onnx, 516192 bytes, 10 tensors)

conv1.weight f4 [8, 1, 3, 3, 3]
0	0x3cca339c	0.024682812
1	0x3d00f717	0.031485643
2	0xbd12bb52	-0.035823174
3	0xbd1bd8d1	-0.03804857
4	0x3e147171	0.144964
5	0x3d834d68	0.064112484
6	0x3e05dce4	0.13072544
7	0x3e389b30	0.1802795
8	0x3d4bd2f9	0.049761746
9	0x3d148810	0.03626257
10	0xbdf4d557	-0.11954754
11	0x3e2ad4ef	0.1668279
12	0xbc8cbae7	-0.017178966
13	0xbd491cca	-0.04909972
14	0xbe1355cb	-0.14388196
15	0x3bf43e56	0.00745372
16	0xbe0432bd	-0.1290998
17	0xbdd1b34b	-0.102392755
18	0xbdf78143	-0.120852016
19	0x3d230720	0.039801717
20	0xbdc95c76	-0.09832089
21	0xbd83a0a9	-0.06427128
22	0x3db775a7	0.08957987
23	0xbe0c3661	-0.13692619
24	0x3e19080d	0.14944477
25	0xbddc3cde	-0.10753797
26	0xbdfc0fce	-0.12307702
27	0x3e3c7340	0.1840334
28	0x3de4a512	0.11164297
29	0x3e0c1b7c	0.1368236
30	0x3ccd12c6	0.025033366
31	0xbdfdd807	-0.123947196
32	0xbdc09720	-0.09403825
33	0xbc1ae975	-0.009455075
34	0xbc0182c7	-0.007904715
35	0x3db250d8	0.08706826
36	0xbdd87edd	-0.10571072
37	0xbc949848	-0.01813902
38	0xbd6a1395	-0.05714758
39	0x3e08f372	0.13374117
40	0xbdf61e7f	-0.120175354
41	0x3d4f0eeb	0.050551336
42	0x3d091c76	0.033474408
43	0x3e13b481	0.14424326
44	0x3dd69047	0.104767375
45	0xbd8bc500	-0.06824684
46	0x3d31037b	0.04321621
47	0xbd5775fb	-0.05260275
48	0x3cc99571	0.024607392
49	0xbe29caee	-0.16581318
50	0x3d73bbb5	0.059505183
51	0xbe2d57a3	-0.16927962
52	0x3e0ff432	0.14057997
53	0x3d763bd6	0.060115658
54	0x3ce2d00e	0.027687099
55	0xbe177e72	-0.14794329
56	0x3d9ed219	0.07754917
57	0x3dabd829	0.08390839
58	0xbdae9bb3	-0.08525791
59	0xbe17d28e	-0.14826414
60	0xbca43d84	-0.020048864
61	0xbe121ebd	-0.14269538
62	0xbe3e15b4	-0.18562967
63	0x3dcb9f83	0.09942534
64	0x3dce692b	0.10078653
65	0xbcc7c7da	-0.024387289
66	0x3d941bee	0.0723189
67	0xbe0ffba1	-0.14060833
68	0x3dd4386b	0.103623234
69	0xbe391dce	-0.18077776
70	0xbe077941	-0.13229848
71	0xbcb735a4	-0.022364445
72	0x3e43140a	0.19050613
73	0x3debda04	0.115161926
74	0xbdb5cc4c	-0.08876857
75	0x3d4b0fc3	0.04957558
76	0xbe4006e0	-0.18752623
77	0xbd54b540	-0.051930666
78	0x3e3292e1	0.17438842
79	0xbe32a689	-0.1744634
80	0xbd87fa3d	-0.06639526
81	0x3dfad093	0.122468136
82	0xbd62949c	-0.055317506
83	0xbdeab102	-0.11459543
84	0xbd4f5a4e	-0.05062323
85	0x3d251d60	0.040311217
86	0x3cb93ac4	0.02261103
87	0xbd313b53	-0.043269467
88	0xbd930a51	-0.07179702
89	0x3e251d25	0.16124399
90	0x3d12a477	0.035801377
91	0x3d30eaa1	0.04319251
92	0x3e1c8c0c	0.15287799
93	0xbdd2d916	-0.10295312
94	0x3e243f30	0.16039729
95	0xbcd29e3f	-0.025710223
96	0x3e0f45f5	0.1399153
97	0xbdbffb76	-0.09374134
98	0xbd1445d0	-0.03619939
99	0xbe05601c	-0.13024944
100	0xbdea0e43	-0.114285015
101	0x3d9fa1e6	0.077945516
102	0xbc7d9afc	-0.015478846
103	0xbcac7429	-0.021051483
104	0x3d91c3b0	0.071174026
105	0xbd5bc93b	-0.053658705
106	0xbddeb4ff	-0.10874366
107	0x3e0801d3	0.13281946
108	0x3d8f865f	0.07008051
109	0xbd6d2f70	-0.057906568
110	0xbe2f651d	-0.17128415
111	0x3e362ddd	0.17790933
112	0x3e2cd23b	0.16877072
113	0x3c41f256	0.011837563
114	0x3e15e087	0.14636432
115	0x3d971717	0.07377451
116	0x3e2744f3	0.16334896
117	0x3dcd8014	0.100341946
118	0xbe04c6cc	-0.1296646
119	0xbc3ecd35	-0.011645605
120	0xbe369566	-0.17830428
121	0xbc6274ce	-0.013821794
122	0xbcd50bf6	-0.02600668
123	0x3d1acb26	0.037791394
124	0x3e078e15	0.13237794
125	0xbe205468	-0.15657198
126	0xbd97e376	-0.074164316
127	0x3e10d1b8	0.14142501
128	0x3cd26a1f	0.025685368
129	0xbdc6beef	-0.097043864
130	0xbe400cb2	-0.18754843
131	0x3de7b611	0.11314023
132	0xbdc2ce3e	-0.09511994
133	0xbe0bad5b	-0.13640349
134	0x3cf1586a	0.029461104
135	0x3e37a596	0.1793426
136	0xbe178add	-0.14799066
137	0x3c972452	0.018449936
138	0xbe2fa8f2	-0.17154291
139	0xbbd094f9	-0.006365415
140	0xbdb73ec3	-0.08947518
141	0x3de464b4	0.1115202
142	0xbdc27b1a	-0.09496136
143	0x3d8777a6	0.06614618
144	0xbe417b95	-0.18894799
145	0xbd7d953c	-0.0619099
146	0xbdf11ea1	-0.1177342
147	0xbddb8b7d	-0.10719965
148	0xbdb9362f	-0.09043538
149	0xbdaac4f8	-0.0833835
150	0xbe0919a4	-0.13388687
151	0xbda91305	-0.08255581
152	0x3d301efb	0.042998295
153	0x3e3a1f9f	0.18176125
154	0xbdffb605	-0.12485889
155	0x3e1a52f5	0.15070708
156	0x3e17fd75	0.1484278
157	0xbe42db6c	-0.19029015
158	0x3d7928d1	0.06082994
159	0xbe1d1474	-0.15339833
160	0xbe3d4bc7	-0.18485938
161	0xbd8acc4a	-0.06777246
162	0x3e321c4e	0.1739361
163	0xbe17e42c	-0.14833134
164	0xbd04ab31	-0.032389823
165	0xbe058406	-0.13038644
166	0x3debd371	0.115149386
167	0x3e05e04d	0.13073845
168	0xbe143b89	-0.14475836
169	0xbcb2c0fb	-0.021820536
170	0xbe209472	-0.15681627
171	0xbe3312b9	-0.17487611
172	0xbe0a9ba4	-0.13535935
173	0x3e038417	0.12843357
174	0xbe287407	-0.16450511
175	0xbe121547	-0.14265929
176	0x3d8efff1	0.06982411
177	0x3df526e8	0.119703114
178	0xbe2c137a	-0.16804305
179	0xbbb2a587	-0.0054518613
180	0xbe3b816d	-0.18311091
181	0xbd4b91d0	-0.049699605
182	0xbdb37a1b	-0.08763524
183	0xbd7cc947	-0.06171539
184	0x3e2aefb9	0.1669301
185	0x3db5aa2c	0.08870348
186	0xbcfa7925	-0.030575344
187	0x3e3b2455	0.18275578
188	0xbc2887c6	-0.010286277
189	0xbd42612e	-0.04745596
190	0x3deaa67b	0.11457535
191	0xbdcd5d26	-0.10027532
192	0x3dfa4792	0.12220682
193	0x3dc6ced4	0.09707418
194	0xbe0cd13d	-0.13751693
195	0xbd766d08	-0.060162574
196	0xbe1522bf	-0.14564036
197	0x3e3fe531	0.18739773
198	0xbdce6850	-0.1007849
199	0x3d9226d8	0.07136315
200	0x3d778a64	0.060434714
201	0xbddf1619	-0.10892887
202	0x3d6f54d4	0.058430508
203	0x3d7664a6	0.06015458
204	0x3d1c9799	0.038230512
205	0x3e0ef39d	0.13960119
206	0xbc6e8c61	-0.014559836
207	0xbdb5ceb3	-0.08877315
208	0x3e38c164	0.18042523
209	0x3d86b47a	0.06577392
210	0x3dae42e0	0.08508849
211	0xbd968b76	-0.07350819
212	0x3dd83b30	0.10558164
213	0xbe06ff87	-0.13183413
214	0x3e2b26b1	0.16713978
215	0xbe38b80d	-0.1803896

conv1.bias f4 [8]
0	0x3e2db87f	0.16964911
1	0xbe3ba925	-0.18326242
2	0x3d652fd4	0.055953816
3	0xbdfd3cab	-0.12365087
4	0xbdcb94c8	-0.09940487
5	0xbbd85915	-0.0066024163
6	0xbe1b0046	-0.15136823
7	0xbc9f8689	-0.019473331

conv2.weight f4 [16, 8, 3, 3, 3]
0	0xbd45f714	-0.048331335
1	0xbc5070fc	-0.01272225
2	0x3b9c5e93	0.0047720163
3	0x3ba36096	0.004985879
4	0xbbbbea1e	-0.005734696
5	0x3d2f7ed5	0.042845566
6	0x3d129368	0.03578511
7	0x3d8aa034	0.067688376
8	0x3d926c7c	0.07149598
9	0xbcd63fce	-0.026153471
10	0xbd1dcdf6	-0.038526498
11	0xbd448d30	-0.04798621
12	0xbb5f7256	-0.003409525
13	0x3d4780b2	0.048706718
14	0xbd55e024	-0.05221571
15	0x3ce55b5d	0.027997667
16	0xbc5e4dd7	-0.013568363
17	0x3d18d997	0.037316885
18	0xbd5aaf6a	-0.053389944
19	0xbd82f8d3	-0.06395116
20	0x3d115a8e	0.03548675
21	0xbd38103a	-0.04493735
22	0xbc95bedd	-0.018279487
23	0xbd806da1	-0.0627091
24	0x3ca1988b	0.019726058
25	0x3d814a8a	0.06313045
26	0x3d77787b	0.060417634
27	0x3d44cfab	0.04804961
28	0xbac0f7f0	-0.0014722329
29	0x3d4d7149	0.050156865
30	0xbcf9cd2b	-0.03049334
31	0x3d5c71a1	0.053819302
32	0x3c92da92	0.017926488
33	0xbadb5405	-0.0016733414
34	0x3c1f4e14	0.009723205
35	0xbc01a2dd	-0.007912365
36	0x3d1f9138	0.03895685
37	0xbd07ae06	-0.033124946
38	0xbd14243a	-0.03616736
39	0xbd4757e3	-0.0486678
40	0x3d7ce263	0.061739337
41	0x3d8a5bbd	0.06755779
42	0xbce3e9f4	-0.027821518
43	0xbc0bc580	-0.008530974
44	0xbcaaaf3e	-0.020835515
45	0xbd4d4baa	-0.050120987
46	0xbc8c414a	-0.017120976
47	0x3d0732e3	0.033007514
48	0xbaf82c34	-0.0018934072
49	0xbd00b9b0	-0.031427085
50	0xbd23bb44	-0.039973512
51	0xbcc56d18	-0.024099872
52	0x3d2d81aa	0.042359985
53	0x3d7492c4	0.05971028
54	0x3ca02e3e	0.0195533
55	0x3cac7cb3	0.021055555
56	0xbd41361d	-0.047170747
57	0xbd4076eb	-0.04698841
58	0xbd413710	-0.047171652
59	0x3d8aff0e	0.06786929
60	0xbc148704	-0.009065393
61	0x3ccddc76	0.025129538
62	0xbd5caf2c	-0.053877994
63	0xbd279acd	-0.040919114
64	0x3b9cbf89	0.004783575
65	0xbd6320f1	-0.055451337
66	0x3d492772	0.049109884
67	0x3d6c358c	0.057668254
68	0xbd2ce7b4	-0.042213157
69	0x3cff66e4	0.031176992
70	0x3d1ff3a8	0.039050728
71	0xba48f7d4	-0.0007666324
72	0x3d5c2b00	0.053751945
73	0xbb0b8b3a	-0.0021292702
74	0xbd6ec03a	-0.05828879
75	0x3d7bce41	0.061475996
76	0x3be358d1	0.006938078
77	0xbc53508a	-0.01289762
78	0xbd386529	-0.04501835
79	0x3d16c6d9	0.03681073
80	0xbd82f018	-0.063934505
81	0x3d4888b5	0.0489585
82	0xbd16fb6b	-0.036860865
83	0x3d0d69fb	0.0345249
84	0x3c005730	0.007833287
85	0xbd3dbc33	-0.04632206
86	0xbcd0ec85	-0.025503406
87	0xbd576a66	-0.052591704
88	0x3d62afd5	0.055343468
89	0xbcb9de64	-0.022689052
90	0x3d563eaa	0.052305855
91	0xbcc92d4d	-0.024557734
92	0x3ca2035b	0.01977699
93	0xbb85c022	-0.004081742
94	0x3d808859	0.06276006
95	0x3cb4b7b3	0.02206025
96	0x3c059193	0.008152383
97	0xbd773dae	-0.060361557
98	0xbd636beb	-0.05552284
99	0xbd201517	-0.039082613
100	0xbd195268	-0.037432104
101	0xbca04168	-0.019562438
102	0xbd300d06	-0.04298117
103	0xbcc4ffdf	-0.02404779
104	0xbc7e2132	-0.015510844
105	0xbd194dbf	-0.03742766
106	0x3ca9b814	0.020717658
107	0xbd4fec79	-0.050762627
108	0xbc74290b	-0.0149023635
109	0x3d52ae11	0.051435534
110	0xbc12c831	-0.008958862
111	0xbbe035e4	-0.0068423618
112	0xbd88898d	-0.06666861
113	0x3bd356c0	0.0064495504
114	0xbd31b355	-0.043383915
115	0xbc6d2532	-0.0144742
116	0xbc20d06f	-0.009815319
117	0x3d195af4	0.037440255
118	0x3d58f09d	0.05296384
119	0x3d467c95	0.048458654
120	0xbbc01c74	-0.005862767
121	0xbd7d47ff	-0.06183624
122	0x3cf28811	0.029605897
123	0x3d6420be	0.055695288
124	0xbd525a6d	-0.051355768
125	0xbbf94cf8	-0.0076080523
126	0x3be4eca4	0.0069862176
127	0x3d64c2f6	0.05584999
128	0xbd4c4935	-0.049874503
129	0x3c61d0c9	0.013782688
130	0xbbf82065	-0.007572221
131	0x3a8ff0df	0.0010981819
132	0x3c2aefb9	0.010433131
133	0x3ca96bf8	0.020681366
134	0x3c8dcc11	0.01730922
135	0x3d367b8c	0.044551417
136	0xbc174212	-0.009232061
137	0x3d4e2ee1	0.050337676
138	0x3d686872	0.05674023
139	0xbd67b294	-0.05656679
140	0x3d299c49	0.04140881
141	0xbc96c6fd	-0.018405432
142	0x3d133c09	0.035945926
143	0xba73ca53	-0.0009299863
144	0xbd021bba	-0.031764723
145	0x3b858b23	0.0040754243
146	0x3c26776c	0.010160308
147	0x3ac2f910	0.0014875252
148	0xbd023c42	-0.031795748
149	0x3cddb62e	0.02706441
150	0xbca3e3bf	-0.020006059
151	0xbd5bda07	-0.053674724
152	0x3a75b538	0.0009373012
153	0xbd50159b	-0.050801855
154	0xbce1267a	-0.027484167
155	0xbd78aedf	-0.060713645
156	0x3d6bcd82	0.057569034
157	0x3b4af4c4	0.0030968646
158	0xbc95c14f	-0.018280653
159	0xbc45f0af	-0.012081309
160	0xbd816c95	-0.063195385
161	0x3c12281e	0.0089206975
162	0xbd5b1353	-0.053485226
163	0xbcfaf1ce	-0.03063288
164	0x3d8a5087	0.067536406
165	0xbcd4e568	-0.025988296
166	0xbd673e56	-0.056455933
167	0x3c860248	0.01635851
168	0xbd81a5fb	-0.063304864
169	0xbcc82e1e	-0.024436053
170	0x3d33eb68	0.043925673
171	0x3d807937	0.0627312
172	0x3c202c4d	0.009776187
173	0x3b73be3c	0.0037192246
174	0xbaa9c4ef	-0.0012952368
175	0x3d8bfdd3	0.068355225
176	0x3d8e470b	0.06947144
177	0x3c0f383b	0.008741434
178	0xbd33b574	-0.04387422
179	0x3d01817b	0.031617623
180	0xbc4b6af7	-0.012415639
181	0x3d681b30	0.056666553
182	0xbc891adc	-0.01673644
183	0xbc4bb48b	-0.0124331815
184	0xbd08ad80	-0.033368587
185	0xbd6231c9	-0.05522326
186	0x3cecf347	0.028924597
187	0x3d3ae693	0.04563005
188	0xbcdb475a	-0.026767422
189	0x3d88f62c	0.066875786
190	0x3d202819	0.03910074
191	0xbd30721f	-0.043077584
192	0x3d001c0d	0.03127675
193	0xbd62c17b	-0.0553603
194	0x3d294bb8	0.041331977
195	0xbd2fc5ee	-0.04291337
196	0x3d1d18a7	0.03835359
197	0xbce98dc1	-0.028509976
198	0xbcd14f8e	-0.02555063
199	0xbd3fbdae	-0.046811752
200	0x3d3d606f	0.046234544
201	0xbd0d1a7c	-0.034449086
202	0xbd6ebd1e	-0.058285825
203	0x3d110e95	0.035414297
204	0x3c1ccbfa	0.009570116
205	0xbd48c974	-0.049020246
206	0x3ca3753d	0.019953365
207	0x3cc01701	0.02344847
208	0x3d2f59e1	0.042810325
209	0x3bda779c	0.0066670906
210	0xbc8d4163	-0.017243093
211	0xbc9383db	-0.01800721
212	0xbc15af03	-0.009135964
213	0x3c348c1e	0.011019735
214	0xbd159b92	-0.036525317
215	0x3cad6dbb	0.021170488
216	0xbcf263a4	-0.029588528
217	0xbb61cfad	-0.003445606
218	0xbd498b32	-0.049205013
219	0x3a8496a1	0.0010115692
220	0xbbfb3d43	-0.007667215
221	0xbc81f3c7	-0.015863312
222	0x3d29029a	0.041262247
223	0x3d535141	0.05159116
224	0xbd59a24f	-0.053133305
225	0x3cdb9738	0.026805505
226	0x3d5d622c	0.054048702
227	0x3cd4150e	0.025888946
228	0x3d2477f0	0.040153444
229	0x3d38d224	0.04512228
230	0x3c9bf3fb	0.019037237
231	0xbc508a6e	-0.012728317
232	0xbd453450	-0.048145592
233	0xbd07dfb5	-0.033172328
234	0xbd03ee3c	-0.03220962
235	0x3d3652df	0.044512626
236	0xbcd064e1	-0.025438728
237	0x39d7e5b0	0.00041179126
238	0x3ccd7024	0.025077887
239	0xbc7c8ad2	-0.015413957
240	0x3c837494	0.0160468
241	0x3d35d8b4	0.044396117
242	0xbd5c1612	-0.053731985
243	0xbc9e5e20	-0.019331992
244	0x3d88ac3b	0.06673475
245	0x3d76fc41	0.06029916
246	0x3d2d3d3f	0.042294737
247	0x3cfa1942	0.030529622
248	0xbc89026a	-0.016724784
249	0xbd6efb12	-0.058344908
250	0xbbd6c273	-0.006553942
251	0xbd334d89	-0.043775115
252	0x3d241359	0.040057514
253	0xbd81edf5	-0.06344215
254	0x3c8a696b	0.01689597
255	0x3d32b102	0.04362584

conv2.bias f4 [16]
0	0xbd0b8e2e	-0.03407114
1	0xbc21eeab	-0.009883563
2	0xbc44782f	-0.011991545
3	0x3aa7314b	0.0012755779
4	0x3d25404a	0.040344514
5	0x3d5ceed8	0.053938717
6	0xbc4dd965	-0.012564038
7	0xbd0fd0f0	-0.035111368
8	0x3d3fd055	0.04682954
9	0x3ce02ce5	0.027365157
10	0xbd817466	-0.06321029
11	0x3cbde7de	0.023181852
12	0xbc1ce6e4	-0.009576533
13	0xbd4a08ea	-0.049324907
14	0x3cbe4c94	0.023229875
15	0x3d52f960	0.051507354

conv3.weight f4 [32, 16, 3, 3, 3]
0	0xbce28623	-0.027651852
1	0xbc876f62	-0.016532604
2	0x3c98f1ba	0.018669952
3	0xbc28da5d	-0.010305968
4	0xbc691ab3	-0.014227557
5	0x3d00ef1a	0.031478025
6	0x3cbd2f9e	0.023093995
7	0x3bc2168a	0.005923097
8	0x3cdbceff	0.026832102
9	0x3d32cc2b	0.04365174
10	0x3d15132c	0.036395237
11	0xbd110649	-0.035406385
12	0xbce59c93	-0.028028762
13	0xbc2aee08	-0.010432728
14	0x3c01f8c4	0.0079328455
15	0x3d23212e	0.039826564
16	0xbd20c4dc	-0.03925024
17	0xbcbad7fc	-0.022808068
18	0xbd408c00	-0.047008514
19	0xbd0bd187	-0.034135368
20	0x3bcfdd62	0.0063435296
21	0x3bc2a87b	0.0059404946
22	0x3d0c4d22	0.034253247
23	0x3b70030c	0.003662291
24	0xbd0e1725	-0.03469004
25	0x3cc09fb3	0.02351365
26	0xbc3522ae	-0.011055632
27	0x3d53e2fc	0.05173014
28	0x3cefe370	0.029283255
29	0xbd053eb0	-0.032530487
30	0x3b74eef8	0.0037373882
31	0x3cdc4141	0.026886584
32	0x3d14dbca	0.03634242
33	0x3b43653f	0.0029814986
34	0x3cb62f48	0.022239342
35	0x3c24110f	0.010013833
36	0x3d3bde80	0.04586649
37	0x3bef957f	0.0073115225
38	0x3c3c5403	0.011494639
39	0x3c66f427	0.014096296
40	0xbcada17c	-0.021195166
41	0x3d2d94ec	0.04237835
42	0x3cdd2847	0.026996745
43	0x3d1045f9	0.03522298
44	0xbbd49b1a	-0.006488216
45	0xbd033d0d	-0.032040644
46	0x3d4110c3	0.047135126
47	0x3d190972	0.037362523
48	0xbaf150fa	-0.0018410974
49	0xbc6d7f08	-0.014495619
50	0x3d2c734c	0.042102143
51	0x3c375772	0.011190282
52	0x3c57e627	0.013177431
53	0x3a97ad65	0.0011572061
54	0xbd24b639	-0.040212844
55	0x3c43924d	0.011936736
56	0xbbed2450	-0.007236995
57	0xbd05f229	-0.032701645
58	0x3cf809c0	0.030278087
59	0x3c9929a1	0.018696608
60	0xbc4bf1cf	-0.012447788
61	0xba28527a	-0.00064209814
62	0x3c088c54	0.008334238
63	0x3d0f2b76	0.034953557
64	0x3c47ee67	0.012202836
65	0xbd206411	-0.03915793
66	0x3ca60123	0.020264214
67	0xbd212437	-0.039341178
68	0xbc8beaac	-0.017079674
69	0xbcef828b	-0.029237052
70	0xbced70e8	-0.028984502
71	0x3be09efa	0.006854889
72	0xbd139754	-0.03603299
73	0x3ce7f442	0.028314713
74	0xbb58ed1e	-0.0033100317
75	0x3d2aca22	0.041696675
76	0x3bdf13e8	0.006807793
77	0x3d134cfa	0.035962082
78	0x3c1e0665	0.009645079
79	0x3caf3e86	0.021392118
80	0xbc9b4346	-0.018952977
81	0x3d110544	0.035405412
82	0x3d1ca576	0.038243733
83	0x3a3462d6	0.0006881183
84	0x3bbfa36f	0.00584834
85	0x3d1a787d	0.037712563
86	0xbcd9f428	-0.02660568
87	0xbd326b7e	-0.043559544
88	0xbcf03da3	-0.029326266
89	0x3c998f52	0.018745098
90	0xbcd0f551	-0.025507601
91	0x3c9d3b27	0.019193245
92	0xbd2c0080	-0.041992664
93	0x3d01529c	0.031572923
94	0x3d1f9c5e	0.038967483
95	0xbb6a2970	-0.0035730265
96	0x3d286361	0.0411104
97	0x3c88b8f3	0.016689753
98	0xbb944b4e	-0.0045255786
99	0xbb0c7d49	-0.002143698
100	0x3babc22c	0.005241653
101	0xbce42b3c	-0.027852647
102	0x3d2ea574	0.042638257
103	0x3c22dd0c	0.009940397
104	0x3cd9a2c1	0.026566865
105	0x3d25d25a	0.04048381
106	0xbd1dc35f	-0.0385164
107	0x3d25c349	0.04046944
108	0xbcee70b4	-0.029106475
109	0x3d03782e	0.032097034
110	0xbc7ef56e	-0.015561445
111	0xbc1a11c6	-0.009403652
112	0xbcd9c2e1	-0.026582183
113	0x3ca587f5	0.02020643
114	0xbcd33c44	-0.025785573
115	0xbcc2f336	-0.023797613
116	0xbbf20256	-0.0073855324
117	0xbc1a0f50	-0.009403065
118	0xbd238bc9	-0.03992823
119	0xbceef0d1	-0.029167565
120	0x3c954087	0.018219246
121	0xbbfd5b7f	-0.0077318544
122	0xbc2b5690	-0.01045765
123	0xbcfd2348	-0.030900612
124	0x3d4ac3ee	0.04950326
125	0x3cca67a9	0.024707632
126	0xbd241b82	-0.040065296
127	0x3c939b8d	0.018018508
128	0xb946269f	-0.00018897139
129	0x3ce0dd1b	0.027449181
130	0xbc4eba0c	-0.012617599
131	0x3cc378f2	0.023861382
132	0xbd07cb33	-0.03315277
133	0x3d0fd2e2	0.035113223
134	0x3af2fffb	0.0018539423
135	0xbd21103e	-0.03932213
136	0xbca46559	-0.020067858
137	0x3d48c16d	0.04901259
138	0x3b5751e9	0.0032855219
139	0x3cfaa684	0.030596979
140	0x3cc8199d	0.024426276
141	0xbce7af5f	-0.028281866
142	0x3d2067ea	0.0391616
143	0x3cf7773c	0.030208223
144	0xbcfb424a	-0.030671258
145	0x3d518a5f	0.05115735
146	0x3a8db91f	0.0010812617
147	0x3ce7bc38	0.028287992
148	0xbccf6b2c	-0.025319658
149	0x3cecf5e0	0.028925836
150	0x3d0f14e1	0.03493202
151	0x3bb594f6	0.005541439
152	0xbabfe9fe	-0.0014641879
153	0xbce6b1c4	-0.028160937
154	0xbcc16220	-0.02360636
155	0xbd071ba9	-0.032985363
156	0xbac802f8	-0.0015259674
157	0x3c8bb66f	0.017054765
158	0x3c2b13e2	0.010441752
159	0x3d4911ad	0.049089123
160	0xbd0bf61c	-0.034170255
161	0xbc93c48b	-0.018038055
162	0xbb91a7c6	-0.004445049
163	0xbc658b21	-0.014010222
164	0xbd28e69e	-0.04123556
165	0xbc65891f	-0.014009743
166	0x3d1cb2bd	0.038256396
167	0x3ce632fd	0.028100485
168	0xbd089341	-0.033343557
169	0x3cd4dbbf	0.02598369
170	0x3c463ac9	0.012098976
171	0x3be1126f	0.0068686525
172	0xbcd5a29c	-0.026078515
173	0xbc9e50f3	-0.019325709
174	0x3cc26c92	0.023733411
175	0x3cd93ed0	0.02651921
176	0x3d2cf76d	0.04222815
177	0x3d38e643	0.04514147
178	0x3cf7f5e2	0.030268613
179	0xbb15f751	-0.0022883008
180	0xbcc79d45	-0.024366984
181	0xbd4c4d27	-0.049878266
182	0x3d238515	0.03992184
183	0x3d192815	0.03739174
184	0x3c63f515	0.013913413
185	0xbd2690a1	-0.040665273
186	0xbc67ea33	-0.014154959
187	0x3ca2bb22	0.019864623
188	0xbcd159a5	-0.025555441
189	0xbc07e72b	-0.008294861
190	0x3d0e5f69	0.03475896
191	0x3c6d2145	0.014473264
192	0xbc88bebb	-0.01669251
193	0xbcf2acd4	-0.029623426
194	0x3ce21f5e	0.027602848
195	0xbc416146	-0.011802977
196	0x3cbd8d6e	0.023138728
197	0x3cec0d66	0.028814983
198	0xbcdef63a	-0.02721702
199	0x3c6fb4db	0.014630522
200	0xbbc2aa62	-0.0059407214
201	0xbb19e614	-0.0023483085
202	0xbd11d819	-0.035606477
203	0x39820cc1	0.00024805035
204	0xbc678a5f	-0.014132111
205	0x3c90fe4c	0.017699383
206	0xbcb2ac56	-0.021810692
207	0xbc991122	-0.018684927
208	0xbd2ed3c1	-0.042682413
209	0xbcc119f0	-0.023571938
210	0xbd154cea	-0.036450304
211	0x3cb174ce	0.021662142
212	0x3c5b8760	0.013398975
213	0xbd3f24ad	-0.046665836
214	0x3bde6d44	0.006787928
215	0x3b9c7e19	0.004775774
216	0x3ca4b9a2	0.020108048
217	0x3d023614	0.031789854
218	0x3ccc0ab0	0.02490744
219	0xbc96aa4e	-0.018391754
220	0x3c8739c3	0.016507035
221	0x3d2b806b	0.041870516
222	0xbbc189c6	-0.0059063165
223	0xbb6d37ef	-0.003619667
224	0xbd0f5f07	-0.035002735
225	0x3c418ee5	0.011813854
226	0x3c5411ba	0.0129436795
227	0xbbc2cbb7	-0.005944695
228	0xbc83826a	-0.016053397
229	0x3cea41b9	0.028595792
230	0x3d4486aa	0.04797999
231	0xbcb1cd0c	-0.02170422
232	0x3c38ade5	0.011271928
233	0x3bea1b8c	0.007144397
234	0x3bdeaa1c	0.006795181
235	0x3cd9c7ce	0.026584532
236	0xbd19163f	-0.03737473
237	0xbcbd2ea4	-0.023093529
238	0xbc993786	-0.018703233
239	0xbc839940	-0.016064286
240	0xbc7f9711	-0.015599982
241	0xbce2b577	-0.02767442
242	0xbc321c6a	-0.010871032
243	0x3d3c4da7	0.045972493
244	0x3ced4a9e	0.028966244
245	0xbc066008	-0.008201607
246	0x3cf909ce	0.030400183
247	0x3a03486f	0.0005008047
248	0x3d054a65	0.03254165
249	0x3cf21790	0.029552251
250	0x3bce054a	0.0062872516
251	0xbd252da4	-0.04032673
252	0xbcf31300	-0.029672146
253	0x3d0bf1cb	0.03416614
254	0xbbc0e0bf	-0.005886167
255	0xbd176a97	-0.036966886

conv3.bias f4 [32]
0	0x3d061218	0.0327321
1	0xbc3ef168	-0.011654235
2	0x3c0dcb73	0.008654463
3	0x3c3f09c1	0.01166004
4	0xbca06fff	-0.019584654
5	0xbd1395f2	-0.03603167
6	0x3d5322e8	0.05154696
7	0x3c8ee83a	0.017444719
8	0x3d2b2b23	0.041789185
9	0xbcbcc44a	-0.023042817
10	0x3d0736f9	0.03301141
11	0xbb1aa3b5	-0.0023596112
12	0x3c7c65e3	0.015405151
13	0x3bcef60e	0.006315953
14	0xbc08153a	-0.008305842
15	0xbd25d202	-0.040483482
16	0x3c44f6c4	0.012021724
17	0xbc978aab	-0.01849874
18	0x3d35bd46	0.04436996
19	0x3c30e7f5	0.01079749
20	0xbd107405	-0.035266895
21	0x3d113824	0.03545393
22	0xbcfb34c0	-0.030664802
23	0x3c31f825	0.010862385
24	0xbbe5d3c1	-0.0070137684
25	0x3ccfa134	0.025345422
26	0xbbe6345e	-0.0070252856
27	0x3c87debd	0.016585702
28	0x3d3e064d	0.046392728
29	0xba8259ae	-0.000994494
30	0xbc266c6e	-0.010157688
31	0x3ad09dfb	0.0015916222

fc1.weight f4 [128, 864]
0	0xbc69d46d	-0.014271838
1	0xbcd09938	-0.025463685
2	0xbce0beda	-0.027434755
3	0x3cab15fc	0.020884506
4	0xbbb8270e	-0.00561989
5	0x3bed583c	0.0072431844
6	0xbc5559c5	-0.013021891
7	0xbcd31012	-0.025764499
8	0xbc3b117f	-0.011417746
9	0xbd16f77b	-0.03685711
10	0x3bbb9c0f	0.0057253907
11	0xbaa8a8a8	-0.0012867646
12	0x3c878cdb	0.016546657
13	0x3b219bef	0.0024659594
14	0x3c1d22a2	0.009590777
15	0xbccf32ea	-0.025292832
16	0x3cd02f85	0.025413284
17	0x3c05ccf4	0.00816654
18	0xbc848efa	-0.016181458
19	0x3cb750bd	0.022377366
20	0x3b8da342	0.0043224404
21	0x3ca19bc8	0.019727603
22	0xbd0fd209	-0.035112415
23	0x3c448c67	0.011996365
24	0x3c71544d	0.0147295715
25	0x3ced595c	0.028973274
26	0x3ca818d6	0.020519655
27	0xbc903ba7	-0.01760657
28	0xbd04fe97	-0.03246936
29	0xbcaaf7e5	-0.020870158
30	0xbc8c6502	-0.017138008
31	0x3c2656b8	0.010152511
32	0xbd15114c	-0.03639345
33	0x3ce1a0ca	0.02754249
34	0xbbbee8c1	-0.0058260863
35	0xbca0891a	-0.019596625
36	0xbcf36364	-0.02971048
37	0xbcc8b50b	-0.02450039
38	0xbcd938b2	-0.026516292
39	0x3b6040ef	0.003421839
40	0x3c73f458	0.014889799
41	0xbcbc2d4d	-0.02297082
42	0x3c4fd0b4	0.012684036
43	0xbcf198bc	-0.029491775
44	0xbcc75165	-0.024330804
45	0xb99d2347	-0.00029971657
46	0xbcd4caf6	-0.025975686
47	0xbcab1624	-0.02088458
48	0x3c3c6302	0.011498215
49	0xbcb0ff80	-0.021606207
50	0x3cbe1837	0.023204906
51	0xbb87d592	-0.0041453326
52	0xbd0b5d52	-0.034024544
53	0x3c92af79	0.017905938
54	0xbc991a5c	-0.018689327
55	0xbc9df459	-0.019281553
56	0x3ce1bf59	0.027557062
57	0x3cd86c14	0.026418723
58	0x3b02da66	0.0019966601
59	0xbbf5ed57	-0.0075050998
60	0xbd100355	-0.035159428
61	0x3cf725af	0.030169336
62	0x3b905b64	0.004405426
63	0xbb5707f7	-0.0032811144
64	0x3c41e5d3	0.0118345795
65	0xbbae401c	-0.005317701
66	0xbd0d23cb	-0.034457963
67	0x3c8bfc60	0.017088115
68	0xbcc6a936	-0.024250608
69	0x3c01ed1e	0.007930068
70	0xbc70680a	-0.014673242
71	0xbcc34fb6	-0.02384172
72	0xbd02a5b0	-0.031896293
73	0x3ba23642	0.0049503157
74	0x3d0924a4	0.03348221
75	0xbc420515	-0.011842032
76	0xbce0f6d9	-0.027461456
77	0x3b4fb36b	0.0031692635
78	0x3ca3cd3d	0.019995326
79	0x3cb5b137	0.02217923
80	0x3c7db873	0.015485871
81	0xbcddf429	-0.027093964
82	0xbc1b1fc3	-0.009468022
83	0xbcae3627	-0.021266056
84	0xbbc71cdf	-0.0060764397
85	0xbc07a910	-0.008280054
86	0xbc269d05	-0.010169272
87	0xbd0521b8	-0.03250286
88	0xbc98ad3e	-0.018637296
89	0xbd078e4d	-0.033094693
90	0xbc8a0dec	-0.016852342
91	0x3ba5fd2f	0.005065582
92	0x3cdfbc26	0.027311396
93	0xbd081ccc	-0.033230588
94	0x3cc48a0f	0.023991613
95	0x3b880456	0.0041509075
96	0xbc93a893	-0.018024718
97	0x3c235f57	0.009971461
98	0xbc0700d6	-0.008239945
99	0x3ccbbfb0	0.024871677
100	0xbbe14d79	-0.0068756905
101	0xbc95d9aa	-0.018292267
102	0xbcc2e1f0	-0.023789376
103	0x3c8ed120	0.017433703
104	0x3b8c1e63	0.0042760833
105	0x3cd34489	0.025789516
106	0x3ca73583	0.020411259
107	0x3d00756a	0.031361975
108	0x3bd3e527	0.006466526
109	0xbbc5122f	-0.0060141305
110	0xbc1e99de	-0.0096802395
111	0x3aa5f05c	0.0012660134
112	0x3ccb60be	0.024826404
113	0x3c9b8871	0.018985959
114	0x3c0f8f45	0.008762185
115	0xbd07a2b6	-0.033114158
116	0xbc4349bf	-0.011919438
117	0x3bec1558	0.007204693
118	0xbced724e	-0.028985169
119	0xbc61865a	-0.013764942
120	0x3c8034a3	0.0156501
121	0xbc905655	-0.017619291
122	0xb924d488	-0.00015719433
123	0x3c7cdf93	0.015434164
124	0x3c3d8dfe	0.011569498
125	0xba2ef0ca	-0.00066734536
126	0xbc8d7045	-0.017265448
127	0xbc553817	-0.013013861
128	0xbc27f8cd	-0.01025219
129	0xbb81ebe8	-0.00396489
130	0xbba68643	-0.005081923
131	0xbcddc3ff	-0.027070997
132	0xbbc18182	-0.005905331
133	0xbd0625c9	-0.03275088
134	0x3a9bff68	0.0011901679
135	0x3d0309ea	0.031991877
136	0xbc91a944	-0.017780907
137	0xbc193144	-0.009350125
138	0x3a9db540	0.0012032166
139	0x3ca4cc28	0.02011688
140	0xbcf4021e	-0.029786166
141	0xbc89ef91	-0.016837867
142	0xbcb4fab6	-0.022092205
143	0x3b597b70	0.0033185147
144	0xbcffe157	-0.03123538
145	0x3cf8d3c8	0.030374423
146	0x3cacaa72	0.021077368
147	0x3cd2c718	0.0257297
148	0xbc5b7a01	-0.013395787
149	0xbc05e516	-0.008172294
150	0x3c5b4730	0.013383672
151	0xbcb71d74	-0.022352912
152	0x3d025742	0.031821497
153	0x39e99780	0.000445541
154	0x3cac9bf0	0.02107045
155	0x3b7ba9a0	0.0038400665
156	0xbc372338	-0.01117783
157	0x3c8b96de	0.017039713
158	0x3cfd8f4c	0.030952118
159	0xbcff7cc8	-0.03118743
160	0x3c7d7492	0.015469687
161	0x3cfe6d34	0.031057931
162	0x3aa376a8	0.0012471275
163	0x3b9fa5d8	0.004872065
164	0xbca30263	-0.019898599
165	0xbd072193	-0.032991003
166	0x3be34d9c	0.006936742
167	0xbd0a3e6a	-0.03375093
168	0xbd0e7c31	-0.034786407
169	0xbcd286b5	-0.025698999
170	0xbc880b19	-0.016606854
171	0x3c3c32ef	0.011486753
172	0xbc8cd819	-0.017192887
173	0x3c735887	0.0148526495
174	0xbc946ef3	-0.018119311
175	0x3cae0dfc	0.021246903
176	0x3c062e07	0.008189685
177	0x3cf16d70	0.02947113
178	0x3c54ee68	0.012996294
179	0x3a4e5a61	0.0007871744
180	0xbb8cdd6e	-0.0042988574
181	0x3b6fd342	0.0036594425
182	0xba99d541	-0.0011736528
183	0xba949032	-0.0011334477
184	0xbc666ad9	-0.01406356
185	0xbb466c79	-0.0030277057
186	0xbc24f5fa	-0.010068411
187	0xbc598e30	-0.013278529
188	0x3bb68dbe	0.005571096
189	0x3cd26d46	0.025686871
190	0x3a982e52	0.0011610484
191	0x3ca90a90	0.02063492
192	0x3cf4ee88	0.029898897
193	0x3a98b3d1	0.0011650269
194	0xbc2ac801	-0.010423661
195	0xbc402c4b	-0.01172931
196	0xba94e615	-0.0011360074
197	0x3cacc26f	0.021088807
198	0x3cb0109a	0.021492291
199	0x3c954659	0.018222021
200	0x3cd58d94	0.026068486
201	0xbb9223e4	-0.004459845
202	0xbb8526c8	-0.004063461
203	0x3c8ab025	0.016929695
204	0xbcb860c9	-0.022507088
205	0xbb680ae6	-0.0035406887
206	0x3c853667	0.016261293
207	0x3ca71ba7	0.020398928
208	0x3cc00345	0.023439059
209	0xbc07e537	-0.008294395
210	0xbc626d2d	-0.013819975
211	0x3ca34f5e	0.019935306
212	0x3cadee85	0.021231899
213	0x3ce1b0c8	0.027550116
214	0xbc6f3920	-0.014601022
215	0xbbcfea00	-0.0063450336
216	0xbc771f51	-0.01508315
217	0xbc8c4761	-0.01712388
218	0xbce970ac	-0.028496109
219	0x3ce6edb9	0.028189527
220	0x3c2dcf13	0.010608452
221	0x3cbdc116	0.02316336
222	0x3b5f090f	0.00340325
223	0xbad9c660	-0.0016614906
224	0xba45a700	-0.00075398386
225	0x3c8862b4	0.016648628
226	0xbca23d70	-0.019804686
227	0xbbe0cc58	-0.006860297
228	0x3ba42e6b	0.0050104163
229	0x3c0ad796	0.008474251
230	0xbc2909cd	-0.010317278
231	0x3a9e2183	0.0012064431
232	0xb9cbc696	-0.00038867135
233	0x3c643f54	0.013931114
234	0x3bbde6f2	0.005795353
235	0x3a303d80	0.00067230314
236	0xbc475a1a	-0.012167478
237	0xbc357536	-0.011075309
238	0xbc1d8c54	-0.009615976
239	0xbc83032e	-0.015992727
240	0x3cbf41b8	0.023346767
241	0xbce56b68	-0.028005317
242	0xbbf28f58	-0.007402342
243	0x3c1afd10	0.009459749
244	0xbd0c16e6	-0.034201525
245	0xbd02ca88	-0.03193143
246	0xbc31d6e9	-0.010854461
247	0x3c144e52	0.009051876
248	0x3ce90065	0.028442571
249	0x3cf6164f	0.030039934
250	0x3c93e4c8	0.018053427
251	0x3bfda032	0.007740044
252	0xbb437c6e	-0.0029828805
253	0x3c81d3f8	0.015848145
254	0x3c79fd5b	0.015258159
255	0xbc483ba2	-0.012221249

fc1.bias f4 [128]
0	0x3cabcca3	0.020971602
1	0xbc63d928	-0.013906755
2	0x3b8a61ef	0.0042231004
3	0xbcb654ac	-0.022257172
4	0x3d093bfd	0.033504475
5	0xbd00f278	-0.031481236
6	0xbcdae1c0	-0.026718974
7	0x3b87ad78	0.004140552
8	0x3cb5ca9e	0.022191342
9	0xbc54cbf9	-0.012988084
10	0x3cba59cc	0.022747897
11	0xbc9f25bc	-0.019427173
12	0xbc87b785	-0.016567001
13	0x3cc744ba	0.024324764
14	0xbcf73362	-0.030175868
15	0xbd0afe5a	-0.033933975
16	0x3ca883ed	0.02057072
17	0xbb037a80	-0.002006203
18	0xbcae4e78	-0.021277651
19	0xbcf712d5	-0.030160347
20	0xbc0e755a	-0.008694971
21	0x3d05cef3	0.032668065
22	0x3cdea2ad	0.02717718
23	0xbc9138b6	-0.017727237
24	0x3c32750a	0.010892162
25	0x3c911b70	0.017713279
26	0x3d130be6	0.03590002
27	0xbc26b7d8	-0.010175668
28	0xbcb68ad5	-0.022282997
29	0x3d19c4a0	0.03754103
30	0xbc9ce34c	-0.019151352
31	0xbccd21c4	-0.025040515
32	0x3c4bd275	0.012440314
33	0x3cd59a93	0.026074683
34	0xbc4b4fd0	-0.0124091655
35	0xbcfe3c53	-0.031034624
36	0xbd0124ca	-0.031529225
37	0xbc0efcc0	-0.0087272525
38	0xbc62c252	-0.013840275
39	0x3cb9d928	0.022686556
40	0x3c94b1cb	0.018151185
41	0xbd0098f6	-0.031395875
42	0x3c60b11e	0.013714103
43	0x3c4c4644	0.0124679245
44	0x3d15285e	0.03641545
45	0x3c7ddf8c	0.015495192
46	0x39beb445	0.00036373935
47	0x3cf04b13	0.029332673
48	0x3cdd25da	0.026995588
49	0xbc021a53	-0.0079408465
50	0x3d11d415	0.035602648
51	0xbcb8ddfa	-0.022566784
52	0x3d12add3	0.035810303
53	0xbb9b8f78	-0.0047473274
54	0xbd061db8	-0.032743186
55	0xbbcd131c	-0.0062583815
56	0x3d0328ee	0.032021455
57	0xbc937a96	-0.01800279
58	0x3d154368	0.036441237
59	0xbcd8c9f5	-0.026463488
60	0x3ab25ce6	0.0013608008
61	0x3cb3df02	0.021956924
62	0x3c9d627e	0.019212004
63	0xba8118c6	-0.0009849302
64	0xbb9851f8	-0.0046484433
65	0x3cfeaef1	0.031089278
66	0xbcbee6ff	-0.023303507
67	0x3bb15ca8	0.005412657
68	0xbc69d28a	-0.014271388
69	0xbcd83138	-0.026390657
70	0x3c9d7b5b	0.01922386
71	0x3cc7aecb	0.02437534
72	0xbcba8741	-0.022769572
73	0xbcbe6e6b	-0.02324601
74	0xbcd19b16	-0.025586646
75	0x3cfce428	0.030870512
76	0x3bc184b1	0.0059057106
77	0xbcd3a9c4	-0.025837786
78	0x3c9c9019	0.01911168
79	0xbc4ac95a	-0.0123771075
80	0xbb11dc1d	-0.0022256442
81	0x3ba9a58d	0.005177206
82	0xbcd78bd3	-0.02631179
83	0xba8a40e1	-0.00105479
84	0x3be59140	0.0070058405
85	0x3c7d27b6	0.015451362
86	0x3b95baf8	0.0045694076
87	0xbb841c94	-0.004031727
88	0x3c4a7b92	0.012358563
89	0x3c7cfb2d	0.015440744
90	0xbc011474	-0.007878412
91	0x3cde0f38	0.027106866
92	0x3b647c80	0.0034864247
93	0x3a7165bb	0.00092085794
94	0x3c9687fe	0.018375393
95	0xbc327ee0	-0.010894507
96	0xbc9622b9	-0.018327104
97	0x3ca19954	0.019726433
98	0xba640b30	-0.0008699177
99	0x3cbba046	0.022903573
100	0xbd0730e6	-0.033005618
101	0x3b2d7eb6	0.002647323
102	0xbc731be5	-0.014838194
103	0xbc880d96	-0.01660804
104	0x3cbc6fab	0.023002466
105	0x3c55d8de	0.013052193
106	0x3a921c80	0.001114741
107	0xbc7c1370	-0.015385494
108	0x3c49d468	0.012318708
109	0xbcf740e9	-0.030182319
110	0xbb66a6a8	-0.003519455
111	0xbcfbfe1a	-0.030760814
112	0x3c136724	0.008996759
113	0x3c9267b4	0.017871715
114	0xbb4e9e38	-0.0031527411
115	0x3b3c4951	0.0028730223
116	0xbcc47a0a	-0.023983974
117	0xba33db03	-0.00068609434
118	0x3ca3e909	0.02000858
119	0x3c24d53d	0.010060606
120	0x3c4313c0	0.011906564
121	0x3cfbc60e	0.030734088
122	0xbcce1571	-0.025156708
123	0x3b146292	0.002264176
124	0xbce30fa9	-0.027717428
125	0xbd022d92	-0.03178174
126	0xbc8cb67f	-0.017176865
127	0x3c36b8a0	0.0111524165

fc2.weight f4 [2, 128]
0	0xbcb45dad	-0.022017324
1	0x3cb151ac	0.02164539
2	0xbd0881b5	-0.033326823
3	0x3d73204e	0.05935698
4	0x3dad4ab7	0.08461516
5	0xbd88ad8e	-0.06673728
6	0xbc7a44da	-0.015275205
7	0x3d1abaa6	0.037775658
8	0x39b05600	0.0003363341
9	0xbd3c4a42	-0.045969255
10	0xbc8dfd44	-0.01733268
11	0x3daec53e	0.08533715
12	0x3cf6e60c	0.030138992
13	0xbdad2811	-0.08454908
14	0x3cbd73aa	0.023126442
15	0xbab91f40	-0.0014123693
16	0xbd862f47	-0.06551986
17	0x3da79811	0.08183301
18	0xbbaf1f20	-0.0053442866
19	0xbdad959d	-0.08475802
20	0xbd9726d8	-0.07380456
21	0x3d0c2af4	0.03422065
22	0xbb02914c	-0.001992303
23	0xba1e68c0	-0.00060428306
24	0xbd9e5340	-0.077307224
25	0x3c0a4cb8	0.008441143
26	0x3d408de3	0.047010314
27	0x3cd9cf70	0.026588172
28	0x3d8fee77	0.070279054
29	0x3cda6916	0.026661437
30	0xbcf03dde	-0.029326376
31	0xbb8484d2	-0.0040441537
32	0x3c021c87	0.007941372
33	0x3c91d6c5	0.017802605
34	0x3d59d64e	0.053182893
35	0x3d6d9c2a	0.058010258
36	0xb7b96b45	-2.210367e-05
37	0xbd918e41	-0.07107211
38	0x3d77b006	0.060470603
39	0x3d6cd38a	0.057818927
40	0xbd62c313	-0.05536182
41	0xbc338618	-0.010957263
42	0x3d0e8633	0.03479595
43	0x3d0ede64	0.034880057
44	0x3d90e068	0.07074052
45	0x3d95360f	0.072857015
46	0xbb3545e4	-0.0027660066
47	0x3d03af0d	0.032149363
48	0x3d693689	0.056936774
49	0xbd3d2721	-0.046179894
50	0x3d36736f	0.04454368
51	0x3dac7039	0.08419842
52	0xbc508ced	-0.012728912
53	0xbcb7fc30	-0.02245912
54	0xbda4a778	-0.08039755
55	0x3db35ac4	0.087575465
56	0xbb8648d0	-0.0040980354
57	0x3d63f974	0.05565782
58	0x3d5068c7	0.050881173
59	0xbcfc6f84	-0.030814894
60	0xbd368070	-0.04455608
61	0x3d635eea	0.05551044
62	0x3c66f1f0	0.014095768
63	0x3dab4214	0.08362213
64	0xbda276e2	-0.07932831
65	0x3cc55d05	0.024092207
66	0x3daad646	0.08341651
67	0x3da7c9bb	0.08192774
68	0x3b83235c	0.004002018
69	0xbc5d8f60	-0.013522953
70	0xbd0e68dd	-0.034767974
71	0xbd8e6077	-0.06951993
72	0x3d7b8be9	0.061412726
73	0xbd8c27f8	-0.06843561
74	0xbcdc60ff	-0.02690172
75	0x3d8b9a16	0.06816499
76	0x3d5cf3f7	0.0539436
77	0xbd230e01	-0.039808277
78	0xbd8cd426	-0.068764016
79	0x3db7f702	0.0898266
80	0xbcd913cc	-0.026498698
81	0xbda8ddf0	-0.08245456
82	0x3d800f7e	0.06252955
83	0x3aa4367d	0.0012528446
84	0xbd97c635	-0.07410852
85	0xbd01157b	-0.031514626
86	0x3db2ad1f	0.087244265
87	0xbda4cdc0	-0.08047056
88	0xbd831de8	-0.064021885
89	0xbb6780b1	-0.0035324509
90	0x3d63d93e	0.0556271
91	0xbd9e03fd	-0.077156045
92	0xbd206052	-0.03915436
93	0xbd0f2507	-0.03494742
94	0x3d328762	0.043586142
95	0xbd094fb8	-0.03352329
96	0xbcf92f4d	-0.030418063
97	0x3d515ebf	0.051115748
98	0x3d80766e	0.06272589
99	0xbbf375e0	-0.0074298233
100	0x3ca94388	0.020662084
101	0xbd2c2dbe	-0.04203581
102	0x3d6ef55f	0.058339473
103	0x3cfae9a4	0.030628987
104	0x3cc7409b	0.024322798
105	0x3c7ff64c	0.015622687
106	0x3d8f2311	0.0698911
107	0xbd9a3d8d	-0.07531271
108	0x3d65a5ea	0.05606643
109	0xbd878658	-0.06617421
110	0xbda14f0c	-0.07876405
111	0x3d05766b	0.032583635
112	0x3d101be7	0.03518286
113	0xbd171d8c	-0.036893412
114	0x3d690dbe	0.05689787
115	0x3d82972a	0.063764885
116	0x3d819ac3	0.063283466
117	0x3ce39eb8	0.027785644
118	0xbcf5ba14	-0.029995956
119	0xbd723fb9	-0.059142802
120	0x3d038024	0.032104626
121	0x3db097be	0.086226925
122	0xbd8e539e	-0.069495425
123	0x3db673ff	0.08908843
124	0xbd12ad06	-0.03580954
125	0x3da469d5	0.08027998
126	0xbcaf11a4	-0.021370716
127	0xbd9dccde	-0.07705091
128	0x3da39d6f	0.079890124
129	0xbd484e72	-0.048902936
130	0x3d19d6ab	0.03755824
131	0x3d8cc0a7	0.06872683
132	0xbd051921	-0.032494668
133	0x3d222d12	0.039593764
134	0x3d8f88e8	0.07008535
135	0x3b96a873	0.0045977174
136	0x3d5d503e	0.054031603
137	0x3d45940b	0.048236888
138	0x3d03775a	0.032096244
139	0xbd85270c	-0.06501588
140	0x3d2b08f2	0.041756578
141	0xbd572a82	-0.052530773
142	0x3d78cb1f	0.060740586
143	0xbdaf9ce3	-0.08574846
144	0x3c0221d9	0.00794264
145	0xbd12097a	-0.03565357
146	0xbd7bf2ca	-0.06151084
147	0xbd181020	-0.037124753
148	0x3da8b3f1	0.08237446
149	0xbcb149e8	-0.021641687
150	0xbb8e6bfa	-0.004346368
151	0x3d48e61d	0.049047578
152	0xbd2b81d5	-0.041871864
153	0xbc8d8694	-0.017276086
154	0xbd081cf8	-0.03323075
155	0xbd271713	-0.04079349
156	0x3d412336	0.04715272
157	0xbdb37018	-0.087616146
158	0xbced726e	-0.028985228
159	0x3d909014	0.07058731
160	0xbaaceafa	-0.0013192587
161	0x3da9859b	0.08277436
162	0xbc453c80	-0.01203835
163	0x3ca6cea8	0.020362213
164	0x3da7f98e	0.08201896
165	0xbd3653c1	-0.044513468
166	0x3c3fb040	0.011699736
167	0xbaac4700	-0.0013143718
168	0x3d84c4c8	0.064828455
169	0xbce0d5ac	-0.027445637
170	0x3d6a4dd3	0.057203125
171	0xbb63a460	-0.0034735426
172	0x3d7b36a6	0.061331414
173	0x3d6f59ca	0.05843524
174	0xbdacfcc0	-0.08446646
175	0xbb25d54d	-0.002530414
176	0x3d02f2ad	0.031969715
177	0x3ce99379	0.028512703
178	0xbd93ec7f	-0.072228424
179	0xbd97a7ed	-0.07405076
180	0xbd8725da	-0.065990165
181	0x3d8572cc	0.065160364
182	0xbda3bb47	-0.07994705
183	0xbdb8939a	-0.09012528
184	0xbd76290e	-0.060097747
185	0xbd63e48c	-0.05563788
186	0xbcce67bf	-0.025195954
187	0xbd14c3d0	-0.036319554
188	0xba366367	-0.0006957561
189	0xbda3d2e5	-0.07999209
190	0x3adcd140	0.0016847029
191	0x3c8f3c0c	0.017484687
192	0xbd0b7a95	-0.03405245
193	0x3d674b6f	0.056468423
194	0xbb57b3ec	-0.0032913638
195	0x3d4c5e56	0.049894653
196	0xbd318d2f	-0.043347534
197	0x3da5a16e	0.08087431
198	0xbd10cea6	-0.035353325
199	0x3cfbbd1d	0.030729825
200	0x3cee3312	0.029077087
201	0xbdaa3a50	-0.083119035
202	0xbd0095ed	-0.03139298
203	0xbda659cb	-0.081225954
204	0xbd997b78	-0.07494253
205	0xbcb1d000	-0.021705627
206	0x3d07064d	0.032964993
207	0xbc87aa5a	-0.016560722
208	0xbdb90c0b	-0.090355
209	0x3d8ca542	0.06867458
210	0x3cd70a5f	0.026250063
211	0x3d8605f2	0.06544103
212	0xbd560fb7	-0.05226108
213	0x3d2eabcf	0.04264432
214	0x3daeb5fd	0.08530805
215	0xbdaa4a78	-0.08314985
216	0xbc94a89a	-0.018146802
217	0x3d103143	0.03520323
218	0x3d25874e	0.04041224
219	0xbd85adeb	-0.06527313
220	0x3da6c26f	0.08142554
221	0x3d1bb927	0.038018372
222	0xbc5ea990	-0.013590232
223	0xbca47e89	-0.020079868
224	0xbc7ce4d7	-0.015435419
225	0x3cb20562	0.021731082
226	0xbd9da384	-0.07697204
227	0xbbf6cf30	-0.007532023
228	0x3c88f21c	0.01671701
229	0xbd98c390	-0.074591756
230	0xbdb8648c	-0.09003553
231	0xbd63863b	-0.055547934
232	0xbcada1e7	-0.021195365
233	0xbc827b66	-0.015927982
234	0xbcc54f28	-0.024085596
235	0x3db062e3	0.08612611
236	0x3d2440a2	0.0401007
237	0x3ce82290	0.028336793
238	0xbd24fe8e	-0.040281825
239	0xbc83cc25	-0.016088555
240	0x3d61a42f	0.05508822
241	0xbd1bac76	-0.03800627
242	0x3d8607bf	0.06544446
243	0x3cb09c6f	0.021558968
244	0x3c910a84	0.01770521
245	0xbc1ef02b	-0.009700815
246	0x3d70f49b	0.058827024
247	0xbce27763	-0.027644819
248	0x3d16579e	0.036704652
249	0x3d8e8c1c	0.069603175
250	0xbd545f2a	-0.051848568
251	0xbd61cf4a	-0.055129327
252	0xbdae9980	-0.085253716
253	0x3d9469e7	0.07246762
254	0xbd6506fc	-0.055914864
255	0x3cdec917	0.027195496

fc2.bias f4 [2]
0	0x3d764253	0.060121845
1	0x3d86bc3a	0.0657887
