models/2024-05-10_12-26-41_Model.onnx (onnx, 614400 bytes, 10 tensors)

conv1.weight f4 [8, 1, 2, 2, 2]
000000 03 ba 5e bd 3a b6 14 be c6 9a 33 be 26 db 8a bd
       -0.054376613 -0.14522639 -0.1753951 -0.067800805
000010 a1 e3 90 be b2 cc 1c 3e 94 30 92 3e 17 24 a9 3e
       -0.28298667 0.1531246 0.28552687 0.33035347
000020 c3 dc 73 3e 63 63 df 3d a6 3e 33 3d 0b c7 fd bd
       0.23814683 0.109076284 0.043760918 -0.1239148
000030 0c 4d c4 3d 43 e5 f5 3d 99 b3 84 be 96 a3 cd bd
       0.09585008 0.12006619 -0.25918272 -0.10040967
000040 d7 c0 ab 3e 51 c0 ab 3e 64 e0 78 be 63 06 81 be
       0.33545563 0.33545163 -0.24304348 -0.25200185
000050 9d a8 9d be d9 b7 f3 3d e5 ab 7c 3e 32 7a ac 3e
       -0.30792704 0.119003005 0.24674948 0.33686978
000060 cf e2 75 3e 72 fa 26 3e 76 41 b5 bd 99 c7 82 3e
       0.24012302 0.16306475 -0.08850376 0.25542906
000070 52 32 30 3e 0b 96 42 3e 80 b9 da b9 a3 0f 97 3e
       0.17206696 0.1900255 -0.00041718408 0.29504117
000080 6a 30 a1 bd 7f b7 66 be ca 06 de 3d f7 0f 62 be
       -0.078705624 -0.22530936 0.10841139 -0.22076403
000090 4f 65 6f be 70 b1 86 be e7 d5 f5 bd 7c b4 61 3e
       -0.2337849 -0.2630725 -0.12003689 0.22041506
0000a0 3e bd 2c 3e 81 9d 5f bd ff ad 71 be ac 0c 84 be
       0.16869065 -0.054593567 -0.2360153 -0.25790918
0000b0 78 04 34 be 4b 77 7f be 8f a2 99 3e ad 92 9e be
       -0.1757983 -0.2494785 0.30006835 -0.3097128
0000c0 36 5c a1 be 5a 4e 26 3e b0 1b 5f be 6a 89 16 3e
       -0.31515664 0.16240826 -0.21787906 0.14700857
0000d0 0a 3b 8c bd 46 08 68 3d 6d 03 93 3e a7 c2 80 be
       -0.06847198 0.056648515 0.2871355 -0.25148508
0000e0 5c e1 40 3e 4d ef bb bc e0 3c 8e ba 3f 2e 87 be
       0.18835968 -0.022941256 -0.0010851882 -0.2640247
0000f0 68 18 59 3e 54 1f 73 3e 90 36 84 3e 85 9e 9c bd
       0.21200716 0.2374242 0.25822878 -0.07647423

conv1.bias f4 [8]
000000 06 60 fc 3d 8b b2 7c be d5 ab 42 be 0a b3 69 3d
       0.123230025 -0.24677484 -0.19010861 0.05705551
000010 28 93 8b 3c 95 95 00 3e b6 bc 9d 3e 32 ff 2f 3e
       0.017037943 0.12557061 0.30808038 0.17187193

conv2.weight f4 [16, 8, 2, 2, 2]
000000 1c 5d 95 bd f9 32 42 bd 2f dc 0a 3c 99 3a a5 bd
       -0.0729315 -0.047411893 0.008475347 -0.08067817
000010 17 61 58 3b b1 16 f2 3c b0 f7 d4 bd 08 b7 ac 3d
       0.0033016854 0.029551836 -0.10398805 0.08433348
000020 1a ff 21 3e a1 b3 99 3d 1d eb 19 b8 6c 24 89 3d
       0.1581997 0.075049646 -3.669701e-05 0.066964
000030 70 a8 41 bd d1 73 ab 3c 82 ba b1 bd 3e 89 84 bd
       -0.047279775 0.020929249 -0.08678152 -0.06471489
000040 fc eb fd bc e7 d8 d2 b9 04 05 90 bd 18 e8 77 3d
       -0.030996315 -0.00040215926 -0.07032207 0.060524076
000050 59 70 cb bd 72 b0 1e be 09 14 d8 bd 10 ff bb 3d
       -0.09933538 -0.15496996 -0.105506964 0.09179509
000060 39 a6 f0 3d 31 59 e3 3d 9b 03 af 3d 5d d3 d6 bd
       0.117504545 0.11100996 0.085456096 -0.10489533
000070 bf 2b fb bd 82 4e 4c bd fa d1 20 3d 78 6e 8c 3d
       -0.12264203 -0.04987956 0.03926275 0.06857008
000080 46 ab 91 bd 95 a5 61 bd 97 5c be 3d 78 cb ba 3d
       -0.07112746 -0.055089552 0.09295004 0.0912084
000090 46 11 7b 3d 09 86 e4 3d 1c 0b 97 3d 5f 33 26 3d
       0.06129577 0.11158378 0.07375166 0.040576335
0000a0 f5 c9 c5 bd e9 f5 08 3e 7c 76 b3 bd e2 08 45 bc
       -0.09657661 0.13375057 -0.087628335 -0.012026044
0000b0 22 50 0d 3d be 65 c3 bd aa c6 8f bc fb 2d 1a 3d
       0.03450025 -0.0954089 -0.017550785 0.037641507
0000c0 3b 30 c4 3d 06 bc 95 bc 26 cf 8c bd d1 d5 87 bd
       0.09579512 -0.018278133 -0.06875448 -0.06632579
0000d0 16 29 07 3d cf 3e b5 bd b1 a7 ad bd c2 7c a9 3d
       0.032998167 -0.088498704 -0.0847925 0.08275749
0000e0 e4 fd 18 bd 8d ef d0 bd ca d0 f2 3d 81 1d bc bd
       -0.037351504 -0.10201941 0.118562296 -0.09185315
0000f0 2b 2e 16 be 40 61 fe bd bf e7 c0 bb 62 7f 3a 3d
       -0.14666049 -0.12420893 -0.0058870013 0.045531638
000100 b4 fc a6 bd 23 98 df 3d 9f 16 c8 bd 8b 6c f4 3d
       -0.08153668 0.1091769 -0.0976994 0.119347654
000110 d6 61 f6 bd 3d 54 2f bd e5 16 42 3d a8 5c 9e 3d
       -0.120303795 -0.042804945 0.047385115 0.077325165
000120 d2 f9 1e 3d f7 61 e0 bd 80 f7 61 bd b4 38 f7 3d
       0.038812466 -0.10956185 -0.055167675 0.12071362
000130 73 a1 1d be ec 20 c6 bd d3 7c 32 3d 8b d5 b5 bd
       -0.15393619 -0.09674248 0.043576073 -0.08878621
000140 d5 c3 de 3d 41 52 1f 3c e3 84 5b bd a1 fa 5c bd
       0.10877196 0.009724201 -0.053593528 -0.053949956
000150 85 e8 ff bd e9 eb 1c be fd 01 2f bb f8 7b 19 bd
       -0.124955215 -0.15324368 -0.0026704066 -0.03747174
000160 98 d0 82 bd 6b 4a d9 bd e7 ec 48 bc 7d 46 b2 3d
       -0.06387442 -0.10609897 -0.012263513 0.08704851
000170 bf 71 7b bd 52 e1 4f bd 23 73 da bc a6 e0 4a 3d
       -0.061387774 -0.05075199 -0.02666623 0.049530648
000180 b7 61 96 bd fe c9 e3 bb 6a 16 71 bc 09 83 7a bd
       -0.073428564 -0.0069515696 -0.014714817 -0.06116012
000190 a4 e6 f8 3d 73 de ae 3d 59 8d 86 3c d3 62 cf 3d
       0.12153366 0.085385226 0.016424822 0.10126271
0001a0 85 9a fd 3c b7 b8 c5 3d 2f 40 a2 bd 9a 80 6a bc
       0.03095747 0.09654372 -0.07922398 -0.014312888
0001b0 f9 dc e7 bd a2 5c 24 3d ec 1c 74 3d 03 2c a3 3d
       -0.11321444 0.040127404 0.059597895 0.07967379
0001c0 d3 44 fc 3d 08 2a c4 3d 42 fa 8c bd d2 a1 d3 bd
       0.12317815 0.09578329 -0.068836704 -0.10333599
0001d0 dd 44 c6 3d a3 80 c9 bd 68 3c a3 3d cc 8d dd 3d
       0.096811034 -0.09838989 0.07970506 0.10818061
0001e0 47 62 ba 3d 1b 5b 13 be fd 74 a0 bd bf 75 37 bd
       0.09100776 -0.14390223 -0.07834814 -0.044790026
0001f0 a2 1e 04 bd 2c d2 1c be d3 09 e1 3c ec e3 89 bd
       -0.032255776 -0.15314549 0.027470505 -0.06732926
000200 7f 74 44 bd 23 f4 84 3d 3a f2 a4 3d b6 21 95 3d
       -0.04796266 0.06491878 0.080540136 0.072818205
000210 f3 d8 c5 3d 67 5e 68 bd 07 c9 0c be 81 80 51 bd
       0.096605204 -0.056730654 -0.13748561 -0.05114794
000220 25 55 65 bd ac 82 bd bc 59 90 f4 3d 38 3d e7 39
       -0.055989403 -0.023133598 0.11941595 0.00044105365
000230 6f 60 d3 3c ae 76 85 3d 0b 92 87 3b ed 9b 71 3d
       0.025802819 0.06516777 0.0041372827 0.058986593
000240 bc 16 c5 3d 36 3f df 3d 2f 5b a0 3d 68 58 48 3d
       0.09623477 0.109007284 0.07829892 0.048912436
000250 37 ad 73 bb dd c5 d7 3d 6d 56 e2 bd 90 6e 3c bd
       -0.0037182102 0.10535786 -0.11051641 -0.046003878
000260 bd ba 5d 3d f3 2a cc bc 9d 6f 0d 3d 1e 48 39 bc
       0.054133166 -0.024922824 0.03453027 -0.011308698
000270 b6 97 67 bd 5b 68 e5 bc c6 14 2a 3d 99 b7 e4 bc
       -0.056541167 -0.028003862 0.041523717 -0.027919577
000280 71 89 1e be f4 d7 93 bd 0b 1f 8a bc f8 d4 09 3d
       -0.15482117 -0.07218924 -0.016860506 0.03365037
000290 aa f2 81 3d b1 38 57 bd c1 4d 0f be 32 c1 2b 3d
       0.063451126 -0.0525443 -0.13994505 0.041932292
0002a0 de 43 92 3d 13 fc 9b bd c9 8d 91 bd ee 1c da 3d
       0.07141851 -0.07616439 -0.071071215 0.10650049
0002b0 4a 1a e4 bd 47 fb a7 bd 41 fb fd bd c0 6c 12 be
       -0.11137827 -0.08202224 -0.124014385 -0.14299297
0002c0 54 b7 8f bd 83 5c cd 3d f3 82 6a bc 84 6a 6b 3d
       -0.07017389 0.10027411 -0.014313447 0.057474628
0002d0 44 ef f0 bc ab c5 0a be 96 73 cc bd cc 0f 42 bb
       -0.029410966 -0.13551967 -0.09982984 -0.0029611466
0002e0 75 02 3e bc 85 cb 92 bd 59 8c 71 bd df 02 05 be
       -0.0115972655 -0.071677245 -0.058971737 -0.12989376
0002f0 b6 97 c6 3d f1 3f c0 bd f2 15 48 bc b7 26 e2 3d
       0.09696905 -0.09387196 -0.012212263 0.110425405
000300 3a 03 17 3d 48 62 ef bc f6 f3 8e bd 82 c7 d5 bd
       0.03686831 -0.029221669 -0.069801256 -0.10438444
000310 93 58 3d bc 05 95 95 3c 7c 74 70 bd d5 48 db bd
       -0.011556762 0.018259535 -0.05870484 -0.10707251
000320 3d 06 b2 3d 0d 52 8d 3d 18 c5 1b 3d d4 af 16 bd
       0.08692596 0.069004156 0.03802976 -0.036788777
000330 b2 2d a9 3d 8c 0d 7d bd 8c 5d 12 bc fa ee 83 bd
       0.08260669 -0.061780497 -0.008933436 -0.064420655
000340 28 7e 13 bd 42 a2 d1 bc 4f 2a a8 bc b6 65 36 bd
       -0.036008984 -0.025590066 -0.020527987 -0.044530593
000350 5f d0 bf bd 4a 9c df bd ac fd 45 bd 7f 9c e6 bd
       -0.093659155 -0.10918482 -0.048337623 -0.11260318
000360 ea 9b 11 3d 13 ec ee 3d d5 bd c3 3d f9 05 d3 3d
       0.03554908 0.11666121 0.09557692 0.103038736
000370 5a 9a e1 3d 32 f0 5a 3d e4 c1 b3 bc 42 1f e0 3d
       0.11015768 0.053451724 -0.02194304 0.10943462
000380 12 0e 40 3d e5 3f eb bd 1e 42 3e 3d 5d d2 77 3b
       0.04688842 -0.11486796 0.046449773 0.0037814595
000390 9a 88 05 be f0 f7 11 bc f1 05 3a be f7 18 15 3d
       -0.1304039 -0.008909211 -0.18166329 0.03640076
0003a0 28 22 b4 bd c8 ad 2d be b2 1a 5c bd 66 2f 06 bd
       -0.08795577 -0.16960824 -0.053736396 -0.032760046
0003b0 90 98 3f bd f6 af a8 ba 08 4c c5 bd 06 49 29 3d
       -0.046776354 -0.0012869823 -0.096336424 0.041329406
0003c0 45 7c 92 3d bb 8a 00 be 69 02 8d 3d 6f 87 8a 3d
       0.07152609 -0.12552921 0.06885225 0.06764113
0003d0 ad 80 b6 3d 82 bf b3 bd 2d e0 fd bd da f5 77 bd
       0.08911262 -0.087767616 -0.12396274 -0.060537197
0003e0 d7 0a cc 3d 55 94 3f bd bf 93 32 3d 0c 14 22 bc
       0.09963005 -0.04677232 0.043597933 -0.009892475
0003f0 8b fb 0b bd b5 e9 b0 bd 86 08 e2 b9 7d c4 f6 3d
       -0.034175437 -0.08638326 -0.0004311243 0.12049196

conv2.bias f4 [16]
000000 40 20 2d bd c5 ae 8c bb bd 93 b2 3d 9c fd 99 bb
       -0.042267084 -0.004293295 0.08719585 -0.004699422
000010 5a 17 04 be f9 fc 20 bd 5a 79 4b 3d dd 4d a8 bd
       -0.12899533 -0.039303754 0.049676277 -0.08217976
000020 1d 8d 83 3d d2 45 33 3c 4d 6a b3 3c cc 13 aa 3d
       0.064233996 0.010941939 0.021901274 0.08304557
000030 7e 05 08 be d1 32 cb 3d 46 52 ce 3c 11 56 a2 3d
       -0.13283345 0.09921802 0.025185715 0.07926572

conv3.weight f4 [32, 16, 2, 2, 2]
000000 88 92 78 bc ff 2b 95 bd fe 73 1c 3c 2f 9d 0d 3d
       -0.0151716545 -0.07283782 0.009549139 0.03457373
000010 ea ad 81 bd 67 9f 48 bd 9b 77 b6 3d a2 9f 94 bd
       -0.063319996 -0.048980143 0.08909532 -0.0725701
000020 73 6d 51 3d d5 a4 ab bd 1e 31 c3 3d 6a 90 f4 bd
       0.05112977 -0.083810486 0.09530853 -0.11941607
000030 a0 0a 7f 3d d0 b1 f1 bc 74 8b e2 bc ef 37 65 3c
       0.062265992 -0.029503733 -0.027654387 0.013990386
000040 fe 45 ba bb 5c ee 41 bb 59 43 d3 3c e0 2b 73 bd
       -0.0056846133 -0.0029591536 0.02578895 -0.059368014
000050 29 a7 9d bd c9 c4 00 bd 57 a3 27 3d 49 27 6d 3d
       -0.07697899 -0.03143767 0.040927257 0.057898793
000060 bd 5a e2 3c 33 54 df 3c 80 c1 06 3d 3b 70 8f 3d
       0.027631158 0.027261829 0.03289938 0.07003828
000070 e1 3c 0a 3c 98 df 8f bc 3e 80 c2 bc 8a b9 45 3d
       0.008437366 -0.017562672 -0.023742791 0.048272647
000080 48 fe 0a 3d 0a 1a b6 bd a7 83 5d 3b aa 57 56 3d
       0.033933908 -0.08891685 0.0033800395 0.052329697
000090 57 8f c2 bc eb f0 95 bd fb 66 a3 bd f7 23 96 bd
       -0.02374999 -0.07321342 -0.07978626 -0.073310785
0000a0 77 71 a5 bd 61 74 8d bd 6a fa 1e 3d 3c 8f b0 3d
       -0.08078282 -0.06906963 0.038813032 0.0862107
0000b0 e6 d7 48 3c df 84 10 bd 02 d3 84 bd f7 ce 04 3d
       0.012258505 -0.035282966 -0.06485559 0.03242394
0000c0 b5 4a 45 3d 67 ee cf bd 66 be c9 bc de f2 30 bd
       0.04816695 -0.101528935 -0.024626922 -0.043200366
0000d0 17 52 5c 3d d6 b0 ea 3c 39 55 53 3d 16 14 94 3c
       0.053789224 0.028648775 0.051594947 0.018075984
0000e0 34 d5 bd bd 71 ae 57 bd b1 6b 1d bd 43 09 84 3c
       -0.09269181 -0.052656595 -0.03843278 0.016117698
0000f0 19 ed 6b 3c f6 43 49 3d 5f 0a 46 bd 00 63 28 bd
       0.01439979 0.04913708 -0.048349734 -0.04111004
000100 26 57 85 bd 49 18 dc 3c 63 77 b6 bd 86 51 a3 bd
       -0.06510763 0.026867049 -0.0890949 -0.07974534
000110 ce f3 ad bd ed 4a 7d bd 41 53 96 bd a6 4f 1a 3d
       -0.08493768 -0.061839033 -0.07340098 0.037673615
000120 6c f0 95 bd 99 09 9b bd 6c 3e da bd c8 fc f7 3c
       -0.073212475 -0.0757019 -0.10656437 0.030271903
000130 04 9c 0d bd 61 7e 47 bd 25 09 29 bd 51 8b 80 3c
       -0.034572616 -0.04870451 -0.041268487 0.015691431
000140 83 f7 55 3d 06 3e 08 3c 03 4d b0 3c 24 01 13 bd
       0.052238 0.008315569 0.021521097 -0.03588976
000150 5b af b3 bd 3f 88 5e 3d 0c 16 63 3d dc 45 96 3d
       -0.08773681 0.054329153 0.055440947 0.07337543
000160 84 d1 6d 3d 7c 5b b3 bb 29 91 8e 3d 1a a4 31 bd
       0.058061138 -0.0054735523 0.06961281 -0.04336939
000170 e6 7b cf 3d bd e9 34 3b fe d4 cb 3c 09 94 00 be
       0.101310536 0.002760514 0.024881836 -0.12556471
000180 d8 31 d8 bb 40 8f d9 bd de b7 ee bd 3a 9d bd 3d
       -0.0065977387 -0.10623026 -0.11656164 0.09258504
000190 07 a9 4d 3d 15 72 2d bd c3 e5 16 bd 94 40 b6 bd
       0.050210025 -0.042345125 -0.03684021 -0.08899036
0001a0 f7 83 c9 3b 2b 16 2c 3d 1f e3 ce bd 2f 38 cc 3c
       0.0061497646 0.04201333 -0.10101914 0.024929134
0001b0 e1 e2 71 bd 56 a1 89 bd 10 93 b4 bd 41 97 83 bd
       -0.05905426 -0.067202255 -0.088171124 -0.06425334
0001c0 76 74 bf bd f0 33 58 3d 63 e2 b7 bd bb 64 91 bd
       -0.09348385 0.052783906 -0.08978727 -0.07099291
0001d0 12 53 08 3d 50 c5 6e bd e7 d1 fb bc 3e c1 f7 bc
       0.033282347 -0.05829364 -0.030739738 -0.030243512
0001e0 84 cf dd 3c 7f 92 86 bd 90 cc 3a 3d a9 af da 3c
       0.02707649 -0.06570911 0.045605242 0.02669509
0001f0 a1 d9 a8 3c 91 c6 c3 3c e6 3b e9 bd 5d 6e 08 3d
       0.020611586 0.023898395 -0.11388378 0.033308376
000200 8d 0a f8 3c c5 ba 7b 3c bf d0 7d 3c 04 21 59 bc
       0.030278469 0.015364354 0.0154916635 -0.0132525
000210 3d 37 89 bd f5 fa 54 3d ac ea 51 bd 65 e7 f1 bc
       -0.06699989 0.051997144 -0.05124919 -0.029529283
000220 41 e7 b8 3d 93 90 82 3d d0 02 a0 bc 5a 76 0e 3d
       0.09028483 0.063752316 -0.019532591 0.034780838
000230 30 a7 0d 3d a9 6d 98 bd 91 52 ff bc 34 da 8e bd
       0.03458327 -0.07442791 -0.0311673 -0.06975213
000240 08 a3 a6 3d db 92 b4 bd 59 e1 ab bd 17 3c 4b 3d
       0.081365645 -0.08817073 -0.08392591 0.049617853
000250 37 55 9f bd 2a 82 a8 3c a9 52 99 3d 60 b7 80 3d
       -0.07779925 0.02056988 0.07486469 0.06284976
000260 d5 2c ad bd 74 4b 88 3d 1b c7 47 3d b1 8a 83 3d
       -0.08455817 0.066550165 0.048773866 0.06422938
000270 bb 21 2b 3d 97 9b e5 3a 4e 50 de bc a2 92 7a 3d
       0.041780215 0.0017517683 -0.027137902 0.061174996
000280 e2 9e bf bd 4a f2 1a 3d 4a 57 af bd b0 ab 30 ba
       -0.09356476 0.03782872 -0.08561571 -0.00067394506
000290 04 90 4f bd fa 76 85 3d bc c2 9b bc b0 9a 9d bd
       -0.050674453 0.065168336 -0.019013755 -0.0769552
0002a0 f6 77 2b 3b 48 82 54 bd 5d 64 99 3d 85 a6 72 3d
       0.0026164032 -0.05188206 0.07489846 0.059240837
0002b0 a1 f8 9f 3d 94 b3 5f 3d 6a 4a 20 bd 64 29 47 3c
       0.07811094 0.05461462 -0.039133467 0.012155864
0002c0 4a ef a2 bd 57 ab 11 3d d0 a3 2d 3c fa a2 70 3d
       -0.07955797 0.035563793 0.010598138 0.058749177
0002d0 c9 94 1d bd 5e 31 0f bd 80 e0 98 3c 0b 6e 6a bc
       -0.03847197 -0.03495919 0.018661737 -0.014308463
0002e0 20 a2 7c bc c2 02 b1 bd 0f c1 9e bd 96 4f fb bb
       -0.015419513 -0.08643104 -0.07751667 -0.0076693995
0002f0 d6 d1 1c 3d 6f 46 0d bd fe 77 30 bc 91 8f 9f bd
       0.038286053 -0.034491 -0.010770796 -0.07791055
000300 b2 2f b5 3d c3 12 7d bd ee c2 69 bd 58 c8 a8 3c
       0.08846988 -0.06178547 -0.057070665 0.020603344
000310 47 d8 aa bd 46 81 33 3d 81 8e 65 3d 82 91 12 3c
       -0.08342033 0.043824457 0.056044105 0.008945825
000320 a9 4c b9 bc e2 86 8a bd 42 04 73 bd 79 c3 5c bd
       -0.022619562 -0.06764008 -0.059330232 -0.053897355
000330 2a 07 86 3d 47 86 1c 3b f1 ab 52 3c 06 54 c7 bd
       0.06544335 0.0023883746 0.012858377 -0.09732823
000340 d2 92 89 bd 4a 5a a6 bd ee 79 b5 3d 9e 5f d3 bc
       -0.06717457 -0.0812269 0.08861147 -0.02580243
000350 cb fd 5b 3d 9e c2 1c 3d 66 58 5c bd 36 41 3d 38
       0.053708833 0.03827154 -0.05379524 4.5121844e-05
000360 90 06 bc bd 3b 47 aa 3d 2d 6a a1 bc 63 d6 96 bd
       -0.09180939 0.083143674 -0.019703949 -0.0736511
000370 dd 90 a6 3d 43 03 a5 bc 7c 68 02 3d 18 1d 73 3d
       0.08133099 -0.020143157 0.031837925 0.059353918
000380 39 21 5b 3d 59 6b da 3c f1 0b 24 bd 4f 8d 9f 3d
       0.05349848 0.026662515 -0.04005045 0.07790624
000390 bd 6b 98 bd f0 eb 47 3d 57 52 9c 3c 4f df 59 bc
       -0.074424244 0.048808992 0.019082231 -0.01329787
0003a0 85 34 bc 3c f9 91 8c 3d 58 05 83 bd 6a b9 24 3d
       0.022974262 0.068637796 -0.063975036 0.040215887
0003b0 58 9a a6 3c 94 b4 4f 3d ec 6d 72 3d 89 93 42 bc
       0.020337269 0.050709322 0.05918686 -0.011875995
0003c0 3a f0 ad 3d 0b b0 22 3d ac af 9e 3d 44 9b 8c 3c
       0.08493085 0.03971867 0.077483505 0.01716388
0003d0 23 68 33 bd a8 be b9 bd c5 0b 83 bd 04 7c 96 bd
       -0.043800484 -0.09069568 -0.06398729 -0.07347873
0003e0 93 93 38 bd 0d 34 9f bd b9 f6 39 3d f3 5f a9 bd
       -0.045062613 -0.077736 0.04540131 -0.08270254
0003f0 b2 4d 27 bd c2 50 3b 3d 37 5e db 3c 2d 84 f6 bc
       -0.04084558 0.045731314 0.026778324 -0.030092323

conv3.bias f4 [32]
000000 2f 32 be 3c 97 65 32 bd b3 0d 5a 3d e2 72 70 3d
       0.023217289 -0.043553915 0.05323572 0.05870331
000010 f8 57 9d bd 35 6b dd 3b 8e 9b 3f bd d4 26 5e bd
       -0.07682794 0.006757165 -0.046779208 -0.054236248
000020 fd 02 23 bd 2e 14 46 3d d5 f6 b7 39 9b 82 39 3b
       -0.03979777 0.04835909 0.00035088384 0.0028306607
000030 14 15 ca bc 3d 79 98 3c 80 ee 84 3d 10 92 02 3d
       -0.024668254 0.018612498 0.06490803 0.031877577
000040 df 39 9b bd 6d 4c f9 3c 24 27 9a bd 9b f7 05 bc
       -0.075793974 0.03043195 -0.07526997 -0.0081767095
000050 7f 33 17 3c 62 f0 91 bd 2a d5 5a bd 46 64 d7 bc
       0.009228586 -0.071259275 -0.053425945 -0.026292931
000060 14 97 99 bd fc 8c 4a bd a1 b3 79 3d 5d 22 b4 bd
       -0.07499519 -0.04945086 0.060962323 -0.08795617
000070 96 40 3b bd 6e e2 28 3d b0 84 ab bd ff c5 10 3d
       -0.04571589 0.041231565 -0.083749175 0.035345074

fc1.weight f4 [128, 1152]
000000 fe 08 07 3c 1c 93 98 3b 74 c1 93 3b f5 07 8f 3c
       0.00824189 0.0046562087 0.0045091454 0.017459849
000010 d8 14 16 3c de 25 76 bc a3 ef 26 3c 93 45 c5 3c
       0.009160243 -0.015023677 0.01018897 0.024081027
000020 df 18 91 3c c4 47 e9 3b 3c a6 c7 bb a0 aa 36 bb
       0.017712055 0.007119151 -0.0060928147 -0.0027872697
000030 86 8d a7 bb 50 0f e0 ba 9c 96 f9 3b d2 15 00 bd
       -0.0051133065 -0.0017094407 0.007616831 -0.03127081
000040 9b 13 9b 3c 02 63 20 bc 9d 64 0a bd d0 13 94 bb
       0.018930247 -0.00978923 -0.03378736 -0.0045189634
000050 e8 97 a2 bc 5d 41 2d 3c cc 3c ef 3b db d9 10 bd
       -0.019847825 0.010574666 0.0073009487 -0.035364013
000060 c6 a3 b4 bc 96 45 eb 3c 5c 37 8a bb e9 12 5c 3c
       -0.02205075 0.028719705 -0.004218025 0.013432243
000070 00 4c 8a b8 0e 47 2d 3c ea 70 06 bd f8 8e ed 3b
       -6.594509e-05 0.010576023 -0.032822527 0.007249709
000080 7a 91 37 bc eb 58 08 bd 0b c7 ce 3c 1a a3 ca bc
       -0.011204118 -0.033287924 0.025241395 -0.024735976
000090 8f e0 cd bc 71 72 e5 bc 3e ea 7d 3c d7 ec 4b 3c
       -0.025131492 -0.028008671 0.015497742 0.012446604
0000a0 ea 7d 4a 3c cb 8e ee bc 00 a4 8b 38 81 f9 ed 3c
       0.012359122 -0.029120823 6.658584e-05 0.029049637
0000b0 d3 58 21 3d ed 0b b5 bc 3e 06 d6 bb 8b bd b9 bc
       0.03939135 -0.022100413 -0.006531506 -0.022673389
0000c0 4a 5e 51 3c 68 72 5c 3b e7 c7 e1 3c 1c 04 56 bc
       0.012778828 0.0033637527 0.027561141 -0.013062503
0000d0 dd 61 da 3c bb a6 cb 3c 9a 4c 13 3c 86 c7 4f 3c
       0.026657993 0.024859777 0.008990431 0.012681847
0000e0 7a 70 0d 3c 31 16 94 ba 2a c7 58 bc 53 25 9a bc
       0.0086327735 -0.0011298117 -0.013231078 -0.018816626
0000f0 7e fc 33 3c 85 8a 66 bc 02 58 1f 3c 0d ac 99 3c
       0.010985492 -0.014071112 0.009725573 0.018758798
000100 9a dd da bc 6c 46 c8 3b 92 ce 30 bc fa 58 8e bc
       -0.026716996 0.0061119106 -0.010791438 -0.017376412
000110 44 da c0 3b e6 ad 2c bc 96 9a 1c 3c 65 e0 9e 3c
       0.0058853943 -0.0105395075 0.009558341 0.019394109
000120 36 00 ab bc 8c fe b7 3b d1 31 a8 3c fe c2 b0 bc
       -0.020874124 0.005615061 0.020531567 -0.021577355
000130 f8 e2 17 bb a4 ad bd bc ec de 80 3b 2c ed ca 3b
       -0.0023176055 -0.023154087 0.0039328244 0.006192824
000140 6d 00 bd 3c e6 64 9e 3b 80 d7 53 ba b4 0b be bc
       0.023071492 0.0048338054 -0.0008081123 -0.02319894
000150 51 a6 d2 bc 83 99 d6 3c b2 90 67 3c c4 f6 e7 bb
       -0.025714071 0.026196247 0.014133619 -0.0070789773
000160 94 9f e9 3b 7c b3 ca 3b e0 c2 9d ba 70 08 a1 3a
       0.007129619 0.006185947 -0.0012036227 0.001228584
000170 44 bc 98 3b 9e 0d 32 3c ff a7 e1 bc 2e 32 a9 bc
       0.004661115 0.010867504 -0.027545927 -0.02065381
000180 a6 29 20 bc 76 a0 07 bc 78 5c d6 bb 0a 3e 1f 3a
       -0.009775555 -0.008278003 -0.006541785 0.0006074613
000190 72 97 6f bc 6b e4 e6 3c 0a 07 ef ba b2 9a 50 bc
       -0.01462351 0.02818509 -0.0018236351 -0.012732195
0001a0 99 31 d2 3c 2c fd 7e 3c a0 6a 2d bc 58 6b 76 bb
       0.025658416 0.015563291 -0.010584503 -0.0037600603
0001b0 5e 2f e2 bc 64 09 48 3c 88 e1 8d 3b c1 9c 9b 3c
       -0.027610477 0.01220927 0.004329864 0.018995645
0001c0 58 64 77 3b 2b 50 e2 bc ed b3 d3 bc 89 7a 95 3c
       0.0037749019 -0.027626118 -0.025842631 0.018246906
0001d0 c1 10 6f bc 4e 6b ff 3c 31 00 e2 bc f8 41 13 bb
       -0.014591397 0.031179097 -0.027587982 -0.002246974
0001e0 ef 2a 89 3b c5 4f de 3c 36 38 30 3c c5 dc f6 3b
       0.0041860263 0.027137646 0.010755589 0.007533642
0001f0 28 0a 31 bc 59 92 a3 3c 0f f7 87 3c ca 32 46 bc
       -0.010805644 0.019967245 0.016597299 -0.01209707
000200 e0 dc 32 ba 7b 84 b2 3c 36 ca 5c bc 24 b1 ea 3b
       -0.0006823074 0.021791687 -0.013475945 0.00716223
000210 7e e6 57 bc eb 34 b6 3c 03 4a 8f 3c 33 a8 56 3c
       -0.013177512 0.02224203 0.017491346 0.013101625
000220 8b 0f df bc 8f b5 c4 3c cc 36 e7 3b 50 52 d0 bc
       -0.027229091 0.024012355 0.007056093 -0.025429875
000230 03 e0 f0 3c 5f a2 98 3c e0 79 4e 3a df d9 96 bc
       0.029403692 0.018632112 0.0007876437 -0.018414436
000240 a9 06 90 3c a3 e9 9b 3c da d7 40 bc 40 38 84 39
       0.0175813 0.019032305 -0.011770213 0.00025218911
000250 5f e5 ef 3c a6 cc d8 bc 62 56 b4 bc 20 44 c6 bb
       0.029284177 -0.026464771 -0.022013847 -0.0060506016
000260 b3 d0 df bc 97 e6 cf 3c 6c 67 fd bb 2b 13 b1 3c
       -0.027321195 0.025378508 -0.007733276 0.021615585
000270 af 73 d5 3c ae 71 06 3c 50 cd 37 bc 40 17 bc 3a
       0.026056139 0.008205814 -0.011218384 0.0014350191
000280 44 9e 4b bc e1 4c dc 3c c8 a3 cd bb cf 5b e8 3c
       -0.01242787 0.026892127 -0.0062756278 0.02836409
000290 73 78 d2 3c 20 93 56 3a 2e c3 41 bc 39 04 00 bb
       0.0256922 0.00081853755 -0.01182632 -0.0019533767
0002a0 dc be a4 3b d9 dc a7 3c d3 80 dd 3c e6 86 79 3c
       0.005027635 0.02049105 0.027038967 0.015229916
0002b0 a5 ed b9 3c 50 68 4c 3b f3 d5 9f 3c a8 c8 a0 bb
       0.022696326 0.0031190105 0.019511199 -0.0049067326
0002c0 9a 89 3f 3c 6b 40 f8 bb 5b 68 1a 3d e2 84 22 bc
       0.011690522 -0.0075760386 0.037697177 -0.009919377
0002d0 7b e5 5d bc ed ae fb bb 75 6a 72 3a c5 45 35 3c
       -0.013543482 -0.007680765 0.0009247431 0.011063998
0002e0 3e 10 b1 bc f2 7a f6 3b 11 ae 2b 39 de 5a 75 bc
       -0.02161419 0.0075219804 0.00016372676 -0.014975278
0002f0 0b 5c 7e 3c 86 9b 0d bd 86 71 fc bc 3e 93 ae 3b
       0.015524874 -0.034572147 -0.030815851 0.005327611
000300 dd 8e 95 3c f1 de 31 bc 36 48 00 bd 62 63 d9 bc
       0.0182566 -0.010856376 -0.031318866 -0.026536647
000310 00 2b e9 bc e6 ff 1d bc eb e4 23 3d 19 06 fc 3c
       -0.028462887 -0.0096435305 0.040013235 0.030764626
000320 51 b2 8f 3c aa 83 b6 bc 2b 60 f0 3c 95 e9 f4 bc
       0.017541083 -0.02227958 0.029342731 -0.029896537
000330 b7 d6 e0 bc 37 91 fc 3b 0d de 8a 3b b4 00 1b 3d
       -0.027446134 0.0077077406 0.0042378963 0.037842467
000340 d8 63 cb bc b2 ae 6f 3b c4 ad fe bc 9f 02 e7 3c
       -0.024827883 0.0036572632 -0.031088717 0.028199492
000350 06 61 b8 bc ac 72 3b 3c 44 80 74 3b a2 54 22 bd
       -0.022507202 0.011440914 0.0037307898 -0.039631493
000360 3a 35 12 bd 2d 5d 99 bc 43 dd ca bc 29 0f 6f 3c
       -0.035695292 -0.018721187 -0.024763709 0.014591017
000370 64 97 59 3b d8 3e f5 bc f9 75 cc bc c7 0b 10 bd
       0.0033201808 -0.029937193 -0.024958597 -0.03516748
000380 e0 e7 79 3c 18 72 18 bd ce a8 62 bc 1c 00 0e 3c
       0.015253037 -0.037218183 -0.0138341915 0.008667018
000390 32 48 a3 bc cc 10 e0 3b 89 6b 0b bd ff 0e 6c bc
       -0.019931886 0.00683794 -0.0340381 -0.014407872
0003a0 35 71 c5 ba 51 b7 19 bd 1c 0a 80 3b 22 b0 ec 3c
       -0.0015063646 -0.03752834 0.003907455 0.02889258
0003b0 da f7 fd bc 39 4c 82 bc 07 8a b4 bc 1e 8a c2 3b
       -0.031001974 -0.015905486 -0.022038473 0.005936875
0003c0 e4 f2 c5 bc 29 99 da bc e7 1d 43 bc 78 01 f1 bc
       -0.02416367 -0.02668436 -0.011908985 -0.029419646
0003d0 ee 84 32 bc bb c3 e8 bc 58 fb 91 bc 34 13 c0 3b
       -0.010895951 -0.028413644 -0.017820045 0.005861664
0003e0 ac bf 2b 3b 31 b5 c7 bb bf de 8b bc 1a bc 4f bc
       0.0026206775 -0.0060945977 -0.017073987 -0.012679124
0003f0 6a 76 9f bc c0 fb bc 39 a9 dd ed 3c d4 74 b1 3b
       -0.019465644 0.00036045723 0.02903636 0.0054155383

fc1.bias f4 [128]
000000 a7 a4 39 bc fe c2 b9 3a 05 99 dd 3b 69 0f f8 3c
       -0.01133076 0.0014172492 0.006762626 0.030280786
000010 c2 3d 82 bc 5d 48 d6 bc 4e 89 a0 3c a4 eb f4 bb
       -0.015898589 -0.026157552 0.019596722 -0.0074743796
000020 8a 8d 5b bc fe 4a 0e bd 65 59 6b bb 8e 23 39 3c
       -0.013400445 -0.034739487 -0.0035911438 0.011299981
000030 0e fd 76 bb 07 1c a9 3c 61 73 12 3c 7a 90 18 bc
       -0.0037687453 0.020643247 0.008938641 -0.00931179
000040 a7 95 a9 3c e2 27 b1 3c 30 df 04 bd ba f2 98 bb
       0.020701243 0.021625463 -0.03243941 -0.004667607
000050 1d 4e d6 bb 68 2e 0c bc 30 57 8d 3b 52 a8 e1 3b
       -0.0065400735 -0.008555986 0.004313372 0.0068865204
000060 18 ff 09 3c 3e 42 4e 3c 77 65 6a bc 51 4a 18 bd
       0.0084226355 0.012589036 -0.014306418 -0.03718025
000070 8a 20 19 bd dd c9 46 bc 84 0a 97 bc 2e d0 9a 3c
       -0.037384547 -0.012133089 -0.018437631 0.018898096
000080 45 ac af 3c 72 cf 01 bd 51 ff 05 3d 15 d1 99 bc
       0.02144445 -0.031691976 0.03271419 -0.018776456
000090 6c 9d 8a 39 48 05 93 bc c1 22 be 3c 0a 50 d5 bb
       0.000264387 -0.017946854 0.023209931 -0.0065097855
0000a0 49 76 0b ba 4d dc a2 3c a6 21 b5 bc 64 5c 7e bc
       -0.0005320055 0.019880438 -0.022110771 -0.015524957
0000b0 ca a2 2d 3c 96 a9 00 bd a3 29 b3 bc 3b 9e 94 3c
       0.010597894 -0.03141173 -0.02187044 0.018141856
0000c0 18 65 de bc d7 9d cc bc 36 93 76 bb 6f c1 1d 3b
       -0.027147815 -0.024977608 -0.0037624366 0.0024071594
0000d0 3b 99 8d bc d2 aa 66 bb 97 0b 71 bc 78 3d da bc
       -0.01728498 -0.0035197032 -0.014712236 -0.026640639
0000e0 51 ba 8c bc f9 e0 e0 bc 99 96 79 3b 68 64 cd 39
       -0.017178686 -0.027451025 0.0038084148 0.00039175455
0000f0 24 de cf 3b f0 7d 10 3c 17 47 61 bc 27 c3 1d bd
       0.00634362 0.008819088 -0.013749859 -0.03851619
000100 97 e0 3b bc fb ad 94 3c 3a 13 b1 bc 1e dc fc bc
       -0.011467121 0.018149367 -0.021615613 -0.030866679
000110 ad ae b8 3c ac e2 36 3c d3 68 e6 3c da 34 f1 bc
       0.02254423 0.011162441 0.028126156 -0.029444147
000120 c1 80 99 bb 14 62 c1 3c b3 a6 bf bc 31 44 91 3c
       -0.004684538 0.023606338 -0.023394918 0.017732712
000130 8c 2e 0c bd 39 bc d9 bc c0 2f 05 3c 9c 4c bc 3c
       -0.034224078 -0.02657901 0.00812906 0.022985749
000140 67 88 09 bd 6e b4 86 3c 14 d0 07 3d b3 e3 db ba
       -0.03357735 0.016443457 0.033157423 -0.0016776234
000150 b4 0a 75 b9 1a 79 d2 bc 08 1f c6 b9 7a bb c3 bc
       -0.00023369008 -0.025692511 -0.00037788623 -0.023893107
000160 aa d9 59 3c 14 45 7e 3c b6 31 b0 bc cf a3 4a 3c
       0.013296524 0.015519399 -0.021508079 0.012368157
000170 4f 41 36 bc 2f 4f a4 bc 50 3d 97 bb 68 d9 e8 3c
       -0.011123969 -0.020057289 -0.0046154633 0.02842398
000180 d9 45 f9 bc f4 ab 4c bc 74 b4 b8 bb e0 f0 20 3d
       -0.030428814 -0.012492169 -0.005636746 0.039292216
000190 81 17 e6 bc 47 45 aa bc 88 3f d8 b7 77 10 70 3c
       -0.02808738 -0.020784987 -2.577879e-05 0.014652363
0001a0 ff 28 62 bc a9 f0 49 3c 7c ca 75 bc 33 9a e6 3a
       -0.01380372 0.012325444 -0.015001889 0.0017593562
0001b0 22 c2 18 bb 9c af c3 bc d2 fa 29 3c d1 29 e7 3a
       -0.0023309072 -0.023887448 0.010374742 0.0017636364
0001c0 94 76 18 ba 7f eb 21 3c 1e 0f 2c 3c ff 22 47 3b
       -0.00058160094 0.009882807 0.010501651 0.003038585
0001d0 72 85 e4 bb 5a b5 3d 3c 59 e9 7a 3c 15 c2 5f bb
       -0.0069739157 0.011578882 0.0153144235 -0.0034142782
0001e0 c1 81 10 3c a9 30 fc bb 32 b5 6a 3c a1 26 f2 bc
       0.008819998 -0.0076962304 0.014325427 -0.029559435
0001f0 5b d7 4b bc 22 ea 4b bc 0b a8 a9 bc b7 4e 81 3b
       -0.012441481 -0.012445958 -0.020710012 0.003946151

fc2.weight f4 [2, 128]
000000 22 a0 c5 3d 3b 46 c5 3d 02 7b 36 bc 08 27 cd bd
       0.096496835 0.09632536 -0.011137726 -0.1001721
000010 78 05 0b bd 2e c9 5c bc e2 c3 8c 3c c0 d9 1b bc
       -0.033940762 -0.013475699 0.017183248 -0.009512365
000020 50 7f 9b 3d 3e 2a 22 3d 4b 96 ac 3d b2 72 7e bd
       0.07592642 0.039591067 0.084271036 -0.0621211
000030 36 f6 a3 3d 7a 25 46 3c 63 a4 9c bd 6e c8 9f bd
       0.080059454 0.012093896 -0.07648542 -0.07801901
000040 38 d7 d9 bc 83 46 a6 bc 79 30 29 3c df e0 58 bc
       -0.026591882 -0.020297294 0.010326498 -0.013237207
000050 c8 8c 8e 3d 7a eb 0d 3d 6b 22 12 3d 86 06 61 bd
       0.06960446 0.034648396 0.035677355 -0.05493786
000060 31 27 94 bd c1 13 40 3b 5d 32 70 3d 1e 23 7c bd
       -0.07234038 0.002930865 0.05864178 -0.061556928
000070 a3 3b f0 bc d1 7a 88 bc be eb 42 bd ed 4b 7e 3c
       -0.029325312 -0.016660126 -0.047588103 0.015521032
000080 75 37 bd bb 40 ea b2 bc d7 a3 76 bd ec e7 1a 3d
       -0.0057744333 -0.021840215 -0.060214844 0.037818834
000090 db 13 f3 bc 19 49 7a bd 3b 66 17 3d b9 59 9f bd
       -0.029672554 -0.061104868 0.03696273 -0.07780785
0000a0 df 67 d4 bc 9a da 8a bc 49 50 ef bc 0a c6 df bc
       -0.025928436 -0.01694994 -0.029213088 -0.027316112
0000b0 13 a2 03 3d 24 9f 2b 3d d5 1e ce bc dd 04 35 bd
       0.032136988 0.041899815 -0.025161186 -0.04419409
0000c0 29 dc 2a 3d 70 48 82 bd 67 04 92 bd 3d c5 20 3d
       0.041713867 -0.063614726 -0.07129746 0.0392506
0000d0 e1 38 f1 bc 0f aa 17 3d 5c 8b a4 3d 59 af 78 bd
       -0.029446067 0.037027415 0.08034393 -0.0607141
0000e0 b0 9a ad 3d 99 22 21 3d 68 a0 f0 bd ee ce 9b bd
       0.0847677 0.039339636 -0.11749345 -0.07607828
0000f0 c0 15 a2 3c 6a c8 3d bc 4d 51 86 3d 64 1b 58 bd
       0.019785762 -0.011583427 0.06558476 -0.052760497
000100 34 93 cd 3c 80 16 89 3d d4 91 2f bd ec 07 e6 bc
       0.025094606 0.06693745 -0.042863682 -0.02807995
000110 59 44 da 3d 68 0d 82 bd 33 da 86 3d f7 d5 fb 3c
       0.106575675 -0.06350213 0.06584587 0.030741675
000120 e9 00 cb bd e5 a7 78 bd 92 5f a8 bd d1 10 ec bc
       -0.09912283 -0.06070699 -0.082213536 -0.028816612
000130 16 d0 c3 3c 6f 3a a5 bd 00 34 af bb ef ad ca 3c
       0.023902934 -0.08067786 -0.005346775 0.024741141
000140 19 7c f0 bc 1a 5a 8c bc 67 4d c4 bd 8d 07 bd 3c
       -0.02935605 -0.017132808 -0.09585076 0.02307489
000150 ff b5 af bc 01 18 9a 3d 33 ad ec 3c a5 a8 ef 3b
       -0.021449087 0.0752411 0.028891182 0.007313805
000160 fd 7e 01 3d 15 df 68 bd 25 c1 a0 3d 94 70 29 bd
       0.031615246 -0.056853373 0.078493394 -0.04136713
000170 d2 74 30 bd 4c 76 6f bd 2a 8a 99 bd 91 2d 89 3d
       -0.04308016 -0.058462426 -0.07497056 0.06698144
000180 7b 52 88 bd 54 c0 3d 3c a2 bb 98 3d c4 c0 b6 bd
       -0.06656357 0.011581499 0.07457663 -0.08923486
000190 34 d5 06 3c 1d c9 93 3d c5 db 0d bb ac f9 36 bc
       0.0082295425 0.07216094 -0.0021645885 -0.011167925
0001a0 55 c4 dd bc 51 8b 33 3d a1 e0 86 3c d0 84 8b 3d
       -0.027071157 0.043834034 0.016464533 0.06812441
0001b0 e9 0d 14 bd d4 88 41 bd 93 fb 98 bd d4 ee b1 bc
       -0.03614608 -0.04724963 -0.07469859 -0.021720327
0001c0 38 36 26 3d 29 55 27 3d 87 de 41 3d d6 3f 13 3d
       0.04057905 0.0408527 0.04733136 0.03594955
0001d0 f3 b9 a8 bc bf 9b 7b bd 76 f8 83 bd c8 f5 9f bd
       -0.02059648 -0.061427828 -0.064438745 -0.07810551
0001e0 36 53 2f bd 47 15 c4 3c 0f dd 89 bd b6 1d b4 3c
       -0.042803966 0.023935927 -0.06731617 0.021986824
0001f0 f6 a7 14 3d 9c 7e 22 bd 3b 91 0a bc d4 f1 0d bd
       0.036292993 -0.039671525 -0.008457477 -0.034654453
000200 13 23 c3 bd ae 27 3a bd cd 76 09 bd 20 4e 04 bd
       -0.09528174 -0.045447998 -0.033560563 -0.03230107
000210 43 e3 5f 3d c6 73 6d 3c f2 94 f2 3c e9 eb a1 3b
       0.054660093 0.014492935 0.029612038 0.0049414528
000220 b4 bf 92 3d 8a c6 ca 3c 51 57 49 3d b4 73 1d 3d
       0.07165471 0.024752874 0.049155537 0.03844042
000230 f0 63 8e 3d e1 7c 64 3c c1 9c 0d 3d 46 1e 7e bc
       0.06952655 0.013945789 0.03457332 -0.015510147
000240 92 a3 04 bd 38 21 84 bd 90 f2 1a 3c 52 04 3a bd
       -0.032382555 -0.064516485 0.0094572455 -0.045414276
000250 1c 0b 5c bd 0b c8 8c 3d 89 fc f6 bc 82 25 0a bd
       -0.053721532 0.06874093 -0.030149715 -0.033727176
000260 e3 2f 84 bd e8 03 26 3d 28 e7 10 3d 26 ef cb 3c
       -0.06454446 0.04053107 0.035376698 0.024894308
000270 ac f4 b9 3c 67 17 8a bc 2e 46 87 3c 75 a2 af 3b
       0.022699676 -0.016856862 0.016512956 0.0053599426
000280 0a 62 13 3d 7e d1 d3 bc d3 0f 5a 3d fa 2a a1 bd
       0.03598217 -0.02585673 0.053237747 -0.07869525
000290 9d bd 6c bd ee 2e 4e bd a9 3e 52 3d 0a 87 0d bd
       -0.057798017 -0.050337724 0.05132929 -0.03455261
0002a0 c4 1b 15 3c 47 42 6f bd b5 a8 93 3d 2f 89 dc 3d
       0.009100858 -0.058412816 0.07209913 0.10768353
0002b0 35 5a 1e 3c 6c 4c 98 3d f7 fc 9a bd d3 06 85 bd
       0.009665062 0.07436451 -0.075677805 -0.06495442
0002c0 15 38 16 3d 95 c5 41 bd 53 39 ac bd d9 bd 99 3b
       0.036674578 -0.04730757 -0.08409371 0.004691821
0002d0 5c 61 0f bc 79 a7 47 bd 3b 75 cb 3c e0 11 86 bd
       -0.00875124 -0.0487437 0.024836173 -0.06546378
0002e0 3a 1b 96 3d 79 0f c4 ba f8 8b 42 bd cc 06 9d bd
       0.07329412 -0.0014958224 -0.047496766 -0.07667312
0002f0 31 01 35 bd bf a3 29 bd cf 31 13 bd 1f 27 4f bd
       -0.04419059 -0.041415926 -0.035936173 -0.05057442
000300 0f a3 d0 39 9d d3 bf bd 75 af 7a 3d 80 13 82 bd
       0.0003979434 -0.09366534 0.061202485 -0.063513756
000310 37 05 cd bd bc af 75 bd 18 81 a1 bd 85 a5 40 bc
       -0.1001076 -0.059982046 -0.07885951 -0.011758213
000320 57 c7 13 3c 1a aa 80 bd 50 df 86 3d d6 a5 83 3d
       0.009019694 -0.06282444 0.06585562 0.06428115
000330 c5 2f d4 3b fb 30 a2 bd f5 76 7e 3d 36 78 90 bd
       0.006475421 -0.079194985 0.062125165 -0.070541784
000340 21 9a 9b bc 81 52 e5 3b 9a 0d 51 bb bc 3f 65 3d
       -0.018994393 0.0069983606 -0.0031898976 0.055968985
000350 7f a2 de 3c 8b 6a 36 3d 21 f0 ee 3c 5a 82 97 3c
       0.027177094 0.0445352 0.029167237 0.018494774
000360 dd e1 02 3d 19 31 26 3c c3 1a 77 3d e3 7e 34 bd
       0.03195368 0.010143542 0.060328256 -0.04406632
000370 93 9b 59 bd f5 90 36 3d 99 f5 a1 3d 47 e8 4f bd
       -0.053126883 0.044571836 0.07908172 -0.050758626
000380 cc fd a4 bc 5c b7 91 3d 05 09 34 3c 1a f2 57 bc
       -0.020140551 0.07115051 0.010988479 -0.01318028
000390 44 94 ab bd fe 19 57 bd 8d 18 97 bd b4 9e 84 3c
       -0.08377889 -0.052515022 -0.073777296 0.016188957
0003a0 44 30 88 3a e0 d1 36 bd 4d bb 94 bd d4 0d 67 3c
       0.0010390361 -0.044633746 -0.07262287 0.014102418
0003b0 05 ba 6f 3d e1 e3 38 3d 9a b0 a9 bd d1 08 d0 3d
       0.05852701 0.045139197 -0.08285637 0.101579316
0003c0 ff f2 59 3c 0f c4 19 bb 33 ae 78 bd 39 fe 2e bc
       0.013302564 -0.0023462807 -0.060713004 -0.010680729
0003d0 7b e4 9c bc 78 70 cc bc a7 e2 23 bd 96 5c a3 bd
       -0.019151917 -0.024955973 -0.040011074 -0.07976644
0003e0 31 a3 86 bd 0a 62 d7 3d 62 03 82 3d 69 08 8d bd
       -0.06574095 0.10516746 0.063483015 -0.0688637
0003f0 63 0b 8b bd f1 06 aa bc 7e 17 b8 bd 5d dd 07 bd
       -0.06789281 -0.020755263 -0.08988856 -0.033170093

fc2.bias f4 [2]
000000 3c 19 a3 3d 7e a1 5b 3d
       0.079637975 0.053620808
