models/2024-05-10_11-20-21_Model.onnx (onnx, 516192 bytes, 10 tensors)

conv1.weight f4 [8, 1, 3, 3, 3]
000000 58 6a 0c 3e 99 51 d8 3d 3d 61 d5 3d e6 e4 16 3e
       0.13712442 0.105624385 0.10418937 0.14735755
000010 ff 80 6c bd c9 bf 23 3e d6 8f f5 3d f0 9e 1f 3e
       -0.057740208 0.15991129 0.11990325 0.15587974
000020 0d 5b 3b 3e 66 da 13 bc 17 d7 dc bc 45 cf ce bd
       0.18296452 -0.009024238 -0.026958032 -0.10098127
000030 a2 48 0e bd c6 bb 14 be c6 c5 44 3e 97 b7 1d be
       -0.034737237 -0.14524755 0.1921607 -0.15402065
000040 a4 57 b6 bc 35 ae 70 bd a0 a5 4c bb 29 f0 db 3d
       -0.022258587 -0.058759887 -0.003122665 0.10739166
000050 f4 15 f5 bb 66 0a bf 3b ff 1c 34 3e 4b 22 2f be
       -0.0074794237 0.005830097 0.17589186 -0.17102925
000060 ec 77 40 3e 78 3c ab 3d 3d 1a 47 3e af 69 01 be
       0.18795747 0.08361143 0.19443603 -0.12637971
000070 88 c6 35 be 66 7d 5f 3c 2d f0 02 3e 50 8b 1b bd
       -0.17751515 0.013640737 0.12786932 -0.037974656
000080 7b af 3c be b3 ff 2b 3e c7 04 ff bd 10 9c f3 bc
       -0.18426315 0.1679676 -0.12452083 -0.029737502
000090 1a c6 41 3e d6 54 2b bd d8 68 9c 3d 87 76 09 3e
       0.18923226 -0.041828953 0.07637185 0.13424121
0000a0 af 98 aa 3d 86 51 1b be 1a 95 2f 3e 19 96 cc 3c
       0.08329903 -0.15167817 0.17146721 0.024973916
0000b0 7b 4d 35 3d b7 9a 95 3d b0 bf 10 3e 02 cf a7 bd
       0.044263344 0.073049 0.14135623 -0.081937805
0000c0 f7 5d 1d be 77 e7 03 3c df 53 94 3c 26 89 00 3e
       -0.15367876 0.008050791 0.0181064 0.12552318
0000d0 dd fa 05 bd 41 8e 1d bd f0 20 a8 3d fb f5 66 bc
       -0.032709945 -0.038465742 0.08209407 -0.014096732
0000e0 30 71 a7 3d bd f9 54 3d e9 4f 2e 3e 6e 67 97 bd
       0.08175886 0.05199598 0.17022671 -0.073927745
0000f0 55 60 1b bd 95 f8 b3 bb fe 11 db 3c 50 20 2e be
       -0.037933666 -0.00549228 0.026741978 -0.17004514
000100 cf 24 30 be 5a ad a1 3d 8b 9b 8d 3d 74 09 02 be
       -0.17201541 0.07894392 0.06914433 -0.12698919
000110 34 b1 7b 3d ad c3 9c bd 72 0f 2b be 24 8f 5a 3d
       0.06144829 -0.0765451 -0.1670511 0.053359166
000120 8a 18 13 be 64 b2 d2 3d 44 61 0a 3e 93 74 9a 3d
       -0.1436483 0.102879316 0.13513666 0.07541766
000130 b4 fc 37 3d 16 fb b1 3d 56 76 8d 3d d5 52 e7 3c
       0.04491873 0.08690469 0.069073364 0.02823774
000140 af 3e 12 be b0 74 19 be 38 b5 fd 3d d7 15 22 be
       -0.14281724 -0.14985919 0.1238808 -0.15828644
000150 2d 8b 23 be 3d 73 37 3e f2 71 a4 3d 04 24 2c 3e
       -0.1597106 0.17915054 0.08029546 0.16810614
000160 2a be e3 3d 1b 5f 05 be 85 8e 16 3e f4 40 c3 bd
       0.11120255 -0.13024561 0.14702804 -0.09533873
000170 c4 f0 9c 3d 4a ae ac bd b5 11 03 3d 82 6a 63 bd
       0.0766311 -0.084316805 0.03199931 -0.055521496
000180 86 15 24 be 90 9d 0b 3e f3 7a 13 3e 04 75 37 3e
       -0.16023836 0.13634324 0.1440237 0.17915732
000190 10 ba c3 bd 8a 31 ca bd 2b 01 f4 3c ec 7f 29 3e
       -0.09556973 -0.0987273 0.029785713 0.16552705
0001a0 1a 9e 13 be 69 3c e5 3d c2 bf 16 be 53 52 08 3e
       -0.1441578 0.11193163 -0.14721587 0.13312654
0001b0 c7 a2 3f 3d 7a 77 b7 3d a6 f7 ba 3d ec 75 81 3d
       0.046786096 0.08958335 0.091292664 0.0632132
0001c0 6f 9b 35 be 3b e1 6d bd d0 77 d1 bd bb 22 ae 3c
       -0.17735074 -0.058076125 -0.102279305 0.021256795
0001d0 f6 a4 0b be 7e a4 0b 3e 27 10 50 3c 32 8c 34 be
       -0.13637146 0.13636968 0.0126991635 -0.17631605
0001e0 9c 76 34 be 07 fc 2a be 7d 6c 64 bd 81 b3 17 be
       -0.17623371 -0.16697703 -0.055767525 -0.14814569
0001f0 9e 85 1e 3e d2 6f 29 3e f3 a7 08 39 02 ce 10 be
       0.15480658 0.16546562 0.00013032537 -0.14141086
000200 e5 3b 28 3e 7e d5 bf bd d2 73 a0 bc d3 73 1f 3e
       0.16429098 -0.09366892 -0.019586477 0.15571527
000210 46 c7 51 bd 87 2d 2b 3e 1e cc a0 3d f8 4e 18 be
       -0.051215433 0.16716586 0.07851432 -0.14873874
000220 12 c5 f6 bd bf ec de bd a1 93 33 be d3 5c ab bd
       -0.12049307 -0.108849995 -0.17536785 -0.08367314
000230 2b 76 36 3e 19 c2 32 bd 39 56 f9 bb dd 04 b7 3d
       0.17818515 -0.043642137 -0.0076091555 0.089364745
000240 85 37 66 3d 82 68 07 bd 11 e3 1a 3e f3 38 8d 3d
       0.05620529 -0.03305865 0.15125681 0.06895628
000250 e9 72 a0 3c 22 5a ae bc 5d b0 e3 bd 49 cb 25 3e
       0.019586043 -0.021283213 -0.11117623 0.16190828
000260 ca 67 0c 3e 28 e0 3a be f3 80 0d 3e 82 92 b3 3c
       0.13711467 -0.18249571 0.13818721 0.021920446
000270 aa 4e 20 3e 5b af 04 be da a0 f5 3d b7 33 04 be
       0.15655008 -0.12957518 0.119935706 -0.12910353
000280 1e 3a 46 3e bc cf 2e bc 07 15 98 3d 59 28 3a be
       0.19358107 -0.010669645 0.07425886 -0.18179454
000290 a7 5a 3c 3e 2f af fe 3d f7 e2 d3 bd f1 17 8d 3d
       0.18393956 0.12435757 -0.103460245 0.06889332
0002a0 65 c0 ac 3b c8 e3 58 bc 2f a4 d2 3d b2 a9 f0 3c
       0.0052719587 -0.013237901 0.10285222 0.029377792
0002b0 7b c3 97 3d 22 54 2b be 80 ae 47 bd a2 4b d4 3d
       0.07410332 -0.16731313 -0.0487504 0.10365988
0002c0 ab d7 c3 3c e6 6c 18 3e 3f 00 1d 3e 34 bc 17 3c
       0.02390655 0.14885291 0.15332125 0.00926118
0002d0 57 2a 7d bc 5a 90 3d bd 2c 0f 1e 3e 76 bc b6 bd
       -0.015451989 -0.046280243 0.15435475 -0.08922665
0002e0 98 3b 91 bd fc 4c 03 be 19 63 15 3e 93 2b de bd
       -0.07091445 -0.12822336 0.14588584 -0.10848155
0002f0 8e fa 34 bd 86 b7 9b 3d df 64 1e 3d 53 d9 0b 3e
       -0.04418426 0.07603364 0.038670417 0.13657121
000300 7f 84 38 be 28 bd 03 3c 5c 4c e4 3d 1e 63 bc bd
       -0.18019293 0.008040704 0.11147377 -0.091985926
000310 4e 9a 0d 3e 4d 2c 23 3e 3f 6e d4 3a 4b cf 6b bc
       0.13828394 0.15934868 0.0016207172 -0.014392684
000320 e1 f5 19 3e 11 be 04 be 8b cd b9 3d 5f fc 1e bd
       0.15035202 -0.1296313 0.09072407 -0.0388149
000330 b6 9b f1 3d 86 80 46 3c f0 38 0c 3e e9 13 fd 3d
       0.11797278 0.012115603 0.13693595 0.12357313
000340 e7 9f 87 3d 9a 7a dc bd 43 13 18 3e 7a 03 18 3e
       0.06622296 -0.10765572 0.14851098 0.14845076
000350 2a b1 d1 bd 0f e2 0b 3e 0b 2d cb 3d a8 99 81 bd
       -0.102388695 0.13660453 0.09920701 -0.06328136

conv1.bias f4 [8]
000000 99 60 ed 3c 9e c3 21 bd 22 ad b2 bd 46 40 c2 3d
       0.028976725 -0.039493196 -0.08724429 0.094849154
000010 de f0 0c be eb 8e ac ba 77 a3 32 3d 21 5b 3f be
       -0.13763759 -0.0013165151 0.043612923 -0.18687107

conv2.weight f4 [16, 8, 3, 3, 3]
000000 a1 e4 46 3d 18 79 5d 3c 81 70 9c bc c4 2c 3f 3d
       0.04855788 0.0135176405 -0.019096615 0.04667355
000010 13 bb ca ba 65 94 7f 3d 7d d5 2b 3d a1 9f 61 bd
       -0.0015467129 0.06239738 0.041951645 -0.055083875
000020 32 40 84 3d a7 14 46 bd b6 53 7c 3b 7d b1 55 3d
       0.06457557 -0.04835954 0.0038502044 0.05217122
000030 48 91 a9 3c 3d e3 89 3d bf 2c 82 3c 7b f6 0b bd
       0.020699158 0.067327954 0.015890477 -0.03417061
000040 aa 58 ce 3c 84 32 21 3d 3e a7 1d 3d b2 4e 81 bc
       0.025188763 0.039354816 0.038489573 -0.015784595
000050 78 37 22 bd 5c 1a 0e bd ca aa 62 3b c2 f9 eb bc
       -0.03960368 -0.034693107 0.0034586661 -0.028805617
000060 90 5f 15 3d 13 f8 53 3b 2b f0 30 3d 51 76 a1 bc
       0.03646809 0.0032343909 0.043197792 -0.019709738
000070 f8 fd 06 bd 3b e1 b1 3c d7 7e b9 3c ad 28 bf bb
       -0.032957047 0.021713844 0.02264349 -0.0058337064
000080 55 b2 7e bd 74 ba 2a bc ef 60 bd bb 58 78 e7 bc
       -0.06218179 -0.01042043 -0.0057793777 -0.028255627
000090 40 56 14 3c 47 a9 f6 bb df ac 10 bd af 50 7a 3d
       0.009053767 -0.0075275037 -0.035321113 0.061112102
0000a0 28 84 ea 3c bc 45 18 3d 40 a9 7d bd 17 a7 90 3d
       0.02862747 0.03717588 -0.061928988 0.0706312
0000b0 ff 72 d8 bc a5 c7 2f bd e8 35 74 3d 33 f5 7c 3d
       -0.026422022 -0.042915005 0.05962172 0.061757278
0000c0 5c 27 63 3d 5d 74 ba bc 0f c1 c2 3c 35 12 04 bd
       0.055457458 -0.022760564 0.023773698 -0.032243926
0000d0 07 c9 89 3d d0 8a db bb 48 88 43 bc f6 d5 79 3d
       0.06727796 -0.0066998973 -0.011934347 0.060995065
0000e0 28 98 ea bc 34 fd cc 3c e3 88 76 3c 31 ee f3 bc
       -0.028637007 0.02502308 0.015047285 -0.029776664
0000f0 e8 ef ae bc 36 47 5a 3c 80 8c f1 bb 98 7a 32 bd
       -0.02135463 0.013322642 -0.0073714852 -0.043573946
000100 22 9c 6d 3b 91 7d 83 bd b1 be 40 bc e8 51 2b 3c
       0.0036256392 -0.06420434 -0.011764214 0.01045654
000110 13 81 b0 bc a7 17 42 3d ae bb 8b bb b4 b0 82 bd
       -0.021545922 0.047385838 -0.0042643165 -0.0638136
000120 45 23 3d bd e1 68 80 3c 58 d0 57 3b 35 67 1b 3c
       -0.046176214 0.01567501 0.003293058 0.009485056
000130 fd a8 91 3d 1c 3e 4f 3c 4e b2 4d bd 66 fb 68 3d
       0.0711231 0.012649085 -0.050218873 0.056880377
000140 46 4e 7c bd 02 28 b0 3c 55 7e f9 3c 44 e6 6e bd
       -0.061598085 0.021503452 0.030455748 -0.058325067
000150 ac 3b be bc b9 0e d2 3c 45 75 cf 3b d6 46 72 bd
       -0.023221813 0.025641786 0.0063311183 -0.059149586
000160 98 3d 2a bd 25 2c 6f bd 69 a9 8c 3b 9f 3c 23 3d
       -0.041562647 -0.05839171 0.004292656 0.039852735
000170 b3 63 11 3d 27 5a c0 3c a4 98 d9 bc c2 bf 50 3d
       0.03549547 0.023480488 -0.026562043 0.050964125
000180 c7 4d 6c bd 7d c2 10 3d cc c8 1b 3b a3 63 36 3d
       -0.05769136 0.03534173 0.0023770807 0.044528615
000190 b3 0f a0 bb 34 40 e1 bc c7 ca 15 bd c3 64 88 3c
       -0.004884684 -0.027496435 -0.036570337 0.01664961
0001a0 ca 7f 44 3b 89 51 0c bd 21 5f 57 3d 1b 94 7b bd
       0.0029983395 -0.034257445 0.052580956 -0.06142054
0001b0 bc 89 c7 bc 82 f4 4e 3d 5b 52 99 3b 8f 9d 95 bc
       -0.024357669 0.05052615 0.004679007 -0.018263606
0001c0 39 80 73 3c 8d 16 56 bd a9 d8 49 3d 8e e7 a3 bc
       0.014862114 -0.0522676 0.04927889 -0.020007875
0001d0 2d 8c 0d bd 47 c1 00 bd 78 fa 84 bc 27 22 2c 3d
       -0.03455751 -0.031434324 -0.016232714 0.042024758
0001e0 b4 54 28 bc 1e 99 88 3d 58 90 23 bd 34 44 81 3b
       -0.010274101 0.0666983 -0.03993258 0.003944898
0001f0 33 4c ad bc 34 79 4a bd 3e 13 2f 3d 77 a1 fd bb
       -0.021154499 -0.049431995 0.04274296 -0.0077401954
000200 12 bd 7c bd 88 1a 44 3d c8 57 6d bc a9 46 a9 bc
       -0.06170375 0.047876865 -0.014486261 -0.020663576
000210 ea ce 52 bd 3d 76 83 3d 76 55 0e 3d ba b5 69 3d
       -0.05146686 0.064190365 0.03474947 0.057058074
000220 d0 89 22 3d 74 df 2d 3d 7e 81 8b bd 62 b3 4c 3d
       0.03968221 0.04244943 -0.06811808 0.04997576
000230 e1 c9 79 3d 6c 28 8c bc a2 04 b2 3c c7 81 0a 3d
       0.060983542 -0.017109118 0.021730725 0.03381517
000240 38 c1 6e 3d 60 6d 96 3b 17 5b a8 ba da d9 f7 3c
       0.058289737 0.0045906752 -0.001284453 0.030255247
000250 32 c8 10 bd a6 a5 2b 3d d5 77 45 bd e0 09 37 3d
       -0.03534717 0.04190602 -0.048209984 0.044687152
000260 22 54 d0 3c 5d 1f 1c bd 85 17 22 3d 09 2e ef 3c
       0.025430743 -0.038115848 0.03957321 0.029196756
000270 06 17 3f 3b 72 a5 f5 3c 34 8b 87 3c 93 d3 6d bc
       0.002915801 0.029986117 0.01654587 -0.014515775
000280 d3 dd a2 3c b4 24 53 bd 68 11 84 bc ac e0 fc 3c
       0.019881165 -0.051548675 -0.016121581 0.03086885
000290 7d b4 2f bd ce ba 44 bd 86 e1 7b bd 89 37 65 bc
       -0.042896736 -0.048029713 -0.061494373 -0.013990291
0002a0 58 40 f4 bc fc 4d 0b bd c7 f3 8a 3c 2a 43 7d bd
       -0.029815838 -0.03400992 0.016961945 -0.06183163
0002b0 55 f0 6e 3b 1f 5d ca 3c f5 8a 7a 3d b4 70 85 3d
       0.0036459167 0.024702607 0.061167676 0.06515637
0002c0 d5 a5 ac 3c 70 1f 81 3d ed d8 ab 3c 01 c8 1e 3b
       0.021075169 0.06304824 0.020977462 0.0024228098
0002d0 fb da 83 3d d6 f4 de bc e6 10 76 bc cf f9 7d 3d
       0.064382516 -0.027216356 -0.015018677 0.062005814
0002e0 f9 ba 14 3c 92 c9 0b bb f3 35 e2 bc d9 55 a6 3c
       0.009077781 -0.0021329862 -0.027613616 0.020304607
0002f0 b3 9b 51 38 2f 98 21 bd f8 65 88 3c c5 31 80 3d
       4.997449e-05 -0.039451774 0.016650185 0.06259493
000300 2d 65 10 3d 67 46 23 bd fb be ae 3c af 21 d9 3c
       0.03525274 -0.039862063 0.021331301 0.02650532
000310 9b 2d f5 3c e6 8d af bc 60 14 41 3c 0d a3 8e bc
       0.029928973 -0.021429967 0.011784643 -0.017411733
000320 ab 79 80 3c 50 4b 0e bc f4 7f dd bc b9 ad 88 3c
       0.015683016 -0.008684948 -0.027038552 0.0166844
000330 d9 dc 0b bd 22 f6 c0 3b 24 62 28 3d 62 52 2d 3c
       -0.034146164 0.0058887163 0.04110922 0.010578724
000340 38 0b 68 3d fd 3e ea bc 38 52 70 bd 9c ec a1 3c
       0.056651324 -0.028594488 -0.05867216 0.019766144
000350 88 60 4c bc 69 4b c3 3b 54 84 df bc b7 41 56 3d
       -0.012474187 0.0059599173 -0.027284779 0.052308764
000360 ae fc 07 3d c0 3a 00 3d 33 09 79 bb bd 9d 17 3d
       0.03319996 0.03130603 -0.0037999868 0.037015665
000370 6a 08 28 3d 71 57 fe ba c3 23 b5 bc 78 b6 b7 bb
       0.04102365 -0.0019404722 -0.02211178 -0.0056064688
000380 a5 78 43 3d b2 09 ee 3c 86 b1 7c bd df 20 57 3d
       0.047722477 0.029057357 -0.061692737 0.052521583
000390 26 c7 d1 3c be fd 26 bd 0d f1 be b8 ab 47 85 3d
       0.025607657 -0.04076933 -9.104805e-05 0.0650781
0003a0 39 47 93 3a 42 87 2c bc 7e ac 2a 3c e9 f1 25 3d
       0.0011236436 -0.010530295 0.010417102 0.040513907
0003b0 21 7d fa bb 86 42 9e 3c 8b b4 50 bd 37 5f 20 bc
       -0.007644311 0.01931883 -0.05095343 -0.009788326
0003c0 04 48 7e 3d 2b a8 1d 3d 41 2e 2b bc f8 c4 30 bd
       0.0620804 0.038490456 -0.0104480395 -0.043156594
0003d0 4a cc 9a 3c c1 a4 23 3b f0 7d aa 3c 60 1a f2 bc
       0.01889624 0.0024970027 0.020812005 -0.029553592
0003e0 ac 71 4c bd 70 ed 0a 3d 0c 78 73 bd 1b 4a 7f 3d
       -0.049913093 0.033917844 -0.059440657 0.06232653
0003f0 30 6e b2 bc 8c 84 85 bd e4 a0 4c bd 87 a6 80 3d
       -0.021781057 -0.06519422 -0.049958125 0.062817626

conv2.bias f4 [16]
000000 52 22 6e 3d ad 30 38 bd 40 4c f5 bc 64 b3 39 bd
       0.0581382 -0.044968296 -0.029943585 -0.045337096
000010 41 57 23 bd e4 96 6a bd 0d ee 8c 3d 88 6d c7 bb
       -0.039878134 -0.057272807 0.06881342 -0.006086055
000020 af 09 e8 bb cb 66 e4 bc a0 4b 8e 3d a7 05 5c 3d
       -0.0070812325 -0.027881047 0.06948018 0.053716328
000030 57 eb 62 bc 35 4d c6 bb e8 d0 4a 3d 53 b0 0f 3c
       -0.013850055 -0.0060516843 0.049515635 0.008770066

conv3.weight f4 [32, 16, 3, 3, 3]
000000 a6 b9 2a bd 7c ec 4c bc 10 4c 00 bd d2 a2 2c bc
       -0.041680954 -0.012507554 -0.03132254 -0.010536866
000010 59 f2 15 3c b2 34 13 3d 79 17 ab bb d9 13 94 bc
       0.009152018 0.035938926 -0.005221304 -0.01807587
000020 0f 89 05 bd 61 f3 44 3d b9 e7 35 bd 9b 4a 17 bd
       -0.032601412 0.048083667 -0.04441044 -0.036936384
000030 b3 78 3c 3c 51 68 28 bd ed 45 41 3d 5c d7 2f bc
       0.011503386 -0.04111511 0.047185827 -0.010732498
000040 7a 5a 1e bd 9d e2 0e 3d 37 18 27 3c e8 44 4e 3d
       -0.038660504 0.034884084 0.010198644 0.050358683
000050 a3 40 00 bd c1 0c 54 3c bc 5b 3d 3d 29 b7 63 bb
       -0.031311642 0.012942494 0.046230063 -0.0034746623
000060 bd 7f bb 3c 6a 1d dc bc df b9 11 bd e0 15 4c 3d
       0.022888059 -0.026869494 -0.03557765 0.04982555
000070 e3 5a 90 3c 83 f1 e5 3c 8f f8 a9 bc c1 34 d0 3c
       0.017621463 0.028069263 -0.020748405 0.02541578
000080 60 b7 d0 bb 73 e5 0f bd e4 a2 8f 3b f7 7e 11 bd
       -0.0063695163 -0.03513093 0.0043834317 -0.035521474
000090 75 88 cf bc 75 e7 4c bc 2b f8 13 bd 8f 9f f0 3c
       -0.025333622 -0.0125063555 -0.036125343 0.029372958
0000a0 20 0d b9 3c 42 53 c9 3c 20 a8 e6 3c 75 d8 00 3d
       0.022589266 0.024575833 0.02815634 0.03145643
0000b0 88 20 18 3d c4 91 2b 3d 61 da 95 3c 02 66 60 3b
       0.0371404 0.04188706 0.018292608 0.003424049
0000c0 9a ff 1a bd 4b b0 32 bd 44 d6 1c 3d 57 3e 72 3c
       -0.037841417 -0.043625157 0.038290277 0.014785371
0000d0 66 7d 8a bc ae ab 0e 3d 2e bb 3c 3d b1 b9 87 bc
       -0.016905498 0.034831695 0.046076946 -0.016568037
0000e0 d5 34 02 bd 42 bd 1c bc ac c1 b3 3b c8 f0 c2 3c
       -0.031788666 -0.009566607 0.005485734 0.023796454
0000f0 7a 1d 11 bd f9 c1 28 3d 42 05 04 bb b2 3d 2e bd
       -0.0354285 0.04120061 -0.0020144735 -0.042539306
000100 64 cf 21 bd 7d 54 85 3c ac 24 2a bd 8a b4 8a 3c
       -0.039504424 0.016275639 -0.04153888 0.01693179
000110 2f a6 9a 3c 7d de 2c 3d 8d d5 51 3d 09 89 ec 3b
       0.01887807 0.04220437 0.05122905 0.0072184843
000120 3d 2e 09 3d 6a 7a 36 3d 5c fa 1a bd 0a a3 31 3a
       0.033491362 0.044550337 -0.037836418 0.0006776309
000130 0e 1f 50 3d 46 47 f1 3b 92 27 76 bc 09 f7 3f 3d
       0.050810866 0.007363233 -0.015024083 0.04686645
000140 08 6d b7 3c 60 b2 08 bd b5 27 0e bb f0 82 f5 3c
       0.022390857 -0.033373237 -0.0021691148 0.029969662
000150 e6 9c d5 3c c4 51 39 3d ec 9b 41 3d 3d 5e f5 3c
       0.026075792 0.045243993 0.04726784 0.029952163
000160 a4 8b 05 bd 42 d2 16 3c 33 36 34 3d 27 c2 96 bc
       -0.032603875 0.009205403 0.043997 -0.018403126
000170 dc 1b 3a bd f4 55 00 3c 82 f5 13 3d 95 dd 0a 3c
       -0.045436725 0.007832993 0.036122806 0.008475681
000180 ab 8a 6a 3b dc 6e db bc ed 2b 18 3c 09 91 ef 3c
       0.003578822 -0.02678626 0.0092878165 0.029243963
000190 bd 42 4c 3d fb 8b 00 bc f7 37 0d 3d da a1 99 bc
       0.049868334 -0.007845874 0.0344772 -0.018753935
0001a0 f9 85 b9 3b 5c 8e 82 3b fa 93 38 3c 65 7e 0b 3c
       0.0056617227 0.0039842557 0.011265749 0.0085140215
0001b0 10 e0 28 bc f5 bf 35 3d ba 7a c0 3c 9c 7b 06 3d
       -0.010307327 0.044372518 0.02349602 0.032832727
0001c0 ff f7 8b 3c 53 69 1b 3d 14 f2 c7 3b 6e c8 5d bc
       0.017086027 0.037942242 0.006101856 -0.013536556
0001d0 40 fe 24 3c 76 c5 00 bd 53 91 66 3b 57 11 03 bd
       0.010070384 -0.031438313 0.0035181835 -0.03199896
0001e0 b5 9f 1c bd c0 ee 1d bd 15 82 27 bd d3 09 88 bc
       -0.038238246 -0.038557768 -0.04089554 -0.016606247
0001f0 28 79 09 bd d9 c4 14 3d 45 a0 ac bc 38 e7 73 bb
       -0.03356281 0.03632054 -0.021072516 -0.0037216675
000200 a5 f5 8a b9 3c 73 eb bc e6 b6 0c 3d 17 8d 22 bd
       -0.0002650443 -0.028741471 0.034354113 -0.039685335
000210 11 d8 2f 3d fc 90 0c bd f1 52 26 bd 61 24 5a bc
       0.042930666 -0.034317955 -0.040606443 -0.0133143375
000220 ad ec cb 3c 08 fe 1f bd fe d7 c3 bc 9f 7f 27 bb
       0.02489313 -0.039060622 -0.023906704 -0.0025558246
000230 ac cf e1 bc fb 7e 9f 3c c1 39 82 bb 58 0f 3d 3d
       -0.027564846 0.019469729 -0.00397417 0.04615721
000240 63 cb 8b bc da 54 07 3d 5f 9f ab bc d2 cf 2e bd
       -0.017064756 0.033039905 -0.020950017 -0.04267866
000250 46 7e 30 3d e6 0e a5 bc 43 92 b9 3c df 7a 93 3c
       0.043089174 -0.020148706 0.02265275 0.018002925
000260 cf d7 18 3c 7a 01 35 3d 5a fd 1c 3d 90 5c 5a bc
       0.0093287965 0.04419086 0.038327552 -0.013327733
000270 4e a8 2b bd b0 ca 1a 3c 2d f7 3e bd 83 fa eb bc
       -0.041908555 0.0094477385 -0.046622444 -0.028805977
000280 d0 e7 32 bb 47 f1 ea bc 75 1f 5a bc da 54 1f bd
       -0.0027298816 -0.028679503 -0.013313164 -0.03889928
000290 2b 08 b9 3c 6a c4 35 bc c5 c8 a0 bb 1a 60 c7 bb
       0.022586903 -0.011094192 -0.004906746 -0.0060844542
0002a0 8b 68 b4 bc ef b7 e0 bc 25 19 28 bd bb 06 e0 3b
       -0.022022506 -0.027431456 -0.041039605 0.00683674
0002b0 f8 db 1e bd 8b 14 36 bc 30 98 3c bc 3e 78 a2 b9
       -0.038783997 -0.011113296 -0.011510894 -0.00030988635
0002c0 20 1d 37 3d 9b 74 cd bc f5 fb 95 3c 54 10 4d 3d
       0.04470551 -0.025080016 0.018308619 0.0500644
0002d0 78 4a fc 3b d6 9f bc 3b 9b 93 85 3c e9 cd 38 3d
       0.007699307 0.0057563586 0.016305735 0.045118246
0002e0 07 ec 23 bb ed 4c 25 bd fa 5a 0b 3d b1 3a 13 bd
       -0.002501251 -0.040356565 0.03402231 -0.035944644
0002f0 93 d8 f5 bc d4 6b 9f bc d9 9e c9 bc e2 72 6b 3b
       -0.030010497 -0.019460596 -0.024611877 0.003592663
000300 37 32 56 3c 22 f7 a6 bb b0 45 5c 3c e4 63 da bc
       0.013073496 -0.0050953785 0.013444349 -0.02665896
000310 fb 06 e1 3c b4 e1 07 3d 44 53 48 3d e5 82 a0 bb
       0.027469149 0.03317423 0.048907533 -0.0048984163
000320 7e 8b ff 3c 6f ab 03 bd 72 4f 26 bd 1d 7f 0b bd
       0.031194445 -0.032145914 -0.04060311 -0.03405677
000330 53 35 37 bd d3 ca ce bc ca 7a 34 3c b4 cd 5e 3c
       -0.04472859 -0.025243198 0.011015603 0.013598848
000340 1f c8 c8 3c bf f7 7e bc e1 12 ce ba ba bd d5 bb
       0.024509488 -0.015561997 -0.0015722179 -0.0065228613
000350 b3 9f 39 3d f9 ba 59 bc 10 e4 b1 bc c0 ec 09 bd
       0.045318317 -0.013289207 -0.021715194 -0.033673048
000360 89 6d f5 3c dd db 3f bc a4 ce e9 bc ce e8 da 3b
       0.029959457 -0.011710134 -0.028540917 0.0066805845
000370 7c b1 44 bc 97 f4 03 3d c9 9d 91 3c b2 9f 8d 3c
       -0.012005206 0.03221568 0.017775433 0.017288063
000380 23 5d f5 bb 0b c1 ba bc 94 e1 e9 3c 1d ee 04 bb
       -0.0074879094 -0.022797128 0.028549947 -0.0020283528
000390 5b bb 9b 3c d9 7c ea bb 37 77 be 3b 9e 97 e6 3b
       0.019010236 -0.0071559963 0.0058125514 0.007037117
0003a0 ba c4 48 3d 82 9c 48 bd 52 af d4 3c da b1 5f 3c
       0.049015738 -0.048977382 0.025962505 0.013653243
0003b0 63 d9 0c 3d 12 64 02 3d 68 a7 37 3c 92 34 9f 3c
       0.034387004 0.031833716 0.011209346 0.019434247
0003c0 4b 95 1e bd 50 8b 04 bc bc 66 27 3d ac 57 22 3d
       -0.038716596 -0.008089855 0.04086946 0.03963439
0003d0 95 8a 9b bc 5f 85 a2 3c 80 d6 06 3d 65 cd 6b 3c
       -0.01898698 0.019838987 0.032919407 0.014392232
0003e0 6d 8c 0d bd 97 82 19 3d 8c 9d 17 bd 06 64 8f 39
       -0.03455775 0.037478056 -0.037015483 0.0002734961
0003f0 d1 14 2f bc 1e a4 08 3c 3d b8 36 3b e5 12 d0 bc
       -0.010686115 0.00833991 0.002788081 -0.025399635

conv3.bias f4 [32]
000000 22 42 36 bc 70 80 8b bc ad 58 3b bc be 07 a4 bc
       -0.011124166 -0.017029017 -0.011434716 -0.020023223
000010 af 52 c5 bc c3 8c 29 bd fb fd 98 3c 00 1c c5 3c
       -0.024087278 -0.041394006 0.018675795 0.024061203
000020 cb b6 11 3c 4a 33 d8 bc d6 4b 45 3d c1 79 0c bc
       0.008893679 -0.026391644 0.048168026 -0.00857395
000030 33 75 7d bc 4e 62 e1 bb af 84 31 bd b3 cf ad bc
       -0.015469837 -0.006878174 -0.043339428 -0.021217203
000040 14 0b c1 bb b1 61 23 3d 1e 0f 30 3d 2b 0f c8 bc
       -0.005891213 0.039888088 0.042983167 -0.024421295
000050 0b 9c c6 bc 15 08 cb bc 45 81 07 3d b7 1a e9 3c
       -0.024244329 -0.024784127 0.033082265 0.028455121
000060 a3 bc 25 bc 90 77 73 bb 91 39 2c bb 04 dc 00 bc
       -0.010115775 -0.0037150122 -0.002627943 -0.007864956
000070 d9 31 d1 3c 1c 6c 65 3a 68 61 9b 3b 73 02 3c bc
       0.025536465 0.0008751766 0.0047418363 -0.011475193

fc1.weight f4 [128, 864]
000000 7b 57 b4 3c 4f e1 17 3c 2e f8 9f 3c a0 e3 c5 3c
       0.02201437 0.009270026 0.019527521 0.024156392
000010 b6 ea 80 3c c9 ba f1 3c 7a 9b 87 3c d3 f3 f7 bc
       0.015736919 0.029508011 0.01655363 -0.030267632
000020 c5 aa 24 bc 58 2f 9e 3a a4 1d c2 3a 8d 6d f2 bb
       -0.01005048 0.0012068553 0.0014809859 -0.0073983134
000030 14 68 7a bb 60 86 7c bc 51 21 fe 3b 5b cc 34 bc
       -0.0038209008 -0.015412897 0.0077554365 -0.01103505
000040 3f da 0b ba 96 41 96 ba 27 da 1b bc 00 0f 5a bb
       -0.00053349504 -0.0011463638 -0.009512461 -0.00332731
000050 b1 0b df bc 71 ef a6 bc 14 c7 0e bc c0 1e 02 3d
       -0.027227255 -0.020377846 -0.008714456 0.031767607
000060 7e f2 d4 3c ce 84 f5 bc 77 97 8f 3c 90 8b 86 bc
       0.025994536 -0.029970553 0.017528279 -0.01642397
000070 49 c5 cb 3c 6b a9 d2 3b a9 20 bb bc e5 8d 47 3c
       0.024874346 0.0064288876 -0.022842722 0.012179826
000080 a6 b9 de bb 9d 83 16 3d 75 14 ca 3c e2 ad e3 3c
       -0.0067970334 0.03674661 0.024667958 0.027792875
000090 b7 36 ed 3b 70 8a 39 bb 11 70 00 3c d3 58 e4 3c
       0.0072391885 -0.0028311275 0.007839219 0.027874386
0000a0 48 36 51 bc 18 cf 67 3b 8d 81 40 bc f6 3e 2e bc
       -0.012769289 0.003537124 -0.011749637 -0.010635128
0000b0 2d 5a da bc dd f6 3d 3c 90 ee 59 bc 0e 01 68 bc
       -0.026654327 0.011594501 -0.013301507 -0.014160408
0000c0 f7 8e 33 bc 90 c8 c0 bc 16 30 9b bc e2 99 16 3c
       -0.010959378 -0.023533136 -0.018943828 0.009191962
0000d0 39 9b cb bc f1 f0 6a 3b 58 36 a2 bc d8 1c aa 3c
       -0.02485429 0.0035849179 -0.019801304 0.020765707
0000e0 4b 9b 90 bc c4 09 b2 3c 3b ac 73 3c 2e 67 b8 3c
       -0.017652174 0.021733172 0.014872606 0.022510137
0000f0 e5 23 59 bc 0e d2 80 bc 2f 10 8b 3c ae 77 00 3d
       -0.013253187 -0.015725162 0.01697549 0.031364135
000100 80 df 24 bc 00 e6 34 3a f7 21 87 3c 4e 27 8a bc
       -0.010063052 0.0006900728 0.016495688 -0.016864445
000110 1a 20 f5 bc 09 74 6d bc cd 5c 83 bc 6e d9 79 bb
       -0.029922534 -0.014492997 -0.016035462 -0.0038123983
000120 30 20 e8 3b 4e 21 eb bc 61 65 cb 3c c7 4b 8b bc
       0.007083915 -0.028702404 0.024828615 -0.017003907
000130 0d 67 2c bc 2e 03 cf bc f5 d5 b5 bc 21 50 8a 3b
       -0.010522616 -0.02527007 -0.02219675 0.004220978
000140 5d f6 de 3c 77 47 de bc 1b 7a bd bc c3 0a 82 bc
       0.027217085 -0.027133686 -0.023129513 -0.015874272
000150 0e 01 17 3d 96 d9 0c 3d f2 7e 69 bc 0c 7c 83 bc
       0.03686624 0.034387194 -0.0142514575 -0.016050361
000160 ac ac 6f 3c 7f c7 fb 3b 4a 9f ac bb 58 b8 57 bc
       0.0146285705 0.007683694 -0.005268012 -0.01316651
000170 18 60 f5 3c ac da 17 3c c6 0c 62 bc 37 1b 71 3c
       0.029953048 0.009268444 -0.013796991 0.014715961
000180 e6 55 d0 bb 54 f8 ea bc 1c 89 bb 3b 7f 69 96 bc
       -0.006357896 -0.028682865 0.005723132 -0.018360851
000190 6a db 62 bc c0 51 e1 bb 9c f6 03 3d 78 2f d6 3b
       -0.013846258 -0.0068762004 0.032217607 0.0065364204
0001a0 ab 52 49 bc 4a 36 07 3d d4 7a 4b bc 83 df 8b bb
       -0.012287776 0.03301076 -0.012419421 -0.004268588
0001b0 21 ff 20 3c 45 77 47 39 43 22 6e bc 39 c3 1e 3b
       0.0098264525 0.0001902255 -0.014534536 0.0024225248
0001c0 7a 0d 1f bc 9e 76 a3 3c a7 1a 23 3c 9f e1 8f 3b
       -0.009707803 0.019954022 0.009955085 0.00439091
0001d0 89 2f b3 39 06 42 91 bc 00 0d 09 3d 8d e7 11 bc
       0.00034176957 -0.017731678 0.033459663 -0.008905304
0001e0 8f 5b b7 3c 65 e0 a4 3c 2c 4b 6e 3c 1f 7c 0e 3d
       0.022382526 0.02012653 0.01454429 0.03478634
0001f0 ee 7d d8 3c fb 03 f3 3b 4c f6 b5 bb 60 fd 48 bc
       0.026427235 0.007416246 -0.0055530425 -0.012267441
000200 31 cf 0c 3d 95 dc 52 3c bc 66 f9 ba 79 b5 c0 3c
       0.03437728 0.012869974 -0.001902781 0.023524033
000210 27 23 a5 bc 54 0b ed bc e6 1d f1 bc f2 07 c4 3c
       -0.020158364 -0.028936066 -0.029433202 0.02392957
000220 e7 d6 a3 bc 90 51 53 bc 18 99 01 3b 50 eb 8b 3b
       -0.019999934 -0.012897864 0.001977509 0.004269995
000230 e7 fc f9 bc aa 4c d9 3c 96 0b 84 3c 53 84 eb 3b
       -0.030516101 0.026525814 0.016118806 0.007187405
000240 15 62 0d 3d b4 4b 13 39 62 c5 a6 3c 07 5d b7 3c
       0.034517366 0.00014047214 0.020357791 0.022383226
000250 88 69 84 3c aa ee 00 3c 26 12 43 bc 34 a4 ec 3b
       0.016163602 0.007869402 -0.011906182 0.007221723
000260 f1 82 f9 3c 4f 11 1d 3c bd b1 10 3d 78 35 ba bc
       0.030457946 0.009586646 0.035325754 -0.022730574
000270 e0 4c 7a 39 f0 06 0e bc 39 ff 0a 3d cc e0 05 3d
       0.00023870496 -0.008668646 0.033934806 0.032685086
000280 8f fb 2b 3c 35 00 94 3c 53 fc fa bb 60 cf f9 3c
       0.010496988 0.018066505 -0.007659474 0.030494392
000290 89 93 a0 bc 8f dc b3 3b 48 0d d9 bc d2 0d 10 3c
       -0.0196016 0.005488939 -0.02649559 0.0087923575
0002a0 04 74 dc bc c0 d7 32 3c d4 eb da bc e5 94 c1 bc
       -0.02691079 0.010915697 -0.02672378 -0.023630569
0002b0 84 07 0f 3d 4a 20 0b 3d e3 2a 8c bb 32 a5 bd bb
       0.034919277 0.03396634 -0.0042775734 -0.005787515
0002c0 cf ad 06 3d b3 0b bb bc 6f 93 ab 3c a1 a1 58 3c
       0.0328806 -0.022832727 0.020944325 0.013222129
0002d0 e3 ab 99 bb ef 7c b0 3c 30 68 3c bc cf 00 12 3d
       -0.00468968 0.021543948 -0.01149945 0.035645302
0002e0 96 08 5f bc d0 c6 ea 3c 18 d4 dc 3c 44 87 f7 3c
       -0.013612887 0.028659254 0.026956603 0.030215867
0002f0 14 55 c3 bc ac 89 25 bc ae 24 d5 bc 6d 17 c4 3c
       -0.02384428 -0.010103624 -0.026018467 0.023936952
000300 47 cf cb 3c db 98 10 3d e3 04 d6 bc 3f 77 b3 3c
       0.024879111 0.035302024 -0.026125377 0.021907447
000310 7b 97 16 3d 8c 5b bd 3a 88 9b 1f bc d6 45 e6 bb
       0.036765557 0.0014446839 -0.009741671 -0.007027368
000320 35 4c 7b bb 6b b5 e3 3c 7f db ff 3c 12 74 16 3d
       -0.0038344983 0.027796468 0.031232594 0.036731787
000330 18 5c d0 3c 59 87 7e 3c 23 a5 e9 3c 28 0b f6 bc
       0.025434539 0.015535199 0.028521126 -0.030034617
000340 71 e9 c6 bc 48 f0 e9 b8 2e 20 94 bb 05 8c ca bc
       -0.024281235 -0.00011155062 -0.0045204377 -0.02472497
000350 83 52 b9 3c 18 7e c4 3c 45 10 75 bc f8 e7 f7 3c
       0.022622352 0.023985907 -0.014957492 0.030261979
000360 79 b7 dc 3c 9e 65 09 bc b3 53 1e 3c a1 60 a2 3c
       0.026942955 -0.008386044 0.00966351 0.019821467
000370 cc 06 79 3c 76 40 5d 3c cd be e3 ba 83 5a e4 bc
       0.015199374 0.013504138 -0.0017375589 -0.02787519
000380 13 8c b5 3a df 86 8b 3b 5e 76 ac 3c fa 20 8e bc
       0.001385095 0.0042580212 0.021052536 -0.017349709
000390 8d d7 c2 bc 13 3c 2c bc 2f 7b 79 3c 2c 90 b9 bc
       -0.023784423 -0.01051237 0.015227123 -0.022651754
0003a0 df 20 fa bc d3 11 69 bc 23 eb a1 bc b2 ad ef bc
       -0.030533252 -0.014225441 -0.019765442 -0.029257629
0003b0 31 04 0b bb 08 2b 97 bc fb fd 8d 3b 08 6f 80 bb
       -0.0021212215 -0.018453136 0.0043332553 -0.003919486
0003c0 d9 64 aa 3c 76 db 02 bc 5a 97 9b bc 89 13 d8 bc
       0.020800041 -0.007986894 -0.018993068 -0.026376503
0003d0 1a 78 a9 bc e9 57 01 3d 82 03 30 3c 46 81 67 3c
       -0.020687152 0.03157798 0.010743024 0.014129942
0003e0 ec 0d 91 bc 4b 3c b2 bc cb 88 da bc df 37 09 3c
       -0.017706834 -0.021757266 -0.026676556 0.008375137
0003f0 47 6a 2b bb 94 34 e6 bc 21 47 b7 3c af 86 7b bc
       -0.0026155876 -0.028101243 0.022372784 -0.015351935

fc1.bias f4 [128]
000000 6b 96 b3 3c fe 97 19 bc 72 22 9e bc 61 7c 83 bc
       0.02192231 -0.009374617 -0.019303534 -0.01605052
000010 0b ff d8 bb da e3 11 bc 67 e7 09 bd 4f aa 55 3c
       -0.0066222004 -0.008904422 -0.033667948 0.013041093
000020 35 8d 14 3c fe a2 89 bc 5a 3c ec 38 66 8e f4 bc
       0.0090668695 -0.016801354 0.00011264598 -0.029853057
000030 54 60 ff bb 90 c5 1a 3b 37 17 94 3c d0 9e ee 3c
       -0.0077934656 0.0023616292 0.018077476 0.029128462
000040 f1 1a 80 3b 9c d0 5f 3c 93 1a e0 bc b8 a0 a5 3c
       0.0039094617 0.013660576 -0.027356422 0.020218238
000050 d5 71 ff bc 87 65 2d 3b c9 9f 95 bc 4e 1f 72 bc
       -0.031182209 0.002645822 -0.018264668 -0.014777971
000060 80 7e 4b 3a 4d 19 9b bc ec bb d5 3c 28 5e d3 bc
       0.00077626854 -0.018932963 0.026090585 -0.025801733
000070 24 bb 0e bc 66 63 0a bd 17 33 8f bc 8a a6 e7 bc
       -0.00871161 -0.0337862 -0.017480416 -0.028277654
000080 c3 c7 d5 bc 45 e9 70 bc 04 9d 95 bb ac c7 be bc
       -0.02609623 -0.014704053 -0.004565837 -0.02328857
000090 6b 02 f8 bb 18 ac 06 bc c2 b3 a5 3b 8c 45 82 3b
       -0.0075686476 -0.008219741 0.005056829 0.003975576
0000a0 4f 2a b9 bc 4a a0 b6 3c aa 5f 62 bc ad f6 cf 3c
       -0.022603182 0.022293229 -0.013816753 0.025386179
0000b0 d1 00 4e 3c 2f 4e ec bc 28 57 ed 3c f0 c4 4e 3b
       0.012573437 -0.028845875 0.028972223 0.003155049
0000c0 02 6f 81 bc 06 1d 8a bc 2e fd 04 3d 68 0a 54 bc
       -0.015800003 -0.016859543 0.032468013 -0.012941934
0000d0 a1 60 4d bc 5b 96 13 bd 2e 3a da bb b4 6f 0d bc
       -0.012535245 -0.036032062 -0.0066597676 -0.008632589
0000e0 30 68 44 bb bf 45 8a 3a 6e 55 c2 3c 0c 1b db 3c
       -0.0029969327 0.001054935 0.023722377 0.026746295
0000f0 b5 ed a6 bb 65 00 e0 3c 1c c3 75 3c e9 0a 90 3c
       -0.005094255 0.027343938 0.015000131 0.017583327
000100 6d cb 2e 3c 02 7b fd bc 74 90 10 3c 23 ef b1 bc
       0.010668618 -0.030942444 0.008823503 -0.021720475
000110 0a 96 61 3c b0 59 6b 3c 36 62 00 3c cc bf 71 3c
       0.013768682 0.014364645 0.007835915 0.014755201
000120 c2 59 e5 3b 59 d7 90 bc a7 7e b6 bc 29 7b e9 bc
       0.0069992254 -0.01768081 -0.02227719 -0.02850111
000130 74 9c 45 3c 94 eb cc bc 02 7c e9 3c 66 40 55 bc
       0.012061227 -0.025014676 0.028501514 -0.013015842
000140 f8 28 82 3b ad 94 87 3c 81 75 42 bb b0 e4 7d 3c
       0.003972169 0.016550386 -0.0029672089 0.015496418
000150 82 95 c5 3c c8 20 c5 3a 80 e3 f8 3c c8 fe 09 bd
       0.024119142 0.0015039677 0.030381918 -0.033690244
000160 07 78 89 3b ec 39 f6 3c c1 a3 01 bd 97 8e c2 bb
       0.0041952166 0.030056916 -0.03165031 -0.005937408
000170 8c 05 43 3c 57 7f bf 3c 4a c2 de 3b ee be d3 bc
       0.011903178 0.02337615 0.0067980634 -0.025847878
000180 fc 41 99 bc 30 93 a2 3c 4a 5b d0 bc 14 43 01 bc
       -0.018708222 0.019845575 -0.025434155 -0.007889528
000190 57 e3 52 3c 09 7f b4 bc 2e 8d 06 3d 22 d5 be 3c
       0.012871585 -0.022033231 0.032849483 0.023294989
0001a0 c8 8e ad 3c 08 3e 33 3c fe 08 a7 bc 98 f4 f0 3c
       0.021186247 0.010940082 -0.02039003 0.029413506
0001b0 cc a4 7e bc 67 06 e3 3c 60 c9 0e 3c 24 71 77 3c
       -0.01554222 0.027713014 0.008715004 0.015102658
0001c0 be 6a 0a bc 87 18 07 bc 90 31 e4 3c f5 cb fc 3c
       -0.008448301 -0.008245594 0.027855664 0.030858973
0001d0 52 8a ff 3b ee af c2 bc d5 43 d2 bc ae 29 c3 bc
       0.0077984715 -0.02376553 -0.02566711 -0.023823585
0001e0 a9 73 97 ba d5 6e 7e bc 34 b9 8f bb 80 69 72 bb
       -0.0011554855 -0.015529354 -0.0043860916 -0.0036989152
0001f0 49 47 02 3d 2a da 9f bb c0 2f d8 3c 8c cf 73 bc
       0.031806264 -0.004878302 0.026389956 -0.014881026

fc2.weight f4 [2, 128]
000000 32 0f 03 3d b9 f0 8f 3d fe db f2 bc a6 64 28 3d
       0.031996913 0.07028336 -0.029645916 0.04111161
000010 13 75 35 bd 58 3a 57 bd fb 71 b0 3d 4b a9 71 bd
       -0.044301104 -0.052545875 0.0861549 -0.05899934
000020 7c c9 78 3d 4d 06 9d 3d 89 1f 8c bd 04 7d a5 bd
       0.060739025 0.076672174 -0.06841952 -0.080804855
000030 ab b1 41 bd d0 fd 96 3c 6c 2d aa 3d 89 ae 85 3d
       -0.047288578 0.018431574 0.08309445 0.065274306
000040 d3 81 14 bd 3e d4 54 3d 40 a1 84 3c 5c 8b f1 bc
       -0.036256623 0.051960222 0.016190171 -0.029485397
000050 43 79 4a bd cd 5a 6c bd d8 38 3d bc 64 62 27 3d
       -0.04943205 -0.057703782 -0.011549197 0.040865317
000060 4b 83 9e 3d d7 7b 4d 3d 5c 01 7c bd b0 a9 b6 3b
       0.07739886 0.05016693 -0.061524734 0.0055744275
000070 c2 1c 69 bd 6e 1c a8 bd f8 7d 4e bc 90 9a 9d bd
       -0.05691219 -0.082085475 -0.0126032755 -0.07695496
000080 d7 f1 db 3c 64 22 a5 3d 5a 1a 12 bc 50 4a a7 3c
       0.026848717 0.080632 -0.0089174155 0.020421177
000090 da 82 77 3d 04 4a 88 bd 95 11 9a 3d 60 fe 55 3d
       0.060427524 -0.06654742 0.07522885 0.052244544
0000a0 2e 33 1f 3d 38 c3 7f 3c dd 4e 95 3d 75 d2 88 3c
       0.038867168 0.015610509 0.072904326 0.016701916
0000b0 ab 34 93 bc 49 6c c4 bb 86 42 62 3d 60 bd fa bb
       -0.01796945 -0.005994354 0.055239223 -0.00765197
0000c0 b4 63 81 3d 25 7f 57 bd 2f b9 4e bd d7 cc ab 3d
       0.06317845 -0.05261149 -0.050469574 0.083886795
0000d0 d1 bb a2 bd 8a 02 cd 3b 80 0d 07 bc 61 a6 1a 3c
       -0.079459794 0.006256406 -0.008242965 0.009439082
0000e0 c2 5e 19 3d 46 14 9e bd 8f 62 a9 3c 58 13 32 3c
       0.037443884 -0.077187106 0.02067688 0.01086887
0000f0 75 71 5c 3d 2b 27 ab 3d b9 35 30 bd de 98 ff 3c
       0.05381914 0.0835708 -0.043019984 0.031200822
000100 0c 0e 07 bd 6e 7d 42 bd ff 4d 84 3d 45 73 8a bc
       -0.03297238 -0.0474829 0.06460189 -0.016900668
000110 7c c7 a8 3d 28 cc 09 3c e0 4a 79 3c 5f 1d e0 bc
       0.082411736 0.008410491 0.0152156055 -0.027357755
000120 9e 0c 71 bc d3 7f c6 bc b6 d9 52 3d 5f 4d b0 bc
       -0.014712481 -0.024230873 0.051477157 -0.021521268
000130 1e fc 5b bd e8 1e 36 bd ea 90 37 3c f4 17 8b 3d
       -0.053707235 -0.04446307 0.011203984 0.06791678
000140 1a 53 b8 bc 8d 21 6a 3d 23 a3 8b bd 0e 43 3f 3d
       -0.022500563 0.057160903 -0.06818225 0.046694808
000150 2a d9 37 3d 33 f1 28 3d 37 dc ad 3d 91 f1 64 3c
       0.04488484 0.04124565 0.08489268 0.01397361
000160 c5 e9 67 3d db d8 ab bd 01 69 a8 bd 12 64 d6 3c
       0.056619424 -0.08390971 -0.08223153 0.026170764
000170 17 f7 0e bd 19 34 34 3d 70 a2 95 3d d4 18 57 3d
       -0.034903612 0.043994997 0.07306373 0.052513912
000180 b0 ab a0 bd b8 3b 08 3b 8f 03 59 3d f8 cf be bc
       -0.07845247 0.0020787548 0.05298191 -0.023292527
000190 4a a6 aa bd bd 63 30 3d 60 da b2 bc a0 27 2f 3b
       -0.08332498 0.043063868 -0.021832645 0.00267265
0001a0 72 ce 3b 3d 87 38 87 3d 27 d2 7d bd 68 aa 45 3c
       0.04585118 0.066025786 -0.061967995 0.012064554
0001b0 45 6a 06 bd 3a 33 7e 3c 44 b4 a5 bd 5d e1 21 3d
       -0.03281619 0.015515143 -0.080910236 0.039521564
0001c0 3e 57 ad 3d f6 44 28 bd 69 62 47 3d d8 ac 68 3d
       0.08463906 -0.04108139 0.048677836 0.05680546
0001d0 60 cc 24 bd 00 12 94 bc 6f 85 b3 3d 7e 68 ac bc
       -0.04023397 -0.01807499 0.08765685 -0.02104592
0001e0 53 e1 64 3d 61 0b 80 bc 32 0e 14 3d c9 cf b0 3d
       0.05587895 -0.015630426 0.03614635 0.08633382
0001f0 4c 7f a9 3d e3 dc 0b bd 38 c2 9f bc 3d 52 9a bd
       0.08276233 -0.0341462 -0.01950179 -0.07535217
000200 f9 16 63 bd 8d 64 a4 3d bd ea 9e bd ba 78 4f 3d
       -0.05544183 0.08026991 -0.077596165 0.050652243
000210 4f 14 b4 3c 7b b6 a8 bd c8 9d 7b bd 0d 82 b0 3c
       0.02198234 -0.082379304 -0.06142977 0.021546388
000220 37 c8 5e bd a5 b7 07 3d f9 2a c9 bc 00 e0 24 b9
       -0.05439016 0.03313412 -0.024556624 -0.00015723705
000230 a6 76 2a 3c 6d 48 00 bd 0b 94 66 bd 43 cb 14 bd
       0.010404265 -0.03131907 -0.05629353 -0.036326658
000240 d7 d5 1d bd a4 c2 5f bd ab a5 1c 3d 5f 39 57 bd
       -0.03853401 -0.054628983 0.03824393 -0.052544948
000250 e3 c1 a6 3c a0 d1 1b bd 41 b7 86 3d ac c3 4e 3d
       0.020356124 -0.03804171 0.06577922 0.050479576
000260 4f c4 8b 3d 45 73 1c 3d e4 09 a6 3c fa b2 3a 3d
       0.06824552 0.038195867 0.020268388 0.04558084
000270 9d 5c 7c bd 37 c6 12 3d d7 8d 96 3d 50 19 6d 3d
       -0.06161176 0.035833564 0.073512726 0.057885468
000280 59 88 e7 bb 56 fd 83 3d b7 e7 5f bd 8e 2c 5c 3d
       -0.0070658145 0.06444804 -0.05466434 0.05375343
000290 e0 de 9f 3c ec a8 02 bd d8 9b 58 3b d3 d9 b7 bc
       0.019515455 -0.031899378 0.0033051874 -0.022442734
0002a0 66 9c 85 3d 78 80 7c 3c 86 50 6f bd 60 cb 9c bd
       0.06523971 0.015411489 -0.058426403 -0.07655978
0002b0 fd b6 ea bc e7 0b ce 3b 0b b2 8f bd 18 4f 1c bd
       -0.028651709 0.00628804 -0.07016381 -0.038161367
0002c0 ac 5a b1 bd f2 23 34 3d b8 a9 d9 3c 8a d6 1b bd
       -0.086598724 0.043979593 0.026570186 -0.038046397
0002d0 ac c0 98 bd 75 b2 4b 3d 3f a7 eb 3c 4f ee 3c bd
       -0.07458624 0.049730737 0.028766273 -0.046125706
0002e0 7a e3 3e 3d 40 20 17 3c b4 cf 86 3b 40 7e 84 bd
       0.046603657 0.009223998 0.0041141156 -0.06469393
0002f0 d7 20 6b 3d f2 d4 93 3c 26 87 00 3d 89 46 3e bd
       0.057404365 0.018045876 0.031378888 -0.046453986
000300 8f f5 44 3c 00 59 c1 b9 ce 60 50 bd 0b 96 73 bd
       0.012021436 -0.0003687814 -0.05087357 -0.059469264
000310 c0 33 0a bd 74 92 dc bc ab 4b 98 bd 1e 92 24 3b
       -0.03374076 -0.026925303 -0.074363075 0.0025111507
000320 b3 06 89 3c 0b b8 20 3d 3a 62 5a bd f4 59 a3 bd
       0.016726827 0.039238017 -0.053316332 -0.079761416
000330 8b 47 a3 3d 82 a1 74 bd e6 8f 5a bd 4c 5d 8c 3d
       0.0797263 -0.05972434 -0.05335989 0.068537325
000340 d2 64 6c bd 1a 3f a6 3d df 31 57 3d 32 32 08 3d
       -0.057713337 0.081175044 0.052537795 0.033250995
000350 1c a3 3b bd 12 97 56 bd 57 ba 93 3d be 5c 2a 3c
       -0.04580985 -0.052390166 0.07213276 0.010398088
000360 41 c9 32 bd 64 b0 d9 bc 8a 8d 9a 3d 93 1f 85 bb
       -0.043648962 -0.026573367 0.07546528 -0.004062602
000370 ec e9 a5 3d a7 be 33 3d bd bb 7f bd fc 7e dc 3b
       0.08101258 0.043882992 -0.0624349 0.006729005
000380 82 df a5 bd 44 31 80 bd 57 76 a1 bc bd 05 30 bd
       -0.08099271 -0.06259397 -0.01970975 -0.042974222
000390 7f 82 63 3d 4f 76 2a 3d e0 7d cb 3c b8 e6 ee 3c
       0.055544373 0.041616734 0.024840295 0.02916275
0003a0 f6 ae 49 bd 75 5f 91 bd 75 df b8 bc 8e 3a 3c 3d
       -0.04923912 -0.07098285 -0.02256749 0.04595428
0003b0 30 21 80 3c cf 6b 75 3d 1f 20 04 bd 97 e5 5e 3d
       0.015640825 0.059917267 -0.032257196 0.054418173
0003c0 22 34 0f bd 39 76 2d bd 2e 08 75 bd be 6e d0 3c
       -0.034961827 -0.042349074 -0.059822254 0.025443431
0003d0 42 0c 13 bd d8 6d 5b 3c 84 b5 1c bd 22 c0 45 3d
       -0.03590036 0.013392888 -0.038259044 0.048278935
0003e0 b6 b4 50 3c 74 3c 9c 3d 3e 20 0a bd 38 d9 38 bd
       0.012738397 0.07628718 -0.033722155 -0.04512903
0003f0 1a 81 37 bd 25 cd a4 bd 19 7e a3 bd e5 37 23 3b
       -0.044800855 -0.08046941 -0.079830356 0.0024905142

fc2.bias f4 [2]
000000 9c bd 38 3d ae f7 8f bd
       0.0451027 -0.07029663
