models/2024-05-10_11-20-13_Model.onnx (onnx, 516192 bytes, 10 tensors)

conv1.weight f4 [8, 1, 3, 3, 3]
000000 cf 35 bf bd ec 34 b7 3d 7a 9b 74 bd 06 79 09 3e
       -0.09336435 0.08945641 -0.059718587 0.13425073
000010 a1 ef 98 bd 9b f4 9d 3d 0c 8d dd bc 3f dd 1f be
       -0.074675806 0.077126704 -0.027044795 -0.15611742
000020 c3 65 76 3d b9 0d 14 3d e7 ee a0 bd dd f9 e9 bd
       0.06015564 0.0361459 -0.07858067 -0.11424611
000030 b2 08 c3 bd 2e 95 2a 3a 30 0b 1b 3e 31 dc 3c be
       -0.09523143 0.0006507215 0.15140986 -0.18443371
000040 61 77 11 3e 95 ed 04 3d a1 9f 93 3c c1 c7 ce bd
       0.14205696 0.03245314 0.018020453 -0.10096694
000050 ec 45 39 3d 8f 2d e3 3d e0 11 38 3e e7 37 0f be
       0.0452327 0.11092674 0.17975569 -0.13986169
000060 05 ed 21 be da 75 93 3b 01 53 0e 3e e6 6d d4 3d
       -0.15813072 0.004500133 0.13898851 0.10372524
000070 dd 9e d5 3d 9f 06 98 b9 2e f7 db 3d e2 d0 fd 3c
       0.104306914 -0.00028996632 0.10740505 0.030983392
000080 81 96 1d bb 1d f5 18 3e ff 39 26 3e 6b 7a ed bd
       -0.0024046006 0.14937253 0.16233061 -0.11595615
000090 45 03 2c be 2d 25 98 3d 85 a8 0c be 86 49 a1 bd
       -0.16798122 0.07428966 -0.1373616 -0.078753516
0000a0 06 93 d9 3d 80 36 e9 3d f8 69 da 3d 14 bf 41 3e
       0.106237456 0.11387348 0.10664743 0.18920547
0000b0 83 ef b0 bc a7 5c 15 be df b0 00 be b7 a2 ed bd
       -0.021598583 -0.14586125 -0.12567471 -0.11603301
0000c0 d7 59 dd 3d 1b 7a 08 3e 92 d4 48 3d 54 86 2c 3e
       0.10808151 0.1332783 0.049030848 0.16848117
0000d0 20 a7 f7 bd b8 5e 3e be 52 55 26 be ca 1d fd bc
       -0.120924234 -0.1859082 -0.16243485 -0.030897994
0000e0 43 61 20 bd 9f 5c cf 3d e4 74 f3 bd 8d 87 36 bd
       -0.039155256 0.10125088 -0.118875295 -0.044562865
0000f0 1b 37 f8 bd 75 03 37 bc 61 3d f8 3d f3 36 0e 3e
       -0.121198855 -0.011170258 0.12121082 0.13888149
000100 95 0d 11 3d cd 3f 33 3e 5f a1 c3 b9 ef e7 0f 3d
       0.035413343 0.17504807 -0.0003731353 0.0351333
000110 d4 ce 46 b9 ad 53 d7 3c 3b aa f0 bc aa b4 32 3e
       -0.00018959801 0.026285017 -0.029378047 0.1745173
000120 77 3f 28 3e 47 77 44 bd a1 b3 fa 3d 10 cf 9b 3b
       0.1643046 -0.047965314 0.12241293 0.0047549084
000130 b7 3b 38 be c7 62 13 be 0c 94 2e 3e 54 74 3c 3d
       -0.1799153 -0.1439315 0.17048663 0.046009377
000140 c3 49 84 3c f9 de 87 bc d7 11 7a 3c fe f9 eb 3c
       0.016148454 -0.016585814 0.015263042 0.028805729
000150 1d b5 0c bd b8 b5 e0 3c e1 e8 08 3c 16 c8 80 bc
       -0.03435241 0.0274304 0.008356304 -0.015720408
000160 9c cf 3f be 3f 95 2d be 45 0a 21 be 49 8f 0f bc
       -0.1873154 -0.16951464 -0.15726574 -0.008762189
000170 16 ac a7 bd 86 56 5b 3d e3 b2 0e be 17 74 62 bd
       -0.0818712 0.053549312 -0.13935427 -0.055286493
000180 5b b3 9e bd 78 a6 b9 3d 3d bb a3 bd 96 c5 41 be
       -0.07749053 0.090649545 -0.07994697 -0.1892303
000190 60 a0 03 be 7b d5 0a 3e 22 78 c3 bd e1 41 ee bd
       -0.12854147 0.13557999 -0.09544398 -0.11633659
0001a0 d8 0d 8c 3d 05 c4 b3 bd ee 4f e9 3d 3b 73 ab bd
       0.06838578 -0.08777622 0.113921985 -0.08371588
0001b0 6d 88 95 bd 35 1b 95 bd cd 3d 05 be bc 98 9c 3d
       -0.07301412 -0.0728058 -0.13011856 0.07646319
0001c0 e4 38 03 be c3 d1 ae 39 eb 6f fb bd 5d ed d6 3a
       -0.12814671 0.0003334415 -0.12277206 0.0016397644
0001d0 ad e2 20 be 97 c1 e7 3c 63 1d d3 bd d0 f7 7b 3d
       -0.1571147 0.028290553 -0.103083394 0.06151563
0001e0 77 cb fc bd 10 8e e5 3d 6f 04 26 be 39 ed e8 bc
       -0.12343495 0.11208737 -0.16212629 -0.02843343
0001f0 28 56 3b 3e 35 39 93 3d 73 d5 1d 3d 8d cc 61 3d
       0.18294585 0.07188646 0.03853364 0.055126715
000200 a2 14 0e be 34 6e a2 3c 2d ae 15 be 68 d7 3d be
       -0.13875058 0.01982794 -0.14617224 -0.18539202
000210 9e d0 ed 3d 0f 21 b9 3d 80 90 1a 3d d8 ed 22 bd
       0.11612056 0.090395086 0.037735462 -0.039777607
000220 ae 86 bd bd b3 c5 01 3e 24 57 db bb 71 09 f0 3c
       -0.09254204 0.12673073 -0.0066937376 0.029301377
000230 05 2e 91 3d 57 7d 0e 3e 46 0e 41 3e 60 e2 75 bd
       0.07088856 0.13915001 0.18853101 -0.06003034
000240 72 67 83 3c 67 8e 62 bd 95 a7 a2 bd 8a 40 0a be
       0.016040538 -0.055311587 -0.0794212 -0.13501182
000250 40 78 3e 3e 4e 3d dd bc 02 e5 1a be 43 c6 e0 3d
       0.18600559 -0.027006771 -0.15126422 0.109753154
000260 71 83 1d be f7 17 38 be c7 66 8f 3d f3 07 2a bd
       -0.15382172 -0.17977892 0.07002025 -0.041511487
000270 d6 08 60 3c cc 37 08 3d 27 71 57 3d a1 2f 37 be
       0.013673982 0.033256337 0.052598145 -0.17889263
000280 12 bd 04 3e 62 f9 fa 3d 20 8d 20 be a5 0f 92 3d
       0.1296275 0.12254597 -0.15678835 0.0713189
000290 12 b2 14 be 8e 78 bc bd 38 6a 03 3e 75 a6 c9 3d
       -0.14521053 -0.092026815 0.12833488 0.09846202
0002a0 28 c4 d5 bb 0c d9 12 be c3 91 08 3d f9 11 0e be
       -0.006523628 -0.1434061 0.033342134 -0.13874044
0002b0 0d d5 b9 bd e9 ba 40 bd b6 ac 3b 3e 77 bc ee 3d
       -0.09073839 -0.04705325 0.18327603 0.116570406
0002c0 41 1e 43 3d 41 19 39 3d 4d 7c 32 3e 5c 4c b4 3c
       0.047636274 0.0451901 0.1743023 0.022009067
0002d0 75 fa e6 bd 56 99 06 be af cf 93 3d 5f cd 09 3e
       -0.1127824 -0.1314443 0.07217347 0.13457249
0002e0 69 39 1e 3d 43 a4 f2 3d 43 4f be 3d 71 9e d9 bc
       0.03862897 0.11847737 0.09292462 -0.026564809
0002f0 0c 4d c2 bd 97 33 84 bb f6 8c f7 3d d0 83 c8 3d
       -0.09487352 -0.0040344703 0.12087433 0.09790766
000300 4e e5 5f 3d b9 e3 95 3c fe 2b 97 3d 27 af e8 bd
       0.05466204 0.018297063 0.07381438 -0.11361533
000310 88 c8 36 3e 1b 89 85 3c 85 fb ba bd db 2a 46 bd
       0.17849934 0.016300729 -0.09130005 -0.048380714
000320 85 c4 97 3d 91 b8 48 bd ed 6f 65 bd 1d fe 16 be
       0.0741053 -0.04900414 -0.056014944 -0.14745374
000330 e2 47 61 bd 85 b4 2e 3e cf ca e2 bc 21 93 3d 3e
       -0.055000193 0.1706105 -0.027684597 0.18513156
000340 ad 3c 90 bd 1a b6 6a bd aa 69 2f 3d 3f a8 37 3e
       -0.07042823 -0.05730257 0.04282538 0.17935275
000350 64 e3 98 3d 60 9b f2 bd 59 d5 53 bd 61 35 e1 bb
       0.07465246 -0.11846042 -0.051717136 -0.0068728183

conv1.bias f4 [8]
000000 d5 4c 32 be e7 df 32 be e7 5b ed 3d b0 68 04 3c
       -0.17412122 -0.17468224 0.115897946 0.0080816
000010 7e 28 33 3d c3 53 4c 3d e1 7f 33 3e d9 62 eb bd
       0.04373979 0.04988457 0.1752925 -0.11493463

conv2.weight f4 [16, 8, 3, 3, 3]
000000 9b 5b 50 3d 3a 99 da 3c 91 62 40 b9 0e c7 22 3c
       0.05086861 0.026684392 -0.00018347266 0.009935154
000010 31 3f 74 3d d4 ae 1d 3d 86 46 11 3d e8 d3 31 3d
       0.059630577 0.038496807 0.035467647 0.04341498
000020 1d 09 86 bd e6 99 5c bd 32 48 11 3c c2 0b 85 bc
       -0.06544707 -0.053857706 0.00886731 -0.016240958
000030 f9 23 00 bd 58 06 10 bd 56 d6 85 bd dc 19 1e bd
       -0.031284306 -0.0351623 -0.06535022 -0.03859888
000040 5c a8 ed bc cc 4f 8d 3d 82 79 f2 3b 8c 2e e6 3b
       -0.029010944 0.06899986 0.0073997388 0.007024592
000050 32 55 dd bc 69 ce 82 bd e4 21 87 3d b1 4f 83 3d
       -0.027018163 -0.06387026 0.06598261 0.06411684
000060 e8 84 b8 3c 0d df f0 3b 66 fb fa 3b 96 a7 ac ba
       0.022524312 0.0073508085 0.0076593636 -0.0013172503
000070 4c 62 4b 3d 71 93 38 3d 3b fe d4 bb 8e 59 59 3c
       0.04965429 0.045062486 -0.006500033 0.01326598
000080 ab d6 7c bd a1 ec b2 bc cd a8 23 bd bb 36 33 3d
       -0.06172816 -0.02184135 -0.039955903 0.043753367
000090 fc 21 14 bb 0e b1 89 3d 2c ce ed bc 16 73 62 3d
       -0.0022603264 0.067232236 -0.029028974 0.055285536
0000a0 4f 9a 25 bd 7c fa 94 bc 18 11 2a 3d 17 67 49 3c
       -0.040430363 -0.018185847 0.041520208 0.012292645
0000b0 0f 7b 4b 3d d2 9f 1f bd 88 14 80 bd 08 a1 08 3c
       0.049677905 -0.038970776 -0.06253916 0.008339174
0000c0 bc 9a 6d bc a8 60 7e 3d 96 f9 14 bb 86 2e 82 bd
       -0.014502224 0.062103897 -0.0022731773 -0.0635653
0000d0 81 1c c6 bc aa b4 05 3d 85 c1 87 3c 39 c0 44 3d
       -0.024183514 0.032642998 0.01657177 0.04803488
0000e0 92 95 22 bb e0 ac d4 3c fc 99 3a bd 71 ba 09 3c
       -0.002480839 0.02596134 -0.045557007 0.0084062675
0000f0 c5 51 85 3d b8 87 07 bd 6d e4 63 3d 41 f8 91 bc
       0.06509737 -0.033088416 0.055637766 -0.017818572
000100 5f 9d 01 bd 93 42 19 bd 2e 51 77 bd 8b 2d 10 bb
       -0.03164422 -0.037417006 -0.060380153 -0.0021999802
000110 bc e5 bc 3c 37 6c 70 3d a7 c0 36 3d 35 39 8f 3c
       0.023058765 0.05869695 0.04461732 0.017483333
000120 13 1c 6a 3d cb 7e 34 3b 9a 93 5c 3d 92 bb 5b 3d
       0.05715568 0.0027541395 0.0538517 0.053645678
000130 96 8d 0e bc 66 96 2e bd c4 71 13 3c 51 89 19 bc
       -0.008700749 -0.0426239 0.008999292 -0.009371118
000140 87 7c 59 3d 19 e3 43 bd 00 aa 3b 3d 18 df 11 3d
       0.053097274 -0.047824 0.04581642 0.03561315
000150 40 15 57 bd 47 2d 39 bd 17 1a 50 3c ef e0 09 3d
       -0.0525105 -0.045209195 0.012701533 0.03366178
000160 4f b1 37 bc 7a 0b b6 3c 0b 24 94 bc 4f ef b0 3c
       -0.011211707 0.02222227 -0.018083593 0.021598486
000170 2a 85 53 3d df 83 81 3d 17 0c ce 3c 52 a5 08 3d
       0.051640667 0.063239805 0.02515225 0.033360787
000180 8b 6f 41 3d bc ee 88 3c f1 69 21 3d b8 54 63 bd
       0.047225516 0.0167154 0.039407674 -0.055500716
000190 6b 63 65 3d 42 e3 d4 3c 08 83 36 bd 70 62 2d 3d
       0.056003015 0.025987271 -0.044558555 0.042330205
0001a0 b7 0c 37 3d 01 7b 89 3d a8 74 88 3d a6 8f 85 3d
       0.04468986 0.06712914 0.066628754 0.065215394
0001b0 97 ef 59 bd e0 f5 85 3c b8 47 6e bd f1 46 22 3d
       -0.053207006 0.016352594 -0.058173865 0.039618436
0001c0 51 98 d3 3c 4d b1 8a 3d 69 ea e2 3c 51 27 82 bd
       0.025829466 0.06772099 0.027699666 -0.06355155
0001d0 1e c6 ab 3c 2c 58 06 bc 10 e4 69 3d e8 d5 84 bb
       0.020968493 -0.008199733 0.057102263 -0.00405382
0001e0 64 5e 81 3d 1a d2 db bc a0 9a 43 bd 6a 36 f4 3c
       0.06316832 -0.026833583 -0.047754884 0.029811103
0001f0 ca 1f eb 3c ef 93 69 bd 64 b7 85 3d 98 7c 6e 3d
       0.028701682 -0.057025846 0.065291196 0.05822429
000200 0d c9 54 3d 22 0d 89 3c 10 8f 6d bd e2 eb 26 bd
       0.05194955 0.016729895 -0.057997763 -0.0407523
000210 2b d3 5c 3b c2 bb a8 3c 49 d9 5e 3d 94 3e b5 3b
       0.0033695202 0.020597342 0.054406438 0.0055311415
000220 10 6b 4a bd a8 c1 81 bb 1e 1a 55 3c 1f cd 65 bd
       -0.04941851 -0.003959853 0.013006715 -0.05610382
000230 30 65 a6 3c 54 c0 2f bd 3d c4 ee bc 66 3d 58 bd
       0.020311922 -0.042908028 -0.029146308 -0.05279293
000240 3c 12 5f 3d 50 50 2f bc 33 4a 52 bd 94 25 84 bc
       0.05446075 -0.0107003 -0.051340293 -0.0161312
000250 e2 89 29 3c 17 d7 c3 bc c5 6c f2 3c 8d 38 e3 3c
       0.010347815 -0.023906274 0.029592881 0.027736926
000260 2b 36 2d 3d 0e 50 53 bd ad 6a fe bc 6b e3 50 bd
       0.042287987 -0.051590018 -0.031056726 -0.050998133
000270 0c 4c e6 bc 32 3a 1a 3d 70 b9 90 bc 3b 52 ef ba
       -0.028112434 0.037653156 -0.017666548 -0.001825876
000280 af f8 ac bc 5b 0f 4d bd 97 e7 8e 3d b0 ed 65 bc
       -0.021114675 -0.050063472 0.06977766 -0.01403372
000290 f6 87 d9 bc c3 c4 2b bd 90 ef 71 bc 1e e6 95 bc
       -0.026554089 -0.041935693 -0.014766589 -0.018298205
0002a0 b3 06 42 3d 86 cd e0 ba 55 0c 98 bb 6f 83 81 bd
       0.04736967 -0.0017151095 -0.004640142 -0.06323897
0002b0 d5 1c 93 3d 37 9e 47 bb 25 d2 f8 3c 30 66 0c 3d
       0.07183234 -0.0030459294 0.030373642 0.03427714
0002c0 cb 98 7e 3c fb 14 48 3d 74 d3 03 bd 99 6a 89 3d
       0.015539358 0.048848134 -0.03218408 0.06709785
0002d0 fc a8 26 bd f3 b0 4f bd 03 45 5e bd 00 15 d6 ba
       -0.0406885 -0.05070586 -0.054265033 -0.0016333163
0002e0 91 50 2d bd 7c fe fe bc 6f 43 0a bc a2 5c bf bc
       -0.042313162 -0.031127207 -0.008438929 -0.0233596
0002f0 d4 5f 1f bd 4a 6a 18 3d 99 05 86 bc 0f c0 ff 3c
       -0.03890975 0.03721074 -0.016360091 0.03121951
000300 6d 7c 7f 3d 40 a3 4f bd 6d 8e 1e 3d 43 2e 5f ba
       0.06237452 -0.050692797 0.038710047 -0.00085136684
000310 4e 46 07 3d 93 0a d4 bc 69 81 55 bc 56 9e fc 3b
       0.033026032 -0.025883948 -0.013031342 0.007709305
000320 46 3f 60 bd 7e 7f d9 bb 5d 55 8f 3d 40 7f 95 3c
       -0.054747842 -0.0066375127 0.06998704 0.018249154
000330 0f ea 15 bd f6 af 1a bc b8 ad 29 bb ae 4b ce 3c
       -0.03660017 -0.009441366 -0.0025890898 0.025182571
000340 b0 c3 6f bd 0f a7 67 3d bf 8e 5d bc 6d 89 82 bd
       -0.05853623 0.056555804 -0.013522803 -0.06373868
000350 31 41 22 bc ce 6e 94 3c 49 0f 27 bc 42 a7 8f 3d
       -0.009903238 0.018119242 -0.010196515 0.07014324
000360 b8 47 62 3d 69 18 1f 3c b4 19 b9 3c bf bf 49 3d
       0.055244178 0.00971041 0.022595264 0.04925513
000370 62 2a 51 bd d6 80 74 3d ef fd 85 bd 3d c8 90 3c
       -0.05106581 0.05969318 -0.065425746 0.017673606
000380 94 01 5a 3d f8 45 0c 3d cd 58 03 bd 2f ad 5d 3c
       0.05322416 0.034246415 -0.03206711 0.01353006
000390 9d d3 34 3d 4f 05 d8 bc c0 9a 86 bd 52 0f 5b 3d
       0.044147123 -0.026369719 -0.06572485 0.053481407
0003a0 3f 24 11 3d c9 a2 66 3c 53 8b 3a bd 7a 53 97 3a
       0.035434958 0.014076897 -0.045543026 0.0011545264
0003b0 10 07 9d 3b af 15 96 bb 19 3c 19 bd 17 2c 99 ba
       0.0047921017 -0.0045802216 -0.03741083 -0.0011686113
0003c0 54 4f 82 bd 0b f5 fb bc 4c 89 07 bd 0b 7f f9 bc
       -0.06362787 -0.030756494 -0.03308992 -0.030456087
0003d0 cf 82 2c bd 38 47 3c bd 50 e8 6b bc 02 52 cd 3c
       -0.042116936 -0.045966357 -0.014398649 0.025063518
0003e0 13 9c 8b 3d f4 6b 54 bd 7f 2e 35 bd 08 f5 13 bd
       0.06816878 -0.051860765 -0.044233795 -0.036122352
0003f0 23 68 00 3d 11 4e 58 3d 9a 7a e1 3b 83 c1 19 3d
       0.031349313 0.052808825 0.0068810703 0.037538063

conv2.bias f4 [16]
000000 ab d5 13 bd 9f 17 07 bd e4 ad 0e bd 22 3b 88 3d
       -0.03609244 -0.03298151 -0.034833804 0.06651904
000010 4e eb 63 3d 86 87 eb 3c 61 88 7b 3d eb b4 14 bb
       0.055644326 0.028751146 0.061409358 -0.0022690843
000020 ca 9d c5 3c 51 7b 10 3d 94 f3 83 bd 70 0f 7a 3c
       0.024123091 0.035273854 -0.06442943 0.01526247
000030 5f 63 22 bd 83 b2 8a 3d 9f d1 27 3c 1b 81 24 bd
       -0.03964555 0.0677233 0.010242849 -0.040162187

conv3.weight f4 [32, 16, 3, 3, 3]
000000 91 01 33 bb 79 22 3a 3d 89 6f b4 3c 26 54 c4 3c
       -0.0027314166 0.045443032 0.02202584 0.023965906
000010 14 b0 37 bc d3 9a 0b bd 54 44 8e 3c 5e 5d 1f bd
       -0.011211414 -0.0340832 0.017366566 -0.0389074
000020 73 d2 20 3d 56 23 3f bd f9 4f 1d bc 8f db 64 3c
       0.0392632 -0.04666456 -0.0096015865 0.0139683625
000030 e0 9b 43 3d de c1 30 bd 7e 73 70 3b 0d ea 8d bc
       0.047756076 -0.043153636 0.0036689932 -0.017323518
000040 2c e6 c7 bb 69 75 af ba ce 2c 32 bd fc df 8c bc
       -0.0061004367 -0.0013386431 -0.04349976 -0.017196648
000050 56 79 c3 bc 96 66 a9 3c dc 6f 05 bd 25 3a 0c 3c
       -0.023861568 0.0206788 -0.03257738 0.008558785
000060 de 25 b3 bb f0 5b 29 3d 2f dc 16 bc 8f 5a 2d 3d
       -0.0054671606 0.041347444 -0.009207769 0.04232269
000070 ca 1a ad 3b f0 d0 9e bc 17 eb 30 3d c6 fe b5 bc
       0.0052827345 -0.019386739 0.04319295 -0.022216212
000080 ae 24 f0 3a 04 73 1c 3a 25 9a d6 bc c9 4f 32 3d
       0.0018321478 0.00059680664 -0.026196549 0.04353312
000090 f5 ec 5d bc 13 6f 96 bc d7 aa 7a bc 11 f2 0a 3d
       -0.0135452645 -0.018363511 -0.01529952 0.03392226
0000a0 1e 3a 1b 3d 30 ee 0f 3d 23 6e ad bc a2 6d 7c 3c
       0.03789722 0.035139263 -0.021170681 0.015406998
0000b0 1e c5 c6 bc d3 6e f5 3c b7 3e d8 bc 90 5e 96 3c
       -0.024263915 0.029960072 -0.026397092 0.018355638
0000c0 48 29 2e bc dc 74 1f 3d 81 0d a8 3c 24 40 5c 3b
       -0.010629959 0.038929805 0.020514252 0.0033607567
0000d0 e7 21 4e 3c 8e bb 2d bd d7 7f c4 bc 25 ba 9e 3c
       0.012581325 -0.042415194 -0.02398674 0.01937587
0000e0 40 56 2e 3d 90 d8 3c 3d 5a b5 96 3b 44 06 13 3d
       0.042562723 0.046104968 0.0045992555 0.035894647
0000f0 1c 7b b3 3c ff d4 1b 3d 44 29 50 3d f4 66 2d bd
       0.021909289 0.038044926 0.050820604 -0.042334512
000100 47 56 9b 3c 57 81 1f 3c 41 c9 1a 3d 27 34 69 3c
       0.018962039 0.009735427 0.037789587 0.0142336255
000110 87 55 f7 bc 34 12 26 3d 20 da cf bc e8 79 06 bd
       -0.03019215 0.040544704 -0.025372565 -0.032831103
000120 61 33 b5 3c 37 90 27 bd 90 65 10 bd 59 a3 02 bd
       0.022119226 -0.04090902 -0.035253108 -0.03189406
000130 85 a4 b1 bb d1 aa 1d bd e1 36 04 3d f1 65 c6 bb
       -0.0054212236 -0.03849298 0.0322789 -0.006054633
000140 d7 7a e8 3c 5a b1 2b 3d e2 81 d8 3c 1a 1e e3 3c
       0.028378887 0.041917183 0.02642912 0.027724314
000150 c8 a4 e0 bc de ef ff 3c b2 fe 41 bd b3 57 21 3d
       -0.027422324 0.031242307 -0.047362037 0.039390277
000160 2c 5a 22 bc 0b 45 30 3d dc dd 6a 3b f1 e5 e2 3c
       -0.009909194 0.043034595 0.0035837805 0.027697535
000170 75 60 54 bc 4f 01 d4 3c 38 82 4a 3c 57 c7 65 bc
       -0.01296245 0.02587953 0.012360148 -0.014024577
000180 ae 76 d2 bc 9f 51 21 3d 92 bb c2 3c 4d 96 b6 bc
       -0.025691357 0.03938448 0.023771081 -0.022288466
000190 a2 3a 34 bc b8 21 c9 bc a6 44 fe bb ab b7 4f 3b
       -0.011000307 -0.024552211 -0.0077596484 0.0031695168
0001a0 57 58 17 3d c6 92 93 bc 22 11 2e 3d 5c c1 15 bd
       0.03694948 -0.018014323 0.042496808 -0.036561355
0001b0 30 59 0f 3d 6f 9d 9a 3c 34 d1 8e 3c ea 04 99 bb
       0.034997165 0.018873898 0.01743374 -0.0046697753
0001c0 b5 cc bb bc 75 08 11 3c de 38 07 3d 1a 05 e5 3c
       -0.02292476 0.008852114 0.033013217 0.027956534
0001d0 a2 18 d4 bc cc d2 8c bc 50 50 8e bc e1 bc 1c bd
       -0.025890652 -0.01719036 -0.01737228 -0.038266066
0001e0 4a 61 e6 3c d2 c8 19 3d cf 9a 15 bd 58 a6 74 bc
       0.028122563 0.037545033 -0.03652459 -0.014932238
0001f0 88 8f 0e 3d 2e 28 3b bd 52 02 c6 3c f8 41 de bc
       0.03480485 -0.045692615 0.024171028 -0.027131066
000200 ec 2d 1f 39 8e b9 04 bc cc 46 3e 3d 95 b8 ce bc
       0.00015180529 -0.00810088 0.046454236 -0.0252345
000210 ef 92 ad 3c 14 df f6 bc 0a e0 39 3d 68 ba a4 bc
       0.021188227 -0.030135669 0.045379676 -0.020108417
000220 32 1d a2 bc 75 1c de 3b 24 9d b6 3c e7 89 bf bc
       -0.019789312 0.0067782947 0.022291727 -0.023381187
000230 6f 0f a7 ba 61 3c f3 3c ac a0 1c 3d c0 69 31 bd
       -0.0012745688 0.029691877 0.038239166 -0.04331374
000240 37 33 b5 bc 74 4d 61 3c b5 1e 48 3c 0d fb ca 3c
       -0.022119148 0.013751376 0.012214352 0.024777913
000250 65 0c 4d 3c 00 c1 bd 3a 05 00 6a 3c 6e 48 e4 bc
       0.012515162 0.0014477074 0.014282231 -0.027866568
000260 4f 97 e3 bc 5c de 3e bd c5 2d 1a 3d f8 49 ad 3b
       -0.02778211 -0.046598777 0.037641305 0.005288359
000270 da a8 f2 bb 1b f3 05 bd 15 c1 23 bd 6f d9 e6 3c
       -0.0074053826 -0.032702547 -0.03997906 0.028179852
000280 6b 86 56 bc 6e 03 32 bd ad 01 fd bb cb 1b ea 3c
       -0.013093571 -0.043460302 -0.007721147 0.028577706
000290 52 cb f1 3c 0b 85 f7 ba 84 31 ab 3c 9f 6a 0d 3d
       0.029515896 -0.0018884254 0.020897634 0.03452551
0002a0 f7 9f 30 3d 12 1f e1 3c 64 5f 6b bc 00 d5 8e 3c
       0.043121304 0.027480636 -0.014366005 0.01743555
0002b0 69 e1 0f 3d 99 fe 26 3d 1a 91 56 bb b1 84 93 3c
       0.035127077 0.040770147 -0.0032740296 0.018007608
0002c0 51 c0 62 3b 67 61 cb 3c 60 13 15 3c d7 d1 1c bd
       0.0034599493 0.024826718 0.009098858 -0.038286056
0002d0 0a bc 30 bd e4 51 9d 3b 3b 18 9f 3a ff 79 76 bc
       -0.043148078 0.004801022 0.0012137959 -0.015043735
0002e0 d1 d4 de 3b 3f 96 0f 3d c5 e6 31 bd b3 5e e8 3c
       0.006800272 0.035055395 -0.04343297 0.028365469
0002f0 c8 56 25 3d 81 29 32 bd 56 17 2c bd 38 b0 21 3d
       0.040365964 -0.043496612 -0.042014442 0.039474696
000300 73 9a 18 bd f6 ab 81 3c a5 af 5d 3b 89 54 cd 3c
       -0.03725667 0.015829068 0.0033826616 0.025064724
000310 98 8a ec bc a8 11 66 bc 4a 2a 10 3c d2 b9 1b 3d
       -0.02887468 -0.0140422955 0.008799145 0.03801901
000320 76 7b 4c bd 78 be b0 3c 0e ce 1e bd 98 d7 d3 3b
       -0.04992243 0.021575198 -0.038770728 0.0064649098
000330 08 e0 4c bc a7 17 76 bc 0c 1f 30 3d 45 2b 84 3b
       -0.012504585 -0.015020288 0.04299836 0.0040334784
000340 2a 09 3c bd cd 03 b7 38 08 ed c6 bc ce 3d b3 3c
       -0.045907177 8.726828e-05 -0.024282947 0.021880057
000350 8c c0 94 bc 81 fe 63 bc ac 98 ab 3c 11 ba ee 39
       -0.01815822 -0.013915659 0.020946823 0.00045533528
000360 31 17 10 3d a8 b5 c8 3c 0f c2 45 3c 00 68 11 bc
       0.035178367 0.024500683 0.012070193 -0.008874893
000370 62 6f 54 3d 51 ba cc bb 53 61 19 bd 31 88 10 3d
       0.051864035 -0.0062477966 -0.03744633 0.035286132
000380 fb e9 42 3b 58 10 80 3c 73 cc 23 3d 55 fc 57 3b
       0.0029741514 0.015632793 0.0399899 0.0032956798
000390 a6 a8 46 bc 62 31 0f 3d 16 10 ee bc a3 08 41 bc
       -0.01212517 0.034959204 -0.029060405 -0.011781844
0003a0 53 55 31 bc 38 54 0b 3d 3b af 07 bd 2c 96 c0 bc
       -0.010823566 0.034015864 -0.033126097 -0.023509108
0003b0 f8 71 2e bd c1 06 b0 bc 45 de 2f 3d 91 52 7a bc
       -0.042589158 -0.021487596 0.042936582 -0.015278474
0003c0 46 d7 1c 3d bb 9a d8 bc 5e 7f 3a bc 74 30 04 3d
       0.03829124 -0.026440969 -0.011382906 0.03227277
0003d0 bb 47 cb bb 86 74 19 bc e4 ec f9 3c 59 88 33 3b
       -0.0062036193 -0.00936616 0.030508466 0.0027394502
0003e0 17 d3 b8 bc 5e 06 1f bd 31 5b 24 3d b3 50 04 bc
       -0.022561593 -0.03882443 0.04012603 -0.008075881
0003f0 7a b3 f9 3c aa 0c 9e bb 75 09 26 bd 6c d7 51 3c
       0.030481089 -0.004823287 -0.040536363 0.012807708

conv3.bias f4 [32]
000000 44 6c 4c 3c e3 9a 7a 3b 4f f6 a9 3c 78 2f a0 3c
       0.012476984 0.0038239292 0.020747332 0.019553885
000010 ce ad bb 3b fb 9f 0b bd e2 6e 36 bd ea a1 92 3c
       0.0057275062 -0.034088116 -0.04453934 0.017899472
000020 06 9a 9d 3c c6 4d 99 3c 15 56 b0 3c 7d bf a2 3b
       0.019238483 0.018713843 0.021525422 0.004966675
000030 b9 a2 27 3d 67 ad 76 3c 34 a7 25 3a 09 3b 52 3d
       0.04092667 0.015055991 0.00063191657 0.05132583
000040 42 d4 3d bd e0 e9 d2 bc 69 c5 02 bd 98 e3 a6 bc
       -0.046345003 -0.025746286 -0.031926546 -0.020372197
000050 68 da bb bc 00 b8 5e bc 52 d1 4e bc bb da 12 bd
       -0.022931293 -0.013593674 -0.012623148 -0.03585313
000060 1c 15 a9 3c f4 3d d5 bb c3 e3 0b bd 03 6e a0 3b
       0.020639949 -0.0065076295 -0.034152757 0.004895927
000070 9e 51 49 3c 30 3e 20 bd 5c fa 75 bc 17 b4 fb bc
       0.012287525 -0.039121807 -0.015013304 -0.030725522

fc1.weight f4 [128, 864]
000000 5d 22 be bc fd 05 11 3d a6 29 17 bc 02 30 2f 3c
       -0.023209745 0.0354061 -0.009226238 0.010692598
000010 e6 e5 aa 39 1e db 35 bc f8 75 8b 3c 43 f2 c7 bc
       0.00032596214 -0.011099605 0.017024025 -0.024407512
000020 93 78 f9 3c 4e 4a 9e bb 0b e3 8e bb 03 bb ec 3b
       0.030453002 -0.004830635 -0.0043605617 0.007224442
000030 cc fc 42 3c 57 8f ab 3b 46 4b 94 3c dd 6c 4a bb
       0.011901092 0.0052355933 0.0181023 -0.0030887641
000040 d4 b5 16 bc 3e 28 90 bb ad 2b 03 3d ff dd a0 bc
       -0.009198625 -0.0043993285 0.032024074 -0.019637106
000050 25 38 e6 bc 49 59 ad 3a fe a8 18 3d ff 96 80 3c
       -0.028102944 0.0013225462 0.03727054 0.015697
000060 79 6c 40 bc 59 38 6c bc 2b a9 e8 bc fd 25 bd bc
       -0.011744612 -0.014417731 -0.028400978 -0.023089403
000070 7b 70 e5 bb 6d 85 21 bc a7 77 ac 3c 25 21 0a 3d
       -0.007001934 -0.009858471 0.021053148 0.033723015
000080 13 83 e0 bc d7 7e 02 bc 4e ba 8a 3c 37 93 b4 bb
       -0.027406251 -0.007964811 0.01693454 -0.0055107134
000090 69 ab bf bb e6 a6 78 3c 86 09 66 3c c0 ed 3e 3c
       -0.005849291 0.01517651 0.0140403565 0.011653364
0000a0 0e 14 21 bc 97 68 ee ba 23 37 a3 3c 62 85 ea 3b
       -0.009831442 -0.0018189129 0.019923752 0.0071570138
0000b0 e7 01 16 bc 58 28 17 3d e3 ec c9 bc d2 53 d8 3c
       -0.009155727 0.03690371 -0.02464909 0.026407156
0000c0 e3 d2 b4 3c 45 52 ce bc 45 a5 92 3c c5 63 3d 3c
       0.022073215 -0.025185714 0.017901072 0.011559431
0000d0 81 79 a9 3b a9 b9 51 3b 43 cb a4 bc 7e be e6 bb
       0.005171955 0.0032001531 -0.020116454 -0.0070417514
0000e0 1b 02 b8 3c 2c 20 76 bc e9 eb c0 3c 0e f6 b9 3c
       0.022461941 -0.015022319 0.02354999 0.022700336
0000f0 f9 4c 08 3d 85 85 d5 3b da 7e e0 bc 14 49 4d bc
       0.03327653 0.006516161 -0.027404238 -0.01252963
000100 89 f3 dd bc a2 a6 11 3d 60 14 93 3c 26 47 2c bc
       -0.027093666 0.035559304 0.017954051 -0.01051501
000110 95 e0 68 3b 8f 61 c0 bc ae 90 a3 3c 3c 22 c5 3c
       0.0035534252 -0.02348402 0.01996645 0.024064176
000120 3a e2 ca 3c 3e 73 13 bb b2 72 80 3c 8f 89 5c 3c
       0.024766076 -0.002249911 0.015679691 0.013460531
000130 c9 ec e3 3c 04 0c b4 3c c1 16 5d 3a 5b cc 78 3c
       0.027822869 0.021978386 0.00084338716 0.015185441
000140 9b db 48 bc d9 45 85 3c ef 8b 76 bc 78 72 9d bc
       -0.012259389 0.016268658 -0.015048011 -0.019219622
000150 8e 21 65 bc 50 69 50 3c 61 2d a8 bc 2f e9 5b 3c
       -0.013985051 0.012720421 -0.02052945 0.0134222945
000160 0b d5 1b bc c5 70 c9 3c 56 f9 3d bb 6f b9 b7 3c
       -0.009511243 0.024589906 -0.0028987727 0.022427289
000170 c5 79 aa bb 05 97 de bc 9c 6c a9 3c e7 4f 9b 3c
       -0.0052025043 -0.027171621 0.020681672 0.018958999
000180 f1 08 cc 3c 70 a3 fd bb 1c 36 e7 3b ff de 23 bc
       0.024906607 -0.0077404305 0.007056011 -0.010001897
000190 8e 06 ce 3b eb cb 1d bc 27 48 01 3d 8c 53 8a bc
       0.0062874025 -0.009631137 0.03156295 -0.016885541
0001a0 5d 90 a0 3a 10 c4 77 3c 22 3e 94 bb cc 57 04 3d
       0.0012250055 0.015122429 -0.0045240084 0.032310292
0001b0 be 2f e1 3c fc 5f 13 3d a7 35 92 bc b1 e9 b7 bc
       0.027488586 0.03598021 -0.017847849 -0.0224503
0001c0 11 9a 9c bc c3 9c ae bc 22 fc 1b bc c0 e0 47 3b
       -0.019116433 -0.021314984 -0.009520562 0.0030498952
0001d0 db 2e a3 bc e5 e0 42 3c 7d da ca 3a 69 77 f3 3c
       -0.019919803 0.011894439 0.0015476492 0.029720025
0001e0 3a 7c a3 bc 7c bd a7 3b 0f 41 87 bb 07 bd 13 3d
       -0.019956697 0.005119024 -0.0041276286 0.036068942
0001f0 cd f0 cb bc dd 1d 9a 3c 56 a8 28 3c 3e 3d 63 bc
       -0.024895096 0.018813068 0.010294041 -0.013869582
000200 ae 5e 88 b9 03 5f f6 bc a7 cc f9 3b 90 48 65 3c
       -0.00026010483 -0.030074602 0.0076232734 0.013994351
000210 3d 63 9d 3c bc 29 6f 3c 00 8f a9 bb ba 2c 66 3c
       0.01921236 0.014597353 -0.0051745176 0.01404875
000220 75 b3 f4 3b b5 65 0f 3d 27 30 9b 3c 00 36 75 3c
       0.007467682 0.035009105 0.01894386 0.014966488
000230 2e d1 98 3c ee 40 c8 3c 9a 8e 8a 3c e9 5b c8 bb
       0.018654432 0.024445023 0.0169137 -0.006114472
000240 0b 4f 95 3c 81 8e 02 3d d6 c2 a8 3c 85 7e 20 bb
       0.018226167 0.031874184 0.020600718 -0.0024489474
000250 19 a3 72 bc 3a b3 ba 3c 9e 09 10 3d 0a b4 00 3d
       -0.014809393 0.02279054 0.03516542 0.0314217
000260 37 30 fe 3c 2e 1f b7 3c 9d ff b3 3c 25 0a d4 bc
       0.03102885 0.022353735 0.021972472 -0.025883744
000270 41 b9 b4 bc a2 10 22 3c fa f6 00 3d e7 13 42 3c
       -0.022060992 0.009891661 0.031485535 0.011845565
000280 43 da b7 bc 41 88 9c 3b 57 13 bb 3c b5 35 e2 bc
       -0.022442942 0.004776985 0.02283637 -0.0276135
000290 44 34 c2 3c d4 78 0b 3d e3 e0 2c bc 9a b7 b1 3c
       0.023706563 0.034050778 -0.010551664 0.021693993
0002a0 19 4e ec 3b d0 f6 56 3b d6 50 c5 bc 90 da 59 3c
       0.0072114584 0.003280092 -0.024086397 0.013296738
0002b0 b5 87 c8 3b 58 eb e8 bc 80 75 ad bc e0 f1 03 bd
       0.006119693 -0.028432533 -0.021174192 -0.03221309
0002c0 a2 fe 00 3d 8b dd bc bc 2a 6f f1 3c 21 9f 93 bc
       0.031492837 -0.023054859 0.029471952 -0.018020215
0002d0 c2 ff 9d bb 0b b3 3f bc bc 0d 4a 3b 4d b5 23 bc
       -0.0048217485 -0.011700402 0.003083094 -0.009991956
0002e0 81 28 47 bc f2 5c f5 bc 7a c8 80 bc 8b 13 91 3c
       -0.012155653 -0.029951546 -0.015720595 0.017709514
0002f0 d7 42 09 bd 20 72 c7 3c 65 47 2b 3b aa 5a c5 bc
       -0.03351101 0.024346411 0.0026135084 -0.024091084
000300 8c 24 a2 3c 2b c4 ca bb c4 32 d7 bc 00 ab bc bc
       0.019792818 -0.006187936 -0.026269324 -0.023030758
000310 54 0f be 3c 9d 2a f0 bc 9b 2e c3 3c c2 db 9f 3b
       0.023200668 -0.029317195 0.023825934 0.004878492
000320 30 e3 a9 bc 6a 14 e8 bc 2b 42 0a 3d 80 ed e4 bc
       -0.020738214 -0.028330047 0.03375451 -0.02794528
000330 6a e4 b5 ba 4d f8 12 3d aa 7a 28 bc f0 6a 99 3c
       -0.0013877277 0.03588133 -0.010283152 0.01872775
000340 1a de c7 3c 6c e8 48 3c ed 44 49 bc ff ff d5 ba
       0.024397898 0.012262445 -0.0122845 -0.0016326903
000350 ba 62 9e bc 55 b6 95 3c 08 7e ff 3c de 82 02 3d
       -0.019334186 0.01827542 0.031188026 0.031863086
000360 fa cf c8 3c ff a7 85 3a 9d 20 e2 3b f0 99 92 3c
       0.024513233 0.0010197161 0.0069008605 0.017895669
000370 fb 20 53 bb 7e f6 38 3c ec 73 2d bc 16 7d 03 3c
       -0.0032215703 0.011289237 -0.01058672 0.008025428
000380 41 d8 34 bc aa 33 f5 3c a4 71 6e 3c b5 5a f1 3b
       -0.011037887 0.029931862 0.014553461 0.0073655494
000390 d4 3c f9 3c 1f 17 b0 bc db 09 dd 3b 69 36 04 3d
       0.030424513 -0.0214954 0.0067455596 0.032278452
0003a0 2e c9 1d bc 48 37 08 3d bc b4 96 3c 56 0f 71 b9
       -0.0096304845 0.033255845 0.018396728 -0.00022989264
0003b0 79 0e aa bc b6 5f 8c 3c b2 08 b7 bc d9 ab 3c bc
       -0.020758854 0.017135482 -0.022343013 -0.011515581
0003c0 31 d6 2c 3c d4 28 f3 3c 5e 99 15 3d 7b b5 29 3c
       0.010549114 0.029682554 0.036523215 0.01035821
0003d0 9b 42 e3 3b 05 30 a3 3c 71 cd a8 bc 4b c7 ba 3c
       0.00693543 0.019920358 -0.020605775 0.022800108
0003e0 22 28 70 3c 4c 62 96 3c 4d 1f 17 3d 53 cd 65 bc
       0.014658006 0.018357418 0.036895085 -0.014026004
0003f0 9b 29 0d 3c af 53 d3 3c f2 e2 dd 3c c1 96 ad 3b
       0.008615877 0.02579674 0.027085755 0.0052975123

fc1.bias f4 [128]
000000 c2 8c eb bc fe 7e 7b bc 41 e1 f0 bc 91 ce 73 3c
       -0.028753642 -0.0153501015 -0.029404284 0.014880792
000010 e4 c2 a9 bc ee 98 ef bc b5 62 8f 3c 50 86 1b bc
       -0.020722814 -0.029247727 0.017503122 -0.009492472
000020 db 2a a8 bb 50 35 00 3d 52 78 dd 3c b5 55 ae 3c
       -0.005132062 0.031300843 0.027034912 0.021281103
000030 c6 5c 71 bc 02 a7 ec 3c b9 f3 95 bc 92 73 ec bc
       -0.014731592 0.02888823 -0.018304693 -0.028863702
000040 2c 70 0f 3c de 9f 1f bc fd 62 fb bc e0 3f e8 3c
       0.008754771 -0.009742705 -0.03068685 0.02835077
000050 cf 57 dc 3c e4 2a 64 bc 7f a0 12 bc c6 ac c9 bc
       0.02689734 -0.013926242 -0.008949398 -0.024618518
000060 55 a4 97 bc df b1 e1 bc a6 d6 92 3c 2d e9 03 bd
       -0.018510977 -0.027550636 0.017924618 -0.032204796
000070 40 a5 20 bc 78 a6 1a bc b9 46 16 bc 68 31 b3 bc
       -0.009805024 -0.009439103 -0.009172135 -0.021874145
000080 69 85 00 bd b5 5a fd 3c 50 d4 a1 bc 69 97 92 3a
       -0.03137723 0.030927042 -0.019754559 0.001118404
000090 41 0d 02 3d 40 da 7a 3b 89 77 06 bd af 62 91 bc
       0.03175092 0.003827706 -0.03282884 -0.017747251
0000a0 7e 3e 62 3b a5 e3 c7 bc 41 54 fc 3c b6 8b c6 bc
       0.0034522112 -0.024400542 0.030801894 -0.024236541
0000b0 ea 49 da 3c 78 e0 4a bc 13 e9 a8 3c 4b 34 5c 3c
       0.026646573 -0.012382619 0.020618951 0.013440202
0000c0 60 49 0c 3c 28 7f 1c bc 31 2d bc bc 79 0d 8e 3c
       0.008562416 -0.009551801 -0.022970768 0.017340409
0000d0 5f bf 12 3d ea 83 f1 bc c6 8a c1 3c 71 be 02 bd
       0.035827037 -0.029481847 0.023625743 -0.0319199
0000e0 08 42 90 3c 8e be f9 bc 6f 1a be bc 4d d7 92 3c
       0.017609611 -0.030486371 -0.023205964 0.017924929
0000f0 2a 41 35 3b a2 79 da ba b2 a6 26 3c ff 9c bd bc
       0.002765725 -0.001666833 0.010171579 -0.02314615
000100 59 60 e7 3c 40 34 ea ba f0 80 59 3b 83 bc b3 bc
       0.028244184 -0.0017868355 0.0033188425 -0.021940475
000110 a9 a7 0e 3c 00 9c b0 39 06 39 5d bc 56 d7 f7 3c
       0.0087069655 0.00033685565 -0.013502365 0.030254047
000120 a9 8d ed bc 60 3f 9d ba ee e9 e9 bb 2f 5c 85 3c
       -0.028998213 -0.0011997037 -0.0071384823 0.016279308
000130 8a af 9e bc c0 39 be bc 50 35 3c bb 0a dd 00 bd
       -0.019370813 -0.023220897 -0.00287183 -0.0314608
000140 07 bc 65 bc 9c a6 97 bc ba 8d 19 3d 3d 02 14 3d
       -0.01402188 -0.018512063 0.037488677 0.036134947
000150 40 c2 c3 ba c1 21 c5 3c c6 77 bd bc 4f f5 c6 bc
       -0.001493521 0.024063947 -0.023128401 -0.024286894
000160 33 14 81 3b 2c a9 34 bc 30 77 7f bc 4f bd f6 3c
       0.0039391755 -0.011026662 -0.015592381 0.030119566
000170 ba c4 e0 3c a8 4f 06 bc 21 a4 0d 3c 8c 10 74 3c
       0.027437557 -0.0081977025 0.008645088 0.014896523
000180 cf ad ab 3c a0 8f 4d 3c e1 d6 4a bc 1a 44 0d bc
       0.020956902 0.01254645 -0.012380333 -0.008622194
000190 8d 9d f1 3b 00 b0 54 39 f0 bd 94 ba c3 68 76 bc
       0.007373518 0.0002028346 -0.001134811 -0.015039626
0001a0 00 4c 39 bc 89 54 0a bd 5e a5 63 3a 25 f2 4d bc
       -0.011309624 -0.033772025 0.00086840044 -0.012569939
0001b0 0f 98 b2 3b 46 e8 63 3b fe 60 c0 bc 54 3c c0 bc
       0.0054502557 0.0034775897 -0.02348375 -0.023466267
0001c0 f8 3b ad 3b 96 f9 43 bc e3 11 20 3c ab 09 ac 3c
       0.00528669 -0.011961361 0.0097698895 0.021000704
0001d0 3a 68 a2 3c 58 7e fe 3a ed ed 30 3c 75 d2 1a 3d
       0.01982509 0.0019416315 0.010798913 0.037798364
0001e0 9a 46 a5 3c a0 27 ed 3b 1a 59 91 bb 05 4b 9d 3c
       0.020175267 0.0072373897 -0.0044356706 0.019200811
0001f0 86 ba 00 3d 9f e2 4b bc c3 9f 9c bc cf a2 d5 bc
       0.031427883 -0.012444167 -0.01911915 -0.02607861

fc2.weight f4 [2, 128]
000000 81 82 98 bd d0 1a ab bc 1c d7 28 bd ea 9d c5 3a
       -0.07446767 -0.020886809 -0.04122077 0.0015076969
000010 a5 66 e7 3c b0 76 a4 bd 18 06 9d bd 74 7f 04 bd
       0.028247187 -0.0803045 -0.07667178 -0.03234811
000020 b3 10 3f b8 21 ab 9f 3d f0 d0 e0 bb b8 df 50 ba
       -4.55535e-05 0.07796312 -0.006860845 -0.0007967907
000030 4c d6 a7 bd c4 2e fd 3c e3 79 8c 3d 9b 04 a0 3c
       -0.08195171 0.030906089 0.068591855 0.019533446
000040 c2 66 56 bd 62 bf 00 3d 76 9d 77 3d 1f 09 88 3d
       -0.05234409 0.031432517 0.0604529 0.06642365
000050 59 ec 77 bd 24 d8 2b bd 22 db 63 bd d0 bc f6 bc
       -0.060528133 -0.041954175 -0.055628903 -0.03011933
000060 f1 ca 7a 3d 71 7c ce bc 18 60 7b bc 76 ae 6c bd
       0.061228696 -0.025205823 -0.015342735 -0.057783566
000070 56 82 69 3d 3c 46 08 bd 47 2f 11 3d 40 81 ef 3b
       0.057009064 -0.033270106 0.035445478 0.007309109
000080 46 ff 76 3d 4f ee 0e 3d 43 de 16 bd 1a 4e 01 bd
       0.06030204 0.034895238 -0.03683306 -0.031568624
000090 36 fa 6b bb 98 78 d1 bc 40 4b ef 3b e7 45 13 3d
       -0.0036007292 -0.025570199 0.0073026717 0.035955336
0000a0 e4 53 49 bd 47 e6 12 3c 98 d5 4c bd d1 ba 92 bd
       -0.04915227 0.008966035 -0.050008386 -0.07164539
0000b0 6f d7 8d 3d 38 93 8b bd 01 06 4c bd 70 cd 25 3d
       0.06925856 -0.06815189 -0.049810413 0.040479124
0000c0 1b 8a 38 bd 9c bc fa 3c 48 ef 6a 3d d9 c4 4d bd
       -0.045053583 0.030607514 0.057357103 -0.050236557
0000d0 6e c3 5e 3d 84 96 07 3d 97 9d f7 3c a0 68 c2 bb
       0.054385595 0.033102527 0.030226512 -0.0059328824
0000e0 9c 52 94 3c eb b2 81 bc 04 3e 92 3d bd 0e a0 bd
       0.018105797 -0.015832385 0.07140735 -0.07815311
0000f0 92 c2 a3 bd 96 a2 d3 3b 57 33 07 bd 4f 3c 9c bd
       -0.07996096 0.0064585907 -0.033007946 -0.076286905
000100 c1 df 6d bd b8 86 34 bd 67 82 af bd 65 c2 ed bc
       -0.058074716 -0.04407379 -0.08569794 -0.029023359
000110 4e b7 7f bc 9d ef a3 3d c0 90 ac bb dc 7a 89 3d
       -0.015607668 0.08004687 -0.005266279 0.06712887
000120 5c e8 72 3d 1a 91 56 3d 40 68 93 3d 93 2f 9d 3d
       0.059303626 0.052384473 0.071976185 0.0767509
000130 ec cd 64 bd f8 d0 48 3d ed cf 94 bd 16 cf 9c bd
       -0.055860445 0.049027413 -0.07266221 -0.07656686
000140 b9 7d 84 3c b4 26 67 3c a1 30 80 3d 86 9a 45 3d
       0.01617323 0.014108349 0.06259275 0.04824307
000150 b5 df 88 3d 0d 24 5d 3d 81 18 2f 3d 24 07 bb 3d
       0.06683294 0.05398946 0.042747978 0.09132221
000160 48 eb 4c 3b de bd 56 3d 89 df b2 3d 1e 86 5f 3d
       0.0031268168 0.052427165 0.08734042 0.054571263
000170 8a a0 aa 3d dc 86 b5 bc 34 a5 87 3d 05 ae 8e 3d
       0.08331402 -0.022159033 0.06623307 0.06966785
000180 73 79 b4 3d a0 f8 70 3c 4a 25 4d bd 28 c8 5d 3c
       0.08812227 0.014707714 -0.05008439 0.0135364905
000190 cb 48 1a bd 22 a6 6b 3d 07 46 3f bd 2f 20 ac 3d
       -0.037667077 0.057531483 -0.046697643 0.08404576
0001a0 f5 3f 5b bd c2 6a 1e bd 49 12 15 3c 90 ba 01 bd
       -0.05352779 -0.03867603 0.009098598 -0.03167206
0001b0 e4 62 32 3c 2d 19 46 bd 60 82 4c 3b c6 9a 82 bd
       0.010887835 -0.048363853 0.003120564 -0.06377177
0001c0 b0 e7 c1 3b 19 5a 8c 3d b3 4d b9 bc 1e 60 98 bd
       0.005917512 0.06853122 -0.022620058 -0.07440208
0001d0 8a e2 b0 bd cc 27 89 3d 87 e2 d7 3c 30 38 e3 3c
       -0.08636959 0.06697044 0.026353134 0.027736753
0001e0 7d a8 08 3d 42 10 85 3d 2a d0 a8 bd ff f5 6b bd
       0.033363808 0.064972416 -0.08242829 -0.057607647
0001f0 17 2e 52 3c ab 08 33 3d 78 f1 21 bd 39 79 e0 3c
       0.0128283715 0.04370944 -0.039536923 0.027401553
000200 62 d6 b5 bd 40 9e 1d 3d 27 9c 3e 3d 0e 2a af bd
       -0.08878781 0.038480997 0.046535637 -0.08552943
000210 ee 79 8a 3d 77 83 5d bd 6f c4 5b 3d 7b 04 5e 3d
       0.067615375 -0.054080453 0.05365413 0.05420349
000220 e3 83 19 3d fd 2a 83 3d ca 8f 58 3d 69 ae 90 3c
       0.037479293 0.06404684 0.052871503 0.01766129
000230 94 f0 93 bc aa 39 20 3d 0c ea a8 bd f7 86 69 3d
       -0.018059053 0.039117493 -0.08247766 0.057013478
000240 6e d5 9c 3b 58 0c a8 3d e8 c0 c7 3c 5c 29 30 bd
       0.004786185 0.082054794 0.024383977 -0.043008193
000250 ca d2 94 bc d7 b3 32 bd 40 33 37 bd bb aa 9d 3d
       -0.018166918 -0.04362854 -0.04472661 0.0769858
000260 4e 22 a3 3d 98 b7 2b 3c ea 59 32 3d e5 d2 24 bc
       0.079655275 0.010480784 0.04354278 -0.010060047
000270 0c fe ca 3c 3f dd ba bc a8 2c 8e 3d c1 84 ad 3d
       0.024779342 -0.022810576 0.06942111 0.084725864
000280 62 76 6c bd 23 83 8b 3b ae 14 59 3d 2e 8b c6 bb
       -0.057730086 0.004257576 0.052998237 -0.006059072
000290 58 32 6f bd d5 d7 a5 3d f8 47 75 3c d3 c4 3c 3d
       -0.05839762 0.08097807 0.014970772 0.046086144
0002a0 a0 58 85 3d 58 22 5b bb a9 26 7d 3d 1a a0 dd bc
       0.065110445 -0.0033437219 0.061804447 -0.027053881
0002b0 dc 52 ad bd 9c e5 84 bd 45 4b 8c bd 2d a8 30 bd
       -0.0846307 -0.06489107 -0.06850294 -0.043129135
0002c0 dc 71 0b bd 38 73 9f bd 29 04 80 3d cf 0c b8 bd
       -0.03404413 -0.07785648 0.062507935 -0.08986818
0002d0 5e 28 91 bd f4 3c 82 bd fc b4 3c bc 22 1e 5f 3d
       -0.070877776 -0.06359282 -0.011517759 0.054472096
0002e0 6b 5a a9 bd ef a1 f8 3c 0c 94 8c 3d ea 8a 5e bd
       -0.08269199 0.030350653 0.06864175 -0.054331698
0002f0 a1 22 84 bd a5 1e 9b bd ec 0c 98 3d 34 ea 3b 3c
       -0.064519174 -0.07574204 0.0742434 0.011469413
000300 44 39 3d bc 66 56 8a bd d6 b1 b0 bd 6f 3d 9e 3d
       -0.011549298 -0.067547604 -0.086276695 0.07726561
000310 78 a8 09 bc 20 73 8c bb 3c ec 5a bd 28 04 bf bc
       -0.0084019825 -0.004286185 -0.053447947 -0.023317412
000320 d1 08 88 3d 09 57 b3 bd 3a 4e 9c 3d b6 df 0c 3d
       0.066423066 -0.08756835 0.07632108 0.034393035
000330 53 eb 47 3d 19 cb 93 bd df 92 03 bd c4 4b 0c 3d
       0.048808407 -0.07216472 -0.03212249 0.034251943
000340 cc 8c 5b 3c b1 7c 0e bd db e8 3e 3d cc fb 8b bd
       0.013400268 -0.034786884 0.046608787 -0.06835136
000350 82 6e 95 bd 71 e9 f1 bc 22 ea ad 3d 52 12 85 bd
       -0.07296468 -0.029530259 0.08491923 -0.06497635
000360 25 25 80 bc a4 8c 10 3d 1f 19 8b 3d e0 58 9f bd
       -0.015642712 0.035290375 0.06791901 -0.077806234
000370 76 d4 8f 3d e8 0c 0e bc e6 f5 56 bd 42 50 41 3d
       0.070229456 -0.008670069 -0.0524806 0.04719568
000380 96 ff 5c bd 12 94 16 bd 46 aa 4b 3d 38 34 83 bd
       -0.053954683 -0.036762305 0.049722932 -0.06406444
000390 80 64 8c 3b e6 54 2b 3d a1 21 2f bd c0 07 42 bc
       0.0042844415 0.041829012 -0.04275668 -0.011842668
0003a0 f6 0f 21 bd 03 41 50 3d 20 aa 17 bd d9 79 b6 bd
       -0.039321862 0.05084325 -0.03702748 -0.08909959
0003b0 87 61 3b bd e3 e8 b2 bd 32 11 59 3d 5f 15 59 3d
       -0.045747306 -0.08735826 0.052994914 0.052998897
0003c0 ed cb 65 bd b5 83 a6 3d 9f 47 33 3c 9e 3b 7b 3d
       -0.056102682 0.0813059 0.010942369 0.061336152
0003d0 40 8c 3f 3c 70 9a a4 3d e4 00 fb bc 72 7e a9 bd
       0.011691153 0.08037269 -0.030640073 -0.08276071
0003e0 05 43 9e bd da cc ac bd 8d b2 ae bd ad f7 55 bd
       -0.07727627 -0.0843751 -0.085301496 -0.052238155
0003f0 c8 33 b5 bd 51 74 3a 3d 2e d8 aa bd df e1 31 3d
       -0.08847767 0.045521084 -0.08342014 0.043428298

fc2.bias f4 [2]
000000 fc 86 86 bc b4 e0 cd 3c
       -0.016421787 0.02513156
